pv/checkpoints/LG도서관-checkpoint-2023-08-10 22_10.pt (torch, 304575 bytes, 38 tensors)

lstm.weight_ih_l0 f4 [128, 17]
000000 03 7c 02 3e e2 f2 16 3b 65 be 98 bd f2 ed a7 bd
       0.12742619 0.0023032953 -0.0745819 -0.08199681
000010 1c ed 09 3e 76 1a 20 3e cc 7e 62 bd 6e c5 85 bc
       0.13469356 0.15635094 -0.055296704 -0.016329493
000020 a4 9d 0a be 4c 7a f1 3d 90 be dd bd 63 4f 0f 3e
       -0.13536698 0.117909044 -0.108273625 0.13995127
000030 c0 0e 77 3d 3f f7 8d bc ff 3b 0f bd 7d d2 81 3d
       0.0603168 -0.01732981 -0.034969326 0.063389756
000040 61 d8 04 3e ee 81 50 3c 0a f2 01 be ba da 34 3e
       0.12973167 0.01272629 -0.12689987 0.17661563
000050 64 cb 09 3e 67 9f 14 bd ca 8f e3 3c b8 d7 05 be
       0.13456494 -0.03628483 0.027778525 -0.13070571
000060 b6 19 3b 3e 5e ab f5 bc c2 1d a8 3b 81 82 6c bd
       0.18271527 -0.02998894 0.0051305005 -0.057741646
000070 fa 90 f9 3d 90 b3 40 3e 11 76 22 bd 47 2b 09 be
       0.12185855 0.18818498 -0.03966338 -0.13395415
000080 9e 1b 89 3c b9 a0 14 3c 25 7d cb 3d 12 6e e0 3d
       0.016736802 0.009071522 0.09935979 0.10958494
000090 28 a6 24 3d e1 e0 11 3e 58 c8 1f 3e 64 6e 5a b9
       0.04019752 0.1424594 0.15603769 -0.00020831224
0000a0 1e 0b a5 bd 04 65 0e bd 9b 89 a4 3d ef ec ee 3d
       -0.08058761 -0.034764305 0.08034059 0.11666285
0000b0 04 78 45 3e 4b a3 ad 3c 3c a1 a2 3d 11 b3 f3 bd
       0.19284064 0.021196028 0.07940909 -0.118993886
0000c0 c0 ac cd bc 01 99 1b 3e 5c 76 a7 bd 09 ea 95 bb
       -0.025106788 0.15195085 -0.08176872 -0.0045750183
0000d0 5b 34 c9 3d 8d 58 18 3e bc 94 b2 bd fb 8c 00 3e
       0.09824439 0.1487753 -0.08719775 0.1255378
0000e0 ad 41 df 3d 6f 71 c7 bd 54 18 b9 bc 2e 33 f1 3d
       0.109011985 -0.097384326 -0.022594608 0.1177734
0000f0 a0 c0 19 3e bd 19 0e bd 74 7a ce bd bf 41 b0 3d
       0.15014887 -0.034692515 -0.1008195 0.0860629
000100 f9 a4 53 bd 8f 61 1f be 0d ab 12 be 44 3c 3a be
       -0.051671002 -0.1556456 -0.14323063 -0.18187052
000110 84 98 0c be bb 1c 46 3d 4a ff 62 bc e4 f1 9f bd
       -0.13730055 0.048367243 -0.013854811 -0.07809809
000120 c8 af 57 3d a5 1a 22 be 2f db c9 bd 1b d7 a6 3d
       0.052657872 -0.15830477 -0.09856259 0.08146497
000130 0b 1d fa bd a9 30 f4 b9 fd b3 00 3e 4b 85 ad bd
       -0.12212571 -0.0004657556 0.1256866 -0.08472689
000140 af 96 4a 3d cb a5 ec bd 70 41 1f bb 0e 5f 2c 3e
       0.04946011 -0.1155506 -0.0024300478 0.16833135
000150 e9 b3 10 be 7b ca 98 bd c5 34 39 bc 58 2f 23 be
       -0.1413113 -0.07460495 -0.011304085 -0.15936029
000160 7c 76 14 be d3 31 e1 bc 9c 27 1b 3e f7 44 19 be
       -0.14498323 -0.027489578 0.15151829 -0.14967714
000170 75 77 d4 bd 3e 88 b9 bc d5 2f 4e bd 48 49 f8 3d
       -0.10374347 -0.022647973 -0.050338585 0.12123352
000180 04 2f 4c bd 6b 93 3d be be a3 65 bd d2 bf 41 3e
       -0.049849525 -0.18513267 -0.05606436 0.1892083
000190 a5 9c 8a bd 98 ff bd 3d 17 ef 00 3e 8c ec 3c 3e
       -0.06768159 0.09277266 0.12591206 0.1844961
0001a0 a2 98 c0 3d 61 5f 31 3e d6 b5 31 3e 18 0e 98 3d
       0.094041124 0.1732154 0.17354521 0.07424563
0001b0 41 1a dd 3d 14 09 e6 bd 19 ce 3a bd cd ff b1 3d
       0.10796023 -0.112322 -0.045606706 0.08691368
0001c0 67 8f ad bd 42 0e 1b 3e 5a 22 19 3d 3c 12 69 3d
       -0.084746175 0.15142158 0.037386276 0.056902155
0001d0 75 0a 32 bd 6a 98 5e 3d 88 64 0f 3b 13 1a 5e bd
       -0.043467004 0.054344572 0.002187999 -0.054224085
0001e0 2d ad 0d 3e 4c 2a f0 bd 92 9d 90 3d a4 fe 15 3e
       0.13835593 -0.117268175 0.07061304 0.14647919
0001f0 c2 19 ca 3c 5d cf 7f bd 0e b4 07 3b 08 b3 17 3e
       0.024670485 -0.062453616 0.0020706686 0.14814389
000200 55 6f ae 3d 6e 9f 65 bc d9 e1 0a bc 78 f2 9d bc
       0.08517329 -0.014015062 -0.008476698 -0.019280657
000210 d2 6b 56 bb a3 df 35 3e 15 1f d4 3d 6d 3f 30 bd
       -0.0032718075 0.17761092 0.10357491 -0.043029238
000220 ab 54 92 3d 6d d0 25 3e 19 fc f5 3d 7d 7b a3 3d
       0.071450554 0.1619279 0.120109744 0.07982538
000230 c5 99 33 3d be 9d 03 be 87 71 dc 3c 01 a2 2f 3e
       0.043847818 -0.12853143 0.026909603 0.17151643
000240 44 86 40 3c e1 c7 02 bc ad c4 de 3d a3 3a 36 3d
       0.011750761 -0.007982225 0.10877357 0.044489514
000250 6d d4 64 bc 91 d0 d4 bd 72 54 44 bc 7e ff 53 bb
       -0.013966662 -0.103913434 -0.011983024 -0.003234833
000260 60 4f ec 3b 49 35 03 be 81 e2 e7 3d 67 d5 f2 3d
       0.0072116107 -0.12813295 0.11322499 0.118571095
000270 f3 e5 9c 3c e7 38 6e 3d 7b 7d 65 3b c4 7b b8 3d
       0.019152617 0.058159735 0.003501742 0.090079814
000280 5f a0 4e bb 96 2d 40 3e 92 a9 45 3d 68 81 03 be
       -0.0031528694 0.1876739 0.048257418 -0.12842333
000290 7e c8 18 be 69 04 aa 3c cb c6 95 3c 3c 0d 02 3e
       -0.14920232 0.020754056 0.018283268 0.12700361
0002a0 4e 92 f1 bd eb 06 e8 bd e6 f0 cf bd c7 9a 4e 3e
       -0.117954835 -0.113294445 -0.101533696 0.2017623
0002b0 d0 bf 45 bd a9 7e b7 bd d3 b0 7d 3e c1 6f 4e 3e
       -0.04827863 -0.089597054 0.24774484 0.20159818
0002c0 29 a2 1f 3d 0a 3f c5 bd 7e d0 3d 3e 28 a6 aa 3b
       0.038973007 -0.09631164 0.18536565 0.0052077956
0002d0 a6 30 73 3c c6 46 96 bd 08 8f 20 3e 81 64 56 bd
       0.014843142 -0.07337718 0.15679562 -0.05234194
0002e0 ed f2 d6 3d 68 cf fc 3c 36 8c 1c be 00 5a 24 3e
       0.10495553 0.030860618 -0.15287861 0.16049957
0002f0 83 cd a6 3a ca f6 17 bd 62 d0 d8 bd 10 f7 d0 3d
       0.0012726042 -0.03710059 -0.10586621 0.102033734
000300 08 5a 23 3e 8b 49 96 bc 63 b9 b7 3d 17 29 2e bb
       0.15952313 -0.018345615 0.089709066 -0.0026574784
000310 12 39 10 3d 0a f1 38 bc 53 7d a0 bc 3a 42 cb bd
       0.035210676 -0.011287937 -0.01959101 -0.09924741
000320 cd c5 53 3d 78 4e 99 3d 05 6d 74 bc 4c cd d3 3c
       0.05170231 0.0748567 -0.01491857 0.02585473
000330 99 8b 09 bd 9d f6 1b 3e 9f 81 9b 3c 4f 81 32 3d
       -0.033580396 0.15230794 0.018982707 0.04358035
000340 7c 32 e3 bc cf f3 e6 3d 9f 02 db 3d 98 f1 cf 3d
       -0.027734034 0.112769715 0.10693859 0.10153502
000350 dc be 37 3e 2a 95 1a be 5d bc f7 3d c8 4d b5 3b
       0.17943901 -0.15095964 0.12096474 0.005532954
000360 75 e0 de 3c 7c b2 ba bd 17 de 26 3d 0b 1a 4f 3e
       0.027206639 -0.091160744 0.040739145 0.20224778
000370 45 75 58 be aa fa cd 3d 22 ab f1 bd 04 b3 d2 bd
       -0.21138485 0.10057576 -0.11800219 -0.10288051
000380 68 9c a4 3d 51 59 0f bd 7e 84 98 3d 5b e8 92 bd
       0.080376446 -0.03499729 0.07447146 -0.071732245
000390 b5 aa af bd bd 4f 9f 3d 43 4e 3c bc 42 e1 f1 3d
       -0.08577482 0.07778881 -0.011493268 0.11810543
0003a0 33 8d b9 3d 69 bd 21 3e b2 0b 13 3e ea a1 de bd
       0.09060135 0.1579491 0.1435993 -0.108707264
0003b0 80 f3 7a bc fd de a6 3d 46 0a 07 bd 6d 6f 01 3e
       -0.015316844 0.081480004 -0.032968782 0.12640162
0003c0 cc a1 1f be 71 f3 3e bc da 26 06 3e 9a ce ef bd
       -0.15589064 -0.011654721 0.13100758 -0.11709328
0003d0 1f 70 e6 bc 5b 9c 30 bc c5 20 28 be 01 bb 17 3e
       -0.028129635 -0.010779466 -0.1641875 0.1481743
0003e0 d4 81 3f 3d bb 4f 5e bd 34 06 1d be f3 9f a1 3d
       0.046754673 -0.054275256 -0.15334398 0.07891836
0003f0 3f c3 76 3d 14 9e ec bd 85 a2 06 3d d9 9d 1e 3e
       0.060244795 -0.115535885 0.032869834 0.15489902

lstm.weight_hh_l0 f4 [128, 32]
000000 40 24 e1 bd 67 2b a6 3d 36 f3 dd 3d 7b a7 a3 bd
       -0.10993242 0.08113747 0.108374044 -0.07990929
000010 be a6 83 3c 57 4a 0f 3d e7 13 27 bd 88 3b fa 3d
       0.01607072 0.034983005 -0.040790465 0.12218386
000020 0b f0 7f bd eb a6 2e bc 32 58 97 3c 7f 0d 00 3e
       -0.062484782 -0.0106599135 0.018474672 0.12505148
000030 f5 72 1f be fc 5f 02 be 69 17 9b bd cb 03 80 bd
       -0.15571196 -0.12731928 -0.075728245 -0.062507235
000040 43 88 ad 3d 0a 77 b8 3c 07 7e 14 3e 3d cf ee bd
       0.084732555 0.0225177 0.145012 -0.11660621
000050 19 db 99 3b b5 15 d7 3d 46 f8 c4 3d 5d b4 92 bd
       0.004695308 0.10502187 0.09617667 -0.07163308
000060 0f 18 20 3e 0c 27 c8 3c 29 56 33 bd fe 20 9f 3c
       0.15634178 0.024432682 -0.04378334 0.019424912
000070 1b 5f 29 bd 7f a4 07 3e 53 1d 0f be 44 6b d8 bd
       -0.041350465 0.13246344 -0.1397603 -0.10567334
000080 df d0 0e 3e 7c f2 08 3e 8c e4 80 bd 30 f6 a8 ba
       0.13946865 0.1337375 -0.06293592 -0.0012890752
000090 31 c7 d6 3d 37 fa 34 be e2 ae 88 3d dd d7 22 3e
       0.104872115 -0.17673574 0.06673981 0.15902658
0000a0 8f 72 32 bb 05 0a ef bd f8 e9 43 3d 48 40 39 be
       -0.0027228927 -0.11671833 0.047830552 -0.18090928
0000b0 2e 87 f2 3d 67 06 c8 bd 02 a3 7d 3c d8 f6 07 bb
       0.1184219 -0.09766846 0.015480759 -0.0020746496
0000c0 55 0c 25 3e 80 c0 ce 3d ed a1 06 3e 99 96 de 3d
       0.16117986 0.1009531 0.13147707 0.10868568
0000d0 9f 0f 19 be 8a 50 0e be 62 1b 14 3d 2c 98 7d 3d
       -0.14947365 -0.1389791 0.036158927 0.0619127
0000e0 69 6a 27 be f6 91 0f 3e 04 07 c2 3c ed 56 1f be
       -0.16349186 0.14020523 0.023684986 -0.15560503
0000f0 be f1 02 be 50 6f 0e 3e 68 64 92 bd 10 a0 93 bd
       -0.1278753 0.1390965 -0.07148057 -0.07208264
000100 41 e5 05 bd 36 4b 23 3e 7f 6a 0d be ef b6 f9 3a
       -0.032689337 0.1594666 -0.13810156 0.0019051711
000110 a7 37 3c 3c 5c 65 03 3d c5 62 17 3e 57 b4 f2 bd
       0.011487878 0.032079086 0.14783771 -0.11850803
000120 ff 0e 1b 3e ec f7 03 3e 79 c6 80 bb af ce a6 3d
       0.1514244 0.12887543 -0.00392991 0.081448905
000130 29 d9 04 3e 9b c2 aa 3d 09 dd 44 3d c2 7f d9 bd
       0.12973465 0.08337899 0.048062358 -0.10620071
000140 ed c5 9b bd a5 34 34 3d e0 47 cc bd 7a ae e9 bd
       -0.07606111 0.04399552 -0.099746466 -0.11410232
000150 72 b7 8c 3d 58 95 cb bd b7 f3 b4 bd c8 f4 0b 3e
       0.06870927 -0.099405944 -0.088355474 0.13667595
000160 4e 73 a3 bb 3e 11 e6 3d 39 b3 52 bb c6 3f 46 bd
       -0.0049881106 0.112337574 -0.0032150282 -0.048400663
000170 4c 88 44 bd 6d 7b 21 3c a7 43 03 be e6 e6 19 be
       -0.047981545 0.009856087 -0.12818776 -0.15029487
000180 43 7e 9a 3d bf ac 07 be e5 55 9f bc 1b b7 03 bd
       0.07543614 -0.13249491 -0.019450137 -0.032157045
000190 78 15 b5 bd db d3 c0 bc 91 97 27 bd 80 2f 23 3d
       -0.088419855 -0.02353852 -0.04091603 0.03984022
0001a0 57 df de bd bc 14 fb bd d6 7d 89 bb fb d9 0c be
       -0.108824424 -0.12259814 -0.004195909 -0.13755028
0001b0 10 7f 49 bd 3e d0 02 3e 0a d9 6b bd fc 32 5d 3d
       -0.049193442 0.1277475 -0.05758003 0.0540037
0001c0 e5 8c d4 3d e3 c1 a6 3c fc c8 ad 3d 67 48 b1 3d
       0.10378436 0.020356124 0.084856 0.08656388
0001d0 a9 d3 25 3e 9a 9b 02 be 58 2b 22 be 6c a3 84 3d
       0.16194023 -0.1275467 -0.15836847 0.06476483
0001e0 43 fd fb 3a 9b 5c 25 3e d3 87 86 bd e4 83 e9 bc
       0.0019225258 0.16148607 -0.06568875 -0.028505273
0001f0 b4 57 88 bc bb 5e ad bd 6f af 5a bc 9a 25 09 bd
       -0.016643383 -0.08465334 -0.013347491 -0.033483125
000200 7d ce 88 3d 8a 81 d1 3c b6 c4 30 3e 7a d1 23 3d
       0.066800095 0.025574464 0.1726254 0.039994694
000210 b4 4f 72 3c b6 9b ac bd af 38 97 bd 7a e9 d2 3d
       0.0147895105 -0.08428137 -0.073838584 0.10298438
000220 f3 b2 28 3c ba 00 8a bd ab 90 c3 3c 8d 2a 64 3d
       0.010296571 -0.0673842 0.023872694 0.055704642
000230 c7 97 9e 3d 40 3e 11 be da d4 41 3d 53 5a 2b 3d
       0.07743793 -0.14183903 0.04732213 0.041834187
000240 c3 e9 7a 3d 0f 83 49 3d 8e 0f 8d bd e0 0f 42 3d
       0.06125809 0.049197253 -0.068877324 0.04737842
000250 27 d0 54 3c ab 65 02 3e 62 b0 2d 3e 41 5a 1b bd
       0.0129890805 0.12734096 0.16961816 -0.03792787
000260 ad ea ea bd 36 65 0a be c6 ed 07 3c fc a0 0e 3e
       -0.11470542 -0.13515171 0.008296436 0.13928598
000270 fb e0 18 bd b1 29 38 3d d0 7f 8b 3d 47 43 ae bd
       -0.037323933 0.044961635 0.06811488 -0.08508926
000280 3c 14 d4 bc 36 04 0f bc 4d e1 84 bd 51 ae 7a 3d
       -0.025888555 -0.008729031 -0.06488285 0.061201397
000290 30 89 10 3e 08 f1 12 be f6 27 14 3e 21 c5 71 3d
       0.14114833 -0.14349759 0.14468369 0.059025887
0002a0 8b 76 b4 3d f7 69 9b 3c 98 23 a1 3c ad 73 ae 3c
       0.08811673 0.018971426 0.019670293 0.021295393
0002b0 7b 91 49 3e a8 27 c6 3d f9 8e 0c 3e ed e2 e8 3d
       0.19684403 0.096755326 0.13726415 0.11371408
0002c0 5f c7 3e bd be c0 71 bd b2 ba 0b 3c 68 69 9d bd
       -0.046576854 -0.059021704 0.008528398 -0.0768612
0002d0 64 d9 70 3c 56 e2 ac bd ae 2e a8 3d 77 4b 09 bd
       0.014700267 -0.08441608 0.082120284 -0.033519235
0002e0 9d 95 11 bd f7 98 29 bd 5f 4c e1 3b a8 7f 84 3c
       -0.035543073 -0.041405644 0.006875559 0.016174152
0002f0 11 95 b7 3d 75 05 2f bc 99 5c a0 bd 72 69 12 3e
       0.08963979 -0.010682453 -0.078301616 0.14298037
000300 fd 4e 99 3d 49 1f 3a bc 39 8a 04 be 67 61 7c bd
       0.07485769 -0.011359998 -0.12943353 -0.061616328
000310 24 c5 91 bd 75 f3 0d bc 70 06 03 3e 0d c3 1f 3e
       -0.0711768 -0.008664002 0.12795424 0.1560175
000320 22 d7 4f 3d 50 43 30 be 8e 02 fa bc 37 4e 20 3e
       0.050742276 -0.17213178 -0.030518796 0.15654837
000330 66 f4 f7 bd 0d f1 62 3d 33 f1 34 3e 58 89 c6 bb
       -0.12107162 0.055405665 0.17670135 -0.006058853
000340 05 63 72 3d 2f 24 66 3d c6 11 01 be f0 49 b4 3d
       0.059176464 0.05618685 -0.12604436 0.08803165
000350 98 1d 0e 3e b5 a8 81 bc ca d6 ab bd d5 9d 86 3c
       0.13878477 -0.015827516 -0.08390577 0.016432682
000360 ab e3 c6 3d 38 d8 64 3b 64 55 38 3d 91 57 42 be
       0.09711393 0.0034918915 0.04500331 -0.18978716
000370 4a 14 13 be 2e 2b a1 3d d5 81 cc bd 1d 2f a8 3d
       -0.14363208 0.07869564 -0.09985701 0.08212111
000380 5e 67 e5 3c 5e 46 f9 bd 11 e5 f6 bd 91 03 10 3d
       0.02800339 -0.121716246 -0.1205541 0.03515965
000390 ad 93 d9 bd 4d 1c 9b 3d 5f 39 e6 bd bb cf 43 be
       -0.1062387 0.07573757 -0.112414114 -0.19122212
0003a0 70 7c a4 3c 8f 60 97 bd 00 ec eb bc 8b 09 97 3d
       0.020078868 -0.07391464 -0.028799057 0.07374867
0003b0 ed 60 b2 bd 34 18 46 bd 0d 5a 6c 3d 2c 1d 02 be
       -0.087098934 -0.048362926 0.057703067 -0.1270644
0003c0 4c a6 ef bd f8 19 8c bd 3e 91 da 3d 1e 2e b3 3a
       -0.117016405 -0.06840891 0.10672234 0.001367036
0003d0 6b 9f 9b bd f2 79 8d 3b 66 c7 2b 3d ff 46 02 3e
       -0.07598766 0.0043175155 0.041938208 0.12722395
0003e0 38 7d ce 3d 74 6e e6 3d 5f 61 32 be e7 1c fd 3d
       0.10082477 0.11251536 -0.17419957 0.12359028
0003f0 7b c2 c1 3d f5 34 00 3e 2b eb 02 be 75 ea 26 be
       0.09460922 0.12520202 -0.12785022 -0.16300376

lstm.bias_ih_l0 f4 [128]
000000 0d 2d b9 bd 3a f3 31 bd 8b da 8c bc 44 49 d0 3d
       -0.09041796 -0.04344485 -0.017194053 0.10170224
000010 b7 7b 3b bd b8 f9 e5 3c 2a 3d 3f 3e e6 35 ac ba
       -0.04577228 0.028073177 0.18675676 -0.0013138622
000020 c8 5e 86 bd 2e 0f 47 bd 74 ea cf 3d a8 7d b3 bd
       -0.06561047 -0.04859846 0.1015214 -0.087642014
000030 39 26 2f 3e c0 e8 71 bd 21 24 da ba f7 29 22 be
       0.17104425 -0.05905986 -0.0016642847 -0.15836321
000040 bd 96 dc bc b6 92 c0 3d 2f a7 94 bc 3e cb 31 3e
       -0.026927346 0.09402983 -0.018146126 0.17362687
000050 c8 66 9d 3d e8 20 75 bd 72 2a 0e be 35 42 02 be
       0.076856196 -0.059845835 -0.13883379 -0.12720568
000060 8a c3 52 bd 5e af 83 bc 69 75 0c be 98 ed af bc
       -0.05145601 -0.016074833 -0.13716663 -0.021475598
000070 fe b6 22 be 27 af 05 3e 91 20 d0 3d c7 34 01 3d
       -0.15890118 0.13055097 0.101624615 0.031544473
000080 41 2c 29 be b9 2e f4 bd 54 77 41 3d 29 0a 5b 3d
       -0.16520788 -0.11922974 0.04723294 0.053476486
000090 ca 4f 29 3e e2 29 62 bb 40 e0 39 bd 93 4d ab bd
       0.16534343 -0.0034509827 -0.045379877 -0.083644055
0000a0 55 d8 b8 3d de aa a7 3d eb 60 28 3d ab d7 15 3e
       0.09025637 0.08186887 0.041108053 0.14633052
0000b0 53 61 23 bc f8 f1 b2 3d 9c 05 d0 bc 9f ad 3a bc
       -0.009971934 0.08737558 -0.0253933 -0.011393934
0000c0 40 8a 6d bd e6 6f a9 3d 8b d5 19 be d9 4c 07 be
       -0.057993174 0.08273296 -0.15022866 -0.13212909
0000d0 0a 29 11 be f5 d4 86 3c a8 56 3e bd ac 3c 9c bc
       -0.14175811 0.016458968 -0.04646936 -0.0190719
0000e0 96 e6 22 3d bb 2c 33 be 6e 91 91 3d 0a e7 c3 bd
       0.039770685 -0.17497532 0.07107817 -0.095655516
0000f0 de 65 5c 3d 84 72 0b be 98 56 26 be 9b 0d 8d bd
       0.053808086 -0.13617903 -0.1624397 -0.06887361
000100 f4 a4 9e 3d 4b 21 99 3d 5e 8c 23 be 56 f4 18 be
       0.07746306 0.07477053 -0.15971515 -0.14936957
000110 c0 10 e5 3d e9 51 e4 bd 04 c9 81 3c a7 f1 ce bd
       0.111848354 -0.111484356 0.015842922 -0.10104685
000120 91 76 be bc 30 b1 ce bd 76 39 c3 3c 10 62 80 bd
       -0.023249896 -0.100923896 0.02383111 -0.06268704
000130 db 29 78 bd db 9e 17 be 6a e9 5b 3d aa 2d 7f 3c
       -0.06058679 -0.14806692 0.053689398 0.015574852
000140 7d 68 26 3e c1 1e ad 3d 54 e8 e1 3d f2 9c ae 3d
       0.16250797 0.084531315 0.11030641 0.08526029
000150 9c d4 df 3d 9b 5f b1 bc fd c4 7a bd de 0d dd bd
       0.10929224 -0.021652034 -0.06122302 -0.107936606
000160 4c 6e 47 be ef 1a 20 3d 61 ae 29 bd 83 89 05 be
       -0.19475669 0.039088186 -0.041426066 -0.13040738
000170 60 a2 6d bd 65 4d 11 be 10 ec a1 3d 99 07 2b be
       -0.05801618 -0.1418968 0.079063535 -0.16702117
000180 01 12 d8 bd d8 64 85 3b 15 bc 22 be a9 9f 1f bc
       -0.10550309 0.0040708594 -0.1589206 -0.009742656
000190 be b4 1e 3e 79 fa 77 bd 1e ec 21 3e 81 bd c4 bd
       0.15498635 -0.060541604 0.15812728 -0.096064575
0001a0 13 1c 3f 3e ba 6b 62 3d 6c 53 b0 bc 36 30 1f be
       0.18663053 0.055278517 -0.021524154 -0.15545735
0001b0 d9 7d a2 3d 9f 8f d8 bd ac e6 24 be aa f1 8d bc
       0.0793416 -0.105742685 -0.1610362 -0.017327148
0001c0 5d 9e 1c be 47 2c 50 3e dc b7 d4 39 ce 7d e5 bd
       -0.15294786 0.2032939 0.00040572777 -0.11205636
0001d0 bf 7b 36 3e 52 f1 5e 3d dd ce 76 3b 64 e2 28 3e
       0.17820643 0.05442936 0.0037659921 0.16492611
0001e0 5f 87 46 3d 98 fc 02 3e 72 d9 05 3d ef f0 0e 3e
       0.048468944 0.1279167 0.032678075 0.13959096
0001f0 2a 5d 28 be 30 f8 0b be 2f 9d 8d 3d 6b 21 8e 3d
       -0.1644179 -0.13668895 0.06914746 0.06939968

lstm.bias_hh_l0 f4 [128]
000000 35 07 30 be 41 b6 c8 3d bd d0 9b 3d 19 96 16 be
       -0.1719025 0.09800387 0.07608173 -0.14705695
000010 af 49 87 3d 89 c8 54 bd 43 42 42 3e 57 55 16 3d
       0.06605851 -0.051949058 0.1897059 0.03670248
000020 17 93 1d 3e 80 35 3e bc f6 85 5e 3d 0b 93 d9 3d
       0.15388142 -0.011609435 0.054326974 0.10623749
000030 95 d6 c9 3d 62 e5 96 bd 7a c2 05 be 88 cc 2b 3e
       0.098553814 -0.0736797 -0.13062468 0.16777241
000040 59 11 77 bd 0a f5 db bc 20 73 42 3e 86 82 0b 3d
       -0.06031928 -0.026850242 0.18989229 0.034060024
000050 45 c2 16 3e 56 ec aa 3c 0f 45 d8 3a a9 dc 12 3b
       0.14722545 0.020864647 0.0016500073 0.0022409356
000060 94 ed e8 bd cd c4 e9 3d 30 11 5b 3d 33 b9 cf 3d
       -0.113734394 0.1141449 0.05348319 0.10142746
000070 38 6c fd bd 8d f3 f5 3d 0c a2 0f 3e be d6 de 3d
       -0.12374157 0.12009344 0.1402666 0.108808026
000080 7b 32 ff bd 61 2a 40 3c 29 cd 3c 3e e3 c5 dc 3d
       -0.124608 0.011728854 0.18437637 0.107799314
000090 f8 a1 91 bc 3f 2f 32 3e 6e 24 3c bd e1 44 2a 3d
       -0.017777428 0.17400835 -0.04593318 0.041569594
0000a0 48 67 a1 bd 03 35 0d 3e 5a cd a2 bd 51 06 a0 3d
       -0.078810275 0.13789754 -0.07949324 0.07813705
0000b0 89 bd 88 bd 3e 80 0a be 29 fc b1 bc b5 06 19 3e
       -0.06676776 -0.13525483 -0.021726685 0.14943965
0000c0 c2 93 80 bd 34 39 9a bb cc 64 01 be d9 3b 70 3d
       -0.062781826 -0.004706526 -0.12636107 0.058650825
0000d0 80 28 0f 3e 3c ad d8 3c bf c5 38 3e 97 62 a1 3d
       0.13980293 0.026449792 0.18044184 0.07880133
0000e0 69 f5 af bc d8 cc 27 be e7 9f 1b 3e c9 fe 15 be
       -0.021479325 -0.16386735 0.15197717 -0.14647974
0000f0 07 e1 23 3e 50 fb fc 3d a4 86 b4 bd f2 8a 9d bd
       0.1600381 0.123526216 -0.08814743 -0.07692517
000100 13 ca f0 3d 4a d0 e3 bd 26 27 31 3e cf d1 d5 bd
       0.117572926 -0.11123712 0.1730009 -0.104404084
000110 d0 68 03 3e ab 65 f8 bd 15 a2 26 be 3c 14 30 3e
       0.12832952 -0.121287666 -0.16272767 0.17195219
000120 1f 13 de bd 95 4e eb 3c 39 17 16 be a7 68 83 3c
       -0.10843491 0.028723994 -0.14657296 0.016041113
000130 9d a1 e4 3d 19 64 22 3d 51 55 97 3d 24 e4 01 3e
       0.11163638 0.03964624 0.0738932 0.12684685
000140 06 e3 1b bd 16 f8 02 3e b1 ba b6 3d c5 5f 34 3c
       -0.038058303 0.1278995 0.08922327 0.011009161
000150 4b f0 f1 3d 44 ef bb 3d d8 cc 32 be 26 42 bb 3d
       0.1181341 0.09176496 -0.17460954 0.09143476
000160 9e 10 53 bd 89 c8 9a bd dd e1 ef 3c 7b 4c c0 bd
       -0.05152952 -0.0755778 0.029282505 -0.093895875
000170 83 a1 b6 bc 12 e8 0b 3d 1f af 87 3d 8c bf 36 be
       -0.022293812 0.034156866 0.066251986 -0.17846507
000180 3d 4e 01 3e 45 aa bb 3b 0c b5 82 bd c6 80 d8 3d
       0.12627502 0.005727085 -0.06382188 0.105714366
000190 2d 04 49 3d c4 55 0b 3c 17 0b e5 3d b4 2e 82 3d
       0.049076248 0.008504335 0.11183756 0.06356564
0001a0 80 68 d2 3d d8 12 0f 3d 1a 41 e8 3d 12 d9 8a 3d
       0.10273838 0.03493008 0.11340542 0.06779684
0001b0 f7 78 31 bc b5 24 a9 bd a2 23 21 3e 2a 34 7d bd
       -0.010832063 -0.082589544 0.15736249 -0.061817326
0001c0 2b 54 9b 3c bf 85 dc 3d 8e b2 d9 3d 36 52 a3 3a
       0.018961033 0.107676975 0.1062976 0.0012460414
0001d0 0c 71 9b bc e9 fe b0 bd 0d da f7 3d 2e 1e 16 bd
       -0.018974803 -0.0864237 0.12102137 -0.036649875
0001e0 6a df 1e 3e fe c3 10 be 1a a4 ee bc e6 14 bd 3c
       0.15514913 -0.14137265 -0.029130984 0.023081254
0001f0 7d 65 f3 3d 78 96 37 bc 8d 52 31 bd 1b 30 2a be
       0.11884592 -0.011205308 -0.043291617 -0.16619913

lstm.weight_ih_l1 f4 [128, 32]
000000 af 0e 57 3d f3 2b 96 3d f9 89 45 3e aa d2 02 be
       0.052504238 0.073326014 0.19290914 -0.12775674
000010 0e e9 04 be b3 db e1 3d 07 75 f5 bd 87 a3 15 bd
       -0.12979528 0.110282324 -0.11985212 -0.036532905
000020 b2 56 69 bd 62 ce 82 bd 90 d4 84 bc f1 6a 56 bd
       -0.056967445 -0.06387021 -0.016214639 -0.05234808
000030 6b e3 36 3e 68 c7 7c bc 8f 41 d9 3d b9 91 a5 bd
       0.1786019 -0.0154284015 0.106082074 -0.08084435
000040 f6 eb f5 bc f9 b3 b4 3d 8b 3d 27 3e 31 c1 34 3e
       -0.030019742 0.088233896 0.1633207 0.17651822
000050 36 60 e7 bc e6 97 18 3e 55 97 85 3d 6f b4 a5 3d
       -0.02824412 0.14901695 0.06523005 0.080910556
000060 be ee f8 bd 4c c2 11 be a1 88 10 be 7c 39 a7 3d
       -0.121549115 -0.14234275 -0.1411462 0.08165261
000070 41 e6 78 bd a3 9c 10 ba e9 bb 87 3d af 77 17 3c
       -0.060766462 -0.0005516505 0.06627638 0.009244843
000080 8a 15 c3 bd 83 9b 29 3e 16 32 f0 bd e3 3a 03 be
       -0.095255926 0.1656323 -0.11728303 -0.12815432
000090 b8 cc e6 3d 86 69 c6 bb f3 e1 98 3d 2b e0 71 3d
       0.11269516 -0.00605506 0.074649714 0.059051674
0000a0 64 d4 b1 bd 67 f6 48 bd 69 3e d6 bd 68 fe 8e bd
       -0.086830884 -0.049063113 -0.104611225 -0.06982118
0000b0 f7 86 56 3d 8f 39 20 be 34 dd 21 be c2 2d cc bd
       0.052374806 -0.15646957 -0.15807039 -0.09969665
0000c0 26 e2 0b 3e ad 25 02 3e 7c ed a9 3d eb 8b 90 3d
       0.13660488 0.12709685 0.0829725 0.07057937
0000d0 9d 11 df 3d 43 63 ce 3d af 33 d5 3c b5 ca 1f be
       0.10892031 0.100775264 0.026025621 -0.1560467
0000e0 1c dc a1 bd 02 81 33 3e aa 22 1a be 85 33 17 be
       -0.07903311 0.17529681 -0.15052286 -0.14765747
0000f0 fb 7c a0 3c 61 fe 2d 3e a0 c2 bd bc bd f6 12 3d
       0.019590845 0.16991569 -0.023164093 0.03587984
000100 af 2b bb 3d b9 e1 bb bd 58 5a bc 3d 59 ef 0a bd
       0.09139191 -0.091739126 0.09196919 -0.033919666
000110 a0 1c f1 3b dd d8 e0 bd 0f 9b aa 3d eb e6 64 3d
       0.0073581487 -0.109788634 0.08330356 0.055884283
000120 a6 58 1d 3e 83 a6 b7 3d e9 8d a0 bd 31 9d 87 3d
       0.15365848 0.089673065 -0.07839567 0.06621779
000130 c7 93 e7 3d c0 0a ab bd c3 86 08 bd a3 00 d1 bd
       0.11307483 -0.0835166 -0.033331644 -0.102051996
000140 16 9f 62 bd 34 10 39 3e 62 9f 97 3d 54 9d 51 bd
       -0.055327497 0.18072587 0.07403447 -0.05117543
000150 6e 4d 66 bd f9 d9 1f be 94 cf c9 bd 36 cb 93 3c
       -0.056226186 -0.15610494 -0.098540455 0.018041234
000160 e9 e4 96 3d a6 52 a7 bd 00 b6 08 3e 17 f5 2d 3e
       0.0736788 -0.08170061 0.13350677 0.16988026
000170 0b c3 b2 3d 91 a0 0b be 39 4a 74 3d a4 3b 7d 3d
       0.08728608 -0.1363547 0.059641097 0.061824456
000180 f4 c4 f0 bd 73 85 f5 3c b9 cf 19 3e 8b 67 d7 bd
       -0.11756316 0.02997086 0.15020646 -0.10517796
000190 a9 24 84 bd 55 d7 ef 3d 4a a5 72 bd d2 ff d2 bd
       -0.06452305 0.11710993 -0.059239663 -0.103027
0001a0 8d 4c d8 3d af 68 79 bd 61 8b ba 3d 32 ef 35 be
       0.10561476 -0.06089085 0.09108616 -0.17767027
0001b0 91 6b 43 3e 32 de c7 3d e3 6b d3 3d 00 e2 0a bd
       0.19084002 0.09759177 0.10323312 -0.033906937
0001c0 b9 3a ac 3d b0 33 de 3d a8 99 19 3e de 6d 38 3c
       0.08409638 0.10849702 0.15000021 0.011256663
0001d0 c6 e1 31 bd 66 0b 16 3e 48 da 8a bd 18 a1 03 be
       -0.043428205 0.14652786 -0.06779915 -0.12854421
0001e0 bb b5 61 bc f0 59 bc 38 b9 04 e1 3d 94 cb d6 bd
       -0.013776238 8.981291e-05 0.10987229 -0.10488048
0001f0 19 49 1d 3e 66 ef f8 3d ac 41 a2 bd ff a4 4c bd
       0.15359916 0.12155037 -0.07922682 -0.04996204
000200 0d d0 b4 3c 76 79 9d bc 10 71 1e be 57 2a 5e bd
       0.022071863 -0.019222956 -0.15472817 -0.054239597
000210 01 ed a5 3d 5d b9 22 3e 87 b4 c6 bc 7d 0a 94 3c
       0.081018455 0.15891023 -0.024256004 0.018071407
000220 bf 65 32 3d 25 17 2b bd 0a 58 2c be a6 df 91 bd
       0.043554064 -0.04177012 -0.16830459 -0.07122736
000230 fc 20 4e bc 4f a5 fe 3d 97 b0 01 be 58 17 a6 3c
       -0.012581106 0.12433874 -0.1266502 0.020274803
000240 c1 ee 1b 3e 15 ab f7 3d 36 9f d9 bd 2c c5 27 3e
       0.15227796 0.12093178 -0.1062607 0.16383809
000250 2c 33 fa 3d dd 80 b7 bd 64 83 fe bc 49 1d a7 3c
       0.122167915 -0.089601256 -0.031068511 0.020399706
000260 d4 83 d4 3d 61 5c 80 bd 10 44 1d 3e ea 33 23 3b
       0.10376707 -0.0626762 0.15357995 0.002490277
000270 0f c6 89 3d 01 35 0b 3d 6c 3f 2b 3e 6e 3b 4a bd
       0.0672723 0.033986095 0.16723412 -0.049373083
000280 2d 4d 95 bd 42 2b a8 bd 7d db b4 3d 83 fd d5 3d
       -0.07290111 -0.08211376 0.088309266 0.10448744
000290 36 42 8a 3d 2d 13 a0 bd 09 e0 28 be 8b 87 af bd
       0.0675091 -0.078161575 -0.16491713 -0.08570775
0002a0 b4 97 92 bd 99 a9 80 3d ab 7b 9b bc b5 ef 04 be
       -0.07157841 0.06282348 -0.018979868 -0.12982066
0002b0 9b 8a 51 3d aa c6 8c bd 10 dd 02 be 33 6e 81 3d
       0.051157575 -0.0687383 -0.12779641 0.06319847
0002c0 12 60 d5 3d db 5c 08 3e aa d0 28 bc 05 ab a9 3d
       0.104187146 0.13316672 -0.010303656 0.082845725
0002d0 2e f2 89 3c 90 1d dc bd 0e 98 13 be 29 31 a7 bb
       0.016839113 -0.10747826 -0.14413473 -0.005102296
0002e0 62 d5 1a 3d dd e1 09 3e 37 44 e4 bd 07 4e 9e 3b
       0.037801154 0.13465066 -0.111458234 0.004831079
0002f0 eb 0a 2d bd bf 41 32 bd f8 f5 f4 bc 5e a8 f4 3d
       -0.04224674 -0.04351973 -0.029902443 0.11946176
000300 5d 2b 23 3b b6 7a f5 3c 82 27 36 3e 66 ea 0c be
       0.0024897673 0.02996574 0.17788509 -0.13761291
000310 60 92 a9 bd ab 93 09 3e de ff c2 bd 05 86 94 3d
       -0.08279872 0.13435237 -0.09521459 0.07252125
000320 34 56 db bc fa 26 13 be be 9a 05 be 96 b4 a4 ba
       -0.026774503 -0.14370337 -0.1304731 -0.0012566026
000330 c0 e8 27 3e 19 c8 07 be 3a d2 57 bc c6 e5 91 bd
       0.16397381 -0.13259925 -0.0131726805 -0.07123904
000340 34 48 4f 3d a8 00 a1 3d 54 66 92 3d a3 e9 15 3e
       0.050605968 0.07861453 0.07148424 0.14639907
000350 27 1b 4a 3e b6 3c 15 3e ea 4f be bd 92 a9 de bd
       0.1973692 0.1457394 -0.09292586 -0.10872187
000360 5f 78 78 3c 41 70 dc 3c 0c af 8e 3b 4a dc 64 3c
       0.015165417 0.026908996 0.0043543633 0.013968537
000370 49 8e 94 bd fd d2 f8 bd 3c 6f b3 3d f7 e0 1d b9
       -0.07253701 -0.12149618 0.08761451 -0.00015056493
000380 0e 52 fe bc d3 67 f4 bd 19 4d 11 be 50 cc f1 bd
       -0.031044986 -0.119338654 -0.14189567 -0.11806548
000390 94 60 e8 3d 03 53 d5 3d 72 78 09 be 7d 2d 61 bd
       0.11346546 0.10416224 -0.13424852 -0.05497502
0003a0 f8 07 16 bd 5a 31 82 3d 1a d5 8e bd 45 b4 ff 3d
       -0.036628693 0.06357069 -0.0697424 0.124855556
0003b0 2e d1 40 3e 9d 2b a2 bd c4 dd fe bd 6e e9 4d 3d
       0.18829796 -0.07918475 -0.12444642 0.050271444
0003c0 43 ff 0c be 73 84 2b 3e 0a 16 51 3d 8f 10 20 3e
       -0.1376925 0.16749744 0.05104641 0.15631317
0003d0 ed 42 5b bd 28 4f 66 bd 28 48 22 be 88 08 34 be
       -0.053530622 -0.056227833 -0.15847838 -0.1758138
0003e0 91 35 5d 3d aa b9 00 be 40 2b 36 be f0 fe ac 3c
       0.054006163 -0.12570825 -0.17789936 0.021117657
0003f0 b2 a5 d9 3d 2e 4f d9 bd b4 b6 ce 3d 61 f4 c5 bd
       0.10627307 -0.106108055 0.100934416 -0.09665752

lstm.weight_hh_l1 f4 [128, 32]
000000 e4 71 d2 bd 52 73 d5 bd 25 4a 12 be 03 06 e3 3c
       -0.10275629 -0.10422386 -0.14286096 0.027712828
000010 62 ec 0c 3e 23 4a a8 3c 00 53 de 3d 23 01 0c bd
       0.13762048 0.020543164 0.10855675 -0.03418077
000020 b6 c8 37 3d 3e 5e c5 3d ab 7a c4 3d e1 68 bd 3d
       0.044869147 0.09637116 0.095937096 0.0924852
000030 17 78 a7 bd 73 31 b2 bd 5e 71 9f 3d c7 a4 98 bd
       -0.08177202 -0.08700838 0.07785295 -0.07453304
000040 72 87 c9 bd 77 4a 40 be 77 6d 88 3d 20 74 e8 bd
       -0.09840287 -0.18778406 0.06661504 -0.11350274
000050 29 a3 90 bd d3 d3 f2 3d 27 41 8a bc 10 7f 10 3e
       -0.0706237 0.118568085 -0.01687677 0.1411097
000060 44 4b 2a bd a9 20 4e bd e0 7f b7 3c 6b dd c2 b9
       -0.041575685 -0.050324116 0.022399843 -0.00037167533
000070 49 01 a7 3d 15 15 28 3d 10 7b f8 3d 09 23 2c bd
       0.08154542 0.04103573 0.12132847 -0.0420256
000080 e7 7b 42 3e 55 6f 00 be 85 73 c2 3c 86 4a 15 be
       0.18992577 -0.1254247 0.023736725 -0.1457921
000090 64 17 2a 3d 98 cf 1e be b9 d0 ba bc 57 8c 25 3d
       0.041526213 -0.15508878 -0.022804605 0.04041704
0000a0 33 1c 4c bd 64 e8 f9 bd 65 cf d0 bd 64 82 4f bc
       -0.04983158 -0.12202528 -0.10195807 -0.012665365
0000b0 2a 37 20 ba 20 92 9c bd a2 65 06 3e 30 97 8c bc
       -0.0006111736 -0.07645059 0.13124707 -0.017161936
0000c0 9c df 19 be 7d fc 1a be 9a 2c 35 be 01 09 04 3e
       -0.15026706 -0.15135379 -0.17692795 0.1289406
0000d0 ef 12 73 3d 73 9a 36 3e 60 7b 21 3d 06 f0 94 bd
       0.05934423 0.17832355 0.0394243 -0.07272343
0000e0 e3 ed f8 bd b5 cc a7 b9 ca f0 6a bd 2d d2 0f bd
       -0.12154748 -0.0003200524 -0.05735854 -0.03511255
0000f0 78 01 25 3d 66 70 c8 3d dc 3a 36 3e 88 fe 38 3e
       0.040284604 0.09787063 0.1779589 0.18065846
000100 1c 8a 80 3d 14 e7 ab 3d 9b 6a e7 bd 13 3a 86 bb
       0.06276342 0.08393684 -0.1129963 -0.0040962785
000110 4c 70 11 be c6 bd 88 bc c2 87 23 3e 88 12 6d bd
       -0.14202994 -0.016692054 0.15969756 -0.057879
000120 8e 05 cd bd af ee a6 bd ad ac ca 3d ca af 0a bb
       -0.10010825 -0.08150994 0.098962165 -0.0021161907
000130 65 a6 17 3e 16 1a 7a 3d 15 30 d7 bd 26 2e c3 3d
       0.14809568 0.061060034 -0.10507218 0.095302865
000140 61 52 88 bd ac db ac bd f2 30 d9 bc 17 2c 25 be
       -0.066563375 -0.084403366 -0.026512597 -0.161301
000150 ea fe ee 3d 45 7b 89 3c c7 0f ef 3c c3 5e 3f bd
       0.11669715 0.016782412 0.029182328 -0.04672123
000160 92 14 bc 3d 0b 75 77 3d c7 fd b2 bd e4 20 76 3c
       0.09183611 0.060414355 -0.087398104 0.01502249
000170 ea f6 63 bc 3c 7a cb bd 99 a4 02 be ef 05 cf bd
       -0.013913849 -0.09935424 -0.12758102 -0.101085536
000180 81 82 c7 bd 73 40 cc bd c4 34 20 3d 3a ae 0b 3e
       -0.097416885 -0.0997323 0.03911282 0.13640681
000190 01 7c 78 3d 83 4a 4a 3d 17 f6 90 bd 65 3b 7e bc
       0.060665134 0.049387466 -0.07078188 -0.01551709
0001a0 1d 6a 93 3d f8 7b 82 bd 68 93 05 be 70 f4 35 3e
       0.07197974 -0.063713014 -0.13044512 0.17769027
0001b0 9c 9e 3c be 5d 47 0a 3e ca 87 e7 3d 3a 72 d6 bd
       -0.1841988 0.13503785 0.113051966 -0.10471006
0001c0 d7 13 e4 3b 0d 67 0d 3e 47 f9 c0 3d d3 f0 b3 3d
       0.006960373 0.13808842 0.09422546 0.08786168
0001d0 d5 7d 21 be 16 c6 5f bd da 88 19 3d e2 31 32 3e
       -0.15770657 -0.05463227 0.037484027 0.17401841
0001e0 cd c0 e0 3d 47 05 0c be 25 8f 2e be 7b 4d 9f 3c
       0.10974274 -0.13673888 -0.17046793 0.019446125
0001f0 2a 20 2e bd 27 69 76 3d 8a 0d d6 3d a5 64 8d 3c
       -0.042511143 0.060158875 0.10451801 0.017259905
000200 05 e2 89 bd ea 98 ae 3d 92 b0 0f 3e 21 0e fa bd
       -0.06732563 0.0852526 0.140322 -0.12209726
000210 8b 4d 9c 3d 54 f6 83 bd 55 33 2d be 3a 77 f5 3d
       0.07631978 -0.06443468 -0.16914113 0.11985631
000220 e3 0d d3 bd 22 1a 85 3d ba 2a 42 be 87 67 8c 3c
       -0.10305383 0.06499125 -0.18961611 0.01713921
000230 b4 14 09 3e 56 ff 26 3e 2d e7 7b 3d 2e 28 98 bd
       0.13386804 0.1630834 0.061499763 -0.07429539
000240 16 eb 18 be e3 80 f4 bc 78 9c ea 3c 5e d8 16 3c
       -0.14933428 -0.029846614 0.028639063 0.009206859
000250 45 ec 18 be 84 79 95 3c 30 68 09 3e 4d 86 00 3d
       -0.1493388 0.01824642 0.1341865 0.03137808
000260 36 6a da 3d 37 5b 44 bd af 65 c1 bd f7 19 74 3d
       0.106647894 -0.04793855 -0.09443223 0.059595075
000270 7a 80 a7 bd 2e 7c 89 3d 44 b5 9d 3d 57 30 d6 3d
       -0.08178802 0.067131385 0.07700589 0.10458439
000280 6d eb 06 be b2 97 7d 3d ad b8 f6 bd 94 d8 a7 bd
       -0.13175745 0.061912246 -0.12046943 -0.08195606
000290 86 47 e0 bd 5b 3e a8 3d 19 cc 86 3d 22 26 1f 3e
       -0.10951142 0.08215018 0.06581897 0.1554189
0002a0 5f 62 f5 bd 6d a2 2c 3e db 80 38 be f3 8b 93 bd
       -0.119816534 0.16858836 -0.18017904 -0.072044276
0002b0 57 4a e5 3d 84 87 3c 3e 55 34 67 bc 28 4f 44 be
       0.1119582 0.1841107 -0.014111598 -0.1917082
0002c0 f1 80 09 3e 60 85 0b 3e 6d 5f 6a bc 0e ce e2 3d
       0.13428093 0.13625097 -0.014304978 0.11074458
0002d0 31 12 fb bd 41 38 cb 3d 82 f0 27 3e 50 06 b4 bc
       -0.12259329 0.09922839 0.1640034 -0.021975666
0002e0 e4 96 22 be 00 3f 23 be fc 7b 9b bc af fa ca bd
       -0.15877873 -0.15942001 -0.018980019 -0.09911095
0002f0 05 c4 8f bd 72 6c 36 3e 6b ae 06 3e 9c 8a 43 3d
       -0.0701981 0.17814806 0.13152473 0.04773961
000300 44 30 f2 3c 4b f8 d3 bd 3a cb 37 bc 80 ef e8 bd
       0.02956403 -0.103500925 -0.011217887 -0.11373806
000310 6d 4b 31 be a3 dd 61 bd 7e c3 ad bd e7 5d 87 3d
       -0.17313929 -0.05514301 -0.08484553 0.06609707
000320 f5 0d c1 bd dc 66 30 3d 2d 98 47 bd 0f eb 5d 3c
       -0.0942649 0.043066844 -0.04872911 0.013544812
000330 e3 67 0f bd 5a 27 9e 3d 0d 9f 4a 3d 49 77 3f bd
       -0.035011183 0.077223495 0.04946809 -0.04674462
000340 1f f6 d6 3d 68 34 9a 3b b1 c1 e2 3d 76 56 04 3e
       0.104961626 0.0047059543 0.110721 0.12923607
000350 48 bd 71 bb 82 6b ae 3d 5f ea 11 3d 9f 6d ed 3d
       -0.0036886502 0.08516599 0.035623904 0.11593174
000360 d8 90 08 be fa 28 dd 3d 6d 21 d0 bd e1 81 9e 3d
       -0.13336504 0.10798831 -0.101626255 0.07739616
000370 bc 4d 28 3e 19 9d d8 bd 39 48 b9 3c 26 61 f8 3d
       0.16435903 -0.10576839 0.022617446 0.121279046
000380 2d 74 0d 3e 29 84 ae bc 02 9d 21 be c4 26 23 3e
       0.13813849 -0.021303253 -0.1578255 0.15932757
000390 06 32 19 be b1 02 11 be 12 52 8b 3d 80 59 14 3e
       -0.14960489 -0.14161183 0.06802763 0.14487267
0003a0 56 09 3c be 71 11 2f 3e 2c 12 45 bd 38 c7 d6 bd
       -0.18362936 0.17096497 -0.048113033 -0.10487217
0003b0 af 22 13 3e b8 f2 a8 3d e9 8b e0 3d 9f 40 31 be
       0.143687 0.0824942 0.10964186 -0.17309807
0003c0 83 f6 fa bd 52 50 a4 bd a3 8a 52 3c cf 80 e1 bb
       -0.1225405 -0.080231324 0.012850436 -0.0068818103
0003d0 ba 25 ff bd ac 67 1c bd 6d c0 43 3e 29 bd bb 3d
       -0.12458368 -0.038184807 0.19116373 0.09166939
0003e0 e9 7a 09 3e 63 36 1f be 20 b1 45 3d 2f 7c 6f bd
       0.13425793 -0.1554809 0.048264623 -0.05846804
0003f0 b6 b7 ba 3d 93 d6 50 bd 99 0b 44 3e 36 b4 61 3c
       0.09117071 -0.050985884 0.19145049 0.013775876

lstm.bias_ih_l1 f4 [128]
000000 b6 98 c1 bd 0f 44 17 3c 45 44 0a be 3b 25 9d 3c
       -0.094529554 0.009232535 -0.13502605 0.019182792
000010 ea 21 29 3e 18 d4 c3 bd 56 dc 29 be b9 2d 11 3e
       0.16516843 -0.09561938 -0.16587958 0.14177598
000020 e6 5e 25 bb d5 7e 99 bd 10 cd f3 3d 86 5c c1 bc
       -0.0025233566 -0.074948944 0.11904347 -0.023603689
000030 0a 60 b4 3d 51 74 1e 3e 98 1a 93 3d 68 30 8a bc
       0.088073805 0.15474059 0.07182807 -0.016868785
000040 0b 58 b3 3d f1 36 87 3c 48 6f c4 bd a5 43 fd bd
       0.08757027 0.01650569 -0.09591538 -0.12366418
000050 a1 c3 d8 3d 33 5f 19 3e e8 67 b8 3d 38 1f 3d 3e
       0.10584188 0.14977722 0.090041935 0.1846894
000060 32 8c ac 3d 02 d2 0e 3e fa 7e 73 bd 64 d5 cd 3d
       0.08425178 0.13947299 -0.059447266 0.10050467
000070 44 2b 77 3d 25 f4 71 3b a2 b1 f2 3d 96 0a 5e bd
       0.060343996 0.0036919203 0.11850287 -0.054209314
000080 bf aa 2a 3c fc 03 63 3c 97 93 b8 bd 19 c5 88 bd
       0.010416686 0.01385593 -0.090125255 -0.066782184
000090 1f 34 85 ba 2b 97 1d be 80 03 be 3c d6 7e 26 3d
       -0.0010162628 -0.15389697 0.023195028 0.040648304
0000a0 2a 84 07 3e 94 4d 48 bc c1 24 ea 3d 20 44 a2 3d
       0.1323401 -0.012225527 0.114327915 0.0792315
0000b0 0a a7 09 be 51 7d fd 3d 56 c0 08 be 0d 57 6e 3d
       -0.13442627 0.12377418 -0.1335462 0.058188487
0000c0 87 23 75 3d 0a c0 f3 bd 75 95 84 bb ad 72 a5 bc
       0.059848335 -0.11901863 -0.004046137 -0.020196283
0000d0 04 42 3c 3e 16 b8 ca 3d 7e ae 91 bd bd 7b 0b 3e
       0.18384558 0.09898393 -0.0711336 0.13621421
0000e0 76 2b 02 bd 74 9a 40 3d e1 5b 12 be 3d 3d 19 3e
       -0.03177973 0.047022298 -0.14292862 0.14964767
0000f0 8a 4c 0b 3c 66 f6 12 bd 6b df 01 be e1 2a a8 3c
       0.008502135 -0.035879515 -0.12682883 0.020528259
000100 7b 0a 23 3d de b8 32 3e 05 c7 3a bd b7 94 12 3e
       0.039804917 0.17453334 -0.045599956 0.14314543
000110 32 42 03 be 32 37 09 3e 28 e7 d6 bd 36 0b 2e 3d
       -0.1281822 0.13399962 -0.10493308 0.04249116
000120 71 c6 d5 3d 10 f2 96 3d bf b4 6c bd aa 2c 93 bd
       0.1043824 0.073703885 -0.05778956 -0.07186253
000130 b3 0e 14 be 51 9b 25 3e c0 b3 30 be fd 9c 79 bd
       -0.14458732 0.1617253 -0.17256069 -0.06094073
000140 3a 15 09 3e 9d 89 f2 3d b0 3a 2e bd 9b 56 27 bd
       0.13387004 0.11842654 -0.042536438 -0.040854078
000150 89 60 42 3d 28 b0 2a 3e aa 00 26 3e b0 fd 4e 3d
       0.047455344 0.16668761 0.16211191 0.050534904
000160 e1 dd cb 3d 4b f6 8e 3c e8 cc 93 3d 80 ce c3 bb
       0.099544294 0.017451426 0.07216817 -0.0059755445
000170 23 b4 a6 3d a8 5d b8 bc 89 ae 08 3e 6a 81 85 3c
       0.08139827 -0.022505596 0.1334783 0.016297061
000180 30 ce 19 3e 27 8b c4 3d 2a 6d 65 bd d8 e5 49 bd
       0.1502006 0.09596854 -0.05601231 -0.04929146
000190 d4 26 1f bd 7b 9a b7 bc d6 09 7b 3d 20 61 0f 3e
       -0.03885539 -0.02241253 0.061288677 0.14001894
0001a0 16 de 02 be d7 58 a7 3d fe d6 e4 bd 57 b6 d8 3d
       -0.12780032 0.08171242 -0.11173819 0.105816536
0001b0 47 da f5 3a 74 46 93 bb 70 0f 0d 3e ed d4 12 be
       0.0018757068 -0.0044944827 0.1377542 -0.14339037
0001c0 0e d1 91 3d d3 e4 05 be 8c 63 a4 3c ec d5 0b be
       0.07119952 -0.13075571 0.020066999 -0.13655823
0001d0 43 33 e1 3d bc df 2d 3e 10 0c 47 3d ac 02 d9 bd
       0.109961055 0.16979879 0.048595488 -0.10596213
0001e0 bc 46 43 3e 4a c4 6a 3d 03 88 44 3d 24 89 9c bd
       0.19069952 0.057316102 0.047981273 -0.07643345
0001f0 e3 6d 6a bd 7e 5c 11 be b1 75 a5 3d 46 67 9b bd
       -0.057233702 -0.14195439 0.080790885 -0.07588057

lstm.bias_hh_l1 f4 [128]
000000 b2 36 25 bd 0d cb 87 bd 16 3b 1d 3e b2 c4 8a bb
       -0.040335365 -0.06630526 0.15354571 -0.0042348737
000010 c7 e9 a6 bc 7a ae 1c 3e be 3b 03 3d fd f2 c9 3d
       -0.020375146 0.15300933 0.032039396 0.098607995
000020 da 1f 1c 3b b7 5f 5c 3c 52 32 07 3e 43 8e c1 bd
       0.0023822696 0.013450555 0.1320279 -0.094509624
000030 9f 1d 84 bd d1 ae a9 bb 09 0c f3 3c d8 fa 94 bd
       -0.06450962 -0.0051783104 0.029668825 -0.07274407
000040 58 e3 94 bd 2f 7d 77 bd 70 a3 12 be 36 fa 72 bc
       -0.07269925 -0.06042212 -0.14320159 -0.014830163
000050 df 15 25 3d c6 a5 cc 3c 4d 09 24 3e b2 8a 9c 3d
       0.04030406 0.02498139 0.16019173 0.076436415
000060 bd a6 31 3e 8e a2 7e bb 46 11 07 3d 8c c5 0a be
       0.17348762 -0.0038854214 0.032975458 -0.1355192
000070 54 0b ac bc 07 b1 bd bd 32 91 26 be fc 66 ac 3c
       -0.021001495 -0.09262281 -0.16266325 0.0210452
000080 07 97 a3 bd 43 21 39 3e e6 66 cf bd d6 7c 7f bb
       -0.079877906 0.18079095 -0.10127048 -0.003898432
000090 53 31 0c 3e 95 95 03 3e bb 6a e6 3d 5f b2 cb 3d
       0.1369069 0.1285003 0.11250826 0.09946131
0000a0 01 26 31 3e 11 10 1d 3d 72 39 c9 3c 79 d7 29 3e
       0.17299654 0.0383454 0.024563525 0.16586103
0000b0 0a e5 d8 bd 0b 8b 29 3e 9c 8d e5 bd 35 7e d5 3d
       -0.10590561 0.16556947 -0.112086505 0.10424463
0000c0 e0 22 e9 bc 5d 59 2d 3e 5d 9a 24 3d 80 0a c2 bc
       -0.028459013 0.1692862 0.040186275 -0.023686647
0000d0 4a c3 ae 3c f6 8d ee 3b 41 67 f1 39 0c 2f c2 bc
       0.021333355 0.0072801067 0.00046044032 -0.023704074
0000e0 fe a3 40 3d e5 20 cb 3d 6c 97 1d 3e 2e 6d 37 3e
       0.047031395 0.099183835 0.15389794 0.17912742
0000f0 9b 20 d3 3d 48 8f aa 3c a5 95 50 3d 24 dd 61 bd
       0.103089534 0.020820275 0.050923962 -0.055142537
000100 5a d9 bc 3c 2a 09 ea 3d 7c 93 7f 3d 60 d3 e8 3d
       0.02305286 0.11427529 0.06239651 0.113684416
000110 b5 fb 9a 3d 28 27 e3 3d c4 07 ae bd f5 bc 0f 3e
       0.075675406 0.11091453 -0.08497575 0.14036925
000120 a5 31 01 bd c7 ef af 3d ac 8f 18 be 20 f5 99 3c
       -0.031541485 0.08590656 -0.14898556 0.018793643
000130 05 0a 27 be 34 de 75 bd 55 b1 1b bd 88 77 06 3d
       -0.16312416 -0.060026363 -0.038010914 0.032828838
000140 45 df 3a be c1 7d 28 be 07 4b 16 be f1 7f a7 3d
       -0.18249233 -0.16454221 -0.14677058 0.081787
000150 6c 31 3a 3d ae c1 fb bd f6 3f 3a 3e 0d d4 2a 3e
       0.04545729 -0.12292801 0.18188462 0.16682453
000160 b7 27 05 be e8 f0 07 3e cb a6 5b bd ef 2b bd bd
       -0.13003431 0.13275492 -0.053625863 -0.09236895
000170 7b ec fc bd 96 d1 39 be fc 67 fe bd dc 4a 0f 3e
       -0.123497926 -0.18146357 -0.12422177 0.139934
000180 f7 9e 45 3e 6a ca 31 3d 77 97 a8 bd d7 f5 37 3e
       0.19298922 0.043405928 -0.082320146 0.17964874
000190 95 e0 32 3e db f7 c2 3d a3 fc 15 be ec fc 85 bc
       0.17468484 0.09519931 -0.14647155 -0.016355954
0001a0 14 b4 aa 3b 29 bc 15 3d d5 7b 0d bd 60 d6 0d 3d
       0.0052094553 0.036556397 -0.034541924 0.034628272
0001b0 0f 3f f7 bd 04 11 07 3e 55 67 15 3e 8a 44 3b bd
       -0.12072574 0.13190085 0.145902 -0.04571966
0001c0 a5 ef 15 3e 93 8d 8a 3d cc 9d 6b bd cb 8c 53 3d
       0.14642198 0.067652844 -0.057523534 0.051647943
0001d0 14 5a 87 3b c6 24 79 bd 66 98 7d bc 4f ac 1e be
       0.004130611 -0.060826086 -0.015478229 -0.15495418
0001e0 75 43 13 3e 89 98 ff bd 56 24 ae 3d 54 33 69 3d
       0.14381202 -0.12480266 0.08503024 0.056933716
0001f0 50 12 1e 3e c1 5b c4 3c db 67 19 be 5c ee fb 3c
       0.15436673 0.023969533 -0.14981024 0.030753307

lstm.weight_ih_l2 f4 [128, 32]
000000 51 e7 e2 bd 44 67 47 bd a4 d6 ba 3c 50 ac 3e 3c
       -0.11079276 -0.048682466 0.022807427 0.011637762
000010 4f 60 30 be dd b1 09 bd d1 9b 22 3d 48 92 3b 3c
       -0.17224239 -0.03361689 0.03969938 0.01144845
000020 bc 09 2b 3c d7 b7 fa 3d ef 6f 3c 3d e2 70 d8 3c
       0.010439333 0.12242096 0.046005186 0.026421014
000030 cd 49 b5 3d 97 e2 e3 bd c2 bf 39 be 3a bb 21 3d
       0.08851967 -0.11127203 -0.18139556 0.039485194
000040 0c ac 9a 3d 74 2e 00 be 1d d4 2c be 47 ed ec 3d
       0.075523466 -0.1251772 -0.1687779 0.115686946
000050 90 64 c8 3d 26 6a 90 3d d7 10 d4 bd 9e 61 b5 bc
       0.09784806 0.07051496 -0.103547744 -0.022141274
000060 a8 f5 91 bd 7a fe da bc 77 fa e3 3a 4a fe 77 bd
       -0.07126933 -0.026732672 0.001739337 -0.060545243
000070 d6 fa 70 bd 9f 3b 98 3d bd 46 04 be 25 37 31 3e
       -0.058832966 0.07433247 -0.1291761 0.17306192
000080 9c f1 04 3d c2 fb ec bd 2a 72 18 bd 2f dc 45 3e
       0.03245698 -0.115714565 -0.03721825 0.19322275
000090 5f ea b6 bc a1 09 d4 3d b0 0a ea bd be 76 dc bd
       -0.022328554 0.10353399 -0.1142782 -0.10764836
0000a0 b6 59 28 bd 26 53 1c 3e 41 13 bf 3d c6 d9 4e 3b
       -0.04110118 0.15266094 0.09329844 0.0031562909
0000b0 f7 90 88 bd fe 83 d8 3c 2d 7a a4 bd b5 6b b3 bd
       -0.06668275 0.026430126 -0.08031116 -0.08760778
0000c0 41 21 17 bd 50 c7 07 be cf 13 31 be eb 02 bd 3d
       -0.036896948 -0.13259625 -0.17292713 0.09229072
0000d0 dc 17 49 3d 37 5b 95 3d 8d d9 dd 3d b2 49 fd 3d
       0.04909502 0.072927885 0.1083251 0.12367572
0000e0 88 5d 1b bd e8 a9 87 3d 8f 37 4a bd e2 7e ca bd
       -0.037930995 0.06624204 -0.04936939 -0.09887482
0000f0 12 8d 88 bd a4 a9 44 3e 50 91 6b 3d 01 97 a0 3d
       -0.06667532 0.19205338 0.057511628 0.07841302
000100 6f e3 ff bd 3c 42 15 3e 66 9c 6a 3d 2d bf 10 bc
       -0.124945514 0.14576048 0.05727806 -0.008834642
000110 9d 75 06 3d 50 a2 2a 3e b1 71 aa bd 9f 57 03 be
       0.03282701 0.1666348 -0.08322466 -0.12826394
000120 12 d1 02 3e 15 05 f9 3c db f2 05 3d de 80 17 be
       0.12775066 0.030397931 0.03270231 -0.14795253
000130 d8 1e 04 bd 34 c5 a4 3d f2 9b 13 be 5b be 7c 3d
       -0.032255977 0.08045426 -0.14414957 0.061704975
000140 61 ef 5f bd c2 c1 e5 3c 50 33 15 be fd db 18 3e
       -0.05467165 0.028046492 -0.14570355 0.14927669
000150 11 9c f5 bd 7d a1 ff 3d 12 ca c5 3c 96 dc aa 3d
       -0.11992658 0.12481973 0.024144206 0.08342855
000160 c4 5e 8b 3d 54 4e 4f be d5 b4 27 be a3 6e b0 3d
       0.068051845 -0.20244724 -0.16377576 0.08614852
000170 fb fa 8a 3c b6 a4 ad bd 2f fe 65 bd 31 e6 e3 3d
       0.01696538 -0.08478682 -0.05615061 0.1112789
000180 8e 7f a1 bd 8f c3 a7 3c a7 07 92 bd 12 ce 0a be
       -0.07885657 0.020478992 -0.07130366 -0.13555172
000190 f7 80 b8 3b 48 1b 90 3d 8f 70 ff 3d 7d 4e 2b 3e
       0.005630608 0.070364535 0.12472641 0.1672916
0001a0 7b 82 e7 bd a2 10 7f 3d ee 90 08 3e e2 d8 cd 3d
       -0.11304184 0.06227172 0.13336536 0.10051133
0001b0 12 4b fe bd 9d b3 84 3d a3 eb e9 3c cd 14 eb 3d
       -0.12416662 0.06479571 0.028554743 0.11478577
0001c0 39 43 c1 3d 0f f7 90 3d f4 ec 54 3d a9 df 37 3d
       0.0943665 0.07078373 0.05198379 0.044891033
0001d0 7b e3 eb bd e8 10 c5 3d ee e3 ef ba 54 25 84 3d
       -0.11517998 0.09622365 -0.0018302181 0.06452432
0001e0 8e fd 0c 3e 23 be 4c be 4d 6a 25 be b4 55 00 be
       0.13768598 -0.19994406 -0.16153832 -0.12532693
0001f0 bb d0 0a 3e 6c 46 18 3e 27 cd 80 3d 8e 59 16 be
       0.13556187 0.14870614 0.0628913 -0.146826
000200 03 74 90 3d 49 3d 23 be d3 c6 f6 3d dc 08 c3 3d
       0.070533775 -0.15941347 0.120496415 0.09523174
000210 92 fc 18 be b3 f3 00 bd 1f 5f 9c bd 48 ad 89 bd
       -0.14940098 -0.03148241 -0.076353304 -0.06722504
000220 47 2c 2b 3d 3d 09 1e be 2f 57 58 bd 83 20 3e 3e
       0.041790273 -0.15433212 -0.05281752 0.1856709
000230 e0 13 88 3c 2f a5 26 bd 26 10 07 3e 76 14 a8 bd
       0.01661104 -0.040684875 0.13189754 -0.082070276
000240 34 4f fb bd 45 e4 0f be 68 8d 02 be ce a8 0c be
       -0.12270966 -0.14051922 -0.12749255 -0.13736269
000250 be 5f 35 bd 71 1c 41 bd e6 91 a9 bd 94 7c 22 3e
       -0.04428076 -0.047146264 -0.08279781 0.15867835
000260 74 86 f2 3d de f5 9d bd 66 07 0a 3e 20 49 7d bc
       0.11842051 -0.07712911 0.13479385 -0.015459329
000270 55 d1 d3 bc 4f a0 3d 3e 18 e9 45 3c 53 58 70 3d
       -0.025856653 0.18518184 0.0120795 0.058677983
000280 c9 f5 e6 bd 48 42 c5 3d bd e6 0d 3d d4 fc 0b 3d
       -0.112773485 0.09631783 0.034643877 0.034176663
000290 2d 39 9d 3c 21 50 93 3d 65 5f d7 3d 48 18 6a bc
       0.019192303 0.07193018 0.10516242 -0.014288016
0002a0 a6 3e 9d 3c 0e bd 69 3d ec 26 0e be 6e 6a 28 3e
       0.019194912 0.057065062 -0.13882035 0.1644685
0002b0 29 b9 0a be db 2a d5 3d 40 81 f9 bc 04 b4 8e bd
       -0.13547195 0.10408565 -0.030457139 -0.06967929
0002c0 ed cd 41 3d 31 28 ff 3d 09 eb cd 3b 63 7e 07 3e
       0.047315527 0.12458838 0.006284122 0.13231806
0002d0 ce b6 7f 3d 25 a6 0c bd ed 6e 14 3d cf 82 4f 3d
       0.062430196 -0.034338135 0.0362386 0.05066186
0002e0 c8 3a 40 be 31 68 46 be 32 30 ee bd b2 4a 0c 3d
       -0.18772423 -0.19375683 -0.11630286 0.034250923
0002f0 3f f3 f3 3d 02 c8 a9 bd ae 2a e9 bc e5 df e8 3d
       0.1191163 -0.082901016 -0.028462734 0.113708295
000300 fd b9 0f 3e fa 1a f6 3d 77 30 3a be bd 58 16 be
       0.14035793 0.12016864 -0.1818255 -0.14682288
000310 5d 27 26 be 09 7b 8f 3a dd 55 15 be 8f d8 26 3e
       -0.16225953 0.0010946702 -0.14583535 0.16293548
000320 11 99 f6 bd 55 87 d6 bd ac db 01 be 04 85 f9 3d
       -0.12040914 -0.10475031 -0.12681454 0.12183574
000330 6f 22 18 be 5f 7a 1a 3e 81 0c 18 be f0 83 21 3d
       -0.14856885 0.15085743 -0.1484852 0.039432466
000340 c9 9d e0 bc 53 b0 21 3e 94 eb ec bd a2 80 a4 3d
       -0.027418988 0.15789919 -0.115683705 0.08032347
000350 c9 e0 86 3c 98 3f 3d bd 1c f9 95 bd ec 56 63 3b
       0.016464608 -0.046203226 -0.073229045 0.003468926
000360 27 36 23 3e c5 b7 13 3e 1b 50 f7 bd 96 8f c1 3c
       0.15938626 0.14425571 -0.12075826 0.023628037
000370 37 c1 ba 3d ec ea b5 bd 78 45 1c 3e df 8e 05 3e
       0.09118884 -0.088826984 0.15260875 0.13042782
000380 0b 08 2f bd f6 9f e2 bc 35 48 00 be 0e a3 0a bd
       -0.04273228 -0.027664166 -0.12527545 -0.033846907
000390 2b ef 06 be 6c c0 0e be 53 97 21 be 1b 28 73 3d
       -0.13177173 -0.1394059 -0.15780382 0.05936442
0003a0 86 c7 4c 3c a9 e6 b6 3d 06 4a b0 bd bd 96 b3 bd
       0.012498742 0.08930714 -0.08607869 -0.087689854
0003b0 a9 09 44 bd c2 c7 e0 bd a2 7a 09 bd a4 41 90 3c
       -0.047860775 -0.10975601 -0.033564217 0.017609425
0003c0 22 45 bb bc ef e6 29 3e 5f f0 7e bd 0d 09 90 bc
       -0.022860114 0.16592 -0.062240954 -0.01758244
0003d0 53 3c 23 be 39 f4 1a 3b 91 8a c7 bd a5 c4 dd 3d
       -0.1594098 0.0023644103 -0.09743226 0.108285226
0003e0 44 57 07 ba 68 2b cd bd 1a 45 cd bd 74 40 9d 3d
       -0.0005162845 -0.10018045 -0.10022946 0.07678309
0003f0 45 aa 04 3e 68 7a 6c 3d bc 82 58 3d cd 54 1f 3e
       0.12955578 0.057733923 0.052859053 0.15559693
