pv/checkpoints/기숙사B동-checkpoint-2023-08-10 22_18.pt (torch, 304615 bytes, 38 tensors)

lstm.weight_ih_l0 f4 [128, 17]
000000 86 7b 13 be 11 2b 87 bd 3a ea c5 3c 6c 19 1d be
       -0.14402589 -0.06600011 0.02415954 -0.15341729
000010 8f 1a d5 3c 4e bf 57 3d 8b 43 9b bd e5 be 64 3c
       0.02601364 0.052672677 -0.07581242 0.013961528
000020 70 3c f1 3c 04 e3 38 3d af ae 04 bd 53 51 ce bd
       0.029447764 0.045138374 -0.032393154 -0.10074105
000030 41 6c 8f 3d e8 c2 b0 bd c6 c6 d3 3c 2e 80 02 3e
       0.0700307 -0.086309254 0.025851618 0.12744209
000040 f0 26 55 3a c7 1f a5 bd 18 0c d1 bd af c3 5d bd
       0.00081311073 -0.08062702 -0.10207385 -0.054141697
000050 aa f2 e5 bd 7c 67 1e 3e b7 7b 9f 3d 76 b2 17 be
       -0.11227925 0.15469164 0.077872686 -0.14814171
000060 ef 1b 43 3e 05 c5 a5 bd 7e c5 0e 3e 54 0b c6 3d
       0.19053625 -0.08094219 0.13942525 0.096701294
000070 b8 50 35 3c 0e 7b 10 bd 8e 7d b1 3d 0e 58 8a bc
       0.011066608 -0.035273604 0.08666526 -0.01688769
000080 df 12 0b bb 16 b0 88 3d 2f 22 10 3e 40 d1 1c be
       -0.0021220965 0.06674211 0.1407554 -0.15314198
000090 d5 85 92 3b 6a ad d5 bd 72 f5 05 3d af c1 f2 bd
       0.0044715204 -0.10433467 0.032704778 -0.118533485
0000a0 7d 76 a4 bc 24 8d 09 be 41 88 c2 bd 3a f8 b2 bc
       -0.02007603 -0.13432747 -0.094986446 -0.02184688
0000b0 1b 52 f2 bd 5c 33 ad 3d 57 91 f3 bd 94 ad d2 bd
       -0.118320666 0.08457062 -0.11892956 -0.10287014
0000c0 20 8a 30 3e 55 9b fe 3d 19 ba 4c 3d d0 c8 07 be
       0.1724019 0.12431971 0.049982164 -0.13260198
0000d0 94 f6 0c be db cc 17 bd 4d d4 15 3e e4 00 44 3e
       -0.13765937 -0.0370606 0.14631768 0.19140965
0000e0 97 17 c2 3d d9 dc 2a 3e ae f3 10 bd c2 f4 26 be
       0.09477156 0.16685809 -0.03538864 -0.16304305
0000f0 dc 80 1d 3e 6c c2 00 3e 0c 46 f5 3c 86 ac 1f bd
       0.15381187 0.12574166 0.029940628 -0.03898289
000100 f9 51 02 ba 14 bb 04 3e 81 a4 5e 3c ac 99 fb bc
       -0.00049713213 0.1296199 0.0135890255 -0.030712925
000110 f9 80 eb 3d ed 20 0d 3b 10 ac 25 3e 9b 51 85 3d
       0.11499209 0.0021534518 0.16178918 0.06509706
000120 c5 bc 30 3e 07 e2 d5 3d 01 39 9a 3d dc dc 92 3d
       0.1725951 0.10443502 0.07530404 0.07171032
000130 9a 40 71 3d 10 e6 b2 3d b4 d1 07 be 26 30 09 be
       0.0588995 0.08735287 -0.13263589 -0.13397273
000140 cf 83 25 3e 97 8f 1b be 91 ff 92 3d 39 1c 5c 3d
       0.16163562 -0.15191494 0.07177652 0.053737853
000150 58 e7 f3 bd ac df a0 bd 7d 75 ab 3d 28 73 65 bd
       -0.1190936 -0.07855162 0.083720185 -0.056018025
000160 ae 54 1b be d4 a8 9d bd cc ba 6d 3c dd 76 25 bd
       -0.15169021 -0.07698217 0.014509868 -0.04039656
000170 be e3 02 3e 27 ea 40 3c ab 09 37 bd 04 d0 be bc
       0.12782189 0.011774576 -0.044686954 -0.023292549
000180 91 7e fe bd 78 2b a7 bd 05 69 18 3e 14 1b cb 3d
       -0.124264844 -0.08162588 0.14883812 0.09917274
000190 3a e4 cb bd f4 c2 0c 3e d5 e3 84 3d fe 0a 08 be
       -0.0995564 0.13746244 0.06488768 -0.13285443
0001a0 f9 8e 90 3c e2 22 00 be 6d 5e 02 be b0 cb cf 3c
       0.0176463 -0.12513307 -0.12731333 0.02536568
0001b0 c4 88 08 be 0f 47 fa 3d 2f c7 24 be d1 74 33 3c
       -0.13333422 0.122205846 -0.16091608 0.010953144
0001c0 24 dd fb bd ed ed 02 3e e5 96 bd bd df ed 16 3e
       -0.122980386 0.12786074 -0.092572965 0.14739178
0001d0 2b 7f 8c 3d 4d 74 8d bd 13 3e 0b 3e 78 e1 17 bd
       0.06860193 -0.06906948 0.13597898 -0.037080258
0001e0 ed 30 3e 3d 68 cb 42 3e ba 58 89 bd 24 f7 23 3d
       0.046433378 0.19022906 -0.067063764 0.040030614
0001f0 3d a4 14 be 2b 21 d4 3d 9a 2c 13 3e 97 f9 5a 3a
       -0.14515777 0.10357889 0.14372483 0.0008353232
000200 0c 3f df bd 2c 5f 4f 3c c3 0a 05 be a2 81 1b be
       -0.10900697 0.012656968 -0.12992387 -0.1518617
000210 b1 99 36 be b3 52 23 3b b9 d3 be 3d 98 80 0c be
       -0.17832066 0.0024921119 0.09317727 -0.1372093
000220 e3 03 33 bb 4c 5e 00 be 27 9b 1d bd c5 b8 04 bb
       -0.002731555 -0.12535971 -0.038478043 -0.0020251733
000230 25 e9 19 bd eb e7 9f 3d 30 84 27 3e a7 4c 56 3d
       -0.03757586 0.07807907 0.1635902 0.052319195
000240 43 cb 18 bd 58 5a 1b 3e 88 64 2b bd 0e 72 cb bd
       -0.03730322 0.15171182 -0.04184392 -0.099338636
000250 82 22 bd bd 37 bf 2a 3e 96 e3 3e 3d 36 a7 ad bd
       -0.092350975 0.16674505 0.04660376 -0.084791586
000260 19 d4 eb bd d3 f8 ba bd 40 d0 f1 3c 55 36 9f 3c
       -0.11515064 -0.09129491 0.029518247 0.019435087
000270 70 1a 92 3d 52 d2 44 bd b8 46 fa bc 94 6e f0 bd
       0.07133949 -0.04805214 -0.0305513 -0.11739841
000280 7d 46 03 be 48 37 8e bd ec ef be b9 5a 48 2c be
       -0.12819858 -0.06944138 -0.0003641838 -0.16824475
000290 c6 37 b0 bd 6e 49 bc bb b5 b7 bd bd 45 49 1f be
       -0.08604388 -0.005746058 -0.09263555 -0.15555294
0002a0 a7 93 1e be 51 d7 91 bd ca a8 e6 3d a6 f0 0e be
       -0.15486012 -0.071211465 0.11262663 -0.13958988
0002b0 d9 89 4c bd c9 3b 05 be 54 88 c1 bd a9 25 8b 3c
       -0.04993615 -0.13011087 -0.09449831 0.016985731
0002c0 6d 53 87 bb b6 e9 0e 3e 86 d9 9a bd 40 f5 d3 3c
       -0.004129818 0.13956341 -0.075610206 0.02587378
0002d0 d6 e9 cf 3d ca 33 80 3b 18 57 ed 3d 72 b1 61 bd
       0.101520225 0.0039124237 0.115888774 -0.055100866
0002e0 d9 27 ac 3d 21 43 13 3e a5 a8 41 be 2a a4 67 3a
       0.08406038 0.14381076 -0.18911989 0.0008836413
0002f0 a1 e0 e1 bd 5f b6 e0 3c 71 fd 06 3e bf f1 3f 3d
       -0.11029173 0.027430711 0.13182618 0.046861406
000300 6b 58 41 3d f2 c5 82 bc 98 37 0c be e0 49 46 3e
       0.047203463 -0.015963528 -0.13693082 0.19364119
000310 a5 53 27 bd 1e 4c 2e 3e d9 38 40 3e 8f 1f 7c 3d
       -0.040851254 0.17021224 0.18771686 0.061553534
000320 76 67 ee 3d 02 a4 6f 3d 44 f3 42 3e 36 c8 04 3b
       0.11640827 0.05850602 0.19038111 0.0020260937
000330 d1 a3 2e 3e cc 8c 5b 3d 65 c1 34 3d 37 69 aa 3d
       0.17054678 0.05360107 0.044129748 0.083208494
000340 0c e6 a2 3d d2 ad 57 3d b6 60 1f 3d d3 84 2f bb
       0.07954034 0.052656002 0.03891059 -0.002678205
000350 95 20 33 bb d7 ed 0c 3d ef 04 12 3e 50 ef 82 bc
       -0.0027332653 0.03440651 0.14259695 -0.015983254
000360 d1 0a 53 bd 89 51 a8 3b 95 84 ea 3c cd f6 18 3c
       -0.051523987 0.005136673 0.028627673 0.009336186
000370 18 ec d6 3a 2f 43 ff 3d 5f 84 d5 3d 2a 1d 9d 3d
       0.0016397266 0.12463986 0.104256384 0.07671578
000380 dc f8 48 3d 7e 02 92 3c 8a 9d d8 b9 26 62 25 3e
       0.049065456 0.017823454 -0.00041316106 0.16150722
000390 4c 61 d1 3d c6 38 a2 bd 62 49 f5 bd 5c 22 38 3e
       0.10223636 -0.07920985 -0.11976887 0.17981857
0003a0 09 b3 07 3e ce 2d 14 3e ff 22 e9 3d bc f1 6d 3d
       0.1325189 0.14470598 0.11383628 0.058091864
0003b0 25 7a 03 bd aa f5 ee bc 34 48 3c 3e 45 21 2b 3e
       -0.032098908 -0.029169876 0.18386918 0.1671191
0003c0 54 07 82 3d 5c ba 2a 3e 79 b4 17 be d1 4a ae bd
       0.06349054 0.16672653 -0.14814939 -0.08510364
0003d0 b7 ba b7 3d 89 54 04 bd 5c 8c 58 bd 68 b7 b5 3d
       0.0897116 -0.03230718 -0.052868232 0.088728726
0003e0 28 d9 cf 3d d1 50 a1 3d 9f 9b b5 3c d0 1c 04 3c
       0.10148841 0.07876743 0.022168932 0.00806351
0003f0 06 92 21 3d f7 eb 02 be d8 83 00 3e fd f6 f8 3b
       0.0394459 -0.12785326 0.12550294 0.0075978027

lstm.weight_hh_l0 f4 [128, 32]
000000 75 db 30 be 94 16 bb bd 7b 74 1d be 3b 7d e0 bd
       -0.17271216 -0.09135166 -0.15376465 -0.10961386
000010 2b 35 14 3e a8 ac d6 3d 49 60 05 be 1e ad ac 3d
       0.14473407 0.1048215 -0.13025011 0.08431457
000020 62 6f e8 3c 3a 6b cc 3d 0a 2c 06 be 0e e7 01 bd
       0.028373424 0.09981389 -0.13102737 -0.03171449
000030 e8 2d 37 be 57 6d 72 3d 2e c6 1d be 8f cc 3d 3e
       -0.17888606 0.059186306 -0.15407631 0.18535064
000040 35 43 28 be 35 88 a4 bd 0b 8b ee 3d 88 d6 eb 3d
       -0.16431887 -0.08033792 0.11647614 0.11515528
000050 fc 1b 95 3c 00 f2 24 be 3f a2 4a bd 81 af bb 3d
       0.01820182 -0.1610794 -0.049471136 0.09164334
000060 bc 70 11 3e 37 33 c0 3d 79 a6 45 3d 67 90 20 3d
       0.14203161 0.093847685 0.048254464 0.039200213
000070 82 f7 1a 3d df 38 e8 3d c3 cf d4 3d 4c 2f 81 bd
       0.037833698 0.11338972 0.1039119 -0.06307849
000080 da 23 3b bd 17 a6 d5 bd 1e d3 7c 3d bb 3c 31 3e
       -0.045688488 -0.1043207 0.061724775 0.17308323
000090 42 81 91 39 5c c1 0c 3e 25 ec 0c 3e 0d 37 dc bc
       0.0002775286 0.13745636 0.13761957 -0.026881719
0000a0 47 06 67 bc 51 60 a3 3c d8 25 ea 3c fa 9d 09 3e
       -0.014100618 0.019943388 0.028582498 0.1343917
0000b0 16 eb 3b be ee 1b c1 3d 80 ff 16 3e 43 70 b0 bc
       -0.18351397 0.09429155 0.14745903 -0.021537906
0000c0 68 6a 59 bd e1 ef eb 3d 7a a3 ec 3c cb de ca bd
       -0.053079993 0.11520363 0.028886545 -0.09905776
0000d0 c7 5f c2 3d d2 b1 3d bc 3f 63 0f 3e e7 32 fc 3d
       0.09490924 -0.01157804 0.14002703 0.12314396
0000e0 c2 6c 25 3e f9 13 40 3e 33 c6 7a bd 36 f9 11 3e
       0.16154769 0.18757619 -0.061224174 0.14255223
0000f0 fa e7 ff bb ca ff 1d 3e ed da 06 3e 5e b7 c8 3d
       -0.007809636 0.15429607 0.13169451 0.098005995
000100 a8 7e 00 be 01 dd 90 bd 2c 12 f3 bc e6 9c 24 3e
       -0.12548316 -0.07073403 -0.029671751 0.16075477
000110 07 dc a5 3d 97 75 34 3d a3 b1 a7 bd d2 08 81 3d
       0.080986075 0.044057455 -0.081881784 0.063005105
000120 85 2c e7 bd 71 b5 c9 3d 83 08 3c be e4 1a f4 3d
       -0.11287788 0.0984906 -0.18362622 0.119191915
000130 0c b0 df bd c9 02 6a bd 38 f7 74 bd 60 c0 29 3e
       -0.1092225 -0.057131562 -0.05980608 0.16577291
000140 8d 52 e4 bd 4f ca 5a 3d c9 4c 85 bc 48 0a 91 bc
       -0.11148558 0.053415593 -0.016271966 -0.017705098
000150 43 e8 12 be e9 f8 ed bd 90 2b b3 3d 5f 05 bd 3c
       -0.14346413 -0.116197415 0.08748543 0.02307385
000160 c2 76 2a 3e 9e 55 04 3e 03 20 4e 3d 65 84 95 3c
       0.16646865 0.12923285 0.050323498 0.018251607
000170 e2 ad a0 bd d8 98 8f 3c 59 51 ef 3d 9f f9 0f 3e
       -0.078456655 0.017528936 0.11685438 0.14060067
000180 f8 ff 84 3d 82 c2 2d 3e ba 38 cc bc 7d b9 d5 bc
       0.06494135 0.1696873 -0.024929393 -0.026089424
000190 25 14 13 be e0 20 a3 3c cb d2 f2 bd f6 d9 40 bd
       -0.14363153 0.019913137 -0.11856612 -0.047082864
0001a0 b2 65 a0 bd 89 d9 a5 3d d4 9a 17 3e 41 09 0e 3d
       -0.07831897 0.08098132 0.14805156 0.034676794
0001b0 cb 5d f0 3d 9b a9 c1 bc a5 3c c2 3d 26 d5 af bd
       0.117366396 -0.023640445 0.09484223 -0.08585577
0001c0 f7 c7 c0 3d 10 fc 12 3e 1c 93 13 bd 82 e7 2f 3e
       0.0941314 0.14353967 -0.036028966 0.17178157
0001d0 df f3 1e be 80 97 ad bb 16 68 aa 3d 16 70 09 be
       -0.15522717 -0.005297601 0.08320634 -0.13421664
0001e0 2c 08 1e 3c 55 d2 9e 3d 79 7c dc bd 6c f7 3b be
       0.009645503 0.077549614 -0.10765929 -0.18356103
0001f0 e2 e1 25 3e a0 6e c2 3d 68 b4 a4 3c cb 9b 0f 3e
       0.16199449 0.09493756 0.020105556 0.14024274
000200 59 c7 dd bd f8 fc 07 3e 50 ac a2 bd a4 b4 14 3e
       -0.10829038 0.13280094 -0.07943022 0.14522034
000210 73 a7 02 bc ff 7e 09 3d 90 0e 05 3e 84 04 ae bc
       -0.007974493 0.03356838 0.12993836 -0.021242388
000220 e0 66 2b 3e 3c 31 2c be 3b f2 7a 3d be 42 ff bc
       0.16738462 -0.16815656 0.061266165 -0.031159755
000230 0d e9 c9 3d 5e f6 80 bd db 62 e2 3d cc d4 0a be
       0.09858904 -0.06296991 0.110540114 -0.13557738
000240 84 23 13 3e ab c3 64 bd 13 5c 0e bd 64 ad 32 3e
       0.14369017 -0.055850666 -0.034755778 0.17448956
000250 cb f6 cf 3d 2a f8 b1 3d 9b 00 bb bd 8d a1 dc 3d
       0.10154494 0.08689912 -0.09130975 0.10773001
000260 7f bb c3 3c 5f f2 8c bc 28 ed 3a be 7f 83 3b be
       0.023893116 -0.017205415 -0.1825453 -0.1831188
000270 99 fa cc bd 23 80 f4 bd db fb 9e 3d fe 5c ef bd
       -0.10008735 -0.11938503 0.07762881 -0.11687659
000280 7e 08 0f 3e 5e 92 8e bd 21 ef fc 3d a9 c5 18 be
       0.13968083 -0.06961511 0.12350298 -0.14919151
000290 0e 1f a9 3d b5 7b 15 bd cb d1 0d 3e 6d d6 01 bd
       0.08257876 -0.03649493 0.13849561 -0.031698633
0002a0 b4 03 fa 3d c8 5c 26 3e 8f ff 2c be c4 81 97 bd
       0.122077376 0.1624633 -0.16894363 -0.07397798
0002b0 14 1d eb 3d 42 85 5f bd a0 bd 20 3e a3 b2 c9 bd
       0.114801556 -0.054570444 0.15697336 -0.098485254
0002c0 b1 68 d9 3d 84 61 fd bc 84 1a 81 3d ff 58 0d bd
       0.106156714 -0.030930288 0.063038856 -0.0345087
0002d0 db 36 44 be 90 d7 3f 3e 32 67 b4 3c 02 85 21 3e
       -0.1916155 0.18734574 0.022021864 0.15773395
0002e0 ef 53 18 3e 46 26 12 3e 8d a8 31 be bc 33 18 bd
       0.14875768 0.14272413 -0.17349453 -0.037158713
0002f0 32 e9 24 3d f9 6e 1f 3e 18 24 59 3c 17 c1 77 bd
       0.040261455 0.15569676 0.013253234 -0.06048688
000300 ce 1a 3a 3e 3b f8 97 3d 30 09 65 bd b3 05 cd bd
       0.18174288 0.07420393 -0.055916965 -0.10010853
000310 f0 a0 86 bd bd c1 e7 3d be 54 d7 3d 5f a5 ab bd
       -0.06573665 0.113162495 0.1051421 -0.083811514
000320 08 2e 4d 3d 47 06 f7 3d d3 4a 1d 3e 3c ec 8b 3d
       0.050092727 0.12061744 0.15360574 0.068321675
000330 22 a9 18 3e 0d bd 4a bd f0 de ae 3d 89 dc 20 be
       0.14908269 -0.0494967 0.08538616 -0.15709127
000340 c0 03 6b bc 68 fa 9d 3d 8d df be bc 30 f2 1d 3d
       -0.014344156 0.07713777 -0.023299957 0.038561046
000350 88 96 15 3e c2 ca 1a be 8f f8 e4 bd fb 97 5d bd
       0.14608204 -0.15116408 -0.11180221 -0.054100018
000360 ec fb 26 3c 66 fe 33 be ff 3b 1f bd 58 55 d7 3d
       0.010191899 -0.17577514 -0.038875576 0.10514325
000370 82 2f f1 3c 59 65 6d bd 83 77 66 3d 14 9f fb 3b
       0.029441599 -0.05795798 0.05626632 0.0076788757
000380 66 0e 13 3e 38 da 47 3e 37 e4 a3 3d a9 e0 47 3c
       0.14360961 0.19516838 0.08002513 0.012199559
000390 56 2a 2d be f4 ed f8 3c 69 1b 09 be 37 84 92 3d
       -0.16910681 0.030386902 -0.13389362 0.07154124
0003a0 66 81 99 3d 19 47 bb 3d 69 39 08 3d b3 6a 2c 3c
       0.07495384 0.0914442 0.033257876 0.010523486
0003b0 cc 9d 3f bd 75 53 e9 bc 35 2f 38 3e 46 ed 00 bc
       -0.046781346 -0.028482178 0.17986758 -0.00786907
0003c0 71 8a 20 be ac da 92 3c bc 63 bc bd d6 08 04 3e
       -0.15677811 0.017926537 -0.0919871 0.12893996
0003d0 50 8a b7 bd 40 79 f2 bd 7f b4 19 3e 93 04 c3 bd
       -0.08961928 -0.11839533 0.1501026 -0.09522357
0003e0 19 12 03 3e c4 9d fa 3d ee b1 3e be f7 91 9f bd
       0.12799872 0.12237123 -0.18622562 -0.077915125
0003f0 95 f2 f8 3d 1d 5b 32 bc 70 40 1f be 73 45 09 3e
       0.12155644 -0.010885981 -0.15551925 0.13405399

lstm.bias_ih_l0 f4 [128]
000000 78 9a c9 3d 99 4f ae bd ff 0a 39 bd 3d 27 82 3d
       0.09843916 -0.08511276 -0.045176502 0.0635514
000010 19 0c 1e ba df 62 17 3e a1 4d 31 be 19 aa c6 3c
       -0.00060290244 0.1478381 -0.1731477 0.02425103
000020 b7 77 0c 3e 20 ab 27 3e 37 ff f3 3d 15 ef 30 3e
       0.13717543 0.16373873 0.11913913 0.17278703
000030 10 a2 89 bd a0 6e ca 3d fb f8 d3 bd 51 8a 36 3e
       -0.06720364 0.09884381 -0.10350224 0.17826201
000040 56 6e ea 3d f1 75 64 bd f4 13 0b be 58 61 0c be
       0.11446826 -0.05577654 -0.1358183 -0.13709009
000050 2e d1 53 bd b9 0d 48 3e a6 d8 09 3e 12 59 be 3d
       -0.05171316 0.19536485 0.13461551 0.092943326
000060 a6 a3 d0 bd f9 b9 b1 bc c8 79 64 bd ae e8 0f be
       -0.101874635 -0.021695124 -0.055780202 -0.14053604
000070 23 83 0d bd e0 07 8e 3d 75 55 04 bc 2a 2c cc 3d
       -0.03454889 0.06935096 -0.008077015 0.09969361
000080 81 9e ac 3b 1f 62 45 3c 00 12 f1 3d fc 62 ec 3d
       0.0052679186 0.01204732 0.11771011 0.11542317
000090 7e 3b 44 3d 50 43 c0 3b c3 79 06 be 79 b4 52 3c
       0.0479083 0.0058673993 -0.13132386 0.012860411
0000a0 9f fd a1 3d 73 7e 8d 3d 71 ae 0b be 17 da c6 3c
       0.079097025 0.06908884 -0.13640763 0.024273915
0000b0 46 2f 07 be 7e 3c 9f bd d5 97 a7 3d 32 cd ab 3d
       -0.13201627 -0.0777521 0.081832565 0.08388747
0000c0 ec 4f 0c 3d 90 fa c1 bd 77 53 bd 3d b6 c9 2c 3d
       0.034255907 -0.09471619 0.09244435 0.042184554
0000d0 90 f6 d1 3c e8 ac d0 bb 29 45 3b 3e 8b 1a 1a 3e
       0.025630265 -0.0063682683 0.18288101 0.15049188
0000e0 44 c5 4e 3e 42 e9 1b be 64 b8 ed 3c ef 1b 18 3d
       0.20192438 -0.152257 0.029018588 0.037136015
0000f0 91 d2 17 be 1b 49 36 3e a3 3a 2d 3e 33 64 a9 3d
       -0.14826418 0.17801325 0.169169 0.082710646
000100 f7 83 de 3d ec 33 1d be a2 38 6e bb 2d 7e 91 3d
       0.10865014 -0.15351838 -0.0036349674 0.07104144
000110 ce 41 32 be f9 8e 2b 3e 53 49 ef 3d 52 41 28 be
       -0.17407915 0.16753758 0.11683907 -0.16431168
000120 c2 a9 de 3d 2a 9d f7 3d 3f 11 dc bd 20 fd 17 3e
       0.108722225 0.120905235 -0.10745477 0.14842653
000130 d0 cb a2 3d 9e d8 3d be 06 01 b3 3d d4 ce 54 3d
       0.079490304 -0.18539664 0.087404296 0.05195506
000140 24 7c 5c bd 89 9a 41 bd ba 2d d3 bd 1e 9f bd bd
       -0.053829327 -0.047266517 -0.10311456 -0.09258865
000150 04 5d 45 bd f5 2d 04 3e de f1 cd bd cd 02 2d be
       -0.04818441 0.12908156 -0.10055898 -0.168956
000160 80 b7 02 be 9c 00 e0 bd b5 e4 37 bd b0 98 1f be
       -0.12765312 -0.10937616 -0.044895846 -0.1558559
000170 b0 4d 22 be 37 68 20 3a 6f 49 e6 bc 84 a8 0d 3d
       -0.15849948 0.0006119045 -0.028111188 0.034584537
000180 e6 a7 a1 bd 36 9f 2b 3d 8b 86 38 3e 47 c2 1b be
       -0.07893352 0.041899882 0.18020074 -0.1521083
000190 0a c2 36 3e cd d9 fb 3c b6 03 a8 3c 3e 6b e2 bd
       0.17847458 0.030743504 0.020509582 -0.11055611
0001a0 1b 7c aa ba 2c 6a 11 be 2b 92 11 be d6 cb b3 3d
       -0.0013006957 -0.14200658 -0.14215915 0.08779113
0001b0 91 f2 b1 3d 7f 35 be bd 98 39 d2 3d 7f 0e 87 bd
       0.08688844 -0.09287547 0.102648914 -0.06594562
0001c0 bf ce 19 be 10 ed 26 3d 04 c8 b8 bc df 12 ea 3d
       -0.15020274 0.040753424 -0.022556312 0.114293806
0001d0 e3 88 bf bd 49 7d 8e bd 9d 53 36 3d fa 27 19 be
       -0.09352281 -0.0695749 0.044513334 -0.14956656
0001e0 f6 15 df bd 39 81 0d be 3b 64 e2 3d 07 3e 25 bd
       -0.108928606 -0.13818826 0.11054274 -0.040342357
0001f0 37 a3 bf bc cb 5e cc bc 82 27 00 3d c9 4e 09 be
       -0.023393257 -0.024947545 0.031287678 -0.1340896

lstm.bias_hh_l0 f4 [128]
000000 6b 36 2c 3e c0 91 0f 3e b7 e4 e6 3d e0 ac 03 3e
       0.16817634 0.14020443 0.11274093 0.12858915
000010 0e 57 27 3e e4 80 f0 3d 79 de 09 be 70 74 1a 3d
       0.16341802 0.11743334 -0.13463773 0.0377087
000020 0d bd 0b be a9 13 1c 3e 45 68 95 bd 80 a1 30 3e
       -0.13646336 0.15241875 -0.072952785 0.17249107
000030 35 af f8 3c c2 9e 06 bc 46 60 92 3d bc e3 46 3e
       0.030356983 -0.008216562 0.07147269 0.19422811
000040 1a 0a 13 be 85 f0 0c 3e 0c 81 5f 3d 7e a2 07 be
       -0.14359322 0.13763626 0.054566428 -0.1324558
000050 90 74 12 be c9 a9 52 3d da 2a 71 3d b8 eb 06 be
       -0.14302278 0.05143145 0.058878757 -0.13175857
000060 36 0c ad 3d 3d d7 29 3c 80 e2 2c 3e 3e 11 ba 3d
       0.08449595 0.010366258 0.16883278 0.0908532
000070 ee 83 2c bc 76 86 f9 bd fe ed be 3d 67 46 67 bd
       -0.010529501 -0.121838495 0.09322737 -0.056463625
000080 ba b7 7a 3d 30 29 42 3c ae b2 be 3d 1b 08 18 bd
       0.06121037 0.01185064 0.09311424 -0.037117105
000090 d9 7a d5 bc b1 6d 2e 3e 08 3d 1a be 2f 44 2b 3e
       -0.026059555 0.17034031 -0.15062344 0.16725229
0000a0 5d 9d 13 be 82 af 01 bd 30 ef 34 3e 2c a1 e1 3d
       -0.14415498 -0.031661518 0.17669368 0.11017069
0000b0 17 96 03 be 18 30 ad 3d 2f be 63 3d 60 6a 59 3a
       -0.12850223 0.08456439 0.055601295 0.0008293744
0000c0 e5 8c 62 bd b2 72 0b be cd e7 44 3e e5 0e 29 3d
       -0.05531015 -0.13617972 0.1922905 0.04127397
0000d0 44 7e ce 3d 85 1e ce bd 82 be 08 3d 89 7d f2 bd
       0.10082677 -0.10064415 0.033384807 -0.1184035
0000e0 3e 0a 23 3e 5e 34 ff 3d 8c c5 0d be 78 a6 ef bd
       0.15921876 0.1246116 -0.1384489 -0.11701673
0000f0 25 1b 37 3e 4b 3d b4 3d 18 89 a3 3d aa 9d 46 bc
       0.17881449 0.08800753 0.07985133 -0.012122551
000100 47 b0 32 be 32 e4 36 3e 74 ff b1 bd e3 f3 80 bd
       -0.17450057 0.17860487 -0.08691302 -0.06296518
000110 c8 26 83 3d 20 1f c6 bd c1 f2 cd 3d bd 11 b5 bc
       0.06403881 -0.096739054 0.10056067 -0.022103185
000120 fb 27 e4 bd 9e a0 c1 3c ba 50 bf bd 74 19 89 3d
       -0.11140438 0.023636159 -0.09341569 0.06694308
000130 e9 0f a4 bd 1e 95 d2 bd 6f d4 b8 3d 39 43 3e 3e
       -0.08010847 -0.10282348 0.090248935 0.18580331
000140 af 85 a1 3c c2 d8 13 be be 58 28 be 62 ae 01 3d
       0.019717066 -0.14438155 -0.16440102 0.031660445
000150 fa 8a 0e be d2 d7 5d bc 3a c1 58 3d 19 6f cd bc
       -0.13920203 -0.013540225 0.05291865 -0.02507739
000160 08 ad fc bd 5f 73 c2 bc c2 02 c1 bd 75 5b fb bd
       -0.123376906 -0.023736654 -0.09424354 -0.122733034
000170 04 7e 37 be 82 c9 b7 3c 97 44 3c be bc dc 20 3d
       -0.17919165 0.022434954 -0.1838554 0.03927301
000180 68 54 30 3c 00 8b 9f bd ce 29 22 bd b2 cb 51 3d
       0.0107623115 -0.07790184 -0.03959065 0.05121965
000190 da 22 1a 3d 7e 85 5b bd c5 3b 0f bd 31 91 07 be
       0.037630893 -0.053594105 -0.03496911 -0.1323898
0001a0 e4 de 9e 3c 8f c2 59 bd dc 2d 2a 3e 51 cd 8a 3d
       0.019393392 -0.05316406 0.16619056 0.06777442
0001b0 6b d8 42 bc 5f 5a e9 3c b6 c9 e2 bd 79 c3 ba bc
       -0.011892418 0.028485475 -0.110736296 -0.022798287
0001c0 33 32 c8 3d 95 02 f3 bd 4d 88 45 3e b3 e3 08 3e
       0.097752 -0.11865727 0.19290276 0.1336811
0001d0 77 5e 0a be 4e da 00 be 61 75 f5 bd dc a4 1d 3e
       -0.13512598 -0.12583277 -0.11985279 0.1539492
0001e0 9b 15 27 3e ed 6f 2b 3e c5 75 59 3a b3 9c bc 3d
       0.16316836 0.16741915 0.0008295442 0.092095755
0001f0 12 79 9d bc cd 88 2f 3e 39 0c 06 3d 09 6b 0b 3e
       -0.01922277 0.17142029 0.0327265 0.1361505

lstm.weight_ih_l1 f4 [128, 32]
000000 73 2f 8e bd 5a 9b 53 3d 27 ab 70 bd 00 18 4d 3b
       -0.06942644 0.051661827 -0.058756974 0.0031294823
000010 16 d8 24 bd b3 d0 26 bd b8 4e 96 bc a0 99 2f be
       -0.040245138 -0.040726375 -0.018348083 -0.17148447
000020 04 e0 27 3e 75 f1 0f be 11 84 07 be 30 6c 07 be
       0.16394049 -0.14056952 -0.13233973 -0.13224864
000030 c4 0a d2 3c 5c 21 12 bd 02 39 0b be ae 12 60 bb
       0.0256399 -0.035676345 -0.13595966 -0.0034190821
000040 bd 70 08 be f0 30 b1 bc 65 f4 99 bb 46 99 8c bd
       -0.13324256 -0.02162978 -0.0046983236 -0.06865172
000050 d9 bc 9f 3c 52 50 2c 3d 5c cb f2 bd 2f 7e 9b 3d
       0.01949923 0.042068787 -0.11855194 0.07592427
000060 e4 6a 1e be d1 3d 9c 3c d8 3d 9d bb ed 70 65 bc
       -0.15470463 0.019072445 -0.004798632 -0.014003974
000070 52 80 98 3d df e7 28 3e 82 a9 d6 bc 61 c5 08 be
       0.0744635 0.16494702 -0.026203874 -0.13356544
000080 65 c5 d9 bd 74 7e cd 3d 5f 87 05 3e 48 d0 c7 3d
       -0.10633353 0.10033885 0.13039921 0.09756523
000090 08 a7 49 3d 09 5c 30 3e 93 c4 97 bd 00 23 43 be
       0.04923156 0.17222609 -0.074105404 -0.1905632
0000a0 cc b7 2a 3e fa 96 e5 bd 7b 17 d6 bb 54 db a7 ba
       0.16671675 -0.11210437 -0.006533561 -0.0012806454
0000b0 43 63 fd bc 13 ac 99 3b 30 48 25 3d 0e 2b 37 3d
       -0.03093112 0.0046897023 0.040352046 0.044718795
0000c0 77 20 90 bd 1c 95 0f be 26 13 27 be 06 ee 2c 3d
       -0.07037442 -0.14021724 -0.16315898 0.042219184
0000d0 76 95 f6 bd 5c 33 01 be 0e 47 20 bc 2e 87 5c bd
       -0.12040226 -0.12617248 -0.009782566 -0.053839855
0000e0 30 84 86 bd b1 57 a7 3d 7e 44 f9 3d 02 a2 c5 bd
       -0.065681815 0.08171023 0.12171267 -0.09650041
0000f0 50 ca da 3b 5a a5 c7 bd a8 8d f6 3d 63 9b 99 bd
       0.0066769496 -0.09748335 0.120387375 -0.07500341
000100 c9 68 25 bc 20 de db bd 6e b4 0e 3e b0 73 5b ba
       -0.0100957835 -0.10735726 0.13936016 -0.0008371426
000110 fa d6 0e 3e 9d 32 f3 bd 02 19 a9 bd e6 20 42 3e
       0.13949195 -0.11874888 -0.08256723 0.18957862
000120 06 0e 21 3d 85 e3 22 be 2f 55 aa bd fe c3 2c bd
       0.039320014 -0.15907104 -0.08317029 -0.0421791
000130 bc 45 d2 bc 26 b3 8e bd 50 1e 68 3d 80 bb 15 3e
       -0.025668018 -0.069677636 0.056669533 0.14622307
000140 2f 99 05 3e d1 c4 2b 3d d6 d3 e2 bd 1b 5a 4d 3d
       0.13046716 0.041935746 -0.11075561 0.05013476
000150 be 59 e9 bd 1f 4c 0c 3d c1 0a f1 3c f7 68 b0 bd
       -0.1139407 0.034252282 0.029424073 -0.086137705
000160 64 60 6d bd 18 ad 30 be 22 7a ba 3d 3d 9f a4 bd
       -0.057953253 -0.1725353 0.09105326 -0.08038185
000170 f2 91 1d bc fe f7 e0 bd f3 ac 96 bd f5 42 a3 3d
       -0.009617316 -0.10984801 -0.07357206 0.079717554
000180 3e e6 fb 3d bb dd dc bd f0 4b e8 3d 10 7e 18 be
       0.122997746 -0.10784479 0.11342609 -0.14891839
000190 f0 30 12 3e a5 7f 8c bd 7c f9 d7 3d bc 23 3e 3d
       0.1427648 -0.06860284 0.10545632 0.046420798
0001a0 de 1e 7b bd c1 6c b2 bd 25 d1 37 3d d2 24 5c bd
       -0.061308734 -0.087121494 0.04487719 -0.053746052
0001b0 aa 12 11 3e 6d 97 17 bd 8a 3d 23 3b c8 30 3d 3e
       0.14167276 -0.037009645 0.0024908506 0.1847564
0001c0 c5 a1 0f 3e 44 f4 3e 3e 29 44 d9 bd 08 cd 19 bc
       0.14026554 0.18647867 -0.10608704 -0.009387262
0001d0 20 44 b8 bd 23 de 13 3d cd 28 15 3e 2d 7f 2c be
       -0.08997369 0.036100518 0.14566346 -0.16845389
0001e0 12 31 11 be ea e4 ab 3d 25 18 6c 3d 4b de 04 be
       -0.14178875 0.08393271 0.057640214 -0.12975423
0001f0 f2 11 00 be 15 62 f6 bd e8 b8 b2 bc 40 0b b9 3d
       -0.12506846 -0.120304264 -0.021816686 0.09035349
000200 34 8b 13 be 7e 8e 07 3d 5a f0 02 3e d2 b4 10 3c
       -0.1440857 0.033094876 0.12787 0.008832173
000210 97 25 13 be ad 46 82 bd 68 0b d6 3d 6e f5 41 3c
       -0.14369808 -0.063611366 0.10451394 0.0118383
000220 6c e7 9a 3d 5e a8 ad bd 56 32 21 be a1 f5 89 3d
       0.075636715 -0.08479379 -0.15741858 0.06736303
000230 68 be 0b 3e c8 4e ec 3c 6c 04 0d 3e 6a c7 ba bd
       0.13646853 0.02884616 0.13771218 -0.091200665
000240 38 a6 1d 3e e5 c4 6b 3d fb 99 0c bd 94 d2 0d be
       0.15395439 0.05756082 -0.034326535 -0.1384986
000250 d0 c4 76 3c 1d ef 37 bd 73 5c 32 be 05 a6 e8 3d
       0.015061572 -0.04490577 -0.17418079 0.11359791
000260 62 5f fd 3d ce 4c d5 3d a3 79 87 3d 04 7f ad bd
       0.123717085 0.1041504 0.06614997 -0.08471492
000270 c6 b9 93 bc 3c f5 08 3e c1 62 cc bd f1 2d 8d bc
       -0.01803292 0.133748 -0.09979773 -0.01723382
000280 22 40 fd bd a7 f4 39 3c f1 7c 6e bd 94 2c 21 3e
       -0.12365748 0.011349834 -0.058224622 0.15739661
000290 08 27 bc bc 96 5e d1 bc d3 84 d9 39 6f be 0b 3c
       -0.02296783 -0.025557797 0.00041488427 0.00852929
0002a0 b9 14 1c 3d 33 be 1c 3e eb 48 b7 3d 0c d4 0d bd
       0.0381057 0.1530693 0.08949455 -0.03462605
0002b0 36 44 b9 bd 7f 73 09 be 5e 16 a4 3d 58 68 1c 3e
       -0.09046213 -0.13422965 0.08012079 0.15274179
0002c0 66 0c 23 be 20 02 d8 3d 2b ed 56 3d 4d 27 1b be
       -0.15922698 0.1054728 0.052472275 -0.15151711
0002d0 c7 e2 0c be b4 83 1a be a9 d1 31 bd 4c 69 9f bd
       -0.13758384 -0.15089303 -0.043412838 -0.07783756
0002e0 0b bc d7 39 cd 73 e1 bc 5c 98 cc bd d3 ed 0d 3e
       0.00041148099 -0.027521038 -0.09989998 0.13860254
0002f0 47 54 5f bd b7 b5 90 bd e8 85 40 bd 06 30 bb 3d
       -0.054523733 -0.07065909 -0.047002703 0.09140019
000300 c7 9d c9 3a 54 86 92 3c c0 58 a4 bd bc 6b 56 3d
       0.0015382104 0.017886318 -0.0802474 0.052348837
000310 c2 07 1b bc be 45 63 bc 24 27 b2 3d 94 42 cd 3c
       -0.009462299 -0.013871608 0.08698872 0.025056161
000320 74 17 ed 3c c2 c6 35 3e e2 80 31 be 52 47 17 3e
       0.028941847 0.17751601 -0.17334321 0.147733
000330 08 8b a6 bd 11 20 30 3d 4b 72 1f be 3d d9 95 bd
       -0.08131987 0.04299933 -0.15570943 -0.073168255
000340 e7 9c 54 3d ee aa 2f 3e 5e a3 5c 3d 4c 1f a0 3d
       0.051907446 0.17155048 0.053866737 0.078184694
000350 b5 49 6b 3d 04 62 34 be 8d b5 2c 3e 9f 33 14 3e
       0.05744334 -0.17615515 0.16866131 0.14472817
000360 a7 98 31 3e 6e 13 88 3b fb 94 9d 3d e5 f5 a1 bc
       0.17343388 0.004152707 0.076944314 -0.019770572
000370 46 0b 18 3e 99 66 86 3c 56 17 f2 3c bc a7 b9 3d
       0.1484805 0.016406344 0.029552143 0.09065196
000380 83 d8 23 be 75 d8 03 be 2d 0a b3 3d 6a 06 13 3e
       -0.16000561 -0.1287554 0.08742175 0.14357916
000390 e7 6a 06 bc cb 4f 7d bd 24 27 db 3d a6 37 63 3d
       -0.008204198 -0.061843675 0.10700825 0.055472992
0003a0 e9 70 af 3c 8d f8 db bd ac 60 47 3d e4 bd ce 3d
       0.021416144 -0.10740767 0.048676178 0.100948125
0003b0 f0 c3 36 bc 0f 92 0f bd 07 01 07 be a1 be bd bd
       -0.011155114 -0.0350514 -0.13183986 -0.09264875
0003c0 7c 17 1c 3d d6 db 91 bd 0f e5 af 3d 13 00 0f 3e
       0.038108334 -0.071220085 0.08588611 0.13964872
0003d0 0c 9f 36 3e 6d 5d 3e bd fa 5a 58 bd 41 77 8c bd
       0.17834109 -0.046475817 -0.052821137 -0.068586834
0003e0 7c ec b6 3d e8 4c 9c 3d 44 e0 ad bd e9 50 a1 3b
       0.089318246 0.07631856 -0.08490041 0.0049229753
0003f0 3d 0e 9a 3d 3e 51 f8 3d 6c 20 b7 bd 49 1b 1e 3e
       0.07522247 0.12124871 -0.08941731 0.15440096

lstm.weight_hh_l1 f4 [128, 32]
000000 d2 92 3a 3e a7 6f 9c bd 62 68 3a bd 0c 7c d1 bd
       0.1822007 -0.076384835 -0.045509703 -0.10228738
000010 61 f2 0e 3c d4 f2 12 3d d8 92 84 3d 93 35 3c 3c
       0.00872478 0.03587611 0.06473321 0.011487382
000020 32 78 22 3e 2d 40 a9 3d 2a e3 cc bd 2e 35 56 3d
       0.15866163 0.08264194 -0.100042656 0.05229681
000030 b0 34 3b bd f2 ad f0 3d 65 32 37 3d dd a3 be 3d
       -0.045704544 0.117519274 0.044725794 0.09308598
000040 4f c0 a9 3d 02 8c 10 be 91 b5 1f 3e 1f a2 6f bd
       0.08288633 -0.14115909 0.15596606 -0.05850422
000050 89 34 07 3e 97 22 56 3d 8c 06 27 bb e1 15 c2 3d
       0.13203634 0.05227908 -0.002548608 0.09476829
000060 ef 9d a4 bd 98 a7 80 bd 68 1a b7 bd e7 9a 1c be
       -0.08037936 -0.06281966 -0.089405835 -0.15293466
000070 5d f0 91 3d ad e6 bf 3d a9 1e 8b bd ba b9 17 bd
       0.07125924 0.0937017 -0.06792957 -0.037042357
000080 a4 11 e5 bd 45 74 e3 bd fa 8d 8b bd 0e d6 29 3e
       -0.11185005 -0.11106161 -0.06814189 0.16585562
000090 55 1a 96 bd d9 34 ca 3c 45 b4 9e bd 8d 48 24 bd
       -0.07329241 0.024683403 -0.077492274 -0.040108252
0000a0 2d ae 0b be 4d 21 cc bd 34 3c 29 3e 79 f4 d3 39
       -0.13640662 -0.09967289 0.16526872 0.00040427202
0000b0 76 39 1b 3e 02 27 ca bd 8c 45 04 be b5 17 26 bd
       0.15158638 -0.098707214 -0.12917155 -0.040549953
0000c0 24 af 07 3d 2a 9d aa 3d df 83 18 be a8 6c b9 3c
       0.03312601 0.08330758 -0.14894055 0.02263482
0000d0 72 3a 34 3d 6e 73 9a bc 33 5b 52 3b 68 8c 3e 3e
       0.04400105 -0.01885387 0.0032097816 0.18608248
0000e0 4b f1 a6 3d f3 f4 a5 bd 59 36 2a be 8c a6 dd 3d
       0.08151492 -0.08103361 -0.16622294 0.10822782
0000f0 ca 0d 20 be a8 5a 98 3c 59 37 ae bb 27 f0 64 bd
       -0.1563026 0.018597916 -0.0053166565 -0.05589309
000100 6b f8 fa bd a0 3e 6e 3c b0 be c5 bd ed 84 ab 3d
       -0.12254413 0.014541298 -0.096555114 0.08374963
000110 1d 00 37 be 59 6c 34 3e 89 e2 79 3d ee e8 8d bd
       -0.17871137 0.17619456 0.061007056 -0.069291934
000120 c1 05 b4 bd be 2f 40 3d 75 b8 1e 3d 72 8c 0b be
       -0.0879016 0.04692053 0.03875013 -0.13627794
000130 31 eb 5e bc 54 a2 54 3d d2 a5 3d bc 75 4f 24 be
       -0.013605879 0.05191262 -0.011575179 -0.16045935
000140 8c 24 7e 3d f6 a7 cb 3d a8 92 b1 bd 34 43 2c 3e
       0.062046573 0.099441454 -0.086705506 0.16822511
000150 93 56 25 3e 88 e3 8f 3c dd 37 02 be 7d 07 4d 3d
       0.16146307 0.01756455 -0.12716623 0.05005597
000160 32 37 0a bc 77 ec 1a be 04 9d 1a 3d 42 28 c5 3d
       -0.008436011 -0.15129267 0.037747398 0.09626819
000170 8b d7 9a 39 60 b4 f7 3d f8 61 7e 3d 36 40 43 3d
       0.0002953376 0.12094951 0.06210515 0.04766866
000180 e7 7c 98 3d da ae 3e be 3f 28 a3 bc 79 c7 b0 bd
       0.07445698 -0.18621388 -0.019916652 -0.086317964
000190 c5 11 ac 3c 7f 5b 42 be 7e ec 0b 3e 01 94 87 3c
       0.021004567 -0.18980215 0.13664433 0.016550066
0001a0 2f 5a 9a 3d 7b 38 f4 bd d6 d0 24 bd b2 f2 0a 3e
       0.075367324 -0.11924835 -0.040238224 0.13569143
0001b0 9e 03 d5 bd d0 3f 11 bd 71 7d 94 3b 37 3d 3b 3e
       -0.104010805 -0.035461247 0.0045315553 0.1828507
0001c0 7d 0b 27 3e 43 55 d2 3d 74 cc 2c 3e 99 2b 8b bd
       0.16312976 0.10270169 0.16874868 -0.06795425
0001d0 d5 d2 de bd 51 ce 0e 3e 14 48 71 3d 08 30 35 bd
       -0.10880057 0.13945891 0.05890663 -0.04423526
0001e0 9b c8 b1 3d a8 d2 00 be 1c 2d 58 3b 18 68 28 be
       0.086808406 -0.12580359 0.0032985872 -0.16445959
0001f0 0c 79 e2 3d 6a 15 55 bd 2a 9d 92 3c 23 6c 85 bd
       0.11058244 -0.052022375 0.017897207 -0.06514766
000200 01 2f f3 3c c8 77 97 bd a4 8b d3 bd 3c 90 73 3c
       0.0296855 -0.07395893 -0.10329369 0.014865931
000210 cd 3a d6 3d 87 02 00 be ec 1f 94 ba d9 1f e1 bd
       0.10460434 -0.12500964 -0.0011301017 -0.109924026
000220 73 c6 25 bd 45 55 09 3e b2 a7 2e 3c 7e 16 03 3e
       -0.04047246 0.13411434 0.010660099 0.12801549
000230 7a ea 7b 3d 7c c1 ac bc 4b 14 01 3e 4a 67 d3 bd
       0.06150291 -0.021088354 0.12605397 -0.10322435
000240 bf e2 7b 3d b5 c8 e8 3d b9 75 11 be a9 d8 0b 3e
       0.06149554 0.11366407 -0.14205064 0.13656868
000250 63 76 8f 3d ac 6e a1 3d 05 49 06 be ac bf 13 3e
       0.07005002 0.07882437 -0.13113792 0.14428586
000260 37 98 a8 bd cc 43 41 3e 75 a5 11 be e4 fe 12 be
       -0.08232158 0.18873519 -0.14223273 -0.14355046
000270 75 ab 8e bd 0d 70 e9 bd 13 d8 e3 bd ef 32 1e be
       -0.069662966 -0.11398325 -0.11125197 -0.15449117
000280 1e 4e 43 3e a5 53 be bd c0 56 3d be 1f 0d 80 3d
       0.19072768 -0.09293298 -0.18490124 0.06252503
000290 36 39 3e 3d 7a fe 0a be ed a3 07 3e 35 4d b2 bd
       0.04644128 -0.13573638 0.13246126 -0.08706132
0002a0 ff e1 79 bd 7a 67 19 be 60 49 19 3e 21 51 81 3d
       -0.061006542 -0.1498088 0.14969397 0.06314302
0002b0 0f 21 88 bc 66 c8 81 3d 2c 44 1a bd 0a f5 fd bd
       -0.016617326 0.06337051 -0.03766267 -0.12400253
0002c0 2d 8b dd bc 7a 38 0f be bc 35 52 3d af 0b 77 3d
       -0.027043903 -0.13986388 0.051320776 0.060313877
0002d0 c4 e7 f2 bd f0 1a aa bd fe 46 1f 3e ac 94 8f 3d
       -0.11860612 -0.08305919 0.15554425 0.07010779
0002e0 01 be ae bd ea b6 99 3d 06 c5 12 3e 52 da f8 3c
       -0.08532334 0.07505591 0.14332971 0.03037754
0002f0 8f 4f f2 bd 10 40 6d bd 99 5f 03 be 81 7a 9e 3d
       -0.11831581 -0.057922423 -0.12829436 0.077382095
000300 18 5c c2 bd 3d 55 2b 3e 3e 3d 8c bd 9e d0 c4 3d
       -0.09490222 0.16731735 -0.068476185 0.09610103
000310 ec 88 14 3e f7 60 26 be 8a 99 1b bc 99 58 59 3d
       0.14505357 -0.16247927 -0.009497056 0.05306301
000320 af fa 87 bd 4d 49 0b be 06 00 10 be 71 10 26 be
       -0.06639611 -0.13602181 -0.14062509 -0.1621721
000330 d5 c9 a5 bd 60 2d 4b 3d 08 af 1a be 21 b4 c9 bd
       -0.08095137 0.04960382 -0.15105832 -0.0984881
000340 f5 14 76 bd bc 13 75 3d 40 56 07 be 16 c8 27 3e
       -0.06007858 0.059833273 -0.13216496 0.1638492
000350 42 31 c4 3d 09 96 50 3d b3 1c 82 bd 37 a9 5f bd
       0.09579708 0.050924335 -0.0635313 -0.054604735
000360 40 92 e5 bc e5 83 e8 3d e4 0c 62 bd 4f 55 8e 3d
       -0.028023839 0.11353282 -0.055188075 0.06949865
000370 88 eb 2a 3e 2d fd f8 3c 6c 45 51 bd 46 91 cb 3d
       0.1669141 0.030394161 -0.051091596 0.09939818
000380 33 31 63 3d 4b 73 a6 3d be 78 13 3e 6e 41 bc 3d
       0.055466842 0.08127459 0.14401528 0.09192167
000390 2f f5 3a be eb 03 0b be 25 43 99 3c be dc 0e 3d
       -0.18257593 -0.13575713 0.018708775 0.034878485
0003a0 9e 9a 83 3d 1e 94 76 bd 42 0f 96 bd 41 2d 55 bd
       0.06425975 -0.06019985 -0.07327129 -0.05204511
0003b0 0d af f7 bc e3 d8 01 be 7b e7 72 bd 90 a0 27 be
       -0.030234838 -0.12680392 -0.05930279 -0.16369843
0003c0 41 13 ad bd d7 6c c0 3d 0a 5b de bd a1 2b f6 3d
       -0.08450938 0.093957596 -0.10857208 0.1202004
0003d0 db 49 ba 3d ce 3d 37 be ff 52 fb 3d b0 76 01 be
       0.09096118 -0.1789467 0.122716896 -0.12642932
0003e0 c3 a4 20 bb 89 0b 45 3c 26 40 16 be 9c 54 2b bd
       -0.0024512268 0.012026676 -0.14672908 -0.041828737
0003f0 2f 6f d5 bd 21 e3 48 bd 7e cf 28 be d3 ba bb bd
       -0.10421597 -0.049044732 -0.16485402 -0.09166493

lstm.bias_ih_l1 f4 [128]
000000 9d ed d8 bd 0c f6 a9 bd a7 d5 9b bd d3 e2 0c 3e
       -0.10592196 -0.08298883 -0.0760911 0.13758402
000010 57 df 0c 3d cb 75 86 bd 1c 27 1b be 19 4b 1c be
       0.03439268 -0.06565436 -0.15151638 -0.15263022
000020 e5 32 a7 bc 33 22 54 3d 63 ec 34 3d e7 e2 3d 3e
       -0.02041001 0.051790427 0.04417075 0.18543588
000030 40 66 e1 3c e8 f0 f2 3b 60 f6 0a bc d8 27 9e 3a
       0.027514577 0.007413972 -0.008481592 0.0012066318
000040 e7 d3 0b 3e 3e 3f 03 be 50 b5 d3 3d 95 e7 06 3d
       0.13655053 -0.12817094 0.10337317 0.032935698
000050 e8 38 b0 3d 41 2d 2b 3d 83 ab 07 3c 21 c1 23 3d
       0.08604604 0.041791204 0.008280638 0.039979104
000060 66 b5 ae 3c ab f4 9c bd c2 d7 25 3e bc a6 ee bd
       0.021326732 -0.07663854 0.16195586 -0.11652896
000070 d7 58 75 bd 6c fb 78 3c 7e e2 15 be 64 ae a9 bd
       -0.059899177 0.015196662 -0.14637181 -0.082852155
000080 e3 c3 48 3e 96 2f 14 bd bd 47 a0 bc 2a a1 15 3e
       0.19605975 -0.036178194 -0.019565457 0.1461226
000090 fe d3 23 3e e1 9d 08 3e e2 2d 34 3d 99 9b 13 bc
       0.15998837 0.13341476 0.04398907 -0.009009265
0000a0 5e 66 e4 bd 24 dc 19 be ed c0 7e bc 54 3b a2 bd
       -0.111523375 -0.15025383 -0.015548927 -0.07921472
0000b0 e7 77 f0 bd 56 a9 29 bd 5f 0b ed bd 69 03 be bc
       -0.117416196 -0.041421257 -0.115744345 -0.023194985
0000c0 48 be d9 3d 61 30 a6 3d 14 3e 22 3e e4 87 10 bc
       0.106319964 0.08114696 0.15843993 -0.008821461
0000d0 49 4e 86 bd 0f b7 bb 3d 67 b0 6b 3b e7 51 86 bd
       -0.065579005 0.09165775 0.0035963298 -0.065585904
0000e0 19 34 b0 3d 27 22 e2 bd 4e 51 95 3d 01 6c 8f bd
       0.08603687 -0.1104167 0.07290898 -0.07003022
0000f0 ed e4 ed bd 24 9d 72 3d 93 68 ca 3d cb dd 05 3e
       -0.1161593 0.059231892 0.09883227 0.13072889
000100 b3 2f 41 bd 32 9d fa 3d 92 70 18 3e 75 dc 01 3e
       -0.04716463 0.12237014 0.14886692 0.12681754
000110 ad f7 81 3d ee 06 8d bd ab fc 69 bd 76 7d bf bd
       0.063460685 -0.06886087 -0.05712573 -0.09350102
000120 78 d1 0f 3d 14 a3 85 3d db 78 e7 3d 77 33 ee 3c
       0.035111874 0.06525245 0.11302348 0.029077275
000130 52 7f 04 3e 9e f2 ee bc bc f0 b2 3d 2a 98 67 bc
       0.12939194 -0.029168423 0.08737323 -0.0141354
000140 40 8c 82 3d 11 5a 44 3d e5 fb f7 3c 35 6f 1d be
       0.06374407 0.047937457 0.03027148 -0.15374453
000150 f6 5a 0f 3d e2 f2 16 bd 9d b9 a9 bd 30 ee 31 3e
       0.034998856 -0.036852725 -0.08287356 0.17376018
000160 bd b0 e2 3c a7 5d d9 bd da a1 b0 bd 9d 0f a4 3d
       0.027672166 -0.10613566 -0.08624621 0.080107905
000170 bf 36 16 3e 28 15 1b 3e 67 b6 03 be 23 2b 4b bd
       0.14669321 0.15144789 -0.1286255 -0.049601685
000180 21 0b d5 3d 51 39 25 3e 5f 2b 54 bc 32 78 c7 3d
       0.10402513 0.16135146 -0.012949794 0.09739722
000190 33 08 47 3e ed d8 ea 3d 14 ba 07 be 90 ae 0e 3e
       0.19436722 0.114671566 -0.13254577 0.13933778
0001a0 7d 24 09 be 73 fb f5 bd 7e 2d b1 bd 82 88 0a 3e
       -0.13392825 -0.12010851 -0.08651255 0.13528636
0001b0 23 e0 a7 3d 29 d3 c9 bd 7c 16 1e bc 19 5e 2d bd
       0.081970476 -0.09854729 -0.009648915 -0.042326067
0001c0 30 4a 30 3d d8 d4 c7 bc 59 8d 31 3e 70 28 53 3d
       0.0430395 -0.024393484 0.17339076 0.051552236
0001d0 54 f7 99 bc ae 62 14 3e db 92 1f 3d d1 2c 22 be
       -0.018794693 0.14490768 0.03895841 -0.15837409
0001e0 5d 53 3e bb 60 13 14 3e ba 93 21 3e fa bb 86 3d
       -0.0029041388 0.14460516 0.1577901 0.065788224
0001f0 62 54 06 3e 2d f5 d1 3d e7 6c 1a be 86 86 8b bd
       0.13118127 0.10251842 -0.15080605 -0.06812768

lstm.bias_hh_l1 f4 [128]
000000 92 bc 6c 3d 1a da 3a 3e ef 9f 0e be 4f a0 13 3e
       0.057797022 0.18247262 -0.13928197 0.14416622
000010 85 2e 11 3c 8a 78 85 bd 0b 60 2d 3d 0b 8c 8d bb
       0.008861189 -0.065171316 0.04232792 -0.004319673
000020 2b e4 c0 3d a0 0e 46 3e ec e9 1d 3e 91 fe fe 3d
       0.094185196 0.19341516 0.15421265 0.124508984
000030 eb f3 b3 3c fe 58 5d bd 07 f4 e8 3d 95 3a c6 3a
       0.021966895 -0.054039948 0.113746695 0.001512366
000040 80 29 cf bd 83 d1 03 3e 8f 27 e2 bd 9a 5f fb bd
       -0.10115337 0.12872891 -0.110427015 -0.12274094
000050 32 1d 57 3d a0 54 73 3d fe 31 a6 3d 9f c5 aa bd
       0.052518077 0.059406877 0.08115004 -0.083384745
000060 82 af 5a bc 95 03 ab 3a ff d2 f2 3c 1f b7 9e bc
       -0.013347508 0.0013047332 0.029641626 -0.019374428
000070 8b 73 fa 3d 51 e2 15 be 5b 6c 85 bd dd 38 5f bd
       0.12229069 -0.14637114 -0.06514808 -0.05449759
000080 d2 16 e0 bd e3 35 a3 3d b8 3f 4d 3d 93 f5 02 3d
       -0.10941853 0.079692625 0.050109595 0.03197248
000090 c6 09 78 3d 63 71 a6 bd ff f7 15 be ff f0 7b 3d
       0.060556196 -0.081270956 -0.14645384 0.06150913
0000a0 b0 70 35 bd 52 2f c0 3d 3e 89 3d bc 4d a6 22 bd
       -0.04429692 0.09384026 -0.011568366 -0.039709378
0000b0 bb b2 0e 3e 1a cc f1 3d 7f 60 05 be 9f 22 9f 3b
       0.13935368 0.118065074 -0.13025092 0.004856422
0000c0 3f 2f c6 3d ab 9b 82 bd f2 36 5b bd 56 5d 80 bd
       0.0967698 -0.063773476 -0.053519197 -0.062678024
0000d0 76 87 a5 3b 70 86 c7 3d 6f e0 d9 3d 61 95 f2 3c
       0.0050515486 0.09742439 0.106385104 0.029612245
0000e0 ca 81 a2 3d 23 84 9e 3d 23 59 80 3b 58 a8 39 3e
       0.079349115 0.07740047 0.003916876 0.18130624
0000f0 08 47 f9 bc 42 de bf 3d f4 70 b2 bd e7 b7 fe 3d
       -0.030429378 0.09368564 -0.0871295 0.1243742
000100 16 e2 a9 3d b2 57 1d be 37 a1 d0 bd 4c 2a dc 3d
       0.082950756 -0.15365484 -0.10186999 0.10750255
000110 d4 44 5a 3d 21 1f 11 3d c2 a2 0f be 96 d1 d7 3d
       0.053288296 0.035430077 -0.14026931 0.10538022
000120 e6 d5 22 3e 39 09 b9 3d c4 94 97 bd a8 af c7 3b
       0.15901908 0.09034962 -0.07401422 0.006093938
000130 38 e2 32 be 28 94 91 bd ce d4 95 bd 9e fd 06 3e
       -0.17469108 -0.07108337 -0.0731598 0.13182685
000140 03 12 1f 3e dd a7 46 bd c7 c2 20 3e 2f 2a 3a 3d
       0.15534215 -0.04849993 0.15699302 0.045450386
000150 ff 82 1d be 04 a8 9c bd 03 f3 e9 bd c6 f3 2a 3e
       -0.15382002 -0.07649234 -0.11423304 0.16694555
000160 ca 9e b1 3d 44 b5 2d 3c 06 e2 d4 bd 16 12 1e bd
       0.08672865 0.010602299 -0.10394673 -0.038591467
000170 1b 13 24 3e a1 60 28 3e de a7 37 3e 70 3d b3 bc
       0.16022913 0.16443111 0.1793513 -0.021879882
000180 d4 99 d1 bc 7b 38 1a 3e 69 82 d1 3c 48 77 3b 3e
       -0.025586046 0.15060608 0.02557488 0.18307221
000190 35 94 bd 3d e3 c6 c3 bd 35 bd be bd 10 d3 03 be
       0.09256784 -0.09559419 -0.09313432 -0.12873483
0001a0 14 f5 34 bd 4a 60 e8 bd 46 31 ef bd e5 8e d7 3a
       -0.044179037 -0.11346491 -0.1167932 0.0016445784
0001b0 9f 0f f5 bd 2d 45 5f bd f1 e1 ea bd e9 c7 29 3c
       -0.1196587 -0.05450933 -0.11468876 0.010362604
0001c0 e7 92 08 be 7a 26 33 3e 78 66 eb 3b 07 08 3b bd
       -0.13337289 0.17495146 0.007183846 -0.045661952
0001d0 b8 11 85 bc 2e d7 40 3e 8f 3d fb 3d ef ba 7f 3c
       -0.0162438 0.18832085 0.12267601 0.015608533
0001e0 60 a2 01 be 69 0a 4d 3e e9 9b 27 be 94 9f f9 3d
       -0.12659597 0.20023502 -0.16368069 0.1218864
0001f0 b0 fc ad 3d 1b 4e c6 bc 69 41 3e bd c0 d0 05 be
       0.08495462 -0.024207165 -0.0464491 -0.13067913

lstm.weight_ih_l2 f4 [128, 32]
000000 13 c4 d7 bc a2 19 0c bd 19 53 3d be b7 a0 df 3d
       -0.026338613 -0.034204133 -0.1848873 0.10919326
000010 cd 9f 8c 3d ce 07 82 3d 15 b4 56 3d 5c f8 c5 3d
       0.06866417 0.06349145 0.052417833 0.096665114
000020 09 86 df bd 5d e3 86 3d 27 ae 1f be f1 db ea bd
       -0.10914237 0.06586335 -0.15593778 -0.11467732
000030 18 21 fe bd 44 26 cb bd 2f 6b b6 bd c5 a5 cd 3d
       -0.12408656 -0.09919408 -0.089071624 0.10041384
000040 ee 5f 81 3d 38 72 fe bd 24 96 de bc ac 2e ab 3d
       0.06317125 -0.12424129 -0.027171202 0.08358511
000050 bf 0f bb bd 94 6d e4 bd 0e 19 98 bd 34 2d b6 3c
       -0.09133863 -0.11153713 -0.07426654 0.022238351
000060 9f 70 88 3d c4 1b 0a 3e 65 0b 0c be 21 45 e9 3d
       0.06662106 0.13487154 -0.13676222 0.113901384
000070 91 82 13 be e4 3d 0c 3e 5d d4 f6 bd 02 e9 86 3d
       -0.14405276 0.13695484 -0.12052224 0.065874115
000080 23 a6 bb 3d 22 24 8c bd 2a a0 8c bd 0c d8 23 3e
       0.091625474 -0.06842829 -0.06866486 0.16000384
000090 41 c2 0e 3e a9 10 8d bd 21 b6 04 be 35 44 3f be
       0.1394129 -0.06887943 -0.12960102 -0.18678363
0000a0 04 14 12 3e dd 81 a8 3c 94 47 97 bd e6 47 f2 3d
       0.14265448 0.020569736 -0.07386699 0.1183012
0000b0 68 18 41 be 5a 72 1d be 1b 79 c4 bc 7b cd 50 bc
       -0.18856966 -0.15375653 -0.023983529 -0.012744303
0000c0 dc 87 98 3d d6 5d b7 bd c0 e9 94 3d 8c 62 a4 3d
       0.07447788 -0.08953445 0.07271147 0.08026609
0000d0 9d 66 31 be 2f 93 2e 3e bf 98 06 be 88 cd ee 3d
       -0.173243 0.17048334 -0.13144206 0.11660296
0000e0 aa d7 ea bc 37 54 0d bd b9 2b 36 be 30 50 1d 3e
       -0.02866729 -0.03450414 -0.17790116 0.1536262
0000f0 ee 33 a7 3d 36 d6 04 3e 4a 22 8d 3d 6c 96 db 3d
       0.08164202 0.1297234 0.06891306 0.1072205
000100 39 27 2c 3e 17 18 ea 3d 51 c1 14 3e c3 f7 b0 3d
       0.16811837 0.11430376 0.1452687 0.08641007
000110 a9 8b 1d be 92 c7 a4 bd 38 a8 12 be ce d0 c7 bc
       -0.15385307 -0.080458775 -0.14321983 -0.024391558
000120 03 71 3c 3c ec f7 c9 bd 22 ea fb bd 11 c2 0f be
       0.0115015535 -0.098617405 -0.12300517 -0.14038874
000130 c8 55 69 bd 82 fa 2f 3d 51 51 04 3d 0b 6f 80 bd
       -0.056966573 0.042963512 0.032304112 -0.0627118
000140 f0 88 b1 3d 7b d1 10 bd 2a ad 0a 3e 88 20 d1 3d
       0.08668697 -0.035356026 0.1354262 0.10211283
000150 2f 75 be bd 5a 63 c0 3d 49 fa b5 bd 69 ac 16 3e
       -0.09299695 0.0939395 -0.08885629 0.14714207
000160 76 1e 71 3d 78 39 0a be 41 fb 08 bd d5 2a 9a bd
       0.05886694 -0.13498485 -0.03344274 -0.07527701
000170 d1 12 18 3e 69 63 c5 bd 9e 4a 92 3c 66 53 22 3e
       0.14850928 -0.096381016 0.017857846 0.15852126
000180 48 82 18 be c4 e7 77 3c ef 11 35 be bc a1 3b 3d
       -0.14893448 0.015130941 -0.17682622 0.04580854
000190 a5 9f 16 3e 70 3e 18 ba e1 84 21 3e 32 c4 0b 3e
       0.14709337 -0.0005807644 0.15773346 0.13649061
0001a0 4d 0d ae bd 61 7a 1b be 42 06 ba bc 2f 3a b6 bd
       -0.08498631 -0.15183403 -0.022708062 -0.088978164
0001b0 af d8 08 be 0b cf c0 bd ff 6b 9a 3d f7 49 16 be
       -0.13363908 -0.0941449 0.0754013 -0.14676653
0001c0 87 83 90 bd cb 64 c4 3d bd e6 19 3d 9b bb 39 3d
       -0.07056337 0.09589537 0.037573565 0.04534493
0001d0 20 7e 64 bd b0 56 fb bd c0 16 e2 3d 73 66 05 be
       -0.055784345 -0.12272394 0.110394955 -0.13027363
0001e0 c7 24 c4 bc 00 3b 79 3d 32 66 18 3e bc 40 b8 3d
       -0.023943318 0.060847282 0.14882734 0.08996722
0001f0 30 84 c7 bd 7c 4f 6c bd 36 a5 95 3c 4c 2c c1 bd
       -0.0974201 -0.05769299 0.018267255 -0.09432277
000200 c9 b0 20 be 4b c0 87 3c 6e 51 43 3d d3 2f c0 3d
       -0.15692438 0.016571185 0.04768508 0.09384122
000210 6a 0a 23 3e a1 1a 26 be 92 64 79 3c 42 c8 ce bd
       0.15921941 -0.16221096 0.015221732 -0.1009679
000220 d2 f6 5b 3d 0e bf a9 3c cd ca 36 3e d5 8c 04 3e
       0.053702183 0.020720985 0.178508 0.12944348
000230 7b be 1e bd 9c 33 00 bc 07 e4 e8 3d af 4f 93 bc
       -0.038755875 -0.007824805 0.11371618 -0.017982332
000240 77 9f d5 bd bd 61 f7 3d 7b cc 15 bd 52 b6 1a 3e
       -0.10430806 0.12079189 -0.03657196 0.15108612
000250 41 45 ee bd 0a 7d 20 3e 46 e0 10 3e 46 b0 97 ba
       -0.11634303 0.15672699 0.14148054 -0.0011572919
000260 4c 7e 93 3d c2 45 3b 3e 9a 24 20 be cc 85 8d bd
       0.072018236 0.18288329 -0.15638962 -0.06910285
000270 2d 43 29 3c 4b 48 3f 3e fa e8 bf 3d 6f 5f f7 bb
       0.010330957 0.18679921 0.09370609 -0.0075492184
000280 60 24 99 bd 0e 29 d7 bd 21 ff 0c 3e 45 b5 0c be
       -0.07477641 -0.105058774 0.13769199 -0.13741024
000290 57 fd bb 3d f2 3f 17 bd 2e 24 90 bd 52 ea c7 3d
       0.0917918 -0.036926217 -0.07038151 0.0976149
0002a0 49 ac 81 bd 45 cf 9f bc 06 7d 9d bc ad b4 07 3d
       -0.06331689 -0.019508014 -0.019224655 0.03313129
0002b0 a5 8e 25 be 0a ea 58 3d f2 94 0c 3e 9f af db bd
       -0.16167696 0.052957572 0.13728693 -0.107268564
0002c0 fd 23 04 3d d7 13 83 3d ac c4 39 bd f1 6e 31 3d
       0.032260884 0.064002685 -0.045353577 0.043318693
0002d0 83 55 15 3e dc 29 1f 3e b9 91 87 bc ac 80 01 be
       0.14583401 0.15543312 -0.016548978 -0.1264674
0002e0 89 05 89 3d 44 28 aa bd cd 20 8c bd 6e 11 f6 3d
       0.06690509 -0.08308461 -0.06842194 0.12015043
0002f0 a2 1d 9f bd 54 0e d0 bd 4f 52 84 bd 0d 6d 67 bd
       -0.07769324 -0.10158983 -0.064610116 -0.056500483
000300 94 8c 9d bd 95 f9 17 be 17 97 d2 bc 3e 29 60 bd
       -0.07692829 -0.14841302 -0.02570681 -0.05472683
000310 e7 02 8c bd e4 d9 5c bd fb 90 88 bc 3a 25 25 be
       -0.06836491 -0.053918734 -0.016670695 -0.16127482
000320 ae 18 94 bd e8 cd 07 be 4a 44 9d bd 34 a6 10 3d
       -0.0723127 -0.13262141 -0.07679041 0.035314754
000330 6e d9 36 bd 72 cb 11 3e 63 b6 0e 3c 31 1e 2f 3d
       -0.04464095 0.14237764 0.008710477 0.042753402
000340 7b a3 43 3d 51 66 e1 bd 1e 10 47 bb 71 56 dc 3d
       0.04776333 -0.110058434 -0.0030374597 0.10758675
000350 78 c6 fb bd 30 1a 18 3e 04 ca 81 bd 5e ed 2d 3e
       -0.12293714 0.1485374 -0.063373595 0.1698508
000360 b0 63 25 be ca 5c 93 3d d1 b0 b7 3d e4 f2 20 bd
       -0.16151309 0.071954325 0.08969272 -0.03929414
000370 84 14 cf 3c 08 05 ac 3d 4e d3 c7 bd f2 33 0b be
       0.025278337 0.08399397 -0.097571 -0.13594034
000380 13 07 96 bc da 11 49 bd 40 1f f6 3d fa e6 12 be
       -0.01831392 -0.04908929 0.12017679 -0.14345923
000390 0c 12 96 3d e3 d0 1e 3e 31 68 23 3e dc d1 92 3d
       0.07327661 0.15509371 0.15957715 0.07168934
0003a0 42 cf 15 bd 8e f2 e3 bd 97 fe 86 bd 78 64 77 3d
       -0.03657461 -0.11130248 -0.06591528 0.06039855
0003b0 5c e8 ec 3d 7c 40 44 3d 17 8a c5 bd 76 7b 9f 3c
       0.115677565 0.04791306 -0.09645479 0.01946805
0003c0 21 f8 95 bc 7f 84 61 3c 59 a3 5c bd c5 70 5e b9
       -0.018306794 0.0137645 -0.053866718 -0.0002121358
0003d0 5e df 32 3c ea 38 b8 bd d5 65 2c be 4e d7 84 bc
       0.010917513 -0.089952305 -0.16835721 -0.016215947
0003e0 77 73 ef bc dc 9d 42 3e 52 3d 15 3d e7 d7 fa 3d
       -0.029229863 0.19005531 0.036435433 0.12248211
0003f0 d7 b7 83 bd d8 ad d6 3c d7 43 30 3e b1 60 51 3d
       -0.06431549 0.026205942 0.17213379 0.051117603
