pv/checkpoints/다산빌딩-checkpoint-2023-08-10 22_26.pt (torch, 304625 bytes, 38 tensors)

lstm.weight_ih_l0 f4 [128, 17]
000000 fe 33 ea bc 92 e5 ef bd c7 a9 02 be e1 ca b4 bd
       -0.028589245 -0.11713709 -0.12760077 -0.088277586
000010 f8 d3 b6 3c 98 12 81 bd d6 30 35 bd b1 68 44 bc
       0.022317871 -0.063023746 -0.044236027 -0.011987851
000020 df fa 0a 3e 5b 83 8b 3b ae 3a c9 bd 35 00 c9 bd
       0.13572262 0.004257602 -0.098256454 -0.098144926
000030 60 7e 7c 3d 12 b2 42 be 7d 2c db 3d 51 fe 7e bd
       0.061643958 -0.19013241 0.10701845 -0.062254254
000040 bb 1e ed bd 82 00 3e 3d 39 f2 14 3c f6 a6 96 bd
       -0.11578127 0.046387203 0.0090909535 -0.07356064
000050 24 c2 38 3d 4e dc f1 bc 4e d4 8c bc b8 65 d9 bd
       0.045107022 -0.029523995 -0.017191079 -0.106151044
000060 45 05 e5 3d 40 bc c9 bb fe e2 e1 3d 5e 01 1f 3e
       0.11182646 -0.0061564744 0.110296234 0.15527865
000070 f7 15 f3 bd d1 e8 2b be c3 d9 ae 3b 31 8d 50 bd
       -0.11869424 -0.16788031 0.005336018 -0.0509159
000080 6d bb ff bd 58 7e d6 3c a3 84 d1 3c e1 71 39 3e
       -0.124869205 0.026183292 0.025575941 0.18109848
000090 5c aa fc 3d c9 ae ca 3d 8f 34 1c 3e a8 28 2d 3e
       0.12337181 0.09896619 0.15254425 0.1691004
0000a0 25 41 28 3e 3c 1a 3f bc 6f 0b dc bd 6e 65 28 be
       0.164311 -0.01166397 -0.10744368 -0.16444942
0000b0 79 9b 6e bc 47 48 02 be 84 10 d5 3d 7b db a7 3c
       -0.014563435 -0.12722884 0.10403541 0.020490399
0000c0 2f 37 0a 3e 92 52 7b bc 23 5c 00 be 11 c7 9f bb
       0.13497613 -0.0153395105 -0.12535147 -0.0048760255
0000d0 f9 59 55 3e 8c ae c4 bd c2 2d c5 3d e5 a1 51 3e
       0.20835103 -0.09603605 0.09627868 0.20471914
0000e0 17 1e 7e bd 1b 7d 20 3e bd d9 e8 bd 70 23 d6 bd
       -0.062040415 0.15672724 -0.11369655 -0.10455978
0000f0 6c bf ed 3d 5d 68 a6 3d 5f 47 53 3e 11 e2 6c 3d
       0.116087765 0.081253745 0.20632695 0.05783278
000100 aa 7d 4b 3e 24 23 22 bb 74 eb ac bb f5 b7 cf bd
       0.19872156 -0.0024740184 -0.0052770916 -0.10142509
000110 33 42 12 bd d1 33 31 3e 9e 98 44 3b d5 ee 1a be
       -0.035707664 0.17304923 0.0029998193 -0.1513017
000120 a4 d0 06 3e 90 eb 1c be fa 0e 36 3e 88 ca 81 3d
       0.13165528 -0.15324235 0.1777915 0.06337458
000130 cc bf 0c 3e 5a 08 d6 3c 61 aa bd bd f4 f7 01 be
       0.1374504 0.02612703 -0.09261013 -0.12692243
000140 4b d9 0d be 50 22 31 be 57 21 f5 bd 02 01 06 3e
       -0.13852422 -0.17298245 -0.1196925 0.13086322
000150 f9 92 f0 3d ab 85 1c 3e 54 08 0b bd 98 18 ef bd
       0.11746783 0.15285365 -0.03394349 -0.11674613
000160 0b fe 51 3d 4c 7e 1f 3e 15 f1 b7 bd 96 c1 02 3d
       0.051267665 0.15575522 -0.089815296 0.0319229
000170 dd 3f ab 3d b7 e7 37 3e 18 67 15 3e 21 f4 ac bd
       0.0836179 0.17959486 0.14590108 -0.084450014
000180 68 fd c7 3d 5c 37 eb bd 53 63 1e 3e 1c ca 1e 3e
       0.0976513 -0.11485168 0.15467577 0.15506786
000190 3d 45 f2 bc 96 6c 02 be 74 bd 31 be b2 a6 96 bd
       -0.029574031 -0.12736735 -0.17357427 -0.07356013
0001a0 e1 28 78 bc 79 f3 36 bc 42 d5 83 bc 4d 1d ad bc
       -0.015146465 -0.011166447 -0.0160929 -0.021132136
0001b0 76 fe b5 3d ac 4d 37 3e 10 15 22 3e f8 46 94 bd
       0.08886425 0.17900723 0.15828347 -0.07240099
0001c0 cf 64 cc 3d 0a 19 2c 3e 0d 49 9c bd 8d 4e c5 bc
       0.09980165 0.16806427 -0.07631121 -0.024085307
0001d0 26 73 a7 3c d4 ee 4d 3e c0 58 12 be 37 d6 41 3e
       0.02044065 0.20110637 -0.14291668 0.18929373
0001e0 36 7d e8 3c 32 6d 7d 3e ce cc 42 bc 03 82 8b bd
       0.028380018 0.24748686 -0.01188965 -0.06811907
0001f0 21 78 c9 3d b6 21 1d 3d 21 4d 39 3e 52 a6 b4 3d
       0.09837366 0.038362227 0.18095829 0.088207856
000200 4f b3 ca 3d f4 93 52 3d fc bd f6 bc a8 de be bd
       0.09897482 0.05141063 -0.030119888 -0.09319812
000210 2d 6f 66 bc 4a 1b d9 bd 62 b7 10 be 8a 0e 06 3d
       -0.014064592 -0.10600908 -0.14132455 0.03272871
000220 1d 5e 35 3e ef 24 06 be 35 93 c9 bd 90 88 17 be
       0.17711683 -0.13100027 -0.09842531 -0.14798188
000230 90 ae fe 3c dd 7e 95 b8 ad d3 95 bd ee 1b 62 3c
       0.031089097 -7.128504e-05 -0.073157646 0.013800604
000240 1b 50 82 3d 19 59 d0 bd 71 3d 02 3d ca 3b e4 3d
       0.06362935 -0.10173244 0.031796876 0.11144216
000250 69 53 e0 3d ce d6 ec 3c a7 a9 f6 3d 4c 3e 50 be
       0.10953409 0.02891102 0.12044077 -0.20336264
000260 ee 31 e6 bd 8a c5 ba bd 09 ed 0c ba 5e 17 ba 3c
       -0.11239992 -0.09119709 -0.0005375897 0.02271622
000270 1b ca 35 3e 51 83 f5 3d 54 aa 02 3e 4a ad f5 3c
       0.17752878 0.11987937 0.12760288 0.029989857
000280 79 85 03 bd 96 56 3e 3d d4 14 da 3d a3 d6 00 be
       -0.03210971 0.046469294 0.10648504 -0.12581877
000290 7f 6d a2 3c 3f 5c 8a 3d 9a fd 02 be 99 33 f2 3d
       0.019827602 0.06755876 -0.12792054 0.11826248
0002a0 ad d9 27 be e6 fc 84 bd c6 71 09 3d 1b 0f 91 bb
       -0.1639163 -0.06493549 0.03355577 -0.0044268495
0002b0 68 13 88 bc 86 68 61 b9 5d 70 91 bc b5 cb 05 3e
       -0.016610816 -0.0002149661 -0.017753774 0.1306599
0002c0 4d 39 bc bb 88 77 2f 3e 3f 98 03 3e 57 8c 0e 3e
       -0.0057441355 0.17135441 0.12851046 0.13920723
0002d0 46 a3 ce 3c 10 09 89 bd f2 77 9e 3d d9 af ef bd
       0.02522434 -0.06691182 0.077377215 -0.11703462
0002e0 85 79 cc 3c 9a de db 3d 73 b4 6a bd 46 66 34 3b
       0.024960289 0.10735817 -0.057300996 0.002752678
0002f0 be a6 b2 3d 11 7a df bd 82 12 34 3e 27 c9 e0 3d
       0.0872321 -0.10911954 0.17585185 0.10975867
000300 f5 fe c3 bd dd d1 9b 3d 4d db cf bd 21 99 fd bd
       -0.095701136 0.076083876 -0.1014925 -0.12382723
000310 9d c9 03 be e9 9b e5 bb 03 e5 0b be 79 97 c2 bd
       -0.12869878 -0.0070071113 -0.1366158 -0.09501547
000320 ee 5b bb 3d e3 d4 24 3e fa f1 4e be ee 0d 34 3e
       0.091483936 0.16096835 -0.20209494 0.17583439
000330 ab bd 3f 3e 23 03 67 bd d7 4d 45 3d 74 c4 55 bd
       0.18724696 -0.056399476 0.048169937 -0.052189305
000340 83 2f 01 be ee d6 b6 3d 00 28 8f 3d fc 75 f8 3d
       -0.1261578 0.08927713 0.06990051 0.12131879
000350 d3 cb 33 bd e3 7e 36 3e 35 96 0e be 31 cc 0f be
       -0.043895554 0.17821841 -0.13924487 -0.14042737
000360 17 95 7d 3d 87 93 cf 3d bd 27 17 be ef 01 da 3d
       0.06190976 0.101355605 -0.14761253 0.106449
000370 0d c5 20 3e 94 74 d8 3c d1 e1 2b 3e 2a a7 ca 3d
       0.15700169 0.026422776 0.16785361 0.09895165
000380 d6 4a d2 3d ed 83 c1 bd f8 b0 13 3d ce 26 c6 bd
       0.1026818 -0.09448991 0.036057442 -0.0967537
000390 73 5a 12 3e e5 97 4b 3e 58 b6 dd bd a5 21 89 3d
       0.14292316 0.19882162 -0.10825795 0.0669587
0003a0 d7 27 d0 bd c8 8f 1d be e8 7c f9 3c 23 64 88 3d
       -0.10163849 -0.1538688 0.030455068 0.066597246
0003b0 e8 2c 25 be c4 2d da 3d d8 0c cc 3d b3 e4 bc bd
       -0.16130412 0.1065326 0.09963387 -0.092233084
0003c0 04 34 84 bd 8a f8 b0 bc 6e ce c1 3d 94 79 08 3d
       -0.06455234 -0.021602888 0.094632015 0.03331907
0003d0 37 5b 96 bd 32 ad 30 3e af cc fc 3d fd cf 70 3d
       -0.073416166 0.17253569 0.12343728 0.058792103
0003e0 91 9f 0f bd ad d8 49 3e e0 e9 88 3d 4d 68 6e 3d
       -0.035064284 0.19711562 0.06685233 0.058204938
0003f0 3f a8 af 3d 26 24 09 3e 00 60 cc 3d cb 36 bc bc
       0.08577012 0.13392696 0.09979248 -0.022975346

lstm.weight_hh_l0 f4 [128, 32]
000000 f7 19 2b be 57 05 fe bd 58 58 b3 bc d4 54 a8 3c
       -0.16709124 -0.12403362 -0.021892712 0.020548262
000010 38 ed 18 3d 82 d2 25 be b7 19 2a be 3a a2 20 be
       0.037335604 -0.16193584 -0.16611372 -0.15686885
000020 27 7c 8a 3d ac bf ca 3d 3f 42 a7 bd 26 30 33 3b
       0.067619614 0.0989984 -0.08166932 0.002734193
000030 78 9b 03 be 05 ea 70 bd 7c 7d a6 bd ca 10 d6 3d
       -0.12852275 -0.05881693 -0.08129403 0.10452421
000040 00 a9 3e bd 2f 15 0a be 15 5a 8e bd 07 30 9f 3d
       -0.04654789 -0.13484643 -0.069507755 0.07772832
000050 60 f3 15 be 52 42 76 bd ca 3b d1 3d cf fa 86 bd
       -0.14643621 -0.06012184 0.10216482 -0.06590807
000060 89 ad ce 37 eb eb 23 be 49 81 1b be 19 6f 0e 3e
       2.4637922e-05 -0.16007964 -0.15186037 0.13909568
000070 4b 5e 21 be a8 a0 7a bd 07 fe 45 3e e3 1d 0f bc
       -0.15758626 -0.06118837 0.19335185 -0.008735153
000080 95 f9 0f 3e 57 bc ca 3d 09 9e 86 bc 6a fb a0 3c
       0.14060052 0.09899204 -0.016432779 0.019651134
000090 85 e7 00 bd 05 76 2b 3e 80 39 a0 3d 84 93 24 3d
       -0.031470794 0.1674424 0.07823467 0.040179744
0000a0 c6 77 15 be 0b 4c d8 bd c1 14 2c bd 91 84 f2 bd
       -0.14596471 -0.10561379 -0.04201198 -0.11841691
0000b0 40 e8 77 bc c7 6a 0c 3d 2c e9 da bd d2 40 09 3e
       -0.015131056 0.03428152 -0.10689005 0.13403633
0000c0 34 25 0f be 37 b6 22 be 31 5d 94 bd bd 1f 27 3e
       -0.13979036 -0.15889822 -0.07244337 0.16320701
0000d0 75 86 bd 3c 0d b6 f0 3c ea b1 c6 bc a7 3b 93 3c
       0.023135403 0.029383684 -0.024254758 0.01797278
0000e0 bf 1d 09 3e 73 54 37 bd 58 6a 0b be d3 b9 7f 3d
       0.13390253 -0.04475827 -0.13614786 0.062433075
0000f0 42 30 e9 bd 35 23 26 be b7 f9 c4 3d e7 89 0a 3e
       -0.113861576 -0.16224368 0.09617942 0.13529168
000100 e0 7b ff 3b 97 02 ab bd 4a fa 86 3d c4 bd 89 bd
       0.0077967495 -0.08350103 0.065907076 -0.06725648
000110 f2 ea 0b be b7 7c 14 be f0 01 c2 3d da d4 1a 3e
       -0.13663843 -0.145007 0.09473026 0.15120259
000120 9d 75 d2 3d 8c 10 2a be 63 98 1e be 9e 84 c6 bd
       0.10276339 -0.16607875 -0.15487818 -0.096932635
000130 84 28 2c bd cd 07 05 3e bf 51 33 3e ea cb 0e bd
       -0.042030826 0.12991257 0.17511652 -0.034862436
000140 1c 7a a2 3d a1 f5 2e 3e 07 00 90 bd 12 03 26 3e
       0.07933447 0.17085887 -0.07031255 0.16212109
000150 25 ae ad bd 79 1e 07 bd d9 e1 bf bd aa fe 04 be
       -0.08480481 -0.032988045 -0.09369249 -0.12987772
000160 9d b4 49 3d 38 33 3d bc 6f 31 49 bd c4 bb c7 3d
       0.049244512 -0.011547856 -0.04911941 0.0975261
000170 a2 b4 b5 3d 70 48 99 bd ba 18 03 be 74 2b 1a bd
       0.088723436 -0.074845195 -0.12802401 -0.037639096
000180 67 e4 a7 bd 9a b8 4a be be 4b 0c bd ee a5 9d 3d
       -0.08197861 -0.19796982 -0.03425192 0.07697664
000190 f0 fa b4 bd 39 e9 32 3e d6 af 28 be 73 c5 1e be
       -0.08836925 0.1747178 -0.16473326 -0.15505008
0001a0 67 c3 c1 3b 7a 98 36 3e 9e 87 1c 3e 33 c4 11 be
       0.0059131864 0.17831603 0.15286109 -0.14235
0001b0 5f 0e 8a 3d b5 eb 89 bc a1 f5 05 3e 31 ac 8c 3b
       0.06741022 -0.016836027 0.13081981 0.0042929878
0001c0 09 8b a8 bd e9 41 bb bd 1e 9e 39 3e 20 ed 8a 3d
       -0.08229644 -0.09143431 0.18126723 0.06783509
0001d0 01 29 10 be 86 72 ff 3d 6d a2 26 be 6a 87 e8 3d
       -0.14078142 0.124730155 -0.16272898 0.11353953
0001e0 7e 50 86 bd 77 7f 4c be bc b3 c1 3d c0 14 87 3d
       -0.065583214 -0.19970499 0.0945811 0.065957546
0001f0 f6 1d 05 3e 2d 08 c8 bd a0 77 41 3e 52 92 94 bc
       0.1299971 -0.097671844 0.1889329 -0.018136177
000200 37 4d 2a be 3c 59 42 3d 27 a5 5a bd c3 97 f9 3d
       -0.16631018 0.04744838 -0.053380158 0.121871494
000210 b6 51 d9 bd db b8 99 3d 0a ce 3c bd 7b 06 3a bd
       -0.10611288 0.075059615 -0.04609493 -0.045416337
000220 f8 48 a8 3c 06 d0 9a bb 65 80 b5 bd e6 0b f9 3d
       0.020542607 -0.0047245054 -0.0886238 0.121604726
000230 b0 d2 30 3d 01 bc 3c 3e 5c ac 30 bc 6f fa 15 3c
       0.043169677 0.18431093 -0.010783281 0.009153946
000240 68 e3 1c be a2 ef cd 3d 0e b0 04 bd ef cc f5 bd
       -0.15321124 0.10055472 -0.03239446 -0.120019786
000250 78 69 e6 bd 64 9f d2 bd e8 3c 16 be bc 6f 46 be
       -0.11250585 -0.102843076 -0.14671671 -0.19378561
000260 a8 d2 93 bd cc c4 07 3c cb 80 a8 3d 9c 03 bf 3d
       -0.07217914 0.008286666 0.0822769 0.0932686
000270 58 4f 08 3e 89 7b c7 bc 04 e9 4c bd e4 65 9e 3b
       0.13311517 -0.024350898 -0.05002691 0.0048339237
000280 03 1b bb bd 5a f1 01 be b4 52 04 be fb 14 d1 bd
       -0.091360115 -0.12689725 -0.12922174 -0.1020908
000290 20 22 bc 3b ac 8f 5d 3c 42 07 2c bd 87 bb bc bd
       0.0057413727 0.013523024 -0.04199911 -0.092154555
0002a0 8d fd ee 3d 0f f2 a4 bd 58 ff 91 bd 87 ba 19 3e
       0.11669455 -0.080539815 -0.07128781 0.15012561
0002b0 c6 21 79 3d 90 a5 17 3d 67 ed e9 3d a3 cd 07 3d
       0.060823224 0.037023127 0.11422234 0.033155095
0002c0 8f 4b 2d 3e 87 fb 7b bc a7 96 23 3e e0 e4 f7 3c
       0.16923355 -0.015379793 0.15975438 0.030260503
0002d0 3e 1c 80 bd 46 50 35 3d ca 5a 02 3e c4 8e 74 3d
       -0.06255387 0.044266008 0.12729946 0.059706464
0002e0 a5 49 11 be 9d fd 88 bd 15 9e 93 3b d5 d4 a5 3d
       -0.1418825 -0.06688998 0.004504929 0.08097235
0002f0 34 3c a6 bd 98 e5 22 be 27 e5 c4 bd a1 c5 34 3e
       -0.081169516 -0.15907896 -0.0961402 0.17653514
000300 e9 5a 48 bb 8e 32 55 bd a3 5b e2 3d dd 97 af bd
       -0.0030571765 -0.052050166 0.110526346 -0.085738875
000310 70 72 c9 bd e0 00 93 bd 65 f4 46 3c fb 0c 9c 3d
       -0.0983628 -0.07177901 0.012143229 0.07619663
000320 72 89 e4 3d 24 ce 17 be 35 d7 5d 3d 05 64 e8 bd
       0.11159028 -0.1482473 0.054160316 -0.11347202
000330 1a 49 8a 3d 73 63 ad 3c 54 7f 9f 3c 2f 2e c7 3d
       0.06752224 0.021165585 0.019469894 0.09725606
000340 de 61 2e be 9b 67 53 3c 88 94 28 be 35 aa d7 bd
       -0.17029521 0.012903119 -0.1646291 -0.10530511
000350 b9 12 b9 bd a8 96 0a be eb c7 40 3d 81 05 6d bd
       -0.09036774 -0.13534033 0.047065657 -0.057866577
000360 98 81 ab bd 54 9f 81 3d 65 e0 b0 3d a2 45 a6 bd
       -0.083743274 0.063292176 0.0863655 -0.0811875
000370 ab 58 09 3d 89 01 75 3d e1 6a 28 3e 4c 18 fb 3c
       0.033531826 0.059815917 0.16447021 0.030651234
000380 40 e6 75 bc 80 37 bf 3d 32 1a 21 3d 8f 2e 12 bd
       -0.015008509 0.09336758 0.039331622 -0.035688933
000390 46 53 0e 3e 05 6b 43 bd be 18 ba 3d bc e6 b0 bd
       0.13898954 -0.047709484 0.090867504 -0.08637759
0003a0 00 6a 1c be 69 56 97 3d 87 f7 9a 3d 97 fe e8 bb
       -0.15274811 0.07389528 0.07566743 -0.0071104276
0003b0 57 66 6a 3d 6e 17 5b 3e c5 98 0b be 1d 0f b5 3d
       0.057226505 0.21395656 -0.13632496 0.08840773
0003c0 17 5f e2 3d 4e 7b 62 bd 87 c7 2e 3e 1b 6a 74 3d
       0.11053293 -0.055293374 0.17068301 0.059671503
0003d0 9a 23 f0 3d 31 cc 4a be 2a 51 62 be c4 78 34 be
       0.117255405 -0.19804455 -0.22101274 -0.17624193
0003e0 ae 72 12 be 07 22 81 bd 34 58 7d 3b 77 4f 05 3e
       -0.1430156 -0.06305318 0.003865731 0.13018595
0003f0 cc 86 3c be f6 e1 3f be 79 96 00 3e 21 a1 62 3e
       -0.18410796 -0.18738541 0.12557401 0.22131778

lstm.bias_ih_l0 f4 [128]
000000 89 fd 9d bd 28 81 c2 3d 4a 06 bf bd e2 e0 15 3d
       -0.077143736 0.09497291 -0.093273714 0.036591418
000010 34 c9 ad bd ad 78 d0 3b 52 df 10 bd 10 04 11 3e
       -0.08485642 0.006362042 -0.035369225 0.14161706
000020 c9 a6 30 bd 24 d7 81 bd d0 f9 01 bc d8 01 f7 bc
       -0.04312781 -0.06339863 -0.007933095 -0.030152246
000030 e9 fd 91 3c 44 28 05 be 85 7b fc 3c 74 ca 10 3e
       0.01782127 -0.13003641 0.030820617 0.1413973
000040 4c be 28 3d 2f 82 1c bb 9a e8 3e bd d1 53 dc bd
       0.041197106 -0.0023881306 -0.046608545 -0.10758174
000050 d3 af e7 3d f1 1a 18 3e 9c 36 a2 bd ae a9 9c bd
       0.11312833 0.14854027 -0.07920572 -0.07649551
000060 56 72 31 3e 5c 93 1e 3e 86 a1 19 3e f8 f7 29 3e
       0.17328772 0.154859 0.15003023 0.16598499
000070 82 1d 80 3d 8b 1c 0c be 50 7d 30 3e 00 95 f6 3c
       0.06255628 -0.13682763 0.17235303 0.030100346
000080 b6 f0 12 3e 3e b4 43 bd cc fe 95 3d 84 03 e7 3c
       0.14349636 -0.047779314 0.07323989 0.028199919
000090 ec 5f f0 3c b4 9b 4b 3d 83 65 95 3d 10 1e 63 3e
       0.029342614 0.049709037 0.072947524 0.22179437
0000a0 c2 23 03 3e b3 a2 15 bd 93 b9 14 be 0e 6b 16 3e
       0.1280661 -0.036532115 -0.14523916 0.14689276
0000b0 da 5d 8e bd 4c 69 08 3e c0 08 f1 3c 7e 2b 49 3d
       -0.069514945 0.13321418 0.029423118 0.049113743
0000c0 2c a3 20 3d f4 c4 06 3e 64 ad 1f 3e 70 7e 90 bd
       0.039218113 0.13161069 0.15593487 -0.07055366
0000d0 32 54 90 bb e9 b9 1f bd fb 71 24 3e 50 46 f5 bd
       -0.004404568 -0.038995657 0.16059105 -0.11976302
0000e0 7a 0e 33 3e 98 e1 39 3e f8 98 25 be 4b 03 54 bd
       0.17485991 0.18152463 -0.16171634 -0.051760953
0000f0 2b 7c 99 bd 89 2d 2d 3e 8f 71 9e 3b d2 c0 e6 bd
       -0.07494386 0.16911902 0.0048353146 -0.11267246
000100 37 9b ab 3c 56 b5 24 be 2d cd de bd 95 49 bb bd
       0.020948036 -0.16084799 -0.10878978 -0.09144894
000110 33 46 fa bd 05 a6 e3 bd a8 3f 11 3c ec 20 01 be
       -0.12220421 -0.1111565 0.0088652745 -0.12610215
000120 4e 65 e6 bd d7 8b 77 3d c0 10 b2 bd be 1d 5a 3d
       -0.11249791 0.060436096 -0.08694601 0.05325102
000130 ba a5 5d bd 3b 51 dc 3d 26 d4 ee 3d d5 3e 12 3e
       -0.054113127 0.10757681 0.11661558 0.14281781
000140 40 b5 f4 bc 21 09 30 3e 67 ed 51 3d c5 bf 7d bd
       -0.029871583 0.17190982 0.051251795 -0.061950464
000150 aa 44 aa 3b 68 ae 1f bd da 88 24 3d 37 95 52 bc
       0.0051961737 -0.038984686 0.040169574 -0.012852958
000160 b4 5f a6 3a 5e 7f 3c bd a5 cd 7c 3c f0 a4 e7 3d
       0.0012693317 -0.046019904 0.015429889 0.11310756
000170 93 c6 41 be c8 29 16 be 08 2a f7 bc 89 6a 26 3e
       -0.18923406 -0.14664376 -0.03017141 0.16251577
000180 9c 98 1a 3e 9c 1f 92 bd da 07 5a bd 42 5d 37 3e
       0.15097278 -0.07134935 -0.053230144 0.17906669
000190 71 d9 84 3d b4 43 a6 3d 33 1b 08 3e c6 82 a4 bd
       0.06486786 0.08118382 0.13291626 -0.080327556
0001a0 88 73 1c 3e 21 47 12 3e df e2 18 3e f2 62 fc 3d
       0.15278447 0.14284946 0.14930294 0.1232356
0001b0 e0 ef af 3d 3f f1 58 3e 83 47 99 3d 01 3c ce bc
       0.085906744 0.21185778 0.07484343 -0.025175096
0001c0 27 e1 5a bd be e5 c3 bd e2 90 0d 3c 9b 50 d0 bd
       -0.05343738 -0.09565304 0.0086405 -0.10171624
0001d0 41 74 04 3e 33 74 35 3c 99 ff ba 3c 85 b5 37 3d
       0.12934972 0.011075067 0.022826957 0.044850845
0001e0 c7 42 b0 3d 6c 68 ae bc 4c ef 79 3d d0 59 46 bd
       0.08606487 -0.021290027 0.061019227 -0.048425496
0001f0 6f 2f 3e bc 0c c0 85 bd 57 77 1f 3e 16 8e 49 3e
       -0.011607989 -0.06530771 0.15572868 0.19683108

lstm.bias_hh_l0 f4 [128]
000000 8d a6 24 3d a5 df d4 bd 61 b4 fb bd 77 f2 38 3e
       0.040197898 -0.10394219 -0.12290264 0.18061243
000010 a3 a6 2e bd 82 0d e6 bd 3f 1c 12 be 80 da 91 3d
       -0.042639386 -0.11233045 -0.14268588 0.07121754
000020 dc d0 84 ba 27 0a 2e 3e fb a1 96 bd a5 ef d7 3c
       -0.0010133046 0.1699606 -0.07355114 0.026359389
000030 e5 eb 9e bd 59 1a ad 3d 0e 09 13 be 80 6f 6a bd
       -0.07759837 0.08452291 -0.14358923 -0.05723524
000040 b8 e1 fb bd b1 dc b3 bc dc 34 4e 3d 8d 1c 09 3e
       -0.12298912 -0.02195582 0.05034338 0.13389798
000050 ca 24 16 bc a1 7f 3c 3e 27 5c 44 3e dc a8 34 3d
       -0.009164045 0.18408062 0.19175778 0.04410635
000060 82 10 3f 3e e4 21 80 3d ec 2e e5 3d cf da a7 bd
       0.18658641 0.06256464 0.1119059 -0.08196031
000070 1b c2 89 3d d3 4b 05 3e 96 0a ab bc c4 fb 35 3e
       0.06726476 0.13017206 -0.020879071 0.17771822
000080 f4 f9 f2 bd 46 a1 40 3e af 39 09 be 8e a6 1d 3e
       -0.11864081 0.18811521 -0.13400911 0.15395567
000090 45 40 03 bc 1c 43 41 3e 5c 93 41 3e 80 30 2c 3e
       -0.0080109285 0.18873256 0.1890387 0.16815376
0000a0 e9 93 b0 3d 4d 76 fc 3d 62 b9 04 be bd fa d2 bd
       0.086219616 0.123272516 -0.12961343 -0.10301731
0000b0 f3 77 86 3d a4 e2 94 3d cd 62 e3 bc af 3e ad bd
       0.06565847 0.07269791 -0.027757073 -0.084592216
0000c0 62 19 07 be f8 b0 92 bd 94 9c 63 bc ab be 17 be
       -0.13193277 -0.0716266 -0.013892312 -0.14818828
0000d0 39 ab 07 3e b0 d9 9e 3d 49 c9 40 bc 94 15 3b 3e
       0.1324891 0.07756364 -0.01176674 0.1826995
0000e0 c7 7b 24 3d 1d ac 50 3e e1 c4 83 bd 4e 78 0e 3e
       0.040157106 0.20378156 -0.06434036 0.1391308
0000f0 d7 e0 82 3d 78 15 0e 3e 66 a1 00 3e 50 a5 24 3d
       0.06390541 0.13875377 0.12561569 0.040196717
000100 1a 15 1c bd 5a d9 3c be f2 5a 19 be 9e d4 01 be
       -0.03810606 -0.18442288 -0.14976099 -0.12678763
000110 9e ed f1 bc 6e ca d5 bd e4 c7 f2 3d 4b dd 33 3c
       -0.02953225 -0.10439001 0.11854532 0.010978053
000120 e8 58 d8 bd c2 cd d9 bd 5c 94 e6 3c 0d 69 a6 3d
       -0.105638325 -0.10634948 0.028146915 0.081255056
000130 e3 3a 28 3e 7a 01 85 bc fd 58 35 be 12 6e 40 be
       0.16428714 -0.016236056 -0.17709728 -0.18791988
000140 ea 68 0f be a4 ac 02 be db 74 67 3d 9e 42 38 3e
       -0.14004865 -0.1276117 0.056507926 0.17994162
000150 1c 03 9c 3d e5 7e 6e bd 5b f0 9b bd 35 6a a9 3d
       0.076177806 -0.058226485 -0.076142035 0.082722105
000160 58 dd 22 be e9 b0 fc 3d 56 ce 62 3c fb 54 03 3e
       -0.15904748 0.123384304 0.01384314 0.12825386
000170 fa 86 a0 bb 4e 93 0d 3e ba bf 1c 3e b4 bb ea 3d
       -0.004898903 0.13825724 0.15307513 0.11461583
000180 78 76 1d 3e 32 84 74 3d 9c da f7 bc e8 76 39 bd
       0.15377223 0.059696384 -0.030255608 -0.045279413
000190 2f 8a 26 be c4 a6 b3 bd d0 a1 dd 3b 50 f6 03 3d
       -0.1626365 -0.087720424 0.0067636743 0.032217324
0001a0 15 03 fd 3d 3c 42 a0 3d 12 ef db 3d 1f 22 17 bd
       0.123541035 0.07825133 0.107389584 -0.036897775
0001b0 1b ac 17 3d c1 da b3 bd 9d 67 ce 3c 80 14 c1 3d
       0.037029367 -0.08781958 0.025195891 0.09427738
0001c0 15 67 29 3e c8 d7 48 bd fa 18 0f 3e a2 e9 1e 3e
       0.16543229 -0.04903391 0.13974372 0.15518811
0001d0 fe ff df 3d 1f 2e 28 3e f7 ef f8 3d b6 7b 04 be
       0.109374985 0.16423844 0.12155145 -0.12937817
0001e0 a5 ff 72 3d 00 08 9d 3d dd 68 2f 3e 66 3f 1e bc
       0.059325833 0.076675415 0.17129846 -0.00965867
0001f0 3c 01 19 3e 77 dc 03 be 52 58 87 bd ee f0 ba 3c
       0.14941877 -0.1287707 -0.06608643 0.022819962

lstm.weight_ih_l1 f4 [128, 32]
000000 e5 34 40 be eb d9 db 3d a8 89 72 3c af 27 d6 3d
       -0.18770178 0.10734924 0.014803328 0.10456788
000010 28 3b be 3d 89 f5 38 bd 0e a2 da 3d a8 e4 86 bd
       0.09288627 -0.045156036 0.10675441 -0.065865815
000020 20 26 ac bc 39 3a ff bd bf 7d 87 bd 2e 97 8b 3d
       -0.021014273 -0.12462277 -0.06615781 0.068159446
000030 01 3d 43 3e be b1 4e bd f5 fe 05 3e 1e 1d 24 be
       0.1906624 -0.050462477 0.1308554 -0.16026732
000040 2c eb 97 bd ee 01 5b 3d ec d8 c1 bd b5 e3 22 be
       -0.07417902 0.053468637 -0.09465203 -0.15907176
000050 6d ce 64 bb 0f 0d 2b be 3b d0 66 3d 42 68 00 3d
       -0.0034913078 -0.167042 0.056350928 0.031349428
000060 0c 7d 38 3e 1e 4d 15 3e 4b a7 cb bd 9f 95 dc 3c
       0.18016452 0.14580199 -0.09944018 0.026926814
000070 64 9e 25 be 07 33 df 3b 8e 7c a3 bd 70 66 98 bc
       -0.16173702 0.006811503 -0.07982741 -0.018603534
000080 51 fa e6 3d d0 cf 0d be 09 84 0b bd f4 76 37 be
       0.11278213 -0.13848805 -0.034061465 -0.17916471
000090 23 08 ff 3d dd 16 cb bd e5 7a da 3b c3 00 4c bc
       0.12452724 -0.0991647 0.006667482 -0.0124513535
0000a0 9f 78 a8 3d 20 db ad 3d a1 f8 87 3d cb 6d 23 3d
       0.08226132 0.084890604 0.06639219 0.03989963
0000b0 fa 2b 3b 3b 24 50 a4 bd e7 73 1a be 83 01 b9 3c
       0.0028560148 -0.08023098 -0.15083276 0.022583729
0000c0 a7 3b 75 bd b8 22 9b bc f9 ea 97 3b 3a 83 5d 3b
       -0.059871342 -0.018937454 0.004636165 0.003380014
0000d0 e0 ad 32 3e 89 f1 b0 3d 93 e4 49 bd 21 c1 13 be
       0.1744914 0.08639819 -0.04929025 -0.14429142
0000e0 4b 06 ba 3d 3e 1e 2f be 58 51 e7 bd 09 8a be bd
       0.090832315 -0.1710138 -0.11294812 -0.09303672
0000f0 af b1 09 be d3 71 a9 3d 63 83 a7 3d c2 1e df bd
       -0.13446687 0.08273663 0.08179357 -0.108945385
000100 f6 a1 59 bc a4 29 f3 bd 33 33 05 bd 0b 1e 2d be
       -0.013283243 -0.11873177 -0.03251953 -0.16905992
000110 c6 8b 27 be a8 89 89 bd 9e 3f ea 3c 01 aa 6c bd
       -0.16361913 -0.06715709 0.028594788 -0.057779316
000120 b8 15 66 3d f6 a4 e9 bd c7 cc 2c 3e 48 ec 25 3d
       0.056173056 -0.11408417 0.16874991 0.04050854
000130 5e e6 93 bd 3d b3 b5 bd e5 5a 25 3d 35 db 03 3c
       -0.072216734 -0.088720776 0.040369887 0.0080478685
000140 47 9f 0c be 5a ec fb 3d 94 bf 82 bd b7 6b 7c bd
       -0.13732634 0.1230094 -0.06384197 -0.061626162
000150 80 99 38 bb c6 79 a7 3d 2b 4e df 3b c0 e9 24 be
       -0.0028167665 0.08177523 0.0068147383 -0.16104794
000160 7e 00 04 3c 92 0b ae bd 5c 79 06 be c0 19 2f 3e
       0.008056758 -0.084983006 -0.13132232 0.17099667
000170 e5 ed 77 3d 81 71 24 be 26 b4 40 3e fa 8e f8 3d
       0.06052961 -0.16058923 0.18818721 0.121366456
000180 d5 31 a8 bd e7 4e b7 3d 62 20 e9 bd 06 56 b1 bc
       -0.0821263 0.08950596 -0.1138313 -0.021647464
000190 ca 88 32 be 46 b3 e3 3d 0f c7 04 3e b7 a0 3c bd
       -0.17434993 0.11118178 0.1296656 -0.046051707
0001a0 b2 24 8e 3d 57 07 ef 3d 53 15 4a bd 6e 77 eb 3b
       0.06940593 0.11671322 -0.049336743 0.007185868
0001b0 de 9d 15 bd 16 a3 57 3b 0b e3 10 bd 1b b3 3a be
       -0.036527507 0.0032903603 -0.035372775 -0.18232386
0001c0 d9 17 08 3e 0b 42 1c bc 50 ad bd 3d bb f2 cb bd
       0.13290347 -0.00953723 0.09261572 -0.099584065
0001d0 21 db 33 bc f9 13 13 bd 13 fc 42 bd 0d 32 17 3e
       -0.010977537 -0.03590772 -0.047603678 0.14765187
0001e0 2a 70 90 bc 77 92 08 be 06 85 c3 bd 12 09 f7 3d
       -0.017631609 -0.13337122 -0.095468566 0.12062277
0001f0 00 e7 1b 3e c8 eb 06 be 72 ae 8f bd aa 49 c4 bd
       0.15224838 -0.13175881 -0.07015695 -0.09584363
000200 42 f9 77 3d e7 a9 14 3e c0 c7 1e 3e ac 34 26 be
       0.060540445 0.14517938 0.15505886 -0.1623103
000210 b3 e1 c1 3d be 84 ed 3d ca a9 1c 3d d4 0a c4 bc
       0.09466877 0.11597584 0.03824786 -0.023930945
000220 c2 8d 95 bd fa a3 2e 3e c2 3e e5 bd d8 69 57 3d
       -0.07302429 0.1705474 -0.11193611 0.052591175
000230 ac c0 00 be 49 c3 bc bd fe 01 41 be 8b 70 c3 bd
       -0.12573498 -0.09216935 -0.18848416 -0.0954295
000240 61 ba 44 be 23 7f 0d 3e 13 b7 12 3e 39 77 19 3e
       -0.19211723 0.1381803 0.1432765 0.14986886
000250 d0 f4 b4 3c 55 0e 16 3e ee 86 2f be 3b 9d d7 3d
       0.022089392 0.14653905 -0.17141315 0.10528036
000260 31 66 30 3c f0 35 8c bd 6c 1d c7 3d 2c 43 08 bc
       0.010766552 -0.06846225 0.09722409 -0.008316796
000270 0d fd e1 bd 10 59 59 bd 43 01 1b be e9 60 fe 3c
       -0.11034594 -0.053063452 -0.151372 0.03105207
000280 f1 47 29 3e cf 41 a5 3d 31 41 a6 3d 77 18 dc 3c
       0.1653135 0.080691926 0.08117903 0.026867134
000290 df 54 4a be ca 07 22 3d 4f 5b 0d 3e 7d 82 75 3d
       -0.19758938 0.03955821 0.13804363 0.059938896
0002a0 b5 8f 87 3d b0 49 31 bd da 3c 88 bd d8 f4 b0 bd
       0.06619207 -0.043283165 -0.066522315 -0.0864045
0002b0 22 b8 3b 3d 60 65 ac bd 4f 49 89 bd 54 18 e1 3d
       0.0458299 -0.08417773 -0.06703436 0.10990968
0002c0 23 70 bc bc 6b be 59 bd 7c 7a 5b 3d ca a2 58 3d
       -0.02300269 -0.053160112 0.053583607 0.052889623
0002d0 68 ae ef 3d 2d 1d f6 bd 5b 6d ac 3c 37 61 8f 3d
       0.11703187 -0.120172836 0.021048239 0.07000964
0002e0 46 3f 3a be d6 64 07 be 0f ae 84 bd d3 8c eb 3c
       -0.181882 -0.1322206 -0.064785115 0.028753674
0002f0 16 f0 5d bc a0 a2 2b 3c 94 fb cc bd a9 4a 05 3e
       -0.0135460105 0.010475785 -0.10008922 0.13016762
000300 3a fe c0 bd cb 11 36 be 66 05 32 be e3 1c fe bd
       -0.0942349 -0.17780225 -0.17384872 -0.124078535
000310 7f d8 a6 bd 69 3e 22 3e e5 5a 12 bd 0b 25 c1 3d
       -0.08146762 0.1584412 -0.035731215 0.094308935
000320 34 21 43 be f1 48 6e bd 44 90 85 3d 7d 45 12 be
       -0.19055635 -0.05817503 0.06521657 -0.1428432
000330 1d 18 fe 3d 7c 81 c3 bd 6f dd a6 3d c9 e2 13 3e
       0.12406943 -0.095461816 0.08147704 0.1444198
000340 35 f8 e4 bc a5 d8 1a 3b ad a4 17 be a6 1c a7 bd
       -0.027950386 0.0023627665 -0.14808913 -0.08159761
000350 22 48 c8 bc f8 de 13 bd e6 02 3b be ad 0d 01 3e
       -0.024448458 -0.03610131 -0.18262824 0.12602873
000360 40 16 fd 3c 9e 5f 34 bd 53 df 28 3e 92 f6 0b bc
       0.030894399 -0.0440365 0.16491441 -0.008542674
000370 31 b2 9d 3d 04 42 03 3e b2 3c 20 be 39 8a 04 3d
       0.07700003 0.12818152 -0.15648153 0.032358382
000380 4b 22 01 3e b1 56 af bd 46 b4 de bd 5e 02 7c bd
       0.12610738 -0.08561457 -0.10874228 -0.061525695
000390 76 a6 a9 bd de e6 68 bd 1e a0 fa 3c ad 04 e3 bc
       -0.08283703 -0.056860797 0.030593928 -0.02771219
0003a0 9a c5 2d be e6 c2 1e bd 98 d3 fd 3d cc c6 e0 3c
       -0.1696991 -0.03876009 0.12393874 0.027438544
0003b0 88 6b 61 3d 04 63 0c 3e 4d f8 c5 bd 5d 22 10 be
       0.05503419 0.13709646 -0.096665 -0.14075609
0003c0 8b 6e 81 3d 13 1f 07 3e e6 d1 a3 3c 4d df 0a 3e
       0.063199125 0.13195448 0.019997548 0.13561745
0003d0 9d b9 c1 bd a6 e3 0a 3e a6 df ef 3c 86 d5 0e be
       -0.09459231 0.13563403 0.029281449 -0.1394864
0003e0 00 34 df 3d 45 6c 11 3d 26 02 c4 bd c1 d9 bc 3d
       0.1089859 0.035503644 -0.09570722 0.09221221
0003f0 13 a1 c5 bd 1d d5 48 3c 38 da 16 be 92 34 2d 3e
       -0.09649863 0.012257841 -0.14731681 0.16914585

lstm.weight_hh_l1 f4 [128, 32]
000000 f7 89 cd 3c 1d 05 2b 3c 53 88 42 3c fe fb 98 bd
       0.0250902 0.010438231 0.011873323 -0.07469939
000010 e6 05 f8 bc 66 7e f2 3d 17 1b 83 3c 24 ec 1d 3d
       -0.03027625 0.11840515 0.016004128 0.03855528
000020 f5 1c 80 3d 89 c7 32 3e e1 4a 1f be 65 6f ee 3b
       0.06255523 0.17458929 -0.15555908 0.007276463
000030 20 32 11 bd e9 7d b2 bd 9e ad f1 3d 9b 5f 01 3e
       -0.035448194 -0.08715422 0.11800693 0.12634127
000040 33 99 3a 3d 47 7f 25 3e 31 83 09 be 16 66 c5 3c
       0.04555626 0.16161834 -0.13428952 0.02409653
000050 eb bb 53 3d 95 81 ec 3d 71 15 15 be 26 81 06 be
       0.051692884 0.11548153 -0.1455896 -0.13135204
000060 5e c4 01 3e ff cb dd 3b 89 38 a6 3c b3 64 08 3d
       0.12672564 0.006768703 0.02029063 0.03329916
000070 9f 37 35 3e 59 46 17 be f8 f9 02 3e 64 10 f3 bc
       0.17696999 -0.14772929 0.12790668 -0.029670902
000080 44 44 ca bd 66 5b 15 be 3f e1 a6 bd 2e 63 fd 3c
       -0.09876302 -0.14585647 -0.08148431 0.030931082
000090 84 d6 b4 3d a5 22 07 be 72 57 ed 3d e4 f2 89 bd
       0.08829978 -0.1319681 0.115889445 -0.06735781
0000a0 71 b7 4b 3e fe ac 26 3e 0f ea 14 be 72 26 8f bd
       0.19894196 0.16276929 -0.14542411 -0.06989755
0000b0 fa f5 38 be 21 a9 5a 3c 13 0c e4 bb 15 12 34 bd
       -0.18062583 0.013345988 -0.006959447 -0.043962557
0000c0 b3 eb 15 be f1 3e 4c bd 56 d6 2e 3e f5 49 2f 3d
       -0.14640693 -0.049864713 0.1707395 0.04279514
0000d0 2c 19 ed 3d b0 c8 00 be 59 23 80 bd 4d a7 b6 3d
       0.11577067 -0.12576556 -0.06256742 0.08918629
0000e0 b8 33 8a 3d 3d 1d eb 3d 17 3d eb 3d 47 e6 ee bd
       0.06748146 0.11480186 0.11486261 -0.11665016
0000f0 cf f7 42 be 63 2d c0 3c aa 32 02 3e 99 04 0d be
       -0.19039844 0.023459142 0.1271464 -0.13771285
000100 96 8e b6 bd 0e a5 b3 bd 7d 5d fd bd bc 60 4a bd
       -0.08913915 -0.08771716 -0.12371347 -0.04940866
000110 63 3f 01 3e cd 5b fd 3d fd 8e 13 3e 8e 19 9f 3d
       0.12621836 0.12371025 0.14410014 0.07768546
000120 24 9e 19 3e a8 cd 28 be 30 ce 3a 3d af ec 25 be
       0.15001732 -0.16484702 0.045606792 -0.16203569
000130 ca 61 af 3d f8 3d 20 3d 11 9c 1c 3e 4f 98 1d bd
       0.08563574 0.039121598 0.1529391 -0.03847533
000140 a3 4f 40 be 71 b7 26 bd b8 69 3f bd ee 75 08 ba
       -0.18780379 -0.040702287 -0.04673168 -0.0005205561
000150 79 a1 38 be 80 15 2a 3e 53 b4 d0 3d 03 75 00 3e
       -0.18030347 0.16609764 0.10190644 0.12544636
000160 06 0a 03 3e 87 54 2f be c2 b2 e5 3b af 4e 76 3d
       0.12796792 -0.17122088 0.007009835 0.060133632
000170 b9 72 23 be 12 5f 17 be 3b 58 da bd 83 87 ae bd
       -0.15961732 -0.1478236 -0.1066136 -0.085219406
000180 29 c8 42 3e c0 8a 77 3c 7a 76 af bd 28 72 aa bd
       0.19021668 0.015108764 -0.085675195 -0.08322555
000190 d6 57 aa 3d 5d df 29 3d 0f f1 00 be 05 aa 24 3e
       0.083175346 0.04147278 -0.12591957 0.16080482
0001a0 6c 89 13 3e 7d 87 e5 ba a7 12 30 3e 16 fc e9 bd
       0.14407891 -0.0017511692 0.17194615 -0.11425035
0001b0 6a 68 07 be e3 ba 05 3e 5f 18 e4 bd ea 02 97 bc
       -0.13223425 0.13059573 -0.11137461 -0.018434007
0001c0 da 76 0d bc 52 06 a2 3d fb df 06 be 77 4e 01 bd
       -0.008634293 0.07911362 -0.1317138 -0.03156897
0001d0 7a ba 8e 3d 7c 97 05 3e 32 04 3c be 7e db c9 bc
       0.06969161 0.13046068 -0.18360975 -0.024640795
0001e0 1a 63 b7 bb a8 4f a9 bd ed 61 24 be a4 c6 bd bc
       -0.0055965306 -0.08267146 -0.1605298 -0.023166008
0001f0 69 03 1c be 5e 0c b5 3b 0b af 96 bd a6 17 a7 3d
       -0.15235676 0.005525156 -0.073576055 0.081588075
000200 c3 c1 fc 3d de 46 70 3d 54 27 40 3c a6 b0 a5 bd
       0.123416446 0.058661334 0.011728127 -0.08090334
000210 96 99 06 be 8a 13 01 be b3 11 71 bd 40 24 30 be
       -0.13144526 -0.1260511 -0.05885477 -0.17201328
000220 a8 b8 ab 3d b0 e6 f0 bd 39 5d f5 bd 81 60 91 bd
       0.0838483 -0.1176275 -0.119806714 -0.07098485
000230 68 54 62 bd c1 42 ca 3d d1 dc 19 3e b8 f1 18 3d
       -0.055256277 0.098760135 0.15025641 0.037339896
000240 94 09 ef 3c c2 36 7c bd 37 b8 1c be 33 7d d3 3d
       0.029179372 -0.06157566 -0.15304647 0.10326614
000250 f4 7d 1f 3d 37 d2 07 3e db c5 23 bd 23 33 89 3d
       0.038938478 0.13263784 -0.03998361 0.06699207
000260 e6 17 13 be 86 7b 8c bc 28 7b 24 3e c8 6b 82 bb
       -0.14364585 -0.017148744 0.16062605 -0.0039801337
000270 91 e6 8d bd 49 59 27 bd a4 70 24 be af d5 e9 3d
       -0.06928743 -0.040856633 -0.16058594 0.1141771
000280 8d 84 d1 bd d6 f2 e2 3d 97 03 e3 bd 11 8d cc bd
       -0.1023036 0.110814735 -0.11084669 -0.09987844
000290 22 0e 10 3e b8 22 83 bd 69 55 2e 3e ca e8 80 3d
       0.14067891 -0.064031065 0.17024769 0.06294401
0002a0 73 3c fa bd 38 f8 c0 bd 0f 48 a1 bc c1 8e 16 3e
       -0.12218561 -0.09422344 -0.01968768 0.14702894
0002b0 fa 6b 9f 3d 81 7f c4 bd 07 e4 f6 bd 07 48 98 bd
       0.07784267 -0.09594632 -0.120552115 -0.07435613
0002c0 62 85 ec bc 56 1c 83 3d ef 40 14 bd fb 53 c3 bd
       -0.028872196 0.06401889 -0.036194738 -0.095375024
0002d0 1a 95 9b bc 45 69 15 3e 12 21 cb 3d 33 bf c9 3d
       -0.018991996 0.14590938 0.09918417 0.098509215
0002e0 ac c5 1a be 44 98 cd bc ea 59 a4 bd e1 ea dc bd
       -0.15114468 -0.02509702 -0.08024962 -0.10786987
0002f0 e5 1f 2e be 82 bf 3e 3e 13 04 18 be ff 6a c0 3d
       -0.17004354 0.18627742 -0.14845304 0.09395408
000300 18 50 d4 bc 3f 08 b6 bd ea c5 90 bc e3 fd 38 3e
       -0.025917098 -0.088882916 -0.017672498 0.180656
000310 7f 16 bf 3d f0 1e 12 3d e1 ca 2c 3e ea b8 c6 bc
       0.09330463 0.035674036 0.16874267 -0.024258096
000320 80 67 05 3d e8 fc d9 bb 54 9a f8 3d 6a da b4 bd
       0.03256941 -0.006652463 0.12138811 -0.08830722
000330 eb fc 06 be ca 1e 29 3d 01 57 95 3d 94 c5 34 3c
       -0.13182418 0.04128913 0.07291985 0.011033434
000340 bc 0d 93 3c b3 fc 27 bd 28 b4 ea bb 3f 85 17 bd
       0.017950885 -0.041012477 -0.0071625896 -0.036992308
000350 07 8c 84 3d 68 1b 8e 3d 41 00 44 bc 8a 09 02 3e
       0.064720206 0.06938821 -0.011962951 0.12698951
000360 6c 74 d7 3d 2d 8b f1 bc 3b bb 82 3d 79 21 71 3b
       0.105202526 -0.02948531 0.06383368 0.0036793633
000370 92 ac 41 3c de a2 cc 3d 8e c2 1d 3d e0 4a 2f 3e
       0.011820929 0.09992002 0.03851562 0.17118406
000380 c7 79 13 3e 32 be 63 3d 0a 62 04 3e 56 3f 00 3e
       0.14401923 0.055601306 0.12928024 0.1252416
000390 83 5f 11 3e d6 67 94 3d 7f b7 4a bd d4 e9 ed 3d
       0.14196591 0.07246368 -0.0494914 0.11616865
0003a0 85 f8 1a be b0 37 e6 bd 8a ec 8c 3d 78 02 46 bc
       -0.15133865 -0.1124109 0.06881054 -0.0120855495
0003b0 05 03 06 bd 3f 16 12 3d af 6e 80 bd 6c 34 1c 3e
       -0.032717723 0.035665747 -0.06271111 0.15254372
0003c0 39 ae e2 3d b0 92 a2 3d 27 b4 12 3e b5 56 be 3d
       0.110683866 0.07938135 0.14326535 0.09293882
0003d0 88 58 66 3d fe 29 e5 bd fe 8b be 3d ba 39 5b bd
       0.056236774 -0.1118965 0.09304045 -0.05352185
0003e0 8f 62 fd 3d ea a5 b0 3d 0d e9 92 bd 5e 7a 0a 3e
       0.12372314 0.086253956 -0.07173357 0.13523242
0003f0 a4 f3 aa 3c 3f 95 11 3c bf 80 b8 bd dd e5 c7 3d
       0.02086813 0.008885681 -0.09008931 0.0976064

lstm.bias_ih_l1 f4 [128]
000000 64 32 76 bd 76 b6 f8 bd 23 7a 0e be 56 09 7a 3d
       -0.06010665 -0.12144177 -0.13913779 0.06104406
000010 bd 7e da 3d fc 54 1a bc 4a 64 8e 3c 74 cf 8b 3b
       0.10668705 -0.009419676 0.017381806 0.0042666737
000020 9a c5 e8 3c b4 1f 91 3c d2 b8 b8 bd c1 2c 27 3e
       0.028414536 0.017715313 -0.09019627 0.16325666
000030 7a e1 64 bd f5 e1 14 3e fb 3d 2b 3e a0 27 97 bb
       -0.055879094 0.14539321 0.16722862 -0.004612878
000040 75 f9 be 3d a7 f3 45 3e 84 33 08 bd d3 15 11 3e
       0.09324924 0.19331227 -0.033252254 0.14168482
000050 5f 6b cc bb 8c cd 44 bd 0c db 73 bd 45 17 0a 3e
       -0.0062383856 -0.048047587 -0.05953507 0.13485439
000060 f8 19 1d 3e 52 b3 fe 3d a7 b4 20 3e 2a 27 41 3e
       0.15341938 0.124365464 0.15693913 0.18862596
000070 fd 6b 11 be 03 6e b9 bd 84 8d 16 3e c8 08 d1 bd
       -0.1420135 -0.09054186 0.14702421 -0.10206753
000080 5a 44 3e 3d fb 51 83 3d 81 ac e5 bd 49 42 13 3e
       0.046451904 0.06412121 -0.11214543 0.14380755
000090 e9 50 1c be 34 1b 08 3e 10 55 da bd c6 e1 37 3e
       -0.1526524 0.13291627 -0.10660756 0.1795722
0000a0 d6 cb 9a 3d 32 c1 c7 bc 47 b2 ae bd f9 dc c0 bd
       0.0755841 -0.024384115 -0.085300975 -0.09417147
0000b0 e3 78 ee 3d b0 69 aa 3d 1e 5c d1 3d 12 0c 4c 3e
       0.11644151 0.083209395 0.10222648 0.1992648
0000c0 19 79 11 3e 6b 12 d7 bd 3e 6d c5 bd 0a 04 18 bc
       0.14206351 -0.1050156 -0.09639977 -0.009278307
0000d0 46 ba e4 bd ec bc 02 be 5e fb 6e bd 51 8f 9e 3d
       -0.11168341 -0.1276738 -0.05834519 0.07742179
0000e0 d4 f8 f1 bc 34 20 ff bd 70 c6 e0 3c 83 70 bf 3d
       -0.029537596 -0.12457314 0.027438372 0.09347632
0000f0 64 40 aa bd 90 5a a0 3d bb 5a b0 bd cb ac d7 bd
       -0.08313063 0.078297734 -0.086110555 -0.105310045
000100 55 e8 ad 3d ea 48 82 3c b6 a2 04 3e 28 23 07 bd
       0.084915794 0.015903909 0.12952694 -0.032992512
000110 88 7c 2a be 44 91 5a 3d 0b 27 b5 3c 4b 56 09 be
       -0.16649067 0.053361192 0.022113344 -0.13411824
000120 b2 75 1f 3e 0d db dc bd b7 04 f4 bd 66 45 da bd
       0.15572241 -0.10783968 -0.11914962 -0.10657768
000130 f7 91 7f 3c 56 aa d5 bd 44 2f b1 3d ec 9f 5b 3d
       0.015598766 -0.104328796 0.08651593 0.05361931
000140 1d 2d 31 bd 3b 4a 9c 3d ca 97 b0 3d 09 af 17 3e
       -0.043255914 0.07631346 0.086227015 0.14812864
000150 f7 46 df bd 97 83 2b 3e 0f d7 50 3e 7e 3d df bd
       -0.10902207 0.16749416 0.20394538 -0.109004006
000160 5a 88 03 be 87 c0 35 be 2c 98 e0 3c c2 80 15 3c
       -0.12844983 -0.17749225 0.027416311 0.009124937
000170 18 8c 9f bc 36 cc 11 3e bb 62 5c bd 7b fe 05 3e
       -0.019475982 0.14238057 -0.053805094 0.13085358
000180 ab ee b4 bd 3c bb 9d bc 5c 23 d5 3d f9 d8 14 be
       -0.08834585 -0.01925432 0.10407135 -0.14535893
000190 69 92 cb 3c 51 c9 b8 bc e2 b3 ed bd f3 67 9e 3d
       0.024850087 -0.022556933 -0.116065755 0.077346705
0001a0 58 5b a7 3d 88 2c cb bd bf dd 0c 3d 15 14 92 3b
       0.08171719 -0.09920603 0.03439116 0.0044579604
0001b0 ee 2a d1 3c 60 1a 34 3d 82 11 04 3e de 66 6b 3c
       0.025533166 0.043970466 0.12897304 0.014367787
0001c0 9a 09 92 bd 39 15 cc 3d 2b 3b 54 3d 7d 7c fa 3d
       -0.071307376 0.099649854 0.05181424 0.122307755
0001d0 2b 4e 2f 3e 42 d1 2e 3e 94 3a 87 bd 6c d8 c0 bd
       0.17119662 0.17072013 -0.0660297 -0.09416279
0001e0 f6 0a d5 bd cb a2 b9 bd 2b 71 97 3d 56 69 0d be
       -0.10402481 -0.090642534 0.07394632 -0.13809714
0001f0 fb cb 2b 3e 70 f2 0f be a4 2c 36 3e a5 e6 30 3e
       0.16777031 -0.14057326 0.17790467 0.17275484

lstm.bias_hh_l1 f4 [128]
000000 8f b1 f8 3d b7 a4 bf 3d e7 0a b6 bd de 71 fd 3c
       0.121432416 0.09357589 -0.08888798 0.030938085
000010 e8 68 11 3e 89 a3 bd bd ae 9b ae 3d 75 df 04 3e
       0.14200175 -0.092597075 0.08525787 0.12975867
000020 2e a3 a6 bc af ce f6 bc 56 ab 9e bd ce 46 14 be
       -0.020341482 -0.030127851 -0.077475235 -0.14480135
000030 f9 4f 50 3d f2 9a bf bd 87 98 22 be f5 72 02 3e
       0.050857518 -0.09355725 -0.15878497 0.12739165
000040 98 57 08 be c3 e3 06 be 1a dd bf bd 17 89 0c 3e
       -0.13314664 -0.13172822 -0.09368344 0.1372417
000050 71 9d b6 3d 1c 1b 17 3e 5e e5 7a 3d de 8d da 3d
       0.08916748 0.14756435 0.061253898 0.1067159
000060 61 14 01 3e c3 cb 09 3e e1 85 8d bd 4a 9a af bd
       0.1260543 0.13456635 -0.06910301 -0.0857435
000070 bd 5c 0e be 33 54 b5 3d d7 00 8d bd d5 6b 1d bd
       -0.13902564 0.0885395 -0.06884926 -0.038432915
000080 6e 3e 1f 3e c5 db 5a 3c 66 47 9c bd 5f 97 13 be
       0.15551159 0.013358061 -0.07630806 -0.14413212
000090 52 43 45 3d c9 56 46 3e e4 c5 ab 3d 0d 20 0e be
       0.048159905 0.19369043 0.08387354 -0.13879414
0000a0 d5 2c d4 3d 50 7b 24 3d b5 77 49 3e d5 86 10 3e
       0.103601135 0.040156662 0.19674571 0.14113934
0000b0 72 3d 8e 3d 5b cb 4b 3e 2a 26 7b bd e9 b2 24 bd
       0.069453135 0.19901793 -0.061315693 -0.040209685
0000c0 4e 00 31 3e 9f 1c b8 bd e7 a4 56 3c e7 f5 9b 3d
       0.17285272 -0.08989834 0.013100839 0.076152615
0000d0 fd 10 0f be 46 c3 1f 3e c7 d0 15 3e da b1 ff bd
       -0.13971324 0.15601835 0.14630423 -0.12485094
0000e0 35 7c f4 3c e2 b0 1c be fe c3 2e 3c f1 a9 05 be
       0.029844383 -0.1530185 0.010666845 -0.13053109
0000f0 9e 64 bd bd ac 7d 01 be fc fd 32 bc ed 6f 46 bc
       -0.09247707 -0.12645596 -0.010924812 -0.012111646
000100 bc 61 c9 bd d0 dc f8 bd f1 c4 55 3d 35 db 90 bd
       -0.098330945 -0.12151492 0.05218977 -0.070730604
000110 c7 e1 15 3e 62 3b 97 3d 3b a9 b8 3d 4a d6 9b bd
       0.14636908 0.07384373 0.09016653 -0.07609232
000120 a5 29 e5 3d f1 e6 db bd 89 46 40 3e 27 b7 37 be
       0.11189584 -0.10737408 0.18776907 -0.17940961
000130 88 78 ba 3d 45 0a e5 bd 0b c3 14 3e f2 27 2d bc
       0.09105021 -0.111835994 0.14527528 -0.010568606
000140 71 b2 ec bd 9a 20 19 bd 32 49 74 3d c9 fa 29 3e
       -0.115574725 -0.037384607 0.059640117 0.16599573
000150 52 3a 11 be bf 0e 6c bc fa 56 d1 bd f7 6b e4 3d
       -0.14182404 -0.014407813 -0.102216676 0.11153405
000160 b5 be f5 bd 70 82 14 be 81 27 88 3d a3 08 f9 3d
       -0.11999265 -0.14502883 0.0664816 0.121598504
000170 32 f4 cb 3d f2 1e 21 be 88 8c c3 bd 1c 15 0f 3b
       0.09958686 -0.15734461 -0.095482886 0.002183265
000180 71 e6 17 3e ff ea 3d bd 7b 60 16 3d 04 ca 7f bd
       0.14834 -0.046366688 0.036713105 -0.062448516
000190 db e7 7b bd 81 d6 ff 3d f5 16 48 3c 5b 91 42 3e
       -0.06150041 0.12492085 0.012212505 0.19000761
0001a0 c4 84 2b 3e 58 72 24 3e 7c 00 26 3e 6c 6c 3e 3c
       0.16749865 0.16059244 0.16211122 0.0116225295
0001b0 06 99 12 3d 57 55 2d 3d 77 3d cb bd d1 0c ec bd
       0.035790466 0.042317715 -0.09923833 -0.11525882
0001c0 8b 8e c4 3d f1 21 2c bd ec 92 67 3d 0a 2a 09 bd
       0.095975004 -0.042024557 0.0565366 -0.033487357
0001d0 47 49 f2 bd f9 05 3e 3c 2c cb 2c bd a6 c1 c8 bd
       -0.11830383 0.011598104 -0.042185947 -0.098025605
0001e0 02 e2 84 3d 32 20 42 3d 08 a7 1e be 60 5d 45 3d
       0.0648842 0.047393985 -0.15493405 0.048184752
0001f0 59 59 0d be b5 f5 b5 3d a7 79 47 3e 4c fe bf bd
       -0.13803615 0.088847555 0.1948 -0.09374675

lstm.weight_ih_l2 f4 [128, 32]
000000 8c 9d 78 bd d9 f6 06 3e 67 9f 65 bd b9 6d e4 3d
       -0.060697123 0.13180102 -0.05606022 0.111537404
000010 d0 5a e9 bd 5d 1f 09 be f4 e9 9a bd 60 00 8f 3d
       -0.11394274 -0.1339087 -0.07564154 0.069824934
000020 56 14 31 bd 77 b3 ad bc 61 2c 27 bc 97 aa 87 bd
       -0.043232284 -0.02120374 -0.010203452 -0.06624334
000030 9b 5d a2 3d b8 b5 2c be 14 21 57 3d ce f2 f8 bd
       0.0792801 -0.16866195 0.05252178 -0.12155686
000040 8b 11 ac 3d bc 50 43 bd e5 a1 c1 bd 54 05 b0 3d
       0.084017836 -0.047684416 -0.09454707 0.08594766
000050 03 dc 66 3c aa 49 0d 3e 32 3a f4 3c 95 fb 55 bd
       0.014090541 0.13797632 0.029812906 -0.05224188
000060 0f ab 8b bd 5b f1 0a be a9 12 00 be a4 36 25 3e
       -0.06819736 -0.13568632 -0.12507118 0.16134125
000070 3b 24 ff 3d 91 44 96 3d e7 49 c7 bd da f7 2b 3c
       0.12458082 0.07337297 -0.09730893 0.010496104
000080 3b 18 d9 3b 53 8b 1b be 57 85 ef bd c8 11 78 3d
       0.006625203 -0.15189867 -0.116953544 0.060563833
000090 a2 00 3a 3c a3 be b8 3d 27 54 09 be 75 c1 16 be
       0.01135269 0.09020736 -0.13411008 -0.14722236
0000a0 e3 a9 ff 3c de 8e 71 3d 80 51 89 bc 15 13 e6 bd
       0.031208938 0.05897414 -0.016762495 -0.11234108
0000b0 83 9a 38 3d 0d 4d 9d 3c 74 5a 1d 3e e9 92 18 be
       0.04506923 0.01920178 0.15366536 -0.14899792
0000c0 15 79 96 3c 8b 5e f9 bc e2 4a 73 bd 24 7c e3 3d
       0.018368283 -0.03044059 -0.059397586 0.11107662
0000d0 ca 02 b6 3d 4e b3 74 bd 9a a7 61 bd ef 09 48 bd
       0.08887251 -0.05974131 -0.055091478 -0.0488376
0000e0 70 5e af 3c 7f 47 af bd b2 52 03 be 15 86 a9 3c
       0.021407336 -0.08558559 -0.12824515 0.020693818
0000f0 31 d0 a5 3d b9 ad f8 bb 87 e1 ea 3d 86 c6 9b 3d
       0.0809635 -0.0075890687 0.11468797 0.07606225
000100 0f 8f d5 3c f1 ed f1 bb 89 3e 9f bd 09 06 d0 3c
       0.026069192 -0.007383101 -0.077755995 0.025393503
000110 eb b3 79 3d 58 21 1a be ec 39 fd 3d 3c 98 e8 3d
       0.0609626 -0.15051782 0.12364563 0.113571614
000120 a1 4e 15 bd 1b 3e ce 3d 97 3c fe bd c1 00 05 be
       -0.03645194 0.100704394 -0.124139 -0.12988569
000130 5e 0f 59 be d4 85 0d 3d 46 2b 06 3e 8f f4 14 3e
       -0.21197268 0.034551457 0.13102445 0.14546417
000140 c8 38 1a 3e 21 b0 09 be 15 78 e4 ba 55 0b 16 3e
       0.15060723 -0.13446094 -0.0017430807 0.1465276
000150 12 f7 99 bd 60 17 15 3e a9 2d f0 3d e9 bb 42 be
       -0.07517828 0.14559698 0.11727459 -0.19016995
000160 71 88 2f be 62 ae 6d bc 8f 5d b0 3d 3f 7e 10 bc
       -0.17141892 -0.014506908 0.08611595 -0.008819162
000170 14 d4 44 be a1 bf b4 bd b4 8d 21 be 17 5d 9b 3d
       -0.19221526 -0.08825613 -0.15776712 0.07586115
000180 4c 79 35 3e c7 a3 a4 bd 1a ff 85 3c 35 af 43 bd
       0.17722052 -0.080390505 0.016356993 -0.047774512
000190 5a b7 c2 bd 7d 93 d8 bd 95 89 b8 bc 26 4c 99 3d
       -0.09507628 -0.10575006 -0.022526542 0.07485227
0001a0 c2 b7 5b bc 41 bb 76 3d 41 28 c2 bd ff ed d7 bb
       -0.0134105105 0.060237173 -0.09480334 -0.0065896506
0001b0 a9 53 06 3e 82 16 c4 3d 31 b4 45 bd 25 01 02 3e
       0.13117851 0.095746055 -0.048267547 0.12695749
0001c0 a7 7e 72 3a c0 a8 48 3e ff 00 2e 3e 10 c0 4c 3d
       0.000925044 0.19595623 0.16992567 0.049987853
0001d0 52 b4 e4 bd 48 c6 b6 3d 5d dc 6b 3d 5f db c0 bd
       -0.11167206 0.08924538 0.0575832 -0.09416842
0001e0 7a dc 97 3c 0f d0 37 bd 16 4a 1e be 38 f3 01 3e
       0.018537749 -0.044876155 -0.15457949 0.12690437
0001f0 24 98 db bd 36 af 33 3e 8f c3 7b 3d c1 95 06 3e
       -0.10722378 0.17547306 0.061465796 0.13143064
000200 41 62 0a 3e 04 b7 c2 bc 54 7f a6 bd b6 06 c7 bd
       0.13514043 -0.02376891 -0.08129755 -0.09718077
000210 46 d7 08 3e 07 cd f9 3d bf dd 8f 3c dc 57 b7 3d
       0.1336337 0.12197309 0.017561791 0.08952305
000220 87 ae 21 3e 2f 52 9b bd 91 6c 98 3d 0d 53 ac bd
       0.15789233 -0.07584035 0.074425824 -0.08414278
000230 c6 8a 21 be f1 b8 87 3d 0d cc f8 3d f5 e7 a1 3d
       -0.15775594 0.06627072 0.121482946 0.079055704
000240 68 7c 1c be a4 bb 11 be f8 0a 83 bd 6c 15 32 3e
       -0.15281832 -0.14231735 -0.063985765 0.17390984
000250 76 49 bd bd 39 9d 0a 3e 90 9b bf 3d f2 82 0d 3e
       -0.09242527 0.13536538 0.09355843 0.13819483
000260 ef b1 19 bb 7f 80 15 be 1c 50 0b 3d d4 91 7a 3d
       -0.0023452004 -0.14599799 0.034011945 0.06117423
000270 b6 5a e4 bd 46 00 82 bd b1 76 80 bd 42 81 cc 3d
       -0.11150114 -0.063477084 -0.062726386 0.099855915
000280 ed 51 5d 3b 01 c0 80 bc 2e 38 0b 3d 2e b0 16 be
       0.0033770755 -0.015716555 0.033989124 -0.14715645
000290 c6 0b 16 3e 92 65 19 be 3d 63 13 3d 47 7f 1e be
       0.14652929 -0.14980152 0.035983313 -0.1547824
0002a0 09 2a 1a be bc ed 81 3c 30 2e a4 bd 8d ee f9 3d
       -0.15055098 0.01586043 -0.08016622 0.12203703
0002b0 06 d1 62 bd b9 ee 11 be 39 c2 45 3c 61 49 80 bd
       -0.05537512 -0.14251222 0.012070232 -0.06263996
0002c0 da d1 ee 3d ef 66 8b bc d6 f0 0e 3d 02 20 fb bd
       0.1166112 -0.017016856 0.034897648 -0.122619644
0002d0 1c 34 cc bd 06 ce 47 3d 60 65 4b bb c6 1d 7c bd
       -0.099708766 0.048780464 -0.0031035766 -0.06155183
0002e0 9e 72 50 3d 5e 7b f5 bd a2 91 24 3d e3 34 ac bd
       0.050890557 -0.11986421 0.04017795 -0.08408525
0002f0 15 24 22 3d 81 be 11 be 12 0b f8 3c 72 44 bd bd
       0.03958519 -0.14232828 0.030278716 -0.092415705
000300 25 88 93 bd 75 10 0f 3e f1 d7 28 bd f1 6b e6 bd
       -0.07203702 0.13971122 -0.041221563 -0.11251057
000310 d6 dc db 3d 84 4b d0 3d c0 56 07 be e0 8e 72 bd
       0.107354805 0.101706535 -0.13216686 -0.059218287
000320 dd 51 1d bd 86 54 25 3e c9 6a 9b 3d 00 c0 16 be
       -0.03840815 0.16145524 0.07588727 -0.1472168
000330 62 5b 90 3d c2 b6 0d bd 10 4d 83 3d 99 1e d5 3d
       0.0704868 -0.03459812 0.06411183 0.10406227
000340 c9 28 e8 bc 57 be 53 bd bd 71 c8 3c 7f d0 b8 3a
       -0.02833976 -0.051695194 0.024468297 0.0014100223
000350 ec 43 1b bd e2 d0 ad 3d 27 4a 90 bd d1 11 02 be
       -0.037906572 0.08487107 -0.070453934 -0.12702109
000360 a8 56 0d be d9 ab cd 3c 93 95 b3 bd cc 8f 5c bd
       -0.13802588 0.025106357 -0.087687634 -0.053848073
000370 19 2a a1 3d 3f 61 03 bd 95 41 f6 3d a1 49 e4 bc
       0.078693576 -0.032075163 0.120242275 -0.02786714
000380 f3 19 fb bc 4b 08 d3 bd 22 ed ab 3d 03 c9 30 3e
       -0.030652022 -0.10304316 0.08394839 0.1726418
000390 7d 94 bb 3c ae cd 5b 3d 38 d6 01 3e 31 e5 d5 3d
       0.022897953 0.05366295 0.12679374 0.104441054
0003a0 37 8d 96 3c a3 a0 d3 bc c3 55 c1 3d 7a bd a6 3d
       0.018377883 -0.025833433 0.09440186 0.081416085
0003b0 a8 87 c5 3d 52 dc c2 3c 38 f4 55 3d 82 5e 1f bd
       0.09645015 0.023786698 0.05223486 -0.03890849
0003c0 98 59 d6 bd 92 71 05 bd 92 6a 9e bc 56 4c a9 3b
       -0.104663074 -0.032579012 -0.019337926 0.0051665707
0003d0 73 22 9c bd 08 7e f4 3d 6c 93 73 3d 8d 0c 2e be
       -0.07623758 0.11938101 0.059466764 -0.16996975
0003e0 de 1f 09 be e4 c0 08 3e c0 5e 3b be 58 63 f6 3d
       -0.13391063 0.13354832 -0.18297863 0.12030667
0003f0 3c a6 3e 3b 7b 36 8b 3c a6 db e8 3d fe 41 30 3e
       0.0029090783 0.016993752 0.113700196 0.17212674
