pv/checkpoints/대학C동-checkpoint-2023-08-10 22_35.pt (torch, 304585 bytes, 38 tensors)

lstm.weight_ih_l0 f4 [128, 17]
00000000: f6fb 4f3e cea7 493d d7f3 fabd a444 c4bb
00000010: bef2 513e acee e53d 5fde 453e 7ec5 a3bd
00000020: 16d5 283e dc8d de3c 23ff 813d 14d4 a23c
00000030: 67f9 e5bd 3ea9 8fbc 04a1 2a3e b415 0e3e
00000040: 5ffc 753c 0483 a5bc 0fd8 2abe 4c86 663d
00000050: fd85 a3bc c941 2c3e 9d77 9c3c 5689 ad3d
00000060: 8723 f3bd 441e 0c3e 4e9d 0abe 73f1 a8bd
00000070: 8322 5c3b 5f6a ff3d 5b38 dd3d ea3e c9bc
00000080: bd4c fb3d 5708 913d d0e8 103e 9125 f9bd
00000090: bcda 8abc f774 67bd 7ada 253e 59fc 0ebe
000000a0: e954 03bd d7be 3c3d c6f5 bf3c 453c 9abd
000000b0: e55a faba e5dd 3bbd 7239 f53d 1216 29be
000000c0: 501e 033d 3852 ee3d 38c0 3cbe d0a1 36bc
000000d0: 5bcb 583d 7a48 e1bd c7e8 9f3c 7126 bd3d
000000e0: 03c8 013d 5e51 c6bd 8227 fc3d 6ffe e0bc
000000f0: cf15 8ebd 404d f63c a3e4 a3bd 85ef 9dbd
00000100: 3b9c f9bd 89ed 223c efee 6cbd 6a18 90bd
00000110: 05ba 513e ecfa 373e 9811 2c3e 8395 9cbd
00000120: f545 64bd 7ec0 4d3d 292e 0dbe f0b5 e7bc
00000130: 960a cdbd 0217 7c3d fc24 9f3d fd69 213e
00000140: 0df9 013e 7e64 e23d f5a9 dd3d 81af fabd
00000150: ce2f 74bd 6de7 c43c d549 893c 4740 763c
00000160: 32c4 643e 41d9 523e 5490 3e3e 9d44 f03d
00000170: 0b49 19bd f436 573e 836e 2fbd 91ca 05bd
00000180: b983 983d b9ac 853d 494d c7bd cf3f 303e
00000190: 30e0 0e3e 9833 21be e772 813d 21ff b53d
000001a0: 48dc 083e 23be 303e 7d8b 193e 56a9 a43d
000001b0: 194d b63c bbe7 d7bd d41b b53d fbdc 25bd
000001c0: ff72 b13b b540 edbc c92f 633d 5133 a5bb
000001d0: 714f 113e 374d e23b bf5e 153e bd3c f9bd
000001e0: 95f4 aebd 3292 063b 8198 8ebd b992 303e
000001f0: 3d5f af3c 6a57 073e e758 083e e85e fd3d
00000200: 4bfd 04be a25d 613d 07af b9bc bb00 85bd
00000210: 369e edbd 6429 ef3d e392 063c 2a92 28be
00000220: 0054 063e fd43 0dbe e51b 163e be0b 5c3c
00000230: 53d7 363e 4d02 5f3d c1d1 0fbe f817 09be
00000240: aebb 0c3d b1e2 cf3d c87a ad3d bfc6 bcbd
00000250: 44a4 cdbc d2c6 15be 7005 fcbd 637b 143c
00000260: df6f 11be 7e58 303d a93a e53d a33c 5b3b
00000270: 2749 eabc fa04 23be 484b 08be f79e a6bd
00000280: a7b8 72bd a06b 923c 9f2f 243d 4773 c0bd
00000290: cc8c 97bd 2e7f 4bbd e203 33be c3f9 51bc
000002a0: cb68 1fbe 2853 cc3c 5823 60bd 49b2 083e
000002b0: 0f7c cd3d a0b3 b3bd f972 c13d a8ac 90bd
000002c0: d952 353e 69b4 7abd c2b0 203e a932 b7bd
000002d0: f2ce babd 2c9e f43d 9c05 16be e948 13be
000002e0: 7f2a 633d 1c1c e33d 1b71 8d3d 5749 bbbd
000002f0: 5750 333e 4e0c dcbc 4620 72bd 2103 b3bc
00000300: 3cfd 193e aa1a 11be 47ba 14be fc14 debd
00000310: 7d4a 383e a1cc 18be 42ba 953d 11db f53c
00000320: 140c debd 8f56 173d de1e f3bd 451b e4bc
00000330: a40f 443e f8e4 483d fc0d 64bd 0b12 0e3e
00000340: 56e5 0c3e 5a25 e23d ca90 2e3d 3d31 ef3d
00000350: 0834 a7bb 558f 08be 894d babd 6d06 073d
00000360: 52a5 4f3d 9aad 8abd 2b32 b93d f8e0 0b3e
00000370: b469 38bc 60bf 143e 227f 3b3d 8ebe c9bd
00000380: f0b5 373d fae0 c5bd 2358 fc3c f409 10be
00000390: fc10 813d 2df8 053e d5dd 05be 9aad 1e3e
000003a0: 4386 74bd 880e 2d3e 624c c6bd 446a 21be
000003b0: c670 2d3e 9b75 1ebe 6458 17be eab4 283e
000003c0: 7aca 003e d550 4a3e da1f 02be b048 5cbd
000003d0: 1c46 3a3e cda7 87bd 894e f03d 9b75 23bd
000003e0: 4301 e8bc 41a2 c43d 4fa4 e6ba b005 f9bd
000003f0: 29d6 2f3e 0a83 9e3c 52ee 4abe 4721 4b3e
0.20310959 0.049232297 -0.1225354 -0.005989628 0.20502755 0.11227164 0.19323109 -0.07996653
0.16487536 0.027167253 0.063474916 0.019876517 -0.1122921 -0.017536756 0.16662985 0.13875467
0.015013783 -0.020204075 -0.16683982 0.05628042 -0.019961352 0.1682197 0.019100005 0.084734604
-0.11872011 0.1368342 -0.1353657 -0.08249178 0.0033589907 0.124714606 0.108017646 -0.024566133
0.12270496 0.07081669 0.14151311 -0.12165368 -0.016950004 -0.05650803 0.16196623 -0.1396345
-0.0320634 0.046080437 0.023432624 -0.07531027 -0.0019100575 -0.045865912 0.119738474 -0.16512325
0.03201133 0.11636776 -0.184327 -0.011146978 0.05292831 -0.11000152 0.019520177 0.09235848
0.031684887 -0.09683488 0.12312223 -0.027465073 -0.069377534 0.030066133 -0.08002593 -0.077117
-0.12188002 0.009944328 -0.057845052 -0.070359066 0.20481117 0.17966813 0.16803586 -0.076457046
-0.05573078 0.050232403 -0.1378714 -0.028284997 -0.10011785 0.06154538 0.07770726 0.15763088
0.12692662 0.110543236 0.10823432 -0.12240506 -0.059615903 0.024036134 0.016758839 0.015029973
0.22340468 0.20590688 0.18609744 0.11731837 -0.037423175 0.21017057 -0.04283 -0.032663886
0.07446999 0.06527085 -0.09731538 0.17211841 0.13952708 -0.15742338 0.06320744 0.088865526
0.1336528 0.17260031 0.14994617 0.08040111 0.02225356 -0.10542246 0.088431984 -0.040493947
0.00541532 -0.028961519 0.055465493 -0.005041518 0.1419046 0.0069061774 0.14586924 -0.12169788
-0.08542744 0.0020533917 -0.069626816 0.1724347 0.021407718 0.1321694 0.13315164 0.123716176
-0.12987249 0.055020936 -0.022666467 -0.0649428 -0.11602442 0.116778165 0.008213731 -0.16462007
0.13117981 -0.13795467 0.14659078 0.013430534 0.17855577 0.054445554 -0.14044859 -0.1338805
0.034358673 0.1015066 0.08470684 -0.09217595 -0.025102742 -0.14626625 -0.123057246 0.009062621
-0.14202832 0.043053143 0.11192829 0.003345289 -0.028599335 -0.15919867 -0.13309968 -0.08135789
-0.05925813 0.017873585 0.040084478 -0.093969874 -0.07399902 -0.049681835 -0.1748195 -0.0128158955
-0.15567319 0.024941996 -0.054721206 0.1334926 0.10033428 -0.08774495 0.094457574 -0.070641816
0.17707385 -0.06120721 0.15692428 -0.089452095 -0.09121503 0.119442314 -0.14650577 -0.14383282
0.05546045 0.11089346 0.06906339 -0.09144848 0.17511116 -0.026861336 -0.05911281 -0.021852078
0.15038007 -0.14170328 -0.14524184 -0.10843846 0.17997165 -0.1492181 0.073109165 0.030011686
-0.108421475 0.036947783 -0.11871122 -0.027845034 0.19146591 0.049046487 -0.0556774 0.1387407
0.1375936 0.110422805 0.04261855 0.11679313 -0.005102638 -0.13335927 -0.0909682 0.032965112
0.05069477 -0.06771393 0.09042772 0.13660038 -0.01125567 0.14526129 0.04577554 -0.098507985
0.044851243 -0.096620515 0.030803746 -0.14066297 0.06302068 0.13082953 -0.13072903 0.15495911
-0.059698354 0.16900074 -0.096825376 -0.15763193 0.16937551 -0.1547455 -0.14779812 0.16475263
0.12577239 0.19757397 -0.12707463 -0.053780258 0.18190807 -0.06623802 0.117337294 -0.03990708
-0.028320914 0.0960126 -0.0017596575 -0.12159288 0.1717154 0.019349594 -0.19817474 0.19836913

lstm.weight_hh_l0 f4 [128, 32]
00000000: c181 aabd 8590 353e 15ae 06be 249e 6cbd
00000010: ccd0 513d 41f4 993d b28d 273e c750 363e
00000020: 1c8c 3f3e 8da9 a83d 3ce5 b63c 4b78 14be
00000030: 0185 043e 3a7d 1a3e 3e68 b5bd 42f6 4cbc
00000040: 0d4c 3d3e dfa5 0c3c 1c00 973c 0805 ff3d
00000050: b9da ee3d cbd1 b8bd 3834 2a3c e0d8 dabb
00000060: da78 0dbe 3e8e 83bd 540f 78bd da05 cfbc
00000070: 3cef 1cbe d212 90bd ee68 0f3e 615c 22be
00000080: 3ab0 ddbd 0005 52bd cde3 24bd cb33 18be
00000090: 30ad 27be 2cc6 02be 7101 013e 0fee 2a3e
000000a0: 183a 1bbe 9e1b 8a3d b1aa 00be 9f65 863d
000000b0: 9f18 bbbd f070 403e ee1c 4a3e 8c10 063e
000000c0: 8a49 3d3d 2054 c8bd ebad c13d b02d 0c3e
000000d0: e80f 213b 7345 0abe ea1b bd3c 0058 0a3d
000000e0: 508a 593d 369c b2bd ae0b 0c3e 23b6 a6bc
000000f0: 7da0 9ebd b7a1 0c3e 0f45 85bc 6e63 403c
00000100: 2772 b33c 7ed3 133d fa71 26bd 1a6e 2b3e
00000110: fcfd 2c3d 43a1 d0bc 8ad3 053b cc74 1bbd
00000120: ac4a 2f3e 7b15 253e 8bc8 30bc 7c6b af3d
00000130: 3649 843d 0305 9bbd 1f70 d3bd a55c 09be
00000140: 040c 3d3d 8a8f 0e3d 04dd 093e a827 3e3d
00000150: ba59 f8bd 9efe 203e 80c6 4b3c 6beb e43d
00000160: 837d 6d3d 84e6 19be 5d0f f5bc 0024 063e
00000170: a30e eb3d b784 cc3d bc9e 8dbd 4f96 003e
00000180: 8089 fa3d d147 b9bd 7b61 143e 6618 90bd
00000190: cff2 9f3b da0e 7f3d 9d4b e73c 5ed4 9ebd
000001a0: 6c19 303d 008e 843d 5a3e 05bd be6c 583d
000001b0: 944b a0bd e634 233e 2e16 d4bd 5118 8b3d
000001c0: bc9b 0bbe 8df0 e9bd a209 0b3c af7e 4b3d
000001d0: 6b11 3c3d d5ed aebd 8ad7 863d c92e 343e
000001e0: f67e 253e e5e2 c03c 519c 313e f4b4 313e
000001f0: b851 e2bd 0bc3 153e 4cff 02be e697 053e
00000200: 24b7 58be ccfa 9e3d 7eb4 d8bd aa1c 2fbd
00000210: 58a5 51be 8caa 35be 836b 31bd 938f dcbd
00000220: a3ca a8bd 1dc8 843d 9f5e 93bd b3d0 e2bd
00000230: 8b4d 5bbd 766d bbbd 26b7 ac3c 4d8a cebd
00000240: 820d b5bd 4ecc 38bd a4ff a8bd 9370 963d
00000250: b204 003e f0a2 d73d 53d8 dd3d 6c30 4a3d
00000260: f2cb e93c 53a4 143e dd46 a73d e841 80bd
00000270: 9c04 2dbe 28ab 2bbc 75fe 21be c609 093e
00000280: 0daa d4bc dd7f 943c 84ad 5bbc 79e9 db3d
00000290: 16bd ba3d 7b76 c53d ca62 afbd c458 bc3d
000002a0: 410d b93d 454a b73c 73c2 e0bd 932d 963d
000002b0: e363 123e f86f 613e ceac 333e a4ac 5bbd
000002c0: 0f91 ce3d 33c2 963c 5e35 35be 12c3 e0bd
000002d0: 6907 523e c908 453e 9dad 6a3e 1f1e cd3c
000002e0: 89b4 bd3d 7597 643e cbab e43b 3897 533e
000002f0: 7adb 933c 660b adbb 9a7f 66be 33e6 97bd
00000300: 4407 6fbd cb86 b0bd b942 cebd ae90 adbd
00000310: aebf db3b 423b af3c 8c5a da3d e489 6f3c
00000320: 3568 953c 32d9 08bd 5ee4 96bd 5ff6 2b3e
00000330: f245 cd3d 7cda e9bb 804c 363e d551 cabd
00000340: e4f5 2b3e c36b 4abb bb42 2fbd 0443 0e3d
00000350: 089b 9bbd 9835 0c3b a153 e8bd 6933 d2bd
00000360: e0b7 0dbe cd9e f03d 2321 1f3b 8c7c 2a3e
00000370: 804f dfbd 39a7 14be f8b4 19be a5bb e93d
00000380: 99fd cebd 076f 10be f6f5 1bbd 1345 3e3e
00000390: edc2 abbd 5648 6d3b 67cb 1a3e 04d4 19be
000003a0: 3bb1 ac3c beb9 ddbd f365 333e e487 ecbd
000003b0: 3276 01be ab0d b93d e9a8 403e 249d f73d
000003c0: 7907 afbd f7d7 843c aed8 143e 4356 b73c
000003d0: 7757 1ebd ab24 023b 9f1c 21be 73c8 a83d
000003e0: 847a 303d a41a 563d 7110 fb3d 17f1 c1bd
000003f0: 3a6a 2bbc 381f babd 1ee2 dc3d 7253 b7ba
-0.0832553 0.17730911 -0.13152345 -0.057768002 0.051224515 0.07517291 0.16362646 0.17804252
0.18705791 0.08235464 0.022326104 -0.14499013 0.12941362 0.15086833 -0.08857773 -0.012509884
0.18486042 0.008584469 0.01843267 0.124521315 0.11662812 -0.0902439 0.0103884265 -0.0066786855
-0.13815632 -0.06423615 -0.060561493 -0.025271345 -0.15325636 -0.0703484 0.14004871 -0.15855552
-0.10824628 -0.0512743 -0.04025631 -0.14863507 -0.1637466 -0.12770909 0.12598206 0.16692375
-0.1515888 0.06743549 -0.12565114 0.065623514 -0.091355555 0.18793082 0.19737598 0.1309225
0.04621271 -0.097816706 0.09457 0.13689303 0.0024576131 -0.13503055 0.0230846 0.03377533
0.05311042 -0.08721201 0.1367633 -0.020350521 -0.077454545 0.13733564 -0.016268281 0.011742456
0.021905018 0.036090367 -0.04063604 0.16741219 0.042234406 -0.02546752 0.0020420277 -0.037953183
0.17118329 0.16121475 -0.010790001 0.08565423 0.064592764 -0.07569315 -0.1032412 -0.13414247
0.046154037 0.03480486 0.13463217 0.046424538 -0.12126489 0.15722129 0.012437463 0.11177715
0.057981025 -0.15029341 -0.029914552 0.1309967 0.11477401 0.09986251 -0.06915042 0.12557338
0.12233257 -0.09046901 0.14490311 -0.07035904 0.00488124 0.062270023 0.028234297 -0.077553496
0.042992994 0.06472397 -0.032530166 0.05283808 -0.078269154 0.15938148 -0.10355793 0.06791747
-0.13633627 -0.114228345 0.008486183 0.04968136 0.04591505 -0.085414566 0.065840796 0.17595972
0.16161713 0.023545692 0.17344786 0.17354184 -0.11050743 0.14625184 -0.127927 0.13046226
-0.21163613 0.077626795 -0.10581301 -0.042751946 -0.2047323 -0.1774084 -0.04331542 -0.10769572
-0.08241775 0.06483481 -0.07195782 -0.110749625 -0.053540748 -0.091517374 0.021083426 -0.100849725
-0.08840467 -0.045116715 -0.082518846 0.073456906 0.12501791 0.10529125 0.10832276 0.049362585
0.028539632 0.1451581 0.08167813 -0.062625706 -0.1689629 -0.010477819 -0.15819724 0.13382635
-0.025959993 0.018127376 -0.013408069 0.10737891 0.091180965 0.09641739 -0.085637644 0.09196618
0.09035731 0.022374282 -0.10974588 0.07332911 0.14295916 0.22015369 0.17546389 -0.05363144
0.100862615 0.018403148 -0.17696139 -0.10974707 0.20510639 0.19241633 0.2291779 0.025038777
0.0926295 0.22323401 0.006978487 0.20663154 0.01804899 -0.0052809 -0.22509614 -0.07416954
-0.05835654 -0.0861946 -0.1007132 -0.08474861 0.0067061996 0.021390561 0.10661802 0.014620278
0.018238166 -0.03341026 -0.07367776 0.16793202 0.10023107 -0.007136641 0.1780262 -0.098788895
0.16793019 -0.0030886985 -0.04278825 0.03473188 -0.07597929 0.002139425 -0.11344076 -0.10263712
-0.13839674 0.11749039 0.0024281226 0.16649073 -0.10903835 -0.14516915 -0.1501044 0.114127435
-0.10106964 -0.14104854 -0.038076364 0.18581037 -0.083867885 0.0036206446 0.15116654 -0.15022284
0.021080604 -0.10826443 0.1751936 -0.115493566 -0.12642744 0.0903581 0.18814434 0.12090519
-0.08546347 0.016216261 0.14535782 0.02238 -0.03865763 0.0019858282 -0.15733574 0.08241358
0.04308559 0.0522715 0.12258995 -0.09469812 -0.010462338 -0.09087986 0.10785316 -0.0013986661

lstm.bias_ih_l0 f4 [128]
00000000: 4a5f e138 1425 8bbd d52b 2a3e abe9 173d
00000010: c769 2d3e a866 2e3e b605 55bd 35c7 523e
00000020: da13 f73c fd65 813d 03d4 313e 1adb 03be
00000030: f8e0 3abd 274a 0dbe afe6 383e db07 60bc
00000040: 48c3 d9bd 3214 ca3c 596e 033d 7e34 2b3e
00000050: 0f4b d83d fa40 0b3e 4cdc e6bc b70e c63d
00000060: bd1b a8bc fd22 0c3d 8f49 a9bb a50a d93d
00000070: c6ae c43d 5aab 103e 8105 603d 05b4 273e
00000080: 6cea ebbd 23fc 673d 3248 d0bd 7d11 5ebd
00000090: 218d 363e 1c96 40bc fb9f 63bd a4e9 f9bd
000000a0: 7d65 0dbe a053 d6bc fbdb 403e 893d bd3c
000000b0: 3a9d 88bb d960 e2bd 5f04 b13d c043 8a3d
000000c0: 1e1e 0f3e 47b2 a5bd f8a8 523b 03a7 0dbd
000000d0: 4816 27be 2fb8 02be 0462 413e 0210 963c
000000e0: 1306 f43d adb9 0ebd dbd0 13bd ea66 003d
000000f0: 7b74 0f3e b6e1 103e 3bb5 863c a5e9 813d
00000100: f6b1 fe3c 7133 dfbd b393 2f3d 5525 ed3c
00000110: c570 2bbe 6886 89bd 1218 1bbe b742 9c3c
00000120: f79c 283e 41c8 2abe 46fa 1ebe d113 dc3d
00000130: 69d1 8c3d a812 aebc dbfb 073e 160c 2ebe
00000140: 8dea c5bd 88b6 473e 65a5 ec3d 08e6 d9bd
00000150: e68f acbd 5919 123e 27ae 863c 9ccd bc3c
00000160: a812 89bd 5b60 36bd b8a8 933c 4c3e 323e
00000170: a11d 28bd ee0f 7bbd a1ec a9bc eefb 503d
00000180: 2403 693d 4158 db3d e8a9 03be a368 b63d
00000190: ab86 6c3c 4f99 593e e23a d5bb 0742 9cbc
000001a0: 532e 07be 4c83 f1bd d217 bf3d 297c d1bd
000001b0: 0d57 ce3d 8ee9 063d 7d47 6abd d808 d13d
000001c0: 8aaa c83d 028c e43d 4707 debd 8fd5 20bd
000001d0: 3e56 26be 4285 613d f6db c93d cbe4 4c3e
000001e0: 2cc0 7fbd e4eb 4fbd 7fc1 b73d 1c25 bebc
000001f0: c306 a73d 0d10 a03d 731e e53d edbc 02bb
0.00010746585 -0.067941815 0.16618283 0.037088078 0.16934882 0.17031348 -0.0520074 0.20583804
0.030160833 0.06318281 0.17366032 -0.1287655 -0.045624703 -0.13797818 0.18056749 -0.013673748
-0.1063295 0.024667833 0.032087658 0.16719243 0.10561191 0.13599005 -0.028181218 0.096707754
-0.02052104 0.034213055 -0.0051662396 0.105977334 0.09603648 0.14127865 0.05469275 0.16377266
-0.11519322 0.05663694 -0.1017002 -0.054215897 0.17827274 -0.011754539 -0.05557249 -0.122027665
-0.13808246 -0.026162922 0.18833916 0.023100631 -0.0041691335 -0.110536285 0.08643412 0.067512035
0.13976333 -0.08090644 0.003214417 -0.034583103 -0.16317093 -0.12765573 0.18885046 0.01831818
0.11915221 -0.034845043 -0.036087852 0.031348146 0.14009278 0.14148602 0.01644384 0.06343392
0.031090718 -0.108984835 0.042865466 0.028948465 -0.16742237 -0.06715089 -0.15145901 0.01907478
0.16466127 -0.16677953 -0.15525159 0.10745967 0.06875879 -0.02124913 0.13279669 -0.16996798
-0.09663878 0.19503224 0.11554984 -0.10639578 -0.08425884 0.14267482 0.016440464 0.023047261
-0.066930115 -0.044525485 0.018024787 0.17406577 -0.04104388 -0.06129449 -0.020742716 0.05102151
0.05688776 0.107101925 -0.12857783 0.089066766 0.014436404 0.21249889 -0.0065072635 -0.019074453
-0.13201265 -0.11792621 0.09330715 -0.1022876 0.10075197 0.03293758 -0.057197083 0.10206765
0.09798153 0.11159517 -0.10841232 -0.039266165 -0.16243836 0.055058725 0.09856407 0.20009153
-0.06243913 -0.050762072 0.08972453 -0.023211055 0.081555866 0.078155614 0.11187448 -0.0019949034

lstm.bias_hh_l0 f4 [128]
00000000: b297 e0bd b2a3 d4bd e5bf 293e 031a 0a3e
00000010: b7fa 00be d7f6 a6bb 2e25 413d 8fe8 93bd
00000020: 139e eb3a f8b8 d93d 59c8 e0bc ef6c f53c
00000030: d843 dfbd c748 ac3d 15ab 3bbd 1c2d f33d
00000040: 5020 883d 98e9 61bd 195f c2bc 7df2 2a3e
00000050: 6581 d9bd 1ac1 a33d a479 213e 91c2 f4bc
00000060: daf5 e1bc c106 0ebe 2cfb 3f3e f98c 2d3e
00000070: 033d 6cbd f5f9 33bd f4f3 503e 65cc b4bb
00000080: 0e29 d13d 23be 343e ab9d fcbd d3cc c1bd
00000090: 4342 63bd 8c35 893d b6ac 1c3e b424 443e
000000a0: 5da3 18bd f298 cb3d d2e6 edbd 4620 1ebd
000000b0: 5924 a13d cad0 0a3e a38e a83d c910 9fbd
000000c0: 118a 2f3e b698 2f3d fc7e d6bd 7ed0 973d
000000d0: b849 953d 9c18 9b3d 30c7 f63d f213 853d
000000e0: e1e0 153e 0fe6 f73c 101d 0bbe fa17 84bd
000000f0: e098 863d 9651 88bd d1b1 023d c8eb 423e
00000100: 2772 a53d bf8e 143e 809e 0a3e 658b 953d
00000110: f4e9 36be 18ba 9ebd 4372 353c dc37 593d
00000120: 8a7a c53d 0fb6 c03b 13e4 2d3e 9702 273d
00000130: bccb 173e 470f fabd c2cb 2c3e 4255 193e
00000140: 55c3 ca3d add8 d23d 1de0 f93d b111 f33d
00000150: 49b8 d7bc 4290 203e 775a 65bd 8daa 80bd
00000160: f383 b33d 1e80 9ebd 534e 1dbe 9b18 babd
00000170: 6201 e5bd 18c4 e43b fefe d53d a0ad c13d
00000180: 7eff 1e3e ffb3 f73d e5b3 0f3e 12dd 3c3e
00000190: 82ec 363e afd1 cfbc 33cf 03be 6ea3 1f3e
000001a0: 2741 0abe a2f5 c2bd b197 88bd 8a93 e33c
000001b0: b2e0 b7bd 00d5 9e3d 063e 453e f22b 003b
000001c0: c19a f83b 567c c1bb 09a4 f33d ae10 1a3d
000001d0: 4cc8 073d 264d 80bd 0281 1f3e a09e 1c3e
000001e0: f4d9 f03d 8713 1bbe 949a aa3d 3805 053e
000001f0: 3692 ca3c 1e5d 59bd 33f6 413e 864e b1bd
-0.109664336 -0.10382785 0.16577108 0.13486485 -0.1259564 -0.0050953436 0.047154598 -0.072220914
0.0017976187 0.10630983 -0.027439283 0.02995917 -0.10901612 0.08412319 -0.045817453 0.11873838
0.06646788 -0.055154413 -0.023726987 0.16694064 -0.10620383 0.079958156 0.15769058 -0.029877933
-0.027583051 -0.13869764 0.18748158 0.16948308 -0.057675373 -0.04393955 0.2040556 -0.00551753
0.10212909 0.17650656 -0.1233476 -0.09462895 -0.055483114 0.066996664 0.15300259 0.19154626
-0.03726517 0.099412814 -0.11616291 -0.038604997 0.07868261 0.13556209 0.08230331 -0.077668734
0.17142512 0.042870246 -0.10473439 0.074128136 0.07289451 0.07573053 0.12049711 0.06497945
0.14636566 0.030261068 -0.13585305 -0.06449886 0.06572127 -0.06656186 0.03190786 0.19035256
0.080784135 0.14507578 0.13537025 0.07301978 -0.17862684 -0.07750338 0.011074605 0.053031787
0.09642513 0.005881078 0.16981535 0.040773954 0.14823812 -0.12209945 0.16874602 0.1497393
0.09900538 0.10295234 0.12200949 0.11868609 -0.026332991 0.1568003 -0.055994477 -0.0628253
0.08765402 -0.0773928 -0.1536191 -0.09086724 -0.111819044 0.006981384 0.104490265 0.094569445
0.1552715 0.120948784 0.14033468 0.18443707 0.17863658 -0.02536854 -0.12872009 0.15589687
-0.13501416 -0.09519507 -0.06669558 0.027780313 -0.08978404 0.0775547 0.19261941 0.0019557443
0.0075868075 -0.0059047146 0.118965216 0.037613563 0.033150002 -0.06264715 0.15576556 0.15294886
0.11760321 -0.15144168 0.08330265 0.12990272 0.024727922 -0.05306732 0.18941574 -0.08657555

lstm.weight_ih_l1 f4 [128, 32]
00000000: c3ed 0ebd 276a 1a3e 05fa b73d 49c0 2a3b
00000010: 483b 42be f498 67be 1aa4 e63d 65a6 6c3d
00000020: 5037 15be f6ed c7bd c90c 0e3e 7b92 f33b
00000030: 4ba8 0fbe f667 0ebe babf c4bd 96df d23c
00000040: 6502 fb3d 1746 413e 27f1 0c3e 51f2 5dbc
00000050: c8db 12bd 9cf4 fcbd a9b8 fb3d 93b0 d93d
00000060: 7a59 cebd 6be4 ae3d 836c a8bd 51bf 623c
00000070: 38b1 333d caa5 1b3e 0452 be3d 5831 b63d
00000080: 173c 41bd 7ebc 233e 3154 d2bc 5a50 793d
00000090: 87eb a63b 584a 76bd 6af7 1b3e 7ae3 16bd
000000a0: 155c b6bd fa96 8aba e2c5 a1bc df2b f7bc
000000b0: 8894 293e e037 033e e1cd 41bd a328 05be
000000c0: 59e8 fcbc 3c47 00be 74f7 3cbe b0d7 0c3e
000000d0: 2583 2cbe a977 67bd 0f31 c33d ff5a 923d
000000e0: 84ae ccbd f0ad 873d 7e38 a6bd 3ed3 303e
000000f0: afe4 18be bee5 593d 498b 0bbe b58f 983d
00000100: 52c4 0e3e dadf 81bd ea09 15be 649c abbc
00000110: ad7b 50bd 9312 a1bd e348 0dbe 9b2b 073e
00000120: c5b5 a33d 6521 2f3e e28b 09bd 192e b73d
00000130: a2fb fc3d 4ad1 66bc f906 90bd 2d9c 7f3d
00000140: ead6 1f3e 8907 0a3e a7a3 60bd ed6b 15be
00000150: 083e 0bbe 1276 713d 4f4d dc3c 8cb9 df3d
00000160: b6fe 8a3d 2eef 7a3d 68cb d7bd 387f f8bd
00000170: 4ea0 1a3d f720 233e f385 333d df10 5cbd
00000180: 66d9 213d 50b2 193d c395 0bbc 4e3d 013e
00000190: 45e3 e2bd 4f8c 153e e4c5 8fbd 6401 74bd
000001a0: 2149 143e e7e2 2dbe 0a6f 15be bf85 e0bd
000001b0: 34ea 463d cfd3 2c3e 0ab3 a2bd 98d1 c43d
000001c0: b321 a6bd 3a27 89bd c2fb c13c a448 003e
000001d0: b161 1abe a352 6bbd 75db 653d ae40 ee3b
000001e0: 4bcc fabb 26bc a43d b0cf b23d d6af 77bd
000001f0: c01d c23d c26e bc3c 0a22 d9bd 1a46 2d3e
00000200: ecbf 27bd ccd8 2c3e b1aa b3bd 43e3 043d
00000210: 83e5 8e3d 3ccb b0bd d49c b9bd 1368 f73d
00000220: cd0f 343d 89b6 f3bd f113 0e3e 59f0 03bd
00000230: b24f 37bd 43e8 023e 65ad b1bd 2260 3abd
00000240: 82fa 203e ac69 273e 2b99 9cbd 9d14 323e
00000250: 9ef0 b03d b9f0 afbd e794 b3bd 5645 b5bc
00000260: d12a cf3d d1bc 14bd d165 d93b 3dc3 69bc
00000270: 1560 97bb fded ecbd 545f fa3d 6a55 753d
00000280: 6199 31bd fced 253e bd1a f0bd a0a0 92bd
00000290: 6891 1fbe 1982 41be 6057 2cbd 3250 fdbd
000002a0: 4489 373e a2b9 d03d ea1f da3d 30ca a23c
000002b0: 984c acbd 1ed6 c33d 32e2 013e 102b 063e
000002c0: bc3b 3a3e b22e e73d 45a0 923d 8204 913d
000002d0: 404a 7f3d ddc4 293e d359 ed3d 04d0 8e3c
000002e0: 8ae6 aa3c 0662 073e 0bcb c13d 39b2 93bd
000002f0: a6cd c4bc 2039 253d 7d9f 40be e350 12bd
00000300: a19c eb3b 1bca 32be 6612 27be 322a 4a3e
00000310: e45b 013d a73c 77be c54e e93d 1b7a 07bd
00000320: 58ef f53d bbc0 853d 5aa7 1ebe b232 003d
00000330: 8c5c 233d b21c a1bc d4ae 273e 8141 013e
00000340: 3afc 323c f089 2e3e efc6 353d 03cf 3d3e
00000350: ed52 403d 9a6f c0bc 66c5 27bd a6ef 20be
00000360: bfe5 ebbd 0deb 533b 6ba3 0fbd f6df 80bd
00000370: c779 98bd 9a16 b6bd 5d71 333e 9deb 5abd
00000380: fef2 88bc fb9c 12bd d8f9 473b bf7b 9abd
00000390: 1b8d 813d 4d04 9c3d 08a9 4c3c 7105 eb3b
000003a0: ddff f73d fa7f 13be 176b 2b3e 5f33 09be
000003b0: 3476 fdbd c3fa dbbc f214 463e 46d5 a8bb
000003c0: ed6d 0ebd ec8f 81bd 053a bfbd 3aaf e83c
000003d0: 1c34 30be eea1 403e f68c e5bd b7ee 443e
000003e0: 6325 00be 830f bfbb cca2 c1bd c1ba 003d
000003f0: e49b 1fbd fb52 ea3d 1ef0 babd 3413 e1bb
-0.034894716 0.15079556 0.08983234 0.0026054552 -0.18967927 -0.2261694 0.11261769 0.057775874
-0.14571881 -0.09762184 0.13872065 0.0074332333 -0.14029042 -0.13906845 -0.096068814 0.02574138
0.12256316 0.18874393 0.13763867 -0.013546542 -0.03585413 -0.12351343 0.122910805 0.10629382
-0.1007566 0.08539661 -0.08223822 0.013839559 0.04387018 0.15199962 0.09292987 0.0889613
-0.047176447 0.15989873 -0.025674911 0.060867645 0.005093995 -0.060129493 0.152311 -0.036838032
-0.08904282 -0.0010573559 -0.019747678 -0.030172287 0.16560566 0.12814283 -0.047315482 -0.13003783
-0.03087251 -0.12527174 -0.18453771 0.13754153 -0.16846903 -0.0565106 0.095308416 0.071462624
-0.09994224 0.06624973 -0.08116244 0.17268082 -0.14930986 0.053197615 -0.13627352 0.07449285
0.13942078 -0.063415244 -0.14554563 -0.020948596 -0.050899196 -0.07864871 -0.13797335 0.13200228
0.07993654 0.17102583 -0.03358067 0.08944339 0.12352683 -0.014087984 -0.0703258 0.0624048
0.15609327 0.13479437 -0.05484357 -0.14591952 -0.13597882 0.05895049 0.026892332 0.10924062
0.067868635 0.061263256 -0.105368435 -0.1213364 0.037750535 0.15930544 0.043828916 -0.053727027
0.039513968 0.037523568 -0.008519593 0.12621042 -0.110785045 0.14604305 -0.070201665 -0.05957164
0.14481021 -0.16981088 -0.1459314 -0.1096301 0.048563197 0.16877674 -0.07944305 0.09610289
-0.08111896 -0.06696935 0.023679618 0.1252771 -0.15076329 -0.057451855 0.056117494 0.007270894
-0.007653748 0.08043699 0.087310195 -0.060470425 0.094783306 0.023002032 -0.106021956 0.16921273
-0.040954515 0.16879576 -0.08772791 0.032443296 0.0697737 -0.08632514 -0.09063116 0.120803975
0.04396038 -0.1190005 0.13874795 -0.032211635 -0.044753738 0.12783913 -0.086756505 -0.045501836
0.15720561 0.16348904 -0.07646402 0.17390676 0.08639644 -0.08590836 -0.08768635 -0.022127789
0.101155885 -0.03631288 0.006634452 -0.01426774 -0.004619608 -0.1156883 0.12225214 0.05989591
-0.043359164 0.16204065 -0.1172385 -0.07159543 -0.15582812 -0.18897285 -0.042075515 -0.12368812
0.17923456 0.10191657 0.106506184 0.019871801 -0.084130466 0.09562324 0.12683943 0.13102365
0.1818685 0.11288203 0.07159475 0.07080938 0.06232667 0.16579004 0.11589398 0.017433174
0.020861883 0.13220987 0.094625555 -0.07211728 -0.024023842 0.04033768 -0.1881084 -0.03572167
0.0071903025 -0.1745991 -0.16315612 0.19742659 0.031581774 -0.24144231 0.11391977 -0.033075433
0.12008542 0.06530901 -0.15493527 0.031298347 0.03988318 -0.019667003 0.16375285 0.12622644
0.010924393 0.17044806 0.04437917 0.18536 0.046954084 -0.023490716 -0.04095974 -0.15716419
-0.1151843 0.0032336146 -0.035067957 -0.06292717 -0.07445102 -0.0889103 0.17523713 -0.053447355
-0.01671743 -0.03579424 0.0030513909 -0.07543134 0.06325742 0.07618008 0.012491472 0.0071722795
0.12109349 -0.14404288 0.1674007 -0.13398503 -0.12376061 -0.026852971 0.19343928 -0.0051523773
-0.034772802 -0.06326279 -0.09337238 0.028403867 -0.17207378 0.18811771 -0.11208527 0.19231687
-0.12514262 -0.0058307066 -0.09454879 0.031428102 -0.03896703 0.114416085 -0.0912783 -0.0068687443

lstm.weight_hh_l1 f4 [128, 32]
00000000: 59fc 45be bfe9 963d 3c3d 32bd 09e3 223d
00000010: 1bbf 1e3e bb40 d93d 009c 38bc eaef 8cbd
00000020: fae8 11be ec75 9bbd a459 4c3d b173 913d
00000030: 5fdf 663d 2be4 21be 2022 0abe 2c84 cd3c
00000040: 0cf2 b4bd 2f34 8cbd c0b4 e9bd 365a 583d
00000050: 11cf c9bd 670b 10be dac6 043e 5686 323d
00000060: 9a36 f6bb fd4a b5bd d2e6 fe3d 4ed5 823d
00000070: 1b5c e73d 3997 5a3d 6cb5 0a3e 67bd a7bc
00000080: 77e1 7abd d305 273e 07ea 85bd 4832 993d
00000090: 7860 243e da75 b83d 6e29 f0bd 1e73 423e
000000a0: 3d4b 123e 3e0e 1cbd 74fd 123d a847 373e
000000b0: a43c dabd 49fb 633c 3709 a3bd 3d81 23be
000000c0: 9024 41be 8cc2 b53d b0c4 2abd 6685 6fbd
000000d0: 3936 60bc 256b b8bc f6d2 1bbe 2546 72bd
000000e0: 6d1a 01bc 941f ef3c 9953 253e a171 cdbd
000000f0: 37d6 2b3e 5a1d 223e bc82 273e 571c 3abe
00000100: a5de 2a3c 542b 733d 1dbe 36bd 7552 cdbc
00000110: 4d7b fdbd 1812 34bd 6d56 003e 5ed7 793d
00000120: a982 e5bd 2449 5a3d b1c3 67bc c224 433e
00000130: 286e cdbd 83a2 093d 0ff8 053d cd64 3c3e
00000140: 0871 a43d 746a 293e d12a 76bc 890b 17bd
00000150: 4b0d 133c d29a 053e ea5e 903d 073c 213e
00000160: 9c1d e9bd 05b4 d33d b5b1 acbd 122e a9bd
00000170: fc79 023d 0953 c13d 2c45 3f3d cbde 073e
00000180: 4568 ae3d c5f6 1a3e ba41 043e edaa 0f3e
00000190: 82e1 253d 914a d0bd 359c ad3d 8283 1e3e
000001a0: 2ac5 103e 097d a2bd 5869 babd 0ce0 b8bd
000001b0: 1eb4 cebb 6388 7f3d f16c 10be 1cdc e8bc
000001c0: b50e 9a3d 9d90 bfbd d22a 303e 17ab db3c
000001d0: 42d5 2f3e 2752 06be 2f3d 38be 760d e7bc
000001e0: eb2b 80bd 009d 1c3e eb75 aa3b 9b80 ef3d
000001f0: f779 1a3e 0efc a33d 7441 2a3e a4b8 b53d
00000200: 0fe3 5bbd d7e1 11be 03a5 37be ae5f 2ebe
00000210: e164 2c3e 5d99 e33d 93bc 363e 0fbd eabd
00000220: 9505 af3c 5d67 033e 5e55 9b3c 6642 0e3e
00000230: 6e12 9d3d ed89 ddbd 5983 38bd 99ef 143e
00000240: f11e 37bd b751 d1bd 75c4 213e 9fb5 0d3e
00000250: 5d6d 3bbd b924 c93d 939d 353e fda8 663d
00000260: e08e cebd 325e f1bd cfd0 273e 9608 833d
00000270: fa23 2f3e f6bd f53d 1099 febd d079 c3bd
00000280: 6365 97bd b3ff 453d c1d4 c6bd bd5e d23d
00000290: b746 0c3d 11c2 143e 1082 313e 69e1 42bd
000002a0: cb9c 953d 1389 0a3e a193 4b3d 55c0 12be
000002b0: c628 ebbd ca9a 26bc ba8f e8ba 3198 cebc
000002c0: aecf cfbd d16a c2bd ac92 153e 5976 bc3c
000002d0: eb32 433e 4ca9 98bd f0af bd3c 0207 80bd
000002e0: ea9d c7bd 8f4d ba3d 23ae 243e 072f 55be
000002f0: f272 293e 27b0 2fbc bd6e 073e ae8d 7e3d
00000300: 73bd a63c 31ef 2fbe 768d 283e 688b 1c3e
00000310: 60ce c33b 8de6 c5bc 5ed0 14bd 8b6e 103e
00000320: 5f78 113e e8ad aa3c 47bf 6abd 73e3 f53b
00000330: 0ff6 e53d a336 133d 62eb 1cbd 33a5 113e
00000340: 175d 873d cb4b 06be d432 26bd c746 493d
00000350: c784 9b3d 71da 333e cc29 2b3e 1384 483e
00000360: 3fdf 0f3e 2225 48bd ad1b 033e 80c7 aa37
00000370: fcb6 88bd 32bc af3c ff81 0dbc 6b77 ac3d
00000380: ba4f adbd 4bef 813c be47 503c ead2 103d
00000390: 7ef1 df3d b54d eabd 2f55 0dbd 92be 403e
000003a0: 3f9e ea3d abc7 b8bd 95bd 183e 624d 47bc
000003b0: f6a8 403d 78a1 153e 6225 37be 84c7 e83d
000003c0: 72ea 02bd 6ba6 373d 8408 2cbe 80bb 5fbd
000003d0: 88bd 62bd c8e3 29bd 22e3 523d e1b1 d4bd
000003e0: b049 c13d c641 8a3d a18e eb3d 4d58 933d
000003f0: ece6 443e a306 393c f1a1 193d 3e8f ce3c
-0.19334544 0.07368802 -0.04351543 0.0397673 0.15502588 0.106080495 -0.011267662 -0.068816975
-0.1424903 -0.07590851 0.049890175 0.071021445 0.056365367 -0.15809695 -0.1348958 0.025087439
-0.08835229 -0.06845891 -0.114114285 0.052820407 -0.09853948 -0.1406685 0.12966481 0.043585144
-0.007513833 -0.088521935 0.12446369 0.06388341 0.112968646 0.053366873 0.1354577 -0.020476056
-0.061250176 0.16310816 -0.06538778 0.074802935 0.16052425 0.090068534 -0.11726652 0.18989226
0.14286514 -0.03809952 0.035886243 0.17898428 -0.106560975 0.0139148915 -0.07960742 -0.15967269
-0.18861604 0.088749975 -0.041691482 -0.058476828 -0.013684803 -0.022512028 -0.15217194 -0.059148926
-0.007879836 0.029189862 0.16145171 -0.100314386 0.16780935 0.15831509 0.16358465 -0.18174873
0.010429059 0.059367493 -0.0446149 -0.025063733 -0.123770334 -0.043962568 0.12532969 0.060996406
-0.11206562 0.05329241 -0.014145778 0.1905699 -0.10030776 0.03360225 0.03270727 0.18397827
0.080293715 0.16544515 -0.015024857 -0.036876235 0.008975337 0.1304734 0.070493534 0.15745555
-0.11382601 0.103370704 -0.084323324 -0.0826074 0.031854615 0.09439666 0.046696827 0.13268583
0.085159816 0.15133198 0.12915698 0.14030047 0.040498264 -0.101704724 0.0847706 0.15479854
0.14137712 -0.07934005 -0.09102124 -0.090271086 -0.0063080927 0.062385928 -0.14104058 -0.028425269
0.075223364 -0.09353755 0.17203835 0.02681498 0.17171195 -0.13117276 -0.1799209 -0.02820466
-0.06258377 0.15294266 0.005202045 0.116944514 0.15085588 0.0800706 0.16626531 0.08873108
-0.053683337 -0.14246307 -0.1793404 -0.17028686 0.16835357 0.11113236 0.17845373 -0.11461841
0.021364966 0.12832399 0.018961605 0.13892516 0.07669531 -0.10817323 -0.045047138 0.14544524
-0.044707242 -0.10220664 0.15797599 0.13838814 -0.045758594 0.098214574 0.17735891 0.056313504
-0.10085845 -0.117855445 0.16388248 0.06398122 0.17103568 0.11999123 -0.12431538 -0.09544718
-0.07392385 0.048339557 -0.09708548 0.10271976 0.034247126 0.14527155 0.17334771 -0.04757825
0.073052965 0.13528852 0.049701337 -0.14331181 -0.11482386 -0.0101687405 -0.0017743029 -0.025219055
-0.10147034 -0.0949303 0.14606732 0.023005651 0.19062392 -0.07454166 0.023155183 -0.06251337
-0.097469166 0.090968244 0.16082053 -0.20818721 0.16547754 -0.01072315 0.13225837 0.062146835
0.020354008 -0.17181088 0.16460213 0.15287554 0.0059755296 -0.024157787 -0.036331527 0.14104669
0.14206074 0.020834878 -0.057311323 0.0075039207 0.112285726 0.035940778 -0.038310416 0.14223175
0.06609552 -0.1311485 -0.040575817 0.049139764 0.07593685 0.17563798 0.16715163 0.19581632
0.14050005 -0.048863538 0.12803526 2.0358479e-05 -0.066755265 0.021452043 -0.0086369505 0.08421215
-0.08462472 0.015861174 0.012712417 0.035357393 0.10934733 -0.11440603 -0.034505066 0.18822697
0.11455964 -0.09022459 0.1491607 -0.012164446 0.047036134 0.14612377 -0.17885354 0.113661796
-0.031961866 0.044836443 -0.16800123 -0.054622173 -0.055356532 -0.041476995 0.051486142 -0.1038549
0.09437883 0.067508265 0.11501814 0.071945764 0.19228715 0.011293086 0.037507955 0.025214788

lstm.bias_ih_l1 f4 [128]
00000000: a82f 3a3d 24bd fbbd 1999 22be 7b6c 1cbe
00000010: 26ea 793d f49f aabd b800 e43d dd98 443e
00000020: 3f80 343e 74ff 7dbd f067 dfbd 7f4f b4bd
00000030: d2c6 aebd a7ba b43d 9611 0bbd 14c2 bdbd
00000040: 1e3d 923d d0c8 6abd 234e 4d3e 7df6 8bbd
00000050: b06a e93c c494 973d c56d 9cbd 25a1 523e
00000060: 59eb c8bc ea90 1e3e 06b5 043d cb25 293d
00000070: 1ea2 813d dabf 06be 3034 8bbd 2b19 99bd
00000080: 284a 053e 22b8 283e e17a ce3d 7451 adbd
00000090: 1da3 383e 1a05 aaba 75ba 343e a07c 253e
000000a0: 377f 9dbb 7f8d 90bc d303 f2bc 53e9 00bb
000000b0: d3a1 77bd 00c7 073e af5c f23d edbf ebbd
000000c0: d941 943c 66c4 013e 2a2d 253e 52a6 0a3e
000000d0: 7e2a 9a3c f1ec b73d bca9 3b3d 5de2 5b3c
000000e0: c68d a73d 300f abbc fc99 e0bd e9f6 3b3e
000000f0: c633 9fbc 41c1 22bc 4fe0 0e3e 7a39 d23d
00000100: 7443 d23c 8802 9ebd 907a 883d 56eb 9dbd
00000110: 4257 913d cfc4 9fbd c147 783d 790f f43d
00000120: f9f1 f63c f4f9 0e3e d7b7 3ebe 5e52 1abd
00000130: 5dbd bc3d 105c 073e 601e f13c b64d 593d
00000140: f4f4 ea3d 871c 493d 404d d2bc 6d19 563d
00000150: b953 9e3d 2dcc 7b3d 27e5 14bd b638 2f3d
00000160: 8e80 363e 5035 9abd 466a d0bc 10ba 28be
00000170: 93d6 243e 5498 c9bc bb94 1a3e 9955 d2bd
00000180: 0fe4 bfbd f869 b53d 2ed4 2dbe 7e95 783d
00000190: c9f1 003e 8734 d03d 88b9 c83b 3e2f 69bc
000001a0: 620a 943d 154e 8abd 666b f0bd 735f d2bd
000001b0: 3e13 173e 93c5 a63c 4b0e 17be 248e 443e
000001c0: dd48 fe3d 25be a2bc f8b0 233e 72fa 493e
000001d0: a1ac 2b3e da90 1f3c 0d04 d23d e5ce 8abd
000001e0: bc58 94bd 4a59 223e 854f c73c f5ab c6bd
000001f0: 6a6b f73d 2c77 153e 72a9 eabd 0853 f5bd
0.045455605 -0.12291935 -0.15878715 -0.15275757 0.061014317 -0.0833129 0.111329496 0.19198938
0.17627047 -0.062011197 -0.109084964 -0.08804225 -0.08534016 0.088246636 -0.033952318 -0.09265533
0.071405634 -0.057320416 0.20049338 -0.06834123 0.028493255 0.07401422 -0.076381244 0.20569284
-0.024526285 0.15484968 0.0323992 0.041295808 0.063297495 -0.13159123 -0.06797063 -0.074755035
0.1301657 0.16476491 0.10082031 -0.084628016 0.18030973 -0.0012971491 0.17649253 0.16160822
-0.004806425 -0.017645596 -0.02954284 -0.0019670322 -0.060457062 0.13259506 0.11834084 -0.11511216
0.018097805 0.12672576 0.1613051 0.13540009 0.01881909 0.0898074 0.04581617 0.013420668
0.08181338 -0.020881265 -0.1096687 0.18355907 -0.019433867 -0.009933771 0.13952754 0.10264869
0.02566693 -0.077153265 0.06664002 -0.077109024 0.07096721 -0.0780121 0.060615305 0.11917014
0.030144678 0.13962537 -0.18624817 -0.037676208 0.09215806 0.13218713 0.02943343 0.053052627
0.11472502 0.04909947 -0.025671601 0.05227034 0.077308126 0.061474014 -0.03635135 0.042778693
0.17822477 -0.075297 -0.0254413 -0.16477227 0.16097479 -0.024608769 0.15095799 -0.10270233
-0.093696706 0.088581026 -0.16975471 0.06068944 0.12592234 0.10166269 0.0061256327 -0.014232455
0.07228543 -0.06753174 -0.117392346 -0.10272112 0.14753434 0.020357883 -0.14751546 0.19194847
0.12416241 -0.019866059 0.15985477 0.19724444 0.16765071 0.009739125 0.10254679 -0.06777743
-0.07243487 0.15854374 0.02432991 -0.09700767 0.120810345 0.14596242 -0.114581004 -0.119787276

lstm.bias_hh_l1 f4 [128]
00000000: ab82 e5bd 277c 81bd 9cd8 e53d 2f19 0abe
00000010: 689b a73d f743 473e a9ff 413d 0e27 103d
00000020: 4857 743d 11d5 8cbd 2115 5c3d b49f 853d
00000030: e188 b7bd 7196 dc3b f249 2ebd 0691 293e
00000040: 615e e3bc 8a8b a73c aa30 fdbc 7b13 2e3e
00000050: e5af 2cbd 6c01 133d 9fb0 653c f5c4 973d
00000060: c135 263e 0631 df3d f06e 9b3d 5e6b 353e
00000070: 5e80 c3bc 8af7 0dbe 062e 0a3e 1814 233e
00000080: 270a 433e e0eb dbb9 d5e5 27be 23a9 ae3b
00000090: 9266 403e 5d7e 2c3e 27d0 16be 76a0 7bbd
000000a0: fd95 303c b25c 2d3e 3ef1 08be 00d4 f33d
000000b0: 9aed 813d 4c8c 0ebe f348 203e 2f8a 103d
000000c0: 89f6 2bbc 9c61 29bd 378b 903c 3031 adbd
000000d0: 534a 8dbd 2a05 123e 056d 1fbe 13f1 c13d
000000e0: fe34 013e 3c96 e03b c384 e13c b5b6 673d
000000f0: e37c af3d 6871 2b3e 0c55 403e 882d ee3d
00000100: 2199 f1bd 24d8 893d f5b1 8f3d 234a dc3c
00000110: 733c 283e 5a11 413e 929c 823d 82c9 dbbb
00000120: 777b acbd 0171 273d 95ab 39be 2c7d e7bd
00000130: af6f 043e d8ba b33c 9eff cc3d 7aa2 e53d
00000140: ed4d fdbd f8b8 56bd 3f6f e8bd 19c3 343d
00000150: 1dff b03d db29 c23c 627d 05be e8de a83d
00000160: cf1f de3d c3f3 33be 627f 603d adaf 1dbe
00000170: 926d d3bd 49d3 c2bd 81a7 1f3e bfc0 3d3d
00000180: 0454 eabd 6b5f 2bbe 48cc dc3c 121b ee3d
00000190: 306e 333e ff24 823c 403f c9bd bfde 84bc
000001a0: 60b1 e0ba 2d88 2f3d cf35 343e f10f 123e
000001b0: f9a5 043e 8021 113e dc83 3f3d af40 a0bd
000001c0: d510 7f3d 90ab 883d 92f7 13be 412b d73d
000001d0: 15be c2bd 4ba2 3c3e 0dbd eabd ef58 043c
000001e0: b1b3 96bb 293c 113d e619 1abe eee5 093e
000001f0: 7e7b 5fbd faf2 12bd 0181 b23d fc20 933d
-0.112065636 -0.06322508 0.112229556 -0.1348617 0.08183938 0.1945952 0.047362957 0.035193495
0.05965355 -0.06876577 0.053731088 0.065246016 -0.089616545 0.006731801 -0.04255099 0.16559228
-0.027754964 0.02045228 -0.030906994 0.16999619 -0.042159934 0.035890028 0.0140191605 0.074106134
0.16231443 0.10898022 0.07589519 0.17716739 -0.023864921 -0.1386396 0.13494119 0.15925634
0.19046842 -0.00041946676 -0.16396268 0.0053302213 0.18789127 0.16845079 -0.14727841 -0.061432324
0.0107779475 0.16929892 -0.13373277 0.1190567 0.06344147 -0.13920707 0.15652828 0.035288032
-0.01049579 -0.041352853 0.017644508 -0.084566474 -0.06898942 0.14259782 -0.15568931 0.094698094
0.12617871 0.006853847 0.027529126 0.056570727 0.08568742 0.1674248 0.18782443 0.11629778
-0.11796785 0.06730679 0.070163645 0.02689082 0.1642931 0.18854275 0.0637752 -0.006707371
-0.084219866 0.040879253 -0.1813186 -0.113031715 0.12933229 0.02193968 0.100096926 0.112126306
-0.12368379 -0.052422494 -0.113493435 0.044131372 0.08642409 0.023701599 -0.13036111 0.08245641
0.10845911 -0.17573456 0.05480898 -0.15399046 -0.10323633 -0.09512956 0.15591241 0.046326395
-0.11441806 -0.16735618 0.026952878 0.11626257 0.17522502 0.015886782 -0.09826517 -0.016219495
-0.0017142706 0.042854477 0.17598651 0.14263894 0.12953939 0.14172935 0.04675661 -0.078248374
0.06227191 0.06673348 -0.1444991 0.10506297 -0.095089115 0.18421285 -0.1146184 0.008077844
-0.0045990576 0.035457764 -0.15048942 0.13466617 -0.05456113 -0.03587625 0.08716012 0.07184026

lstm.weight_ih_l2 f4 [128, 32]
00000000: 54a6 2dbb 23b8 273c d014 29be 81ed 2a3b
00000010: a3f3 eb3d b223 25bd 43b6 3bbd 8054 e0bd
00000020: 9fdd 483c fb99 29be e933 833d f02f 253e
00000030: 2c6f ad3b c0a3 023e ad82 2bbd 6e81 153e
00000040: 5484 c8bc fca5 e4bc 9b14 14bd fd1b f3bd
00000050: 07ba 93bc e495 9abc ea79 d63c a60c 253d
00000060: 3a78 77bd 8222 efbd 87af 173d 8fd0 f33d
00000070: 6231 89bc 316f 063e 8973 ef3d 002b 293d
00000080: 480b dd3d 2d81 f63d 5920 3cb8 8330 073e
00000090: 345e 803d 3793 b93d b9d2 9639 1801 ebbd
000000a0: 050a 1bbd bc76 87bc 2c9a 8e3d fe20 123e
000000b0: c667 37be ba20 053c 46b9 e6bd c98b 8f3c
000000c0: 7b29 dabd cb46 a6bd 85d4 b2bd 7729 27be
000000d0: d089 d3bd d526 253e 63ad 133e be69 513e
000000e0: 8db8 383e c513 8ebc f077 c53d 2621 4bbd
000000f0: a2b4 82bc 2cc4 743d 976d 4f3d 7576 5d3d
00000100: d011 a33d a5f7 0ebc 3b18 58bd aa0d e43d
00000110: f8fa 853d d6c3 94bd 8f6d 81bc ba73 653c
00000120: 499c 713c 5f0d 2f3e fb20 b93c cc0b 08be
00000130: df8e 623d c678 123e cb92 bbbd 30d8 04be
00000140: f5fb e73c 5ca3 39be 67b0 813d 340d 313c
00000150: 7daf 54bd 209d 5abd 4bbe b13d 5d32 c43d
00000160: df73 00be 5a9e 38be 7505 9abd df40 d2bc
00000170: d263 073e e9d5 17be 86e6 8cbd e002 a83d
00000180: 6d1b 003c 621c 89bd df02 dc3d 237a 05be
00000190: 7abb ff3d 537d 643d 0907 dfbb 7bd3 d2bd
000001a0: 7fca 23be a435 1bbe 5b54 1b3e 43fa bf3c
000001b0: f0f4 c3bd 70df 3dbe 0cb1 823d af68 60bd
000001c0: 9cfc 0a3d d567 223d 985e a3bd eb3f b53d
000001d0: b28b 98bd 9298 00be 56b7 1dbe 5260 0a3e
000001e0: 30d5 dcbc 1a2e 1f3e e5ae 293e a053 17be
000001f0: b8d5 1a3e 59a7 3cbd df97 9bbd 647f 2fbe
00000200: 4140 fbbd 59d8 26bd 35c4 afbd ce49 333e
00000210: 8707 f43d a6e4 2a3e a073 a53d 903b a3bd
00000220: 8c00 a5bc dd9f 853d 315c e13d 8eda 2dbd
00000230: 3102 113d 5abd 40be b143 bf3c 7a77 16be
00000240: 1f37 26be ede9 4e3d 9de3 40be 6ccd 3f3e
00000250: c523 f53a 7216 043e b7bf 08bd 88c1 bebd
00000260: 3615 a93d e11a 993d 2cdb 903d 9ebb f93d
00000270: 07a5 6b3b f128 283d 5fab 91bd acc0 8fbd
00000280: 437f ae3d 9e82 21be 12ef 1fbe 2fc5 213e
00000290: 6e3d 363c 4999 48bc 7699 01be 5ac7 eebd
000002a0: 3c5a d53d 4930 d43d a8f5 803d d571 19be
000002b0: 6abc 2d3e 3c5f a73d fa97 18be 325b 92bd
000002c0: 6fd9 21be 52f4 91bd 5064 143d 391e ca3d
000002d0: f11a 24be 6c65 123d c57d 20be 7637 2c3d
000002e0: af22 3b3e 5661 04bc fcf2 1a3e 0863 00be
000002f0: 87a5 e5bd 4422 70bd 5fc2 b73d 2082 903d
00000300: 1bd8 423d fc48 223d e02a 0abe 8d2a 943c
00000310: 8355 47bd 203c a63d 9181 233e 2fb3 08be
00000320: 7fc5 d23d b6bf 2e3e 535a 42be 52ef 8d3d
00000330: 9666 c4bc 57c7 d03d 659a 18be 1f5f 093e
00000340: 23e2 953d 2b02 45be 8dd7 c13d 464c 653d
00000350: 65e8 1fbc 532e 19be 24f7 0ebe 12e4 d33d
00000360: 7a5f 0ebb cd5a 13be 6f15 15be 6306 943d
00000370: cbf8 c1bd 3cb7 1c3e 31fb ad3d c158 463d
00000380: b959 0a3d 6149 69bd ed6c 58bd f15a d5bd
00000390: c0d8 f73d eb6c 223c bddb 4cbd 125a eaba
000003a0: 8021 4a3d 2482 1d3e 30ef 953c c5bc 9bbd
000003b0: 5c23 243c 7e63 4fbc 935a 48bd 7b0c dabd
000003c0: a35d 083e 284c 17bd b868 1bbe 172d 23bd
000003d0: 362a b0bc 538d db3d 9e5d febd d2f2 6dbc
000003e0: 7ade 173e 12f0 0dbd 1e24 123e 4587 983d
000003f0: 146a 8f3d ff8f a33d a805 053e b0c1 09bd
-0.0026496844 0.010236773 -0.16511846 0.0026081505 0.115210794 -0.040317245 -0.045828115 -0.10953617
0.01225987 -0.16562645 0.064063855 0.16131568 0.0052927937 0.12757778 -0.04187267 0.14600155
-0.024477161 -0.027911179 -0.036152463 -0.11870573 -0.01803304 -0.018870302 0.02618118 0.040295266
-0.06041739 -0.11676504 0.03703263 0.11905014 -0.01674718 0.13128354 0.116919585 0.041300774
0.10793167 0.12036357 -4.485282e-05 0.132021 0.06267968 0.09061282 0.0002876723 -0.11474818
-0.037851352 -0.01653611 0.06963 0.14270398 -0.1791068 0.008125478 -0.11265807 0.01752271
-0.10652443 -0.081189714 -0.08731941 -0.16324411 -0.1032902 0.16128094 0.1442161 0.20450494
0.1803915 -0.017343411 0.09642017 -0.04959216 -0.015955273 0.059757397 0.050641622 0.054068048
0.07962382 -0.008726035 -0.052757483 0.11135419 0.06542009 -0.07263915 -0.015799312 0.014004642
0.014746734 0.17094944 0.022598734 -0.1328575 0.055312034 0.14303884 -0.09158858 -0.12973094
0.028318385 -0.18128723 0.06332474 0.0108063705 -0.05192517 -0.053372502 0.08678874 0.095799185
-0.12544201 -0.18029156 -0.07520572 -0.025665699 0.13221672 -0.14827694 -0.06879906 0.08203673
0.007819039 -0.06694867 0.10742735 -0.13034873 0.1248693 0.05578358 -0.0068062586 -0.10294243
-0.15995215 -0.15157181 0.15168898 0.023434764 -0.095682025 -0.18542266 0.06381425 -0.054787334
0.033932313 0.039649803 -0.07977027 0.08850082 -0.0744852 -0.12558201 -0.15401968 0.13513306
-0.026957124 0.1554493 0.16570623 -0.14777994 0.1512059 -0.046058033 -0.075973265 -0.1713844
-0.12268115 -0.04073367 -0.085823454 0.17508623 0.11915498 0.16688785 0.08078694 -0.07970345
-0.020141862 0.06524632 0.11003912 -0.042444758 0.03540248 -0.18822232 0.023347707 -0.14694014
-0.16231965 0.050516058 -0.18836828 0.18730706 0.0018702677 0.12899187 -0.03338596 -0.09314257
0.08255999 0.0747583 0.07073054 0.12193988 0.0035956518 0.04105467 -0.071127646 -0.07019171
0.08520367 -0.15772483 -0.15618542 0.15797876 0.011123044 -0.012243577 -0.12656197 -0.11659117
0.104176015 0.10360772 0.06296855 -0.1498483 0.16966406 0.081724614 -0.14901724 -0.071463004
-0.158056 -0.071266785 0.036228478 0.09869046 -0.16025902 0.035741255 -0.15672977 0.04204508
0.1827495 -0.008079847 0.15131754 -0.12537777 -0.112132125 -0.05862643 0.0897262 0.070560694
0.047569375 0.039620385 -0.13492918 0.018086696 -0.048665535 0.08116937 0.15967394 -0.13349603
0.10291576 0.1706532 -0.18979768 0.06930412 -0.023974698 0.10194271 -0.14902647 0.13415192
0.07318523 -0.19239108 0.09464941 0.055980943 -0.009759997 -0.14959078 -0.13961464 0.10346235
-0.002172439 -0.14390106 -0.14558958 0.07227781 -0.094712816 0.15304273 0.084951766 0.048424486
0.033776972 -0.056954745 -0.052838255 -0.10417736 0.12101889 0.009913663 -0.050014246 -0.0017879626
0.049348354 0.15381676 0.01830253 -0.07604364 0.010018196 -0.012657998 -0.048914503 -0.10646912
0.1331697 -0.036937863 -0.15176666 -0.039837923 -0.021504503 0.10720315 -0.124202 -0.014523225
0.14830962 -0.034652777 0.1427159 0.074476756 0.07002655 0.079864495 0.12990439 -0.03363198

lstm.weight_hh_l2 f4 [128, 32]
00000000: 172a aebd 53b3 f93d 58dd 073e 2a5a 16bd
00000010: 7a91 22be 2263 dabb 5609 273d c5ce 16be
00000020: a81b 2cbe 7f2f c1bd eeab 96bd 5690 6abb
00000030: 4492 1cbc e188 a83d 49c2 853d ee43 d03d
00000040: e50d 6fbd 00cf 183c 98e9 cd3d fe6d 29be
00000050: b014 213e 7c24 16be 75df fe3d 22f4 20be
00000060: 1979 c5bd 5f44 c4bb 8115 4a3d 7d90 973d
00000070: c714 923d 4b1a e1bd b232 0b3e c627 043e
00000080: 1cd7 17be 4788 29be e104 8c3d 0996 c7bd
00000090: da98 cdbd b55d 8cbd 4bff 07bd b63f ce3b
000000a0: 2510 883d e706 803d 913c fdbd 0340 893d
000000b0: 4c46 643c 9926 16bd 1939 da3d 91f6 183e
000000c0: ff74 19be 68ca 0f3e cf2c 033e 0589 123d
000000d0: b09e 01bd 4657 e7bd 0229 f83d 66d1 153e
000000e0: 4336 c23d b9ef 023d 5959 9dbd a353 00be
000000f0: 3256 f8bd 8e7d 22be 771e 8dbd 2a63 03be
00000100: 1cf0 083e f67b 84bb a92e b9bd 08f4 debb
00000110: 114d b9bd 058e 173e 7f71 f33d 2c6e eb39
00000120: 1657 b9bd 0697 a93d 931c 193e 26a6 0c3d
00000130: 11f9 e7bd 595b db3d 827c 0bbe c2ce 5ebc
00000140: 834c 1e3e c2a1 cd3d 2022 cb3c a16f 05be
00000150: fd1a edbc 9b61 3bbe 98fd 08be 5643 923d
00000160: b486 2fbe eceb 59bc d09e 2fbe 4d30 8f3d
00000170: 43ec 133e 930a d1bd e6f4 373d 50ad 93bc
00000180: 651f 9dbc c81d a9bd 5a7c 24be f4bc 0ebe
00000190: fa2b 693d c5b7 c8bd f12d df3d c2f8 2abe
000001a0: 965e fbbc a2fe d63d 899a 1cbe 124b 3dbe
000001b0: 0dcc e2bd ac60 1cbe 93f8 b6bd 44b9 60bd
000001c0: 14b3 a53c eb6a 3dbe b85e 1e3c 947c 8b3c
000001d0: b8b3 9d3c 4e5c 16bd 2793 50bc cc04 f7bd
000001e0: bbea 13be 9816 433e 1e78 443c 2d22 0bbe
000001f0: a150 033e a63a 183d c7ff f83c 4b58 923c
00000200: 6bc0 aabd 3fa4 97bd 6e44 cd3d 4d4c a53d
00000210: 1aac d0bd 7f29 373e 06ff 213e 0e99 d4bd
00000220: fea3 1c3e 52ae 3bbc b861 0cbe c033 c8bd
00000230: 00c9 0c3e 7173 c5bd 1e63 9f3c c06b 0e3e
00000240: 105b 0e3e fb87 c0bd 4356 e53b 697f 44bd
00000250: e2e3 83bd a511 073a d6c4 923d 32e5 9dbd
00000260: 1b87 e93d c274 72bd 2dab 1cbe dc9b 1abe
00000270: a0fd 343d 97d4 35be e69b d6bd 5d9f 14be
00000280: 11db 86bd 62a6 ca3d b189 a3bd 544e 753d
00000290: 481d 20be 464f 6e3d 4750 173e d6d0 e1bb
000002a0: fce1 a93d d030 183e 5938 ea3d 3a6f d93d
000002b0: ec78 e4bd cab8 69bd b4c3 dd3d 48b2 1e3e
000002c0: f147 35be 8f1e a8bc ed58 673d 5939 1bbe
000002d0: 4a16 5fbd f6c9 ecbd 9e54 253e 9d76 cd3c
000002e0: 72ac 9abd 86ee b03c ff14 d0bd 15d7 f03d
000002f0: a472 01be 098c a2bd 8e77 3b3d b069 14be
00000300: 38dd cabd 00b3 bb3c 25bb aebc e0aa 063e
00000310: 2095 de3d 3db6 eabd 4ac6 d0bc 9ee5 b4bd
00000320: 0fc5 0dbb d27a 1ebe 257a 8a3d 6bac 45be
00000330: 488e 30be 5568 62bd d018 e43d c944 1e3e
00000340: 0a84 1f3e aa65 853d a21f 213d dae3 993d
00000350: 2f12 32be a499 41be 3850 3b3e 1e53 f1bd
00000360: 4124 5e3c 7b8f 8ebb 0a70 aa3d 2a15 373d
00000370: 84f9 203e eb5e 60bd 88e6 0abe 81b2 013e
00000380: 5245 263e c105 2c3e c126 263e abad c63d
00000390: 9a6d c43d e1f2 083e 2348 4fbc 97ca 35be
000003a0: 3afb 5ebd 043c 093e e6f9 033e bc41 b4bc
000003b0: b11d d63d 6ed8 fbbd 8951 043e a9d8 bb3d
000003c0: bf8a f93d bcfd cf3d 82b7 213e 41a4 bd3c
000003d0: ba08 8cbd ff99 5fbd 0ae2 c43d 4d03 c4bd
000003e0: cba2 1f3e 647d 353d b1ed 23bd 6535 ff3c
000003f0: 38ab 1a3e 894a 0f3e 7260 723d 53ba d3bd
-0.08504122 0.121924065 0.1326803 -0.03670708 -0.15875807 -0.0066646496 0.040780388 -0.14727314
-0.16807425 -0.09432887 -0.07357012 -0.0035791597 -0.009556357 0.082292326 0.065311976 0.101692066
-0.05836286 0.009326696 0.1005432 -0.16545865 0.15730548 -0.14662355 0.12444965 -0.1571813
-0.09642238 -0.005989596 0.049336914 0.07400606 0.07132869 -0.10991343 0.13593557 0.12905797
-0.14828151 -0.16555892 0.06836868 -0.09745414 -0.1003892 -0.06853811 -0.03320245 0.006294216
0.06643704 0.062513165 -0.12365068 0.067016624 0.013932776 -0.036657903 0.10655422 0.14937808
-0.14986037 0.14042056 0.12810062 0.035775203 -0.031645477 -0.11295943 0.121171966 0.1463066
0.09483006 0.0319669 -0.07683057 -0.12531905 -0.121258155 -0.15868208 -0.06890576 -0.12830797
0.13372844 -0.0040430976 -0.09042103 -0.006803993 -0.090479024 0.1480027 0.11886882 0.00044904777
-0.090498134 0.082807586 0.14952306 0.03433814 -0.113268025 0.107107826 -0.13621715 -0.0135991
0.15458874 0.100406185 0.024796546 -0.13030864 -0.028943533 -0.18298952 -0.13377988 0.071417496
-0.17141229 -0.013300877 -0.17150426 0.069916345 0.14445595 -0.10207095 0.044911288 -0.018026978
-0.01918001 -0.082576334 -0.16063061 -0.13939267 0.056926705 -0.09800676 0.108974345 -0.16696456
-0.03068475 0.10497786 -0.15293325 -0.18485668 -0.11074076 -0.15271252 -0.089341305 -0.054864183
0.020226993 -0.18497817 0.009666137 0.017027177 0.019250736 -0.036709122 -0.012730396 -0.12061462
-0.14445011 0.19051588 0.011991529 -0.13587256 0.12823726 0.037165307 0.030395402 0.017864367
-0.08337482 -0.07404374 0.100228176 0.08071194 -0.10189076 0.17886923 0.1581994 -0.10380755
0.15296933 -0.011455135 -0.13709152 -0.097754955 0.1374855 -0.09641159 0.019456442 0.13908291
0.13901925 -0.09400936 0.0069988086 -0.04797307 -0.064399496 0.00051524705 0.0716645 -0.07709731
0.114027224 -0.05919338 -0.15299673 -0.15098518 0.04418719 -0.17756878 -0.10478954 -0.14513917
-0.06584752 0.09895016 -0.07985247 0.059889153 -0.1563617 0.05818107 0.14776717 -0.0068913503
0.08295056 0.1486237 0.11436529 0.10616918 -0.111558765 -0.057060994 0.10828343 0.15497696
-0.17703225 -0.020522384 0.05648129 -0.15158595 -0.054464616 -0.115619585 0.1614556 0.025080973
-0.075524226 0.021598112 -0.10160255 0.11759774 -0.12641388 -0.07936866 0.045768313 -0.14493442
-0.099054754 0.022912502 -0.021329472 0.13151121 0.10868287 -0.114605404 -0.025485177 -0.088328585
-0.0021632349 -0.1547654 0.067615785 -0.19304053 -0.17241776 -0.05527528 0.11137545 0.15455927
0.15577713 0.065135315 0.039336808 0.07514162 -0.17389749 -0.18906265 0.1829232 -0.117834315
0.013558448 -0.0043506003 0.08322151 0.044697918 0.15720183 -0.05477802 -0.13564503 0.1266575
0.16237381 0.1679907 0.16225721 0.09701093 0.09591217 0.13373901 -0.012651476 -0.17753063
-0.054438807 0.134018 0.12888297 -0.022004 0.10454882 -0.1229714 0.12921728 0.09172184
0.12184667 0.10155818 0.15792659 0.023149611 -0.06837602 -0.05459022 0.09613426 -0.09570942
0.15589444 0.044309035 -0.040021602 0.03115339 0.15104377 0.13993277 0.05917401 -0.10338273
