pv/checkpoints/동물실험동-checkpoint-2023-08-10 22_43.pt (torch, 304877 bytes, 38 tensors)

lstm.weight_ih_l0 f4 [128, 17]
00000000: 195e 4d3e f6e0 a03c e16b dfbd edbf 823d
00000010: 6d28 233e 4a66 ef3b fc80 f7bd 25ae a13d
00000020: 4242 ccbd c38c 97bd bb53 bdbd 0f17 1b3c
00000030: d89a 8f3c 5d24 04be 745e c53d 0e9f 03be
00000040: d2cc 00be 0027 e5bb ae5d ed3d 0a09 a2bb
00000050: ce11 3c3e 1998 2e3e 4440 81bc e166 cdbb
00000060: a626 52bd 2bb2 d43d 2a95 033e 765f 3d3d
00000070: b69f 3c3d 76f8 ad3d 4a9c bfbd 7206 81bd
00000080: 476d be3b cdb0 1ebd f061 4f3e 9d48 91bd
00000090: 9e34 16bd bc18 843d e9e7 17be bbc9 b83d
000000a0: 18f6 b0bc 63a6 6e3d 5e67 79bb a070 3d3e
000000b0: 27ac eebd ea94 d03d 5e15 593d 5e2c 1d3e
000000c0: e9e3 43bd d452 1b3e c50b cfbd d026 a53c
000000d0: 30d9 01be ff81 e63d bc77 1e3e 0d39 2f3e
000000e0: dbdf 443b 656a 823d fefa 12be 022e 563d
000000f0: da7c c53c 3f1a 1d3e e875 8a3d 274f 15be
00000100: b5b2 f13c f902 b1bd ad08 913d bbdd 06be
00000110: fedc 503e 4d5e 56bd f0cd 11be 60bd 0f3e
00000120: 9012 b8bb d240 39bc cfd6 99bd a409 ce3c
00000130: 2e33 91bd 67f9 ffbd 303c 173e c730 c5bc
00000140: 9480 be3d 3ffd 85bb ea53 663c a1fc e7bc
00000150: 7c79 95bd aed2 4a3d 60c0 a13c afd0 3e3e
00000160: ff10 0c3e 5012 9dbc 014a 023e 5624 9cbb
00000170: 9afa b63d 2072 17bd 6f8d c7bd dc4a cb3d
00000180: 2f77 8c3d d782 64bd 7f1f 21bd 41b2 073d
00000190: ac66 b0bc 8e36 37be 02b5 0f3e 7f35 72bd
000001a0: 53fe 573e 7584 4d3d ced7 dd3c 0c13 36bd
000001b0: 19d4 6b3d e3bf e0bd 059b e4bb 807a 2a3e
000001c0: 6cf2 243d 703e a83d 3735 46bd b211 c7bd
000001d0: 048b e8bd 3662 ed3d d254 d13d daba 343e
000001e0: 7887 413e 5863 36bd a54a 54bd 797f 9abc
000001f0: 5321 18be 2e0b 963d 336a cfbd 872a 203e
00000200: 3510 183d 45d7 443d 3fb7 fc3d 95d5 193e
00000210: 2231 2dbd a0a3 fabd aa36 543e 859f fdbd
00000220: 098f d5bc 478d 03be 94d5 22bd 3c72 49bd
00000230: eab5 323e b0a0 d5bd d772 dbbb fe5a fc3d
00000240: b3de 40bd 4e07 e63c f791 293d 8f36 883d
00000250: a85f d9bd 359b 063e 2f7c 3dbe ac29 db3d
00000260: d609 ecbd 77c1 d83d 3b2b c53b 5b2f 043e
00000270: 263f eb3d e7ae 05be 1562 0ebe 5ac3 053e
00000280: 61c8 3e3e 4703 96bd f99a ae3d 60cb b6bd
00000290: 568e 0abe 5f8c 29be 0a9f f0bd 04af 7bbd
000002a0: 41e3 123e cb72 53be bbc2 f4bd 89d3 aabd
000002b0: c7bd 823d b688 9abd 24b9 14be 85cd 2dbd
000002c0: 8afd 18be 1513 353e a87a e73d 2f96 873d
000002d0: 3895 323e 0032 323e 8f80 eabd 5ca6 163e
000002e0: fec5 973d c493 4b3e b608 d9bd 3a6e eebd
000002f0: a2cc a8bd b58c 153d 477c b83d b81c 2d3e
00000300: 086e a9bd af82 a6bc 1045 92bd 634c 293e
00000310: 30bb 853d 355a c03d 9353 b9bd c9e1 86bd
00000320: 791c 4a3e 15fb 24be 8c48 64bd 8561 af3d
00000330: c9bb 0cbe 209d a9bd c725 13bd 74cb ac3d
00000340: 61bf 7f3d c1a4 dabd a3f6 1a3e 33fd a13d
00000350: 2c43 f33d 0e88 18bc ba58 0e3e e863 50bb
00000360: e8e5 b13d b28f 3f3e 4465 89bd b327 6ebd
00000370: c1a5 10be 64a8 b13d 2bef 3c3e 17ad e4bc
00000380: 54ec bebc 83fc 4f3e c76e ddbb 419f ddbd
00000390: 2aa8 413e 501b 353c 2695 153e 00a2 03bb
000003a0: bf9d 0abe 02f1 203e 5d4d 1d3e d362 25bd
000003b0: 003c 123e 3a70 e03d 22b0 1f3e c760 eb3d
000003c0: 3ca8 8abd 06e7 123e d709 cabd 62be 133e
000003d0: 3c05 323d 4bb4 14be 5ebd a3bd 9e4c 2f3e
000003e0: 4763 81bd 041e 4f3e 1af9 96bd 8055 ae3c
000003f0: 59d8 f3bd cc44 df3c 207a 44bd 1a25 1bbe
0.20055427 0.01963852 -0.10909248 0.06384263 0.1593339 0.007305895 -0.12085149 0.078945436
-0.09973575 -0.07399895 -0.09244486 0.009465947 0.01752989 -0.12904496 0.09637156 -0.12853643
-0.12578133 -0.0069931746 0.115901336 -0.004944925 0.18366167 0.17050208 -0.015777715 -0.0062683676
-0.05130639 0.10385545 0.1284987 0.046233617 0.04605075 0.08494656 -0.09355982 -0.063000575
0.0058113667 -0.03874283 0.20252204 -0.07093928 -0.036671273 0.0645003 -0.1483456 0.09022852
-0.021601722 0.058264147 -0.0038055996 0.18499994 -0.11653929 0.10184653 0.052998893 0.15348956
-0.047824774 0.15168315 -0.10109667 0.020160109 -0.12680507 0.112552635 0.15475363 0.17111607
0.0030040655 0.063679494 -0.14353558 0.05228997 0.024107385 0.15342043 0.0676077 -0.14580975
0.02950416 -0.08643145 0.07081733 -0.13170521 0.20396802 -0.052336026 -0.14238715 0.14037085
-0.005617447 -0.011306958 -0.075116746 0.025151081 -0.0708984 -0.124987416 0.14769053 -0.02407111
0.09301868 -0.004089027 0.014058093 -0.028318705 -0.07298562 0.049517326 0.019745052 0.18634294
0.13678358 -0.019173771 0.12723543 -0.004765074 0.08934517 -0.036974072 -0.09743773 0.09926388
0.0685867 -0.05578884 -0.039336678 0.03312898 -0.021533333 -0.17891905 0.14033893 -0.05913305
0.2109311 0.05017515 0.027080443 -0.04445176 0.05757532 -0.109740995 -0.0069764876 0.16648293
0.040270254 0.08215034 -0.048390593 -0.09720172 -0.1135464 0.11590998 0.10221256 0.17649403
0.18899333 -0.044528335 -0.051829 -0.018859612 -0.14856462 0.07326351 -0.10127678 0.15641223
0.03712483 0.04805686 0.12339639 0.15022881 -0.042283185 -0.1223824 0.20723978 -0.123839416
-0.026069181 -0.12846862 -0.039754465 -0.049181208 0.17452207 -0.10431039 -0.0066970396 0.12322043
-0.047087383 0.028079655 0.04139897 0.06651031 -0.10613948 0.13145144 -0.18504404 0.10701308
-0.115253136 0.105837755 0.0060171164 0.1290869 0.11486654 -0.13055001 -0.13904603 0.13062802
0.18631126 -0.07324844 0.085256524 -0.089255095 -0.1353086 -0.16557454 -0.11749084 -0.061446205
0.14344503 -0.20649259 -0.119512044 -0.083411284 0.063838534 -0.07545607 -0.1452375 -0.042432327
-0.14940467 0.1768306 0.11302692 0.06620442 0.17439735 0.17401886 -0.11450302 0.14711899
0.07410811 0.19880587 -0.105973646 -0.11642118 -0.082421556 0.03651114 0.09008079 0.16905487
-0.0827294 -0.020325987 -0.07142079 0.16533045 0.06529844 0.093922056 -0.09049144 -0.06586034
0.19737424 -0.16111405 -0.05573325 0.08563522 -0.1374351 -0.08281922 -0.0359247 0.08437243
0.062438373 -0.106759556 0.15133147 0.07909622 0.118780464 -0.009309782 0.13901034 -0.003179783
0.08686429 0.18707159 -0.06708768 -0.05814333 -0.1412573 0.08674696 0.1845061 -0.027914567
-0.02330605 0.2031117 -0.0067575905 -0.10821391 0.18911806 0.011053875 0.14607677 -0.0020085573
-0.13536738 0.15716937 0.15361543 -0.04037745 0.142807 0.109589055 0.15594533 0.11493068
-0.067703694 0.14345941 -0.09865158 0.14428094 0.043462023 -0.14521901 -0.07995103 0.17119071
-0.06317764 0.20226294 -0.07371731 0.021281004 -0.119064994 0.027254485 -0.04796803 -0.15150872

lstm.weight_hh_l0 f4 [128, 32]
00000000: dcc2 e53d a5cc f43d 4f83 053e fbe0 f3bc
00000010: 302c e6bd d952 28be 3013 75bd 11e2 1a3e
00000020: 9106 95bd 868f 0f3e 590c 00bd 6ce5 1c3e
00000030: 3a0b 143e 8b1f 103e 18b5 3bbd 2e74 243e
00000040: 89c5 8ebc 0d6c 15be ea78 6d3d 9908 1dbd
00000050: 603e bfbd 1c79 c7bd d8b2 4bbe 038d b93b
00000060: b4d5 b9bd d7ba dabd d099 c23d 3571 33be
00000070: b7e9 043e cfe2 c7bc 1f09 10be e367 16bc
00000080: 713c b93d c705 9dbd de40 d4bd 61b7 173e
00000090: 3012 b53d 90c8 093e 91c6 103e c24b e83c
000000a0: 4ebc b6bc 2446 343e 6096 09be dac1 94bd
000000b0: 8cd4 bcbc b6c7 adbd 41e2 c83d 17fd 753d
000000c0: 11a7 1e3e e7e5 0ebb 34f3 3bbe e4e5 bd3c
000000d0: 603d 183e d378 bbbd 1d5b 2fbe b9c5 4a3d
000000e0: 13a6 b8bd 68ca 05be 12cc 91bd 0896 45be
000000f0: 9168 ca3d 0726 023e d474 4fbe e1d0 e2bd
00000100: a654 883b d26e 33be 69af fbbd e663 173e
00000110: d21e 5d3d 2a12 02be bd33 7fbd 2a97 1bbd
00000120: 7dae b8bd f8a6 2c3d f03a d13d f35e 313e
00000130: 0455 523d 6546 fbbd 8b42 113e 5d65 19be
00000140: b676 fb3d 96ab 453d 3a4b 30be c57e 133e
00000150: 1498 253d 39f0 1c3e aa8a 26be b963 40bd
00000160: 57e9 2ab9 c3f0 9abd 9906 12be 5f13 adbd
00000170: 5fc9 07be 9ec3 dd3d 96d2 f93a 5b37 0d3e
00000180: 5357 dcbd c1c1 113e 09e6 1abd a058 34bd
00000190: cc15 24bd d517 0cbc 2ae9 24be eebb 283e
000001a0: 0be7 763d acac f1bb ad7b 03bd 2aff 12bd
000001b0: 9858 c5bd f180 fc3d e03e 073d 3d72 e33d
000001c0: cf6f 093e a066 75bd 4a1c 0bbe d1ad 7fbd
000001d0: 5a57 cdbd 3043 3f3e 3d9a 34be 40aa e63d
000001e0: 18c0 4dbd eb81 3b3e 144c e43c cef9 6cbd
000001f0: 0a3a ae3d 2fbe d43d 5b6f cd3d fc1d ed3d
00000200: 1e0d a93b 8c98 01be 5a95 8a3c b05a 01be
00000210: e44e b1bc c49d 48be fbd5 113e db9f 803d
00000220: 8451 20be 678c 133e 9334 95bb fe86 09bd
00000230: 0a4b dcb9 ede6 0f3e 298c 1cbe d0e9 eabd
00000240: 9e86 8abd 7010 2bbd 09d4 b1bc de1a ba3d
00000250: 391d cc3d d3ca 0b3e 47f7 b53d 8f5a d93d
00000260: 6bdd d4bd 0dae 1b3c 415d f63c cf33 7a3c
00000270: b895 163e 05a5 9b3d 65c0 1fbe 05d4 2dbd
00000280: c9c0 0c3e d746 40be 4ace f83d ab03 203e
00000290: f1a1 f33d cbaa f5bd c9fc 503e 1ed4 d0bd
000002a0: 6cd7 bf3d e00f 8cbd f1db 1d3e edbe 1bbd
000002b0: 508b 2cbe 5e23 cabd a57e 373e 885d 91bd
000002c0: 95a0 8f3c 8f95 bfbd 0eb8 b0bc 987d 373d
000002d0: 7d72 dabd 8b05 163e 6fac 17bb a946 12bc
000002e0: 2d7e 27be a67d 21be 76c6 d9bd b7f2 893d
000002f0: 4d11 a7bd 5fc1 0b3e 8519 9ebd b000 1c3d
00000300: 3cb3 e1bc e3ae 003e 952d 3dbe 7884 2d3d
00000310: b27d 883d 09c2 093d f18c 2e3e aa46 16bd
00000320: 68f0 fbbc f721 f73d 64d5 fc3c 7d45 fe3d
00000330: 10ad f93d 1823 c0bd 6862 f6bc ec90 0e3d
00000340: 68d1 163a 8e2f e1bc d32e 3c3c 9353 69bd
00000350: c938 92bc aabf dd3d 1044 80bc 66af a3bd
00000360: 369f 31be 29d9 fdbc d33f e63d a228 a93d
00000370: 86d1 cc3d b7f0 f13c 06e6 073d c501 ee3d
00000380: b39d 913d 2f87 7e3c c443 24be 20ae 1f3e
00000390: eb0b 003e 5445 2cbe e092 10bd 0d35 0f3c
000003a0: 25ec 983c ec03 33be 5467 b5bc e14d 953d
000003b0: 9102 1f3e 0e03 c53d 95cf d83d 5d1d 27be
000003c0: cd1c 2c3e 8e0c 83bd 35bf e53d 5604 43be
000003d0: fabe ec3d 5d4f 0bbe 625a 25bd 51af 833d
000003e0: ad26 ba3d edf2 04bd d18f 013d c3ae e13d
000003f0: 072a 593d 74b7 77bd 0adc 42be 7f31 1ebe
0.11218807 0.11953095 0.13038372 -0.029770365 -0.11238897 -0.16437854 -0.05983275 0.151253
-0.07276643 0.14019594 -0.031261776 0.15321892 0.14457408 0.14074533 -0.045827 0.16059944
-0.017428176 -0.14592 0.05797664 -0.038338277 -0.09338069 -0.09739897 -0.19892442 0.005662562
-0.09073964 -0.10680168 0.09501994 -0.17523654 0.1297978 -0.024400143 -0.1406598 -0.009180042
0.090447314 -0.076671176 -0.10363935 0.14816047 0.088413596 0.13455415 0.14138247 0.028356437
-0.022306588 0.17604882 -0.1343627 -0.07263537 -0.023050569 -0.084853575 0.098087795 0.06005582
0.15493418 -0.0021804513 -0.18354493 0.02318091 0.14867163 -0.09153905 -0.171246 0.04950497
-0.09016051 -0.13065493 -0.071190014 -0.19295514 0.09883226 0.12709819 -0.2025941 -0.11074997
0.0041604815 -0.17522743 -0.12289316 0.14784202 0.05398447 -0.12702242 -0.0623052 -0.03798596
-0.09017656 0.04215142 0.102163196 0.17321377 0.05135061 -0.12269286 0.1418554 -0.14980073
0.12278502 0.04825934 -0.17216197 0.14403827 0.040428236 0.15326013 -0.16263834 -0.046970103
-0.00016299389 -0.07565453 -0.1426033 -0.0845096 -0.1326041 0.10828327 0.0019059952 0.13790648
-0.10758843 0.14234067 -0.037817035 -0.044029832 -0.04005985 -0.008550604 -0.1610457 0.1647794
0.060278933 -0.0073753204 -0.03210037 -0.035887875 -0.096360385 0.12329281 0.033018947 0.111057736
0.13421558 -0.059912324 -0.1358501 -0.062421624 -0.100264266 0.18677974 -0.17636962 0.11262941
-0.050232023 0.18311279 0.027868308 -0.05785542 0.08507164 0.10387837 0.10031005 0.11577985
0.0051590344 -0.12655848 0.01691692 -0.12632251 -0.021644063 -0.19591433 0.14241783 0.0628049
-0.15656096 0.14409028 -0.0045533865 -0.033576004 -0.00042017578 0.14052935 -0.15287842 -0.114703774
-0.067639574 -0.041763723 -0.021707552 0.09087156 0.09966511 0.1365159 0.08885055 0.10612976
-0.103937946 0.009501946 0.030073764 0.015271141 0.1470555 0.07599834 -0.15600736 -0.042438526
0.13745417 -0.18777023 0.121487215 0.15626399 0.11896122 -0.11995467 0.2040893 -0.10196708
0.0936726 -0.068389654 0.15415932 -0.038023878 -0.16850019 -0.09870027 0.17919405 -0.07097918
0.017532626 -0.09354698 -0.02157214 0.04479751 -0.10666368 0.14650552 -0.002314355 -0.0089279795
-0.16356726 -0.15770587 -0.106335565 0.06735747 -0.08157597 0.13647984 -0.07719711 0.038086593
-0.027551286 0.12566714 -0.1847442 0.04236266 0.066645995 0.033632312 0.17045952 -0.036688484
-0.030754283 0.12067025 0.030863471 0.124155976 0.12191212 -0.093816936 -0.03007622 0.034806177
0.000575325 -0.027488496 0.011485773 -0.05696447 -0.017849343 0.10827573 -0.015657455 -0.07992439
-0.1734589 -0.03098734 0.11242642 0.08259703 0.10000901 0.029533727 0.03317835 0.11621431
0.07110157 0.01553516 -0.16041476 0.15593767 0.12504546 -0.16823322 -0.03529632 0.008740676
0.01866729 -0.17481965 -0.022143997 0.07290245 0.15528323 0.09619723 0.10586468 -0.16319795
0.16807862 -0.06398879 0.112181105 -0.19044623 0.115598634 -0.13604493 -0.0403694 0.06429923
0.09089408 -0.032458235 0.031631295 0.11019661 0.053018596 -0.06047769 -0.1902925 -0.15448569

lstm.bias_ih_l0 f4 [128]
00000000: 224f 79bd e3a0 00be 373e 343d 1902 13be
00000010: ec9e 3c3d 4ce0 8dbc b107 79bc 9378 40bd
00000020: 5af6 07be 3296 38bd 3ee2 2e3d c4e2 1d3c
00000030: cadb 1c3e a21f 0b3e 2c85 023e 3f77 0f3e
00000040: 3247 15be 57a3 c43c ce4e 523e 1171 c03d
00000050: e571 d93d 50c9 0fbe 7314 90bd 02ce 123e
00000060: 5d4a ab3d 5805 62bd 9a61 e23d 8ef7 053e
00000070: 62de ec3d a4e6 f33b 2432 9fbd ca68 323d
00000080: 96de 283d 26cb 663d f87d 74bd 78c6 173d
00000090: c4be 543d 3ef0 cb3d 6d5a 9cbd eafd 1b3e
000000a0: a9b0 313e 150c 2a3e eadb 1a3d 5894 3d3e
000000b0: f7a5 00bd 4649 8c3d 1894 d6bd 195a 023c
000000c0: 7a63 493e 1ed3 c2bd 56a9 c33d e381 95bc
000000d0: 21c2 06be dc72 98bb 410b 66bd 4a04 ab3d
000000e0: 17fe 003d c340 a9bd 8250 77bd 1c18 873c
000000f0: a356 0b3e f314 463e 156b 2abd 1bb8 c8bd
00000100: d776 983c 0a25 4fbe e594 90bd 33dd 2e3d
00000110: 84f6 2d3e c97d 23be fe65 193e ff37 cfbc
00000120: 50f1 01be a5d3 8abc 5ddf 02be 07ad 833d
00000130: da62 3abe 5588 39bd e886 4a3d d679 05bd
00000140: ac14 2f3e fef3 9b3c 200f 97bd 28e2 e8bd
00000150: fbbc 7f3d 439f d6bc dfd5 243e 30ac bfbd
00000160: f638 d7bd c772 28bd 48ca ec3c 27f9 71bd
00000170: 94f3 bf3d 5729 f5bc 567e 47be 63fe 61bd
00000180: b999 933b c9ec c43c eb1b 0bbe 19df 16be
00000190: 1ced 9abd ea89 e7bd 8555 71bd 86fd 343e
000001a0: e2b7 c5bc 0c80 26be 276e 463e d572 a03d
000001b0: 7b87 1e3e 2fed a2bd 38af a8bd 358f 18be
000001c0: 6458 523c 5872 ed3c bd5a 163e 3278 8f3d
000001d0: 6ce1 223e 7975 043e 1e9b 00be c485 8abc
000001e0: 47ef 463e fbc3 14be 9b23 2bbe 6e65 9bbd
000001f0: 1eed 453e ffc9 e83c ed70 2e3e ef96 bdbd
-0.060866483 -0.12561373 0.044004645 -0.14356269 0.046049997 -0.017318867 -0.015199588 -0.04698999
-0.1327757 -0.045065112 0.04269623 0.009636585 0.15318218 0.13586286 0.12746114 0.14010333
-0.1457794 0.024003668 0.20537874 0.09396566 0.10617427 -0.14041638 -0.070351504 0.14336398
0.08363793 -0.055180877 0.11053772 0.13082716 0.11565854 0.007443266 -0.077732354 0.043556966
0.0412279 0.05634608 -0.059690446 0.03705451 0.05193974 0.09957932 -0.07634435 0.1523358
0.17352547 0.16606171 0.037807383 0.1851362 -0.031408276 0.06849913 -0.104774654 0.007956051
0.19666854 -0.09512924 0.09553783 -0.018250411 -0.13159992 -0.004652364 -0.056163076 0.083504274
0.03149232 -0.082643054 -0.060379513 0.016490988 0.13607268 0.19343929 -0.041606028 -0.0980074
0.018611355 -0.20228973 -0.070596494 0.04269142 0.1698857 -0.15965952 0.14980313 -0.025295256
-0.1268971 -0.016946623 -0.12780519 0.06429487 -0.18201771 -0.045296032 0.049445063 -0.032586895
0.1709773 0.019037243 -0.07375932 -0.11371261 0.062436085 -0.026198989 0.1609721 -0.09359014
-0.10508911 -0.041125085 0.028905049 -0.0590755 0.09372631 -0.029926939 -0.19481787 -0.055174243
0.004504409 0.02403869 -0.13584869 -0.14733543 -0.07564756 -0.11305602 -0.05891945 0.17674837
-0.024135534 -0.16259784 0.19377957 0.078344025 0.15481369 -0.079553954 -0.08236545 -0.14898379
0.012838457 0.028985187 0.14683051 0.07005347 0.15906304 0.12935437 -0.12559173 -0.016909488
0.19427215 -0.14527886 -0.16712801 -0.075877056 0.19328734 0.028416632 0.17035265 -0.09257304

lstm.bias_hh_l0 f4 [128]
00000000: 6e2d 9ebd 5a99 503d 976f a1bd 573e eebd
00000010: 2f82 953c 8a88 ab3d 5f91 ed3c 164a c1bd
00000020: 1c4a 703d 0a6b ee3c 0eb1 083e 68b7 363e
00000030: fb30 623d 477b 483e 9528 de3d f813 1e3e
00000040: 1b51 993d 07cf d53d c124 833d 1e9d 1a3c
00000050: f8f1 88bd 9190 1abc 486f eb3d 6f1d 69bd
00000060: 2bcd 16bc d01f f5bd 7285 053e 3909 e13d
00000070: c119 d6bd bc32 123e 9b81 113e 7d13 163e
00000080: 3fe2 06be 702b a83d 1da8 2e3e 28aa 12be
00000090: 4740 a13d a66e 56bd 260c 3e3e 77c7 8fbd
000000a0: 3e3d e63c f3d5 993d f466 bd3c c4b2 c43c
000000b0: a48a 633d 2025 9ebd 66e5 28bd dfbf d0bd
000000c0: 5be8 0c3e 50d7 38bd 1ca5 443e 6bd6 2d3c
000000d0: 3179 abbd 209a b53d 392a cfbd 87c5 13be
000000e0: 4792 463e 43fc 19bd 63fd 21be 7747 993d
000000f0: 593c 733e cfc6 ba3d 2d13 04bb 2250 11be
00000100: 0240 b03c 96b5 143e 6750 9fbd fc21 abbd
00000110: 1d4a 2bbe 1371 c7bb bd17 503e 2ae7 a1bd
00000120: b797 f63d df7e dbbb e5a3 9dbd a32b b13d
00000130: 1fa8 0c3e c3c4 74bd cc1d 5b3d 20e1 84bc
00000140: 28c9 a83d 860e 66bd dfe6 44bd 91d7 8f3b
00000150: 5ff6 5ebc 0470 363d eb14 093e 8a4f 0f3e
00000160: b68e c73d a457 123e 9313 dd3d 7680 763d
00000170: 5043 153e 2541 1a3e f80d bdbd cb64 00be
00000180: 7815 983d c339 8ebc 6f04 cbbc 595b 313c
00000190: bf0e 6cbd 9140 523e 251c 1abe 715a d73d
000001a0: a62f c439 ebdd 17be a4d5 43bd 5c6f d8bc
000001b0: 6955 cdbd d907 b53b 9b02 cebd 13d4 39bb
000001c0: a54d 0dbe fc9c fdbd 6174 243e d90c 0b3d
000001d0: 998b 0cbe 33dd 16be d927 1b3e f3f9 1c3e
000001e0: 9161 61bd 4b1f a33c 5456 29be 8de1 293d
000001f0: 9e68 3fbc f116 483e 66b8 ac3d d681 1bbe
-0.07723509 0.050927497 -0.07882612 -0.11632984 0.018250553 0.08375652 0.028999982 -0.09437959
0.058664426 0.029103775 0.13348791 0.17843401 0.055222493 0.19578277 0.10847584 0.15437305
0.07486173 0.10439878 0.064034946 0.009436874 -0.06686777 -0.009433881 0.114958346 -0.056912836
-0.009204189 -0.119689584 0.13039187 0.10988087 -0.10454131 0.14277166 0.14209597 0.14655872
-0.13172244 0.0821141 0.17056318 -0.14322722 0.07873588 -0.052351616 0.18559322 -0.07020467
0.028105374 0.07511511 0.023120381 0.024011023 0.05555214 -0.07721925 -0.041234396 -0.101928465
0.13760512 -0.045127213 0.19203609 0.010610203 -0.08372725 0.08867288 -0.10115475 -0.1443082
0.19391738 -0.03759409 -0.15819316 0.07484334 0.2375349 0.09119951 -0.0020153031 -0.14190724
0.021514896 0.14522395 -0.077790074 -0.083560914 -0.1672749 -0.0060864775 0.20321555 -0.07905419
0.12040656 -0.006698474 -0.07697276 0.08650901 0.13736008 -0.05975796 0.053495213 -0.01622063
0.082414925 -0.056166194 -0.04807174 0.004389711 -0.013608544 0.04454042 0.13386886 0.13995185
0.09744017 0.14291245 0.10794749 0.060181104 0.14576459 0.15063913 -0.0923118 -0.1253845
0.0742597 -0.017361527 -0.024782388 0.010825002 -0.05763125 0.20532443 -0.15049799 0.10515297
0.00037419534 -0.14830749 -0.047811165 -0.026420288 -0.10026056 0.005524617 -0.10059091 -0.0028355166
-0.1379915 -0.12383458 0.1606002 0.0339478 -0.13725127 -0.14732818 0.1515192 0.15329723
-0.055024687 0.019912383 -0.16536838 0.041474868 -0.0116826575 0.19540001 0.08433609 -0.15186247

lstm.weight_ih_l1 f4 [128, 32]
00000000: ddd3 3a3d 2cbd 0dbe 3f5f 05be 0234 823d
00000010: 51b5 4d3d 336c e0bd ff67 e9bd 08b5 8c3d
00000020: 3c81 88bc 6f70 073e ff2b acbc e577 f83d
00000030: ed92 febd 4348 cfbc ccbd bbbd cfbf 29bc
00000040: 441f 333e 68d4 b43d 78a3 86bd 0884 a03d
00000050: 311e 22bd 44e9 0f3d 8203 28b6 d23e 3e3e
00000060: 2847 ee3d 20b7 16be 0292 d13d d6ca 8abc
00000070: fce1 8b3d 4c44 24be 7d8c 81bd 9287 6fbd
00000080: b519 e8bd e61c d4bd aca4 d3bc 4096 cfbc
00000090: 4769 d83d 8fc2 ebbd 491d 903d 20e0 11bd
000000a0: 1d66 913b 9877 443e 8b2c 4b3d df87 333e
000000b0: e1e7 40bd 7cae 083e 0fd1 143e 48e9 8f3d
000000c0: 777a 82bc 3c7e 55bd b2dd 4cbe 7280 a13d
000000d0: ee79 e43d 93e4 cfbd 175a 0dbc 42a9 863d
000000e0: 5f03 52be 04cf ebb8 7fc5 353e 9446 20be
000000f0: c0f4 a53b c4a5 133e d192 6e3d d120 d3bd
00000100: 4cd2 18be e4d3 0e3d eb08 22be 77a6 afbd
00000110: 407c 10be 0ee2 d4bd 43ff cfbc 8b60 e4bd
00000120: 1a2a 913d 7de1 46bc 1e8a b7ba a75e 0ebd
00000130: f2eb fe3c 86d1 f43d 7652 b4bd 0d7c e4bd
00000140: 80b4 8ebb 27ca 943d 584f 36bd d4cb 7fbd
00000150: ffb0 143d 8bc9 113d a7bd 53be 9bf3 a93d
00000160: 61e1 24be 81c1 02bd 2399 a5bd 1931 49bd
00000170: bc50 33be 6d29 b0bc c81b 173e 06ba e1bd
00000180: 7e7c 9e3d 20cc 153e 7788 9cbd 363e e43d
00000190: 3d2a 07bd 5333 253d 9574 a73d 4cd8 173e
000001a0: 7acb 17be e224 01be 1cf3 403e 5dbf 02be
000001b0: 465a 063e 9b1c 38bd 3200 713d 1985 1ebe
000001c0: 5d97 dd3d 8fa9 cfbd d853 fbbd 0507 ba3c
000001d0: 2ba8 9cbd 67a3 febd 408c 073e 7a7d bcbd
000001e0: 8976 5abd dc2a 063d 6b33 cdbc 30fb 183e
000001f0: 9f29 583d 9239 033e 83f9 3ebd 4cdf 84bd
00000200: d22a 27be 4534 a93d e0d4 c13d 8413 8a3c
00000210: 7a71 06be 7d1a 5dbd d9b0 053e a65b 683e
00000220: cbb4 053e 6984 62bd 7028 323e 20b3 323e
00000230: 0e8b 1a3e 3e56 a23d f751 a63d 3690 13bd
00000240: fb24 153e 5927 893b 6b6f 3a3c 818d b73d
00000250: 4b1a 223e d4fb 23be 0ea3 83bd 8cf5 403d
00000260: 7d0b 83bd 7a1b b83c 86a4 5fbd cc6f b1bd
00000270: fd49 b9bd 6cd9 62bd f7f7 1e3d adad 9c3d
00000280: 87ad 6fbd 1f2b ec3c a267 99bd 8597 b23d
00000290: e4a5 0abe 989b 9fbd b681 a63d c17b e2bd
000002a0: a1eb 813d b1a5 7f3d 5a8c 1cbd 74d5 023e
000002b0: 9db0 47be cf18 abbb 8ade a5bd 0674 bdbc
000002c0: 49ed cb3d 3dc9 b73d 03ff 00bd ea27 1d3d
000002d0: a98b cb3d 5ceb 93bd 75ff 363e 9f0b ea3d
000002e0: 4118 3d3d 440c 333e e455 77bd 9776 debd
000002f0: f304 57be 993d 0b3e 03cd 223c 92dc 73bd
00000300: a1ec 72bd f42c 17bd 2f4b a63d 8c87 33bb
00000310: 2f87 12be aada e3bd 1b74 323e 80f6 3e3d
00000320: 4ae3 6a3d 1c3e 0f3e 9015 90bc 7572 bb3d
00000330: ecad 95bc 6e6c 8bbd fa6f 983d edd8 b43d
00000340: e1a4 f53d c12e 1cbe 6a85 ae3d 5caf b2bc
00000350: ed38 2cbe fc82 c23d 5206 3abd 5795 ee3d
00000360: b64c 87bd 342a 553e bad2 ed3d b0ae 06be
00000370: a582 253d 3d45 a33d 2ad5 3cbe dee1 97bc
00000380: f0bd 0c3d f36b dabd bd59 843d a099 dbbd
00000390: 679a 9a3d 6469 ac3d 5f9c d4bd 709f 043e
000003a0: 7b32 bdbd 1993 00be c6a4 b3bc c2df 9a3c
000003b0: 00b9 eebd 5aa1 443d 581c 693c 5569 a33d
000003c0: dc3f 2b3b 4697 dfbd 04f9 e83d f3ab 813d
000003d0: 42ef 063c f596 093e 030f fb3c 37b3 7b3d
000003e0: 956d 18be fcf0 4d3e 5b12 3e3e 4b29 013e
000003f0: ce0b d7bd 46f5 19bd c3cf cf3d e5c2 4bbe
0.045612205 -0.13841695 -0.13024615 0.06357576 0.050221745 -0.10958137 -0.11396789 0.068704665
-0.016663186 0.13226484 -0.021017073 0.12132243 -0.124303676 -0.025303012 -0.0916706 -0.010360672
0.17492396 0.08829576 -0.06574148 0.07837683 -0.039579574 0.03513457 -2.5035993e-06 0.18578652
0.11634666 -0.14718294 0.10232927 -0.016942423 0.068302125 -0.16041678 -0.06325624 -0.0584789
-0.11333028 -0.103570744 -0.025835358 -0.0253402 0.10566955 -0.115117185 0.07036836 -0.035614133
0.0044372217 0.19186246 0.049603026 0.175323 -0.047096137 0.1334781 0.14532875 0.07026917
-0.015927536 -0.05212234 -0.20006445 0.07885827 0.11156069 -0.10151019 -0.008627436 0.06575252
-0.20509098 -0.00011244233 0.1775112 -0.15651923 0.005064577 0.14418703 0.058245484 -0.103089936
-0.14923972 0.034870043 -0.15823714 -0.085766725 -0.14109898 -0.10394679 -0.025390273 -0.111512266
0.07088108 -0.0121387215 -0.0014002954 -0.034758236 0.031118367 0.11954026 -0.08804791 -0.11156473
-0.0043550134 0.0726512 -0.04450926 -0.062450245 0.03630161 0.035592597 -0.20677815 0.08298417
-0.161016 -0.03192282 -0.08085849 -0.04911909 -0.17511266 -0.021504128 0.14756691 -0.11021809
0.07738589 0.14628649 -0.07643216 0.11144678 -0.032999266 0.04033215 0.08176533 0.14828604
-0.14823714 -0.12611726 0.18842739 -0.12768312 0.13120374 -0.044949155 0.058838077 -0.1548046
0.10819886 -0.101397626 -0.12271851 0.022708425 -0.07649263 -0.1243351 0.13237095 -0.0920362
-0.0533357 0.032755718 -0.025048932 0.1493957 0.052774068 0.1281493 -0.04662467 -0.06487903
-0.16324928 0.08261923 0.09464431 0.016855009 -0.13129225 -0.05398034 0.13055743 0.22691211
0.13057248 -0.055302057 0.17398238 0.17451143 0.15092108 0.07926606 0.08121102 -0.036026202
0.14564888 0.004185599 0.011379103 0.089625366 0.15830342 -0.16014034 -0.064275846 0.04710917
-0.063986756 0.02247404 -0.05460026 -0.08663902 -0.09047315 -0.05538313 0.038810696 0.076503135
-0.058515098 0.028829155 -0.074904695 0.08720306 -0.13539845 -0.07793349 0.08130209 -0.110587604
0.06343771 0.062413875 -0.038219787 0.12776738 -0.19500966 -0.0052214633 -0.080990866 -0.023126613
0.09957368 0.0897393 -0.031493198 0.038368143 0.099387474 -0.072226256 0.17870887 0.11427998
0.04616571 0.17485148 -0.060384646 -0.10862463 -0.20997982 0.13597716 0.009936574 -0.059536524
-0.0593077 -0.036908105 0.08119809 -0.0027394025 -0.14309381 -0.11125691 0.17427103 0.0466218
0.057345666 0.13988537 -0.017588407 0.0915269 -0.018271409 -0.06807791 0.07443233 0.08830438
0.11994339 -0.1525221 0.085215405 -0.021812133 -0.1681859 0.094976395 -0.045416184 0.11649578
-0.06606428 0.2081688 0.116124585 -0.13152575 0.040407795 0.079721905 -0.1844069 -0.018540319
0.034360826 -0.10665121 0.06462429 -0.10722661 0.07548981 0.08418539 -0.10381388 0.12951446
-0.09238144 -0.12556113 -0.021929156 0.018905524 -0.1165638 0.04800544 0.014227949 0.07979075
0.0026130592 -0.10917525 0.11375621 0.06331625 0.008235754 0.13436492 0.030646807 0.06145021
-0.14885552 0.2011146 0.1856169 0.12613408 -0.105002984 -0.037587427 0.10147049 -0.19898565

lstm.weight_hh_l1 f4 [128, 32]
00000000: 6710 20bd 7448 0abe 4b4f 74bd 3cfa 133e
00000010: d460 eb3d 9392 66bc abd5 c83d af42 34bd
00000020: 7dff bbbd edac f63d c79b 143e b384 84bd
00000030: f36e b4bd b492 423e c8ad 023e d6c1 e43d
00000040: f825 33be ae89 0cbe f829 0abd 2500 9fbc
00000050: 4b34 243e bae4 c13d 3bd8 993c 453a 883d
00000060: 2e5a 3c3e 70b1 e1bc 24af be3d ae70 26be
00000070: b986 4e3c beda 19bc 432b 56bc 66ed f63d
00000080: aefe eb3d 4e71 fdbd 5eb3 e83b 28b5 413e
00000090: 515a cd3b 1342 24be 9547 71bd b012 123e
000000a0: a87c 6a3c 0274 55bd 8ff4 15be 15f2 ba3d
000000b0: 9258 1abe 54ec 1e3e d0a4 c23d 9827 2f3d
000000c0: 0333 99bc 5596 313e ada9 223e b672 7cbd
000000d0: bd7a 1b3e 28ce 39be f2cb e23d 3911 ffbd
000000e0: b76c 4c3c 1989 29be d00d 95bc b847 f5bc
000000f0: a69a 033e bb84 f23a 376d 293e 08cb 003e
00000100: f8e3 383e 36fe 953d dc83 43be 6801 c63d
00000110: 87a3 16be 0545 ecbc 19b2 c73d 0e89 923d
00000120: 2f9a dcbd 557e ea3b 0fec dfbd ba09 083c
00000130: 74d2 df3d e451 1e3e da79 3dbe 30f8 e5bd
00000140: e2cc dc3d a62f 613d ee02 27be 61f5 05be
00000150: 82fd 1cbe 27be 223d dd3a a9bc c2df babd
00000160: 05cd 1dbe 0478 273d 79d7 edbd 2b08 de3d
00000170: 785f 413d 9466 8abd f660 d63b a322 e0bc
00000180: 1e76 f73d 6224 7f3d cc59 6dbc 3d64 47bd
00000190: e3de 14bd 35a4 fc3d afc0 29be 84da cfbd
000001a0: 1251 4bbd 7519 9d3d 22a6 ae3d 91a3 8abd
000001b0: ab62 363d f16f 8a3d f92b 3438 0e7a 35bd
000001c0: ccf8 01be 2dc0 82bc cfbc 34be 90cc aabd
000001d0: af28 efbd 7cd7 0bbe 50c3 3bbc 409c 0cbc
000001e0: dbf4 2c3e 7f71 e4bd 16de 38bc 79d8 dfbd
000001f0: ac3a 66bd a4db 143e e28f da3c d5ef 7ebd
00000200: 94fa b2bd 3fdb cd3d 9c29 873d 1a6c 003d
00000210: 9a45 183d 1870 febd 3fc2 49bd 1eed c93d
00000220: 0178 3d3e 68bf 88bd 5da3 28be 6bac 193e
00000230: 4847 4dbb 1741 733b 298c 7ebd cab6 5f3d
00000240: 222b 36be 5e53 323d 9969 a43d 4c93 31bc
00000250: fb23 913d 553d 1cbe 1fe8 823d 0dc8 173c
00000260: 46c2 68bd c69d c53c 82a7 6cbd 071e 1ebe
00000270: 4f8b 81bd 5aca 823d 9295 c43d 1dab d4bb
00000280: 72fc 06bd de55 f9bd 76ba a53d 2560 383e
00000290: de35 70bc 0cdb 3fbe 4568 32be 7dca 9fbd
000002a0: ff81 853d cb7f b53d 4e17 16be 06bb 24bd
000002b0: 169d db3d 42f3 eabc 9b70 14be e303 15be
000002c0: 9e32 b23d 9250 283e 5d9b 06be ffc0 6b3c
000002d0: a3ac f8bb 2376 11be d4b3 ba3d cfab e63d
000002e0: e9c4 023d 7701 193e 0df4 83bc b273 aebb
000002f0: 0aa5 f13d b69d d53d f65d 153d 107c 2ebe
00000300: 1f19 3ebb 2964 573c 7e3b 20be a87c cebd
00000310: 015c f9bb ba91 f2bb 6d53 41bd 8156 0b3d
00000320: 0a74 3e3d 704d 5b3c 7f77 3b3d 4df1 45be
00000330: e282 5b3d c339 cbbd ed74 b4bd a1e6 04be
00000340: 4af3 05be 6856 3ebd 26f2 aebd 9007 423e
00000350: 9a40 173e 0bd3 eebd de93 9f3d d3a2 9dbb
00000360: bbb2 13be 2073 b2bc 61ec 47bd 8f4d b03c
00000370: 97e9 973c 39ec 76bc 6864 e13d a59a bfbd
00000380: 6862 553e bab0 05be 7ee7 243d fe70 21bc
00000390: 2946 afbd ed54 44be 7d5d 34be 4828 b6bd
000003a0: 1516 aebd 3ea2 fe3d 3d3c 8c3d dc2f 4e3c
000003b0: 55c6 3dbd 8b10 bb3d fc6c 02be 9621 9cbd
000003c0: 135b a13d b371 04be 8b79 4fbe 13e1 fcbd
000003d0: d6d2 b43d d8d0 983b 3a82 923d 4b27 66bd
000003e0: 0ca6 c5bd a9c2 debd b04f 953d 2f50 22be
000003f0: e3fa f4bd 8e16 a43d 18ad edbd 45a1 233d
-0.039078142 -0.13504201 -0.059645932 0.14450926 0.11493078 -0.014073032 0.09806379 -0.044008907
-0.0917959 0.12044702 0.1451255 -0.06470623 -0.088102244 0.19001275 0.12761605 0.11169784
-0.17494953 -0.13724396 -0.03373143 -0.019409249 0.16035573 0.09467454 0.018779865 0.06651739
0.18393776 -0.02755043 0.09310749 -0.16253921 0.012605363 -0.009390531 -0.013071838 0.12056999
0.11523186 -0.12375127 0.0071014604 0.18916762 0.00626687 -0.1604083 -0.058906157 0.14264941
0.014311947 -0.052112587 -0.14644073 0.09128205 -0.1507285 0.1551984 0.09504092 0.04276237
-0.018701082 0.17342503 0.15885039 -0.061632834 0.1518354 -0.18145049 0.11074056 -0.12454457
0.0124770915 -0.16556205 -0.018195063 -0.029941425 0.12851962 0.0018502692 0.16545568 0.1257745
0.18055713 0.073238775 -0.19093269 0.09668237 -0.14710818 -0.028841505 0.09750766 0.07155047
-0.10771596 0.0071561732 -0.109336965 0.0083031 0.109288126 0.15460926 -0.18503514 -0.11228979
0.10781266 0.05497708 -0.16309711 -0.13081886 -0.1533108 0.039732125 -0.020657951 -0.0912471
-0.1541024 0.04088594 -0.11613364 0.10841402 0.047210187 -0.067578465 0.0065423204 -0.027360266
0.12083076 0.062290557 -0.014486741 -0.04867958 -0.036345374 0.123360075 -0.16577409 -0.101491004
-0.04963786 0.07670871 0.08527781 -0.06769479 0.04452769 0.067596324 4.2956297e-05 -0.044305854
-0.12692565 -0.015960777 -0.1765015 -0.083397985 -0.11677682 -0.1365642 -0.01146014 -0.008582175
0.1689028 -0.1115446 -0.011283418 -0.10929961 -0.056208298 0.14536911 0.026679937 -0.06224044
-0.087392 0.100515835 0.06599733 0.031353094 0.037175752 -0.12423724 -0.049257513 0.0985968
0.18502809 -0.06677133 -0.16468568 0.15007178 -0.0031323005 0.0037117654 -0.062145386 0.05461768
-0.17789891 0.043536536 0.08027954 -0.010838341 0.07086941 -0.15257771 0.0639193 0.009264004
-0.0568259 0.024123084 -0.057776935 -0.15441142 -0.06325399 0.06386252 0.09598841 -0.006490125
-0.032955594 -0.12174581 0.08092205 0.18005426 -0.01466128 -0.18735904 -0.17422588 -0.078022934
0.065189354 0.08862265 -0.14657328 -0.040217422 0.10723321 -0.028680447 -0.1449608 -0.14552264
0.08701061 0.16436985 -0.13145204 0.014389276 -0.0075889393 -0.14205222 0.09116331 0.11263239
0.03192607 0.14941965 -0.016107583 -0.0053238505 0.11799057 0.104304716 0.03646656 -0.17039514
-0.0029006673 0.013146439 -0.15647694 -0.1008237 -0.0076098447 -0.007402626 -0.0471987 0.034018043
0.046497382 0.013385162 0.045768257 -0.1933033 0.053591616 -0.099231265 -0.08811364 -0.12978603
-0.13081089 -0.046469122 -0.0854228 0.18948197 0.14770737 -0.11661347 0.07791875 -0.00481067
-0.14423649 -0.021783412 -0.048809413 0.021521358 0.018544002 -0.015070968 0.11005479 -0.09355668
0.2083832 -0.13055697 0.04025983 -0.0098536 -0.08558304 -0.19173022 -0.17613788 -0.08894402
-0.085003056 0.12433289 0.06847427 0.012584653 -0.046331722 0.09134015 -0.12736887 -0.076235935
0.07878699 -0.12933998 -0.20261209 -0.12347617 0.08829276 0.004663568 0.07153745 -0.056189816
-0.096508116 -0.10876972 0.0729059 -0.158509 -0.11961915 0.080121145 -0.11605281 0.03994872

lstm.bias_ih_l1 f4 [128]
00000000: 04b0 c53d 5346 18be a955 8a3d 458a 1d3e
00000010: b85f 85bd 7a66 413e e8f7 bdbc 3d9b 7e3d
00000020: 8e6f a03d 28f6 003e a78b 6fbd 8a97 10be
00000030: 507a 3ebd 37ed 453d 3a47 283e 7509 d53c
00000040: 968e 1dbe 852c 363c e631 c2bd 39d5 153e
00000050: b2bf 0c3e 7bc5 e7bd a9bb 0dbe c4df d5bd
00000060: 1e77 0e3e f90d 5c3e c97d d43d 4222 3cb9
00000070: e728 4fbc 44b5 f33c 751c 003e 63c7 63bc
00000080: b714 983d 6037 fcbd f35d e1bd 1699 4b3e
00000090: b1ee c3bd d72e 25bd 3886 113d 6225 763c
000000a0: ab03 163c 4697 553d a8c0 c4bd d9ea ee3d
000000b0: e084 193e 492f 5f3d 65ba d1bd e9fe bdbd
000000c0: 731c 84bc d716 013e 20ff 1dbd e135 ae3d
000000d0: aea8 853d 5052 313e 6165 90bd a072 523d
000000e0: d41a 623b d75a b93d 4825 093e e5ec 9bbd
000000f0: d3ab 3e3e f561 df3d d731 063e 2328 913d
00000100: c729 063e 1fc1 ff3d 53cb 213d a5f8 033e
00000110: 3b7f 8a3d 6e94 0cbe 54a5 d13b 1532 09be
00000120: 5aeb 893d 6b46 04be a8c2 c9bd 22d3 14be
00000130: 32e6 04be 444c f83d 6148 2bbe 02a6 a8bc
00000140: 30d7 fd3b ebed 8abd efbd edbd a7c5 d23d
00000150: b920 8abd 62db 7abc 08bb aabd 3e0e d4bd
00000160: 6021 e93d 24bb 1aba e7f5 d43d df4c 883d
00000170: e6bb 1ebe c46d 543c 6a66 393e e2c0 d4bd
00000180: 9c9b 473e c380 47bc 528a dbbd 5947 80bb
00000190: f25e 903a a9ab babc 88e2 c03d 96b8 42bc
000001a0: 39dc 393e 0fc2 cbbd 8660 0cbe d4c4 a23d
000001b0: 56ff 42bc 9500 df3c bce2 37bd 56e4 70bd
000001c0: a78e 10be b563 a8bd 4628 e13b 1514 0d3d
000001d0: ff6a 1fbe 0814 0b3e 0523 0cbe 236f aebd
000001e0: 6980 383d 3aed f3bc 9be1 7bbd 1b59 933d
000001f0: 35c6 7dbd 6764 143e c5ce 1e3e 3cd6 03bc
0.09652713 -0.14870577 0.0675462 0.15384777 -0.065123975 0.18886748 -0.0231895 0.062159766
0.07833777 0.12593901 -0.058482792 -0.14120308 -0.046503365 0.04832193 0.16433421 0.026005486
-0.15386423 0.011119013 -0.094821736 0.14632119 0.13745001 -0.11316963 -0.13841118 -0.104430705
0.13912627 0.21489705 0.10375554 -0.00017941839 -0.012644029 0.02974952 0.12510855 -0.013902518
0.07425826 -0.123152494 -0.110042475 0.19882616 -0.09567011 -0.040327873 0.03552839 0.015023561
0.009156148 0.05214622 -0.09607059 0.116658874 0.14992094 0.054488454 -0.1024063 -0.09277136
-0.016126847 0.12606369 -0.038573384 0.0850637 0.06526314 0.17316556 -0.070505865 0.051378846
0.0034500854 0.090505295 0.13393128 -0.076135434 0.18620233 0.10907356 0.1310495 0.070877336
0.13101874 0.12488007 0.039500546 0.12887819 0.067625485 -0.13728496 0.0063978825 -0.13398011
0.06734343 -0.12917487 -0.09851581 -0.14533666 -0.12978438 0.121239215 -0.16726829 -0.020586971
0.0077465996 -0.067836605 -0.116084926 0.102916054 -0.067445226 -0.015311094 -0.08336455 -0.10354279
0.11383319 -0.000590252 0.10398465 0.06655287 -0.15501365 0.012965623 0.18105474 -0.10388352
0.19492954 -0.012176695 -0.10719742 -0.0039147553 0.0011014624 -0.022786932 0.094182074 -0.011884829
0.18150415 -0.09949123 -0.13708696 0.07947698 -0.011901697 0.027221957 -0.044893965 -0.058811508
-0.14116918 -0.082221426 0.006871256 0.03444298 -0.1556816 0.1358186 -0.13685234 -0.085172914
0.045044336 -0.029776204 -0.06149445 0.0719473 -0.061956603 0.14491425 0.15508564 -0.008046683

lstm.bias_hh_l1 f4 [128]
00000000: 86df edbd 9247 253d 9468 d13d 9f73 a73d
00000010: 5d57 9cbd ec5a 243e 431e e23c b15e 3d3d
00000020: 889f 0e3e 9d04 863d 2cb1 813c 78aa cc3b
00000030: 763f 24bc a97d 0ebe 8b9c 3d3d 8c26 9c3d
00000040: 44ae 553d ba52 c2bc e2a5 b2bb c266 8a3d
00000050: 52d7 22bb 4c3f d1bc dfc4 c23d f33d c33d
00000060: f139 00be d13d d3bd 69ba 033e eecf 22be
00000070: f1ea cbbd e8b5 00be 3b70 9f3d eabd 513d
00000080: e9a3 ae3d 71b0 b4bc 5e98 dabc deec 833d
00000090: ce73 a33d c888 c93d 4929 3bbd e95f 3ebd
000000a0: 54c0 07bd aa1a 3b3c 7428 0e3c 6928 a5bd
000000b0: 45a8 cd3d ee7f 2abe d151 e73d 3598 063e
000000c0: 342e 8e3d 555a 1bbd 5d66 e4bd 7363 84bb
000000d0: 32ae 9bbd e300 bdbd 72cf 10be f4aa bbbc
000000e0: 0171 f7bd 7eed b0bd 553d 143e 4ca9 e0bc
000000f0: 92c8 bebd 4ac8 cebd cb60 f43d 82a2 c9bd
00000100: 4304 043e 2466 973b 3e42 5cbc c625 0f3e
00000110: dafd 0ebe b1e3 05bb 53f1 373d f6b9 4d3c
00000120: 5259 1f3e c689 103e e147 2bbe 9e79 7b3d
00000130: 785e a9bd f1f8 773d f57e ee3d c451 04bd
00000140: 9a19 abbc 4f9e a43d 15af 363c f5d3 e73d
00000150: c8dd ba3d 1d60 fabd 7f35 12be 59f3 9bbd
00000160: 47d0 20be 3822 37be 7f5e 0dbe dd76 13bc
00000170: 8e50 aabd c535 11be 1167 e43c 0b0e f83d
00000180: ca72 d0bd 0bbb 453e f5fc 0b3e 7241 a93d
00000190: 95e7 e4bd 79ab ca3b 439e c8bd 98c6 593e
000001a0: d98f 11be 1a8f 0bbe 347c 293e e9f8 3e3e
000001b0: 3e4d 1bbe 7aca 0c3e fe7a 35bb 38b7 623e
000001c0: 3ebc b93b 494d 393d b2ce e03d d712 acbd
000001d0: 3aa3 05be 5c19 ed3c aebe 4c3d b24a 3c3d
000001e0: 6268 e7bd 28ec fa3d d8f3 2a3e 1a5f d8bd
000001f0: fd7c 293e 7c64 ad3d 0aaf a4bd bc18 2cbe
-0.11614899 0.040351458 0.10225025 0.0817635 -0.07633851 0.16050309 0.02760232 0.046232883
0.13928044 0.06543849 0.015831552 0.0062459074 -0.010024896 -0.13915123 0.04629187 0.0762454
0.052168146 -0.023721088 -0.0054519037 0.06757881 -0.002484758 -0.025542878 0.095102064 0.095333
-0.12522103 -0.10314525 0.12864079 -0.15899631 -0.09956921 -0.12569392 0.07785078 0.051206507
0.08527357 -0.02205679 -0.026683982 0.06441663 0.07981072 0.09840542 -0.04569367 -0.046478186
-0.033142403 0.011419931 0.008676637 -0.08064348 0.100418605 -0.16650364 0.11294902 0.13144
0.06942406 -0.037927944 -0.11152337 -0.0040401756 -0.076015845 -0.09228685 -0.14141634 -0.022908665
-0.12082101 -0.08639048 0.14476521 -0.027424477 -0.093155995 -0.10096796 0.11932524 -0.09845449
0.1289225 0.0046203304 -0.013443528 0.13979253 -0.13964024 -0.0020429904 0.04490788 0.012556544
0.15561417 0.14115056 -0.16726638 0.06139528 -0.082699716 0.060540143 0.11645309 -0.03230454
-0.020886231 0.080380075 0.011150141 0.113197245 0.09124333 -0.122253634 -0.1427822 -0.07614774
-0.15704452 -0.17884147 -0.13805579 -0.009000507 -0.08316146 -0.14180668 0.027881177 0.121120535
-0.10178144 0.19309632 0.13670714 0.08264436 -0.11176983 0.006184992 -0.09795811 0.21267164
-0.1421503 -0.13628808 0.16551286 0.18649639 -0.15166184 0.13749114 -0.0027691717 0.22140205
0.005668192 0.04523972 0.10976924 -0.08402031 -0.13050547 0.028942756 0.049986534 0.045969673
-0.11299206 0.122520745 0.16694582 -0.10565014 0.16551585 0.084664315 -0.080411986 -0.1680631

lstm.weight_ih_l2 f4 [128, 32]
00000000: 3a40 063e 8f81 05be 3e07 42bc 9818 713d
00000010: f66b ba3d c82d 133c e9ae 823d 6e1d 6abd
00000020: 88fb 35bc 5906 6b3e dd0f 74bd 9c58 90bd
00000030: 203d e73d 2fe9 693d fe6a 883d 3a6b 8a3d
00000040: bb5a f13c abc5 fcbb 4186 84bd dfba e43d
00000050: fd80 c23d c554 cb3d 714f 513e a5cc a4bd
00000060: 56cc 1f3e 3bea f83d 9a9b 5d3d 360b 8d3c
00000070: 605f cb3d 0bf4 2fbe 49d7 c0bd 242e d33d
00000080: b386 09be 3d24 b13c 7e39 08be 258f 213e
00000090: a9f7 163b 74e4 43be e302 283d 0538 acbc
000000a0: b2af 053d 6f1c 0cbe f2b9 83bd 28c9 d83d
000000b0: 2439 1cbe 64c6 04be f4a4 3cbe b032 983d
000000c0: 21af 03bd b95a d43d f19a cdbd 51b6 b9bd
000000d0: 3fc3 efbd 8de1 58bd 3114 3a3d b749 ce3d
000000e0: 79d0 a43c 8aba c03d 3d67 dc3b ec37 8c3d
000000f0: 2486 50be acaa 0e3b c55d 12be 0f2b 4ebd
00000100: 8685 8ebd 27ab c63d 3258 ad3c acfa 533d
00000110: 7635 d3bd 502d ba39 e997 0abe 6328 09be
00000120: b8aa 363e cb41 1ebd 9c7d ac3b a4f9 8b3d
00000130: 1046 68bd 5801 113a 5b32 31be cd9b 933d
00000140: 3b62 70bd a118 89bc 8593 463d c8ac 163e
00000150: 522d e73d 7c81 bbbd 35b8 003e 7949 9dbd
00000160: 55e2 d03d 62f6 97bd 0aad bc3d a6bb 37be
00000170: 4119 48be 1004 123e c791 ed3d 51ae 04be
00000180: 0869 13be c448 b4bd 2e49 093d 2130 fabd
00000190: 091d c0bc 705e cabd 9ee7 ee3c 4df9 8f3d
000001a0: 4d34 9f3d a99a bbbd a4a0 a1bd 7d8f 1b3e
000001b0: 3d29 38be f373 c7bd 0704 20bd 2d0a 53be
000001c0: 9d46 023e ea05 0bbe 8cc3 afbd c128 293d
000001d0: 0d6c a1bc 1676 f53d 80cb 123e 99ee 113e
000001e0: f097 d4bd e994 d739 c6f6 ebbd 8d09 2bbe
000001f0: 799f 27be 2155 47be 2c8f 82bc 6d25 fe3d
00000200: a215 b33d 2642 e5bd 8999 3dbe 9130 e9bd
00000210: b74a d03b aa37 18be 1725 ac3d 1062 973c
00000220: a8ee 01be ea79 07bc 83a0 debd 4526 123d
00000230: 6aea 68bd b41b e03b 37bb 02be 04c6 b9bd
00000240: 47d2 d43d 1509 483d cec2 cb3d a7f0 323e
00000250: e642 a03c 5f08 c1bc 11f0 19be 623c 51bd
00000260: e80b 21bc 2891 c13d 5295 9f3d 56b2 c2bd
00000270: 6669 cabb ae49 2abe d457 d2bd b029 dd3d
00000280: 6023 5f3d 1c65 d03d e4b3 b23d bac3 f0bd
00000290: faf5 68bd fb9d 24bd 5341 303c c83d 0e3d
000002a0: 8492 123e e637 a5bd b96d 43be b060 a1bd
000002b0: 3f0d 9c3d 9415 d6bd 03cd 13be e503 27ba
000002c0: ad04 9cbc 3577 83bd 7ddc 57bd 8ccd b53d
000002d0: f528 e6bd 5a8c 15be 2f9f 5b3d feb2 e93d
000002e0: 50b1 323e bbdd 28bd 7c97 ab3d 6552 33bd
000002f0: ff79 1ebe 22fb 073e 8163 5dbb 0adc 4c3c
00000300: 7492 4f3e a6a0 0dbd 173a 413c e394 f83d
00000310: 7718 b6bd 51c2 0abd eb69 de3d e5af 0c3d
00000320: 612b 8f3c 9cf6 3e3c ad63 12be d69b d03d
00000330: 6af1 a63d 520d ad3c 3856 20be 0b82 e9bd
00000340: 5fcc d4bd 73e1 0f3e b9b9 9b3d 834b 3cbd
00000350: 75e5 123d 4bad 8a3c 2949 2d3e 7450 da3d
00000360: 53a6 1b3e 76bc 793d 16fc 58be d8de 14be
00000370: 6514 df3d 0eba f8bc 8492 2bbc 6c5a 113e
00000380: 2bd5 153c 6728 a13d 8eb4 4f3d 297f 7ebd
00000390: e441 1f3d 9b37 bd3d 90df 84bd 1177 e43d
000003a0: bce6 acbd d95e 14bd a920 053e 6e41 23be
000003b0: 275b 583d 845e 053d 4a2b 65bd 0698 6e3d
000003c0: 69da bdbd ea96 023d 0f9a ad3d afd9 cc3c
000003d0: b6da 9bbd 3b8e af3c fd43 b7bc a0bd fcbd
000003e0: 1289 8c3d 7d61 1a3e 8db5 503d 3f69 ce3c
000003f0: 48fa 1bbc f717 90bd 2cba 7fbd bbb1 40be
0.13110438 -0.13037704 -0.011842547 0.058861345 0.09102623 0.008983083 0.06381018 -0.057156973
-0.011107333 0.2295164 -0.05958544 -0.07048151 0.112909555 0.057107147 0.06661032 0.06758733
0.029462209 -0.0077139935 -0.064709194 0.11168455 0.09497259 0.09928278 0.2044046 -0.08046845
0.15605292 0.12154051 0.05410347 0.01721726 0.09930301 -0.17182939 -0.094160624 0.10311535
-0.1343029 0.021623725 -0.13303182 0.15777262 0.00230358 -0.19130117 0.041018378 -0.021022806
0.03263826 -0.13682722 -0.06431951 0.105852425 -0.15256172 -0.12966305 -0.184223 0.07431543
-0.032149438 0.103688665 -0.10039318 -0.09067977 -0.11707162 -0.052949477 0.045429412 0.10072654
0.020118939 0.094105795 0.006726174 0.06846604 -0.2036367 0.0021769209 -0.14293583 -0.050334033
-0.06959061 0.097006135 0.021160219 0.05175273 -0.10312931 0.00035510445 -0.13534512 -0.13394313
0.17838562 -0.038636964 0.0052639972 0.068347245 -0.05670744 0.0005531511 -0.17304365 0.07207451
-0.05868743 -0.016735377 0.04848053 0.14714348 0.11287941 -0.091555566 0.1257027 -0.076800294
0.101994194 -0.07420041 0.09212692 -0.17942676 -0.19540884 0.14259362 0.116000704 -0.12957121
-0.14395535 -0.088029414 0.033517055 -0.12216211 -0.023451345 -0.09881294 0.029163178 0.07029972
0.077736475 -0.091603585 -0.07891968 0.15191455 -0.17984481 -0.097389124 -0.03906634 -0.2060935
0.1272225 -0.13576475 -0.085822195 0.04129863 -0.019704843 0.11985414 0.14335442 0.14251174
-0.10380542 0.00041118942 -0.11521678 -0.16702862 -0.16369428 -0.19466068 -0.01593741 0.12409482
0.087443605 -0.111942574 -0.185156 -0.113862164 0.006356563 -0.14864984 0.08405512 0.018479377
-0.12688696 -0.008268813 -0.10870459 0.035681028 -0.05686418 0.00683924 -0.1276673 -0.090709716
0.1039167 0.048836786 0.099492654 0.17474614 0.01956315 -0.023563562 -0.15032984 -0.051082976
-0.009829499 0.094515145 0.077921525 -0.09506671 -0.0061771153 -0.16629669 -0.10270658 0.10798967
0.054477096 0.10175535 0.08725718 -0.11756082 -0.056875207 -0.040189724 0.010757762 0.034726888
0.14313704 -0.080673024 -0.19084825 -0.0787977 0.07619714 -0.104533345 -0.14433675 -0.0006371125
-0.019045198 -0.06419221 -0.05270051 0.088770956 -0.11238281 -0.14604321 0.053618606 0.11411093
0.17450452 -0.041227084 0.08378503 -0.04377975 -0.15476225 0.13279393 -0.0033781233 0.012503633
0.20270711 -0.034577034 0.011793635 0.12137773 -0.08891385 -0.03387672 0.10860046 0.034347434
0.01747674 0.011655476 -0.14295836 0.10185973 0.08151515 0.021124516 -0.1565789 -0.11401757
-0.10390543 0.14050846 0.07603783 -0.04597045 0.03586336 0.016928336 0.1692244 0.106598765
0.15200166 0.060970746 -0.21189913 -0.14538133 0.10892562 -0.030362155 -0.010471944 0.1419465
0.0091450615 0.07869034 0.0507093 -0.062132988 0.038881198 0.092391215 -0.06487954 0.111555226
-0.084424466 -0.036223266 0.1300074 -0.15942928 0.052821305 0.03256084 -0.055949487 0.05825045
-0.09270174 0.031882204 0.0847665 0.025006143 -0.07610075 0.021430125 -0.022371287 -0.123408556
0.068620816 0.15076251 0.05095439 0.02519667 -0.009520121 -0.07035821 -0.062433407 -0.18817799

lstm.weight_hh_l2 f4 [128, 32]
00000000: 8732 e8bc a91c d73d 7b9b 483d 868f 8e3d
00000010: 460a 65bd 0988 ccbd 7182 023d 40a7 153e
00000020: dff3 d23d 7ef3 923d b5b8 09bd c805 2bbe
00000030: 10c7 20be 7e8e d13c 7aae b5bd c24d 8b3d
00000040: a603 433e 6bcf 283d 27a6 853c 4d42 b5bd
00000050: 7081 f93d 6bbe 983c ab98 2fbd ce0b 42bd
00000060: 8ccb 033e dc96 ca3d 8cdd c23d c58b 2b3e
00000070: 6259 24be ed91 54bd 0963 84bd 1c43 1d3d
00000080: fd2b 153d 0208 f5bd 81f0 cabd 77ad 3fbc
00000090: 7226 093e dc70 0c3e ccf9 de3d 285a 2a3d
000000a0: 0e89 a03c 426d eabd 5fdb 153e 93af da3d
000000b0: 991a 553d 1d33 aa3d 594a 14be afa4 e63d
000000c0: d769 ed3d 9866 f9bd fbd3 05bc cd84 ad3d
000000d0: 840d 0abe 340a 593a 6b48 a93d 05cd 2dbd
000000e0: 4916 88bc d3eb a93d 3174 b4bc b405 503c
000000f0: 9090 42be 002a 58bd 2018 06be 83ec 1d3e
00000100: f2e7 47bd b7c6 dd3d da14 ddbd a89e d13d
00000110: c070 94bd b342 08be de0d ec3c a62c a0bd
00000120: ede4 a9bd 3cf7 ed3d 8ac6 0d3e ca93 48bb
00000130: 87df 09bd 270e 213e 11b0 7f3d eae3 273e
00000140: 60de 87bd a376 053e 34d6 583c 2017 a53d
00000150: e308 9e3c 8084 113e 2af3 e83d f790 a33d
00000160: 4c59 323d eb16 86bd 09b1 9ebd 0403 c93d
00000170: 1bd1 00be 97fb c33c af54 b5bd a6f9 83bd
00000180: 162d 3fbd 53cb 853d 1f58 b43d 83ff 2fbe
00000190: e962 b4bd 7b6f 22be 6f93 29be 3c32 05be
000001a0: d23f 233e e6cb 9abd 851f 8aba 7723 663d
000001b0: 6351 2bbe ea1c 9b3c f1e5 34be 2e00 f9bd
000001c0: 1e5f 8cbd 6a93 ca3d 7152 25bd d08c 83bd
000001d0: 4739 d7bd 16de 1bbd 7fa1 19be 404a 1abe
000001e0: 4ea4 13be 8790 f43c 8c2c 113d 916c 01be
000001f0: 6bee 8ebc ed20 f6bd db93 c03d 9eca 863c
00000200: 7491 363d e64b b43d db35 06bc 901e 103e
00000210: ee2e 813d 895e 3dbe a3d3 a2bd 630c 803d
00000220: 91e7 79bd 245f bf3b 0abc 0d3e b335 e3bd
00000230: aba1 a3bd 72d5 df3c 0924 77bd c82d 803d
00000240: 6373 413e 5de1 cd3d 8cf8 cbbd 4f18 51bd
00000250: e960 573b 083c 81bc 6221 af3d ef01 c4bd
00000260: 503e 98bc 035d b8bd 8897 d3bd eabe d63d
00000270: d4b3 32be ef6d 563d 92f9 4bbd 337f 3bbe
00000280: 0e4c 053d 913d 453e 679f 10bd 9e0b f3bd
00000290: a9a5 683d c8f5 3c3d 0d9a 2abe 276f 273e
000002a0: 3bd3 423e 1081 d4bd 0852 443e 7099 1d3d
000002b0: c045 b73d 2790 b53c a06f fdbd 1a4c 133e
000002c0: 5f5f 173e 828c 043e 3525 5ebd fc29 083e
000002d0: 2dc4 09be e594 d33d e74a 00be 8eed 23be
000002e0: d7a7 0bbe 5b45 89bc 79e9 1cbe 4219 aebd
000002f0: c134 18be 798b cd3d 3e93 bebd dfb9 c5bc
00000300: 9fbb 15be ef95 293e 796c 3bbd fdce fcbc
00000310: 1159 093d 424d 0abe 54fa 2fbd d65c 803d
00000320: 9e49 9d3d c158 cc3d ecbe 033d 74f2 21be
00000330: 3084 fcbd 0de2 4e3e 7ffa 3bbd 32b2 72bd
00000340: a2a1 bd3d 959a 653d 40d8 263d e2cc 59be
00000350: 638d da3d 7c06 0b3e ec74 cfbd 3d81 89bd
00000360: a7c3 1a3b 09c5 d4bd 57b1 7ebd d69d 02be
00000370: bf62 b0bb 96d6 e0bd 2cce 0d3e 4caf 573d
00000380: 2934 09be d0af 9dbd d571 263d d9b9 acbd
00000390: 59b1 823b 89a3 c03d 2606 083d 383f a6bc
000003a0: ec83 88bd 73d3 40be dc8f 2f3e c4d8 1dbe
000003b0: dbd1 f13c 99f3 9d3d 245e 213e d62f f139
000003c0: 2c0c d5bd f27d b4bd bfef f3bd aeb8 62bd
000003d0: 8831 f63d fc13 f33d c13a 24bc 9df8 9bbd
000003e0: 7be8 0b3e 8b8c 383d 87d6 9d3d cc17 34bd
000003f0: 185d 213d 87fa 88bd b19c d93d 2def ecbc
-0.028344406 0.10503513 0.048976403 0.06960969 -0.055918 -0.09986884 0.03186268 0.14614582
0.10300421 0.07175349 -0.033623416 -0.16701424 -0.15700936 0.02558064 -0.088711694 0.068019405
0.1904436 0.041213434 0.01631458 -0.088505365 0.12182891 0.018645486 -0.042870205 -0.04737454
0.12870616 0.098920554 0.09514913 0.16752537 -0.16049722 -0.05189698 -0.06464202 0.03839408
0.036418904 -0.11964418 -0.09909154 -0.011699072 0.13393572 0.13714927 0.10887489 0.041589886
0.019596603 -0.114466205 0.14634465 0.106780194 0.05202732 0.0831053 -0.14481486 0.1126188
0.11592453 -0.12177771 -0.008168216 0.08472595 -0.13481718 0.00082794135 0.08265766 -0.04243185
-0.016612189 0.08296933 -0.02202806 0.012696672 -0.19000459 -0.05277443 -0.1309514 0.15422253
-0.048805185 0.108289175 -0.10794993 0.102353394 -0.07248068 -0.13306694 0.028815206 -0.07821016
-0.08295617 0.11619422 0.13845268 -0.0030605667 -0.033660438 0.15728055 0.06242377 0.16395536
-0.066342115 0.13033538 0.013234664 0.08061051 0.019291347 0.14210701 0.11374505 0.07986634
0.04354219 -0.0654734 -0.077486105 0.09815028 -0.12579767 0.023923678 -0.08854043 -0.06444101
-0.046673857 0.06532922 0.0880587 -0.17187314 -0.08807928 -0.15862839 -0.16560148 -0.13007444
0.15942314 -0.07558422 -0.0010537958 0.056186166 -0.16730265 0.018934686 -0.1766584 -0.121582374
-0.0685408 0.09891398 -0.040361825 -0.06423342 -0.10508972 -0.038053595 -0.15003012 -0.15067387
-0.14418146 0.029854072 0.035442874 -0.12639071 -0.01744767 -0.12017999 0.09403201 0.016454037
0.04457231 0.08803539 -0.008191551 0.14074159 0.06307779 -0.18493094 -0.07950523 0.062523626
-0.061011855 0.005840199 0.13841262 -0.11094227 -0.0798982 0.027323458 -0.0603371 0.06258732
0.18891673 0.1005275 -0.09959516 -0.051048573 0.003286416 -0.015775695 0.08551289 -0.09570681
-0.0185844 -0.090021156 -0.10331637 0.10485633 -0.17451411 0.052350935 -0.049798556 -0.18310241
0.032543235 0.19261767 -0.035308268 -0.1186745 0.05679861 0.046132833 -0.16660328 0.16350995
0.1902589 -0.10376179 0.19171917 0.038476408 0.08948851 0.022163464 -0.123748064 0.14384499
0.14782475 0.12944224 -0.054234702 0.13297266 -0.13453741 0.10331134 -0.12528573 -0.16008589
-0.13638245 -0.016756704 -0.15323438 -0.08500911 -0.14863874 0.10036368 -0.09305428 -0.024136482
-0.14622353 0.16561101 -0.045757744 -0.030860418 0.033532206 -0.13506034 -0.04296334 0.06267707
0.07680057 0.09977866 0.0321645 -0.15815145 -0.123299 0.20203419 -0.04589319 -0.05925197
0.09259345 0.056055624 0.040733576 -0.21269563 0.106714986 0.13576692 -0.10129723 -0.06714103
0.0023615153 -0.10389144 -0.062180843 -0.12755522 -0.005382865 -0.10978429 0.1384818 0.05265741
-0.13398804 -0.07699549 0.040635902 -0.08433885 0.0039884266 0.09406192 0.03320899 -0.020293817
-0.06665787 -0.18830661 0.17144722 -0.15414721 0.029519012 0.07712478 0.15758568 0.00046002743
-0.10402712 -0.08813085 -0.11910962 -0.055351906 0.12021166 0.11869046 -0.010023774 -0.076157786
0.13662903 0.045055907 0.077069335 -0.043968007 0.03939542 -0.06688409 0.1062559 -0.028922642
