pv/checkpoints/산업협력관-checkpoint-2023-08-10 22_52.pt (torch, 304877 bytes, 38 tensors)

lstm.weight_ih_l0 f4 [128, 17]
-0.102213405 0.10541813 0.1270382 0.16255766 0.17416517 0.05102078 -0.09984103 -0.15506652
0.080846734 0.03134323 -0.090327606 0.06107397 -0.12356293 -0.1566147 -0.17701882 -0.07754706
0.06261324 -0.054125603 -0.038236994 -0.010301473 0.008601597 -0.020080395 -0.12724872 -0.045576338
-0.072468385 -0.015854375 -0.13679272 -0.13007976 0.13289022 -0.03992919 0.07352133 -0.19170769
0.15754558 -0.1052183 0.043671828 -0.1743246 0.058002714 0.13202778 -0.11603834 -0.033905443
0.16855708 0.15681598 -0.04368774 -0.17421728 -0.18856928 0.043340653 0.16984622 0.06343347
0.039578 -0.06549184 0.1699836 -0.029957125 0.180814 -0.116872974 0.09957171 0.091253884
-0.059804954 0.08144087 0.10381878 -0.09416087 0.076837696 -0.02898188 0.06544818 -0.0031820242
0.11328155 -0.04797933 -0.09690316 -0.050490413 0.00421569 -0.08563736 0.099538326 0.16111556
0.09464769 0.1182836 0.07512093 -0.082067885 -0.086074665 0.06745232 0.1811721 0.15094629
-0.026590772 0.10789481 0.11377609 0.17411019 -0.06347542 -0.15149537 0.110894546 -0.16582668
0.07190919 -0.092941195 0.1785081 -0.017698934 -0.15993325 -0.09773777 0.040118303 -0.10270713
-0.08758546 -0.083735205 0.1434907 -0.049770247 0.13062651 -0.06990576 0.025843982 -0.001086601
0.1188644 0.1330092 -0.08494551 0.10580213 0.015872266 0.08715406 -0.12180569 -0.02704167
-0.16148543 0.1089046 -0.04315172 -0.14229675 0.033320203 -0.087574914 -0.011531891 0.13673481
-0.009755007 0.027293853 0.1882204 0.1770028 0.00528026 0.17753698 0.1607719 -0.0040358333
-0.05116398 0.0575687 -0.08614045 0.03411135 0.08647845 -0.015015651 -0.1519867 0.20084247
-0.12084983 -0.12829211 -0.018054893 0.14524874 -0.08865334 0.10202978 -0.0016435668 -0.11365926
-0.004414748 0.1833525 -0.014561637 -0.06345049 0.10118021 0.18488273 0.14521416 -0.07153568
0.07124219 -0.09282621 0.14760698 0.11667665 0.0039490433 0.13798256 0.1884196 0.089508176
0.0073873545 0.07085446 0.07533569 -0.029679656 0.19282511 -0.12205217 -0.007228936 -0.117436185
-0.014147753 -0.03327631 0.18004367 0.12924236 0.08102847 -0.09203362 -0.0106982505 0.10245733
-0.10838123 0.101447344 -0.0077405144 0.04334773 0.15742388 -0.13602132 -0.09801634 0.060713947
0.1600376 0.03712312 0.13026185 0.1530556 -0.05246171 0.017714608 0.11925715 0.1885504
-0.09878294 0.08366573 0.21442579 -0.020402849 -0.05321033 -0.05080701 0.04174092 0.19560848
0.09234379 0.11632491 -0.066745386 0.15501581 0.018048663 0.124666914 -0.09802216 -0.13764574
-0.036097813 -0.010256165 -0.053255074 0.21028559 -0.08555011 0.0008647465 -0.12898897 -0.15262178
0.09844627 0.06590836 0.075695835 -0.021531578 0.054031007 0.15404503 0.14241937 0.09751815
-0.007239038 -0.032238115 -0.128706 -0.10115846 -0.04681544 0.049999293 -0.029006382 0.0542521
0.08813177 -0.0977963 -0.07999899 0.09060714 0.1519664 -0.12046517 0.15745308 -0.022562928
0.14357826 -0.07554242 -0.1245405 -0.022240156 0.14274925 0.109574914 -0.04916347 0.20138252
0.119526684 -0.022449574 0.13334888 0.13600723 -0.1898768 -0.13916536 -0.07787547 0.1076303
00000000: 4355 d1bd 76e5 d73d 4d16 023e 8475 263e
00000010: 5b58 323e 2afb 503d 7479 ccbd c2c9 1ebe
00000020: f992 a53d c261 003d aefd b8bd b328 7a3d
00000030: 900e fdbd 9b5f 20be 6c44 35be fed0 9ebd
00000040: 5f3b 803d cfb2 5dbd 659e 1cbd 82c7 28bc
00000050: b6ed 0c3c a47f a4bc 7d4d 02be 41ae 3abd
00000060: 4e6a 94bd 09e1 81bc 6413 0cbe a133 05be
00000070: 6014 083e ca8c 23bd 5a92 963d 054f 44be
00000080: a153 213e b17c d7bd 3be1 323d 2682 32be
00000090: 4194 6d3d 4a32 073e 82a5 edbd 6fe0 0abd
000000a0: 3a9a 2c3e 5e94 203e eaf1 32bd 0466 32be
000000b0: 4e18 41be f885 313d 2bec 2d3e 68e9 813d
000000c0: 8a1c 223d 9620 86bd 2e10 2e3e a568 f5bc
000000d0: 4e27 393e 195b efbd 41ec cb3d 51e3 ba3d
000000e0: 0af6 74bd 79ca a63d f19e d43d 6ad7 c0bd
000000f0: 155d 9d3d 686b edbc b209 863d 8289 50bb
00000100: 2800 e83d f985 44bd 2a75 c6bd 09cf 4ebd
00000110: c523 8a3b a462 afbd c0da cb3d 7afb 243e
00000120: a6d6 c13d ac3e f23d 01d9 993d 3513 a8bd
00000130: ea47 b0bd 7124 8a3d 2e85 393e aa91 1a3e
00000140: e4d4 d9bc f4f7 dc3d 7003 e93d f149 323e
00000150: 67ff 81bd 9a21 1bbe ae1c e33d 78ce 29be
00000160: 2045 933d f457 bebd d4ca 363e 5bfd 90bc
00000170: 8bc5 23be bd2a c8bd 1753 243d 1e58 d2bd
00000180: 0160 b3bd 5d7d abbd 3aef 123e e3db 4bbd
00000190: f5c2 053e c02a 8fbd c2b6 d33c 486c 8eba
000001a0: 2e6f f33d 9033 083e e9f7 adbd caae d83d
000001b0: 8e06 823c d47d b23d 4375 f9bd 7e86 ddbc
000001c0: 705c 25be 6009 df3d dcbf 30bd 3db6 11be
000001d0: c47a 083d 7a5a b3bd 42f0 3cbc 3604 0c3e
000001e0: 77d3 1fbc 5c97 df3c d9bc 403e 3940 353e
000001f0: 0806 ad3b 41cc 353e 64a1 243e 063f 84bb
00000200: 5291 51bd 28cd 6b3d 676a b0bd 58b8 0b3d
00000210: 9d1b b13d 3404 76bc 67a2 1bbe a6a9 4d3e
00000220: 1e80 f7bd 025f 03be dbe7 93bc 16bc 143e
00000230: e28f b5bd fdf4 d03d f36c d7ba 30c6 e8bd
00000240: 97a9 90bb c2c0 3b3e ef93 6ebc 55f2 81bd
00000250: 9237 cf3d e651 3d3e 05b3 143e 4c81 92bd
00000260: 6de7 913d ab1b bebd 4926 173e 2bf4 ee3d
00000270: fa66 813b 4d4b 0d3e 11f1 403e 1050 b73d
00000280: 9f11 f23b 251c 913d 9949 9a3d c022 f3bc
00000290: f273 453e 7df6 f9bd b6e0 ecbb 6282 f0bd
000002a0: facb 67bc bd4c 08bd 5e5d 383e 1c58 043e
000002b0: 41f2 a53d 1f7c bcbd b747 2fbc 26d5 d13d
000002c0: faf6 ddbd a0c3 cf3d 24a4 fdbb 648d 313d
000002d0: ba33 213e 2c49 0bbe cabc c8bd 30af 783d
000002e0: e6e0 233e 6a0e 183d 5d63 053e 9bba 1c3e
000002f0: 17e2 56bd 3a1e 913c 183d f43d 5b13 413e
00000300: b64e cabd f058 ab3d 6f92 5b3e e023 a7bc
00000310: 13f3 59bd 031b 50bd 87f8 2a3d 974d 483e
00000320: be1e bd3d c13b ee3d ceb1 88bd 77bc 1e3e
00000330: cada 933c 5e51 ff3d d8bf c8bd 01f3 0cbe
00000340: 4ddb 13bd 7909 28bc fe21 5abd 1b55 573e
00000350: e534 afbd 28b0 623a af15 04be e248 1cbe
00000360: 339e c93d f6fa 863d 6b06 9b3d fe62 b0bc
00000370: 9e4f 5d3d fbbd 1d3e 62d6 113e 99b7 c73d
00000380: 7435 edbb 1d0c 04bd 81cb 03be 2b2c cfbd
00000390: 8cc1 3fbd 0fcc 4c3d cb9e edbc 7337 5e3d
000003a0: 6e7e b43d 6d49 c8bd 83d6 a3bd 3c90 b93d
000003b0: 149d 1b3e 71b6 f6bd 613b 213e e4d5 b8bc
000003c0: 2e06 133e fcb5 9abd 170f ffbd fd30 b6bc
000003d0: dc2c 123e d068 e03d a25f 49bd 3837 4e3e
000003e0: 68ca f43d 2be8 b7bc 9c8c 083e 7b45 0b3e
000003f0: 106f 42be 5d81 0ebe 2d7d 9fbd 466d dc3d

lstm.weight_hh_l0 f4 [128, 32]
0.040307973 -0.13072611 0.09898519 -0.10575311 0.11295685 -0.11338797 -0.17348684 0.017960796
0.014119165 0.18944235 0.17243236 -0.13399827 0.008340128 0.12971409 0.0074333623 0.14960489
0.113625325 0.056313142 -0.101686716 -0.13661312 -0.008300962 0.10683744 -0.0027455413 0.10783398
0.15490615 0.002544887 -0.0007741341 -0.11700888 -0.15397045 -0.023077961 0.03471027 0.1470779
0.070952736 0.08778999 0.16148005 0.11430974 0.15002194 0.08167076 -0.12612908 0.14930476
-0.10433132 -0.10665681 -0.059453312 0.0026734504 -0.12809707 0.19196482 0.05916807 0.012973493
0.18670365 -0.04905881 0.079040006 -0.043074097 -0.015556947 0.12600605 -0.0947878 0.17893974
0.154068 0.019495925 -0.00051188865 -0.007227489 -0.14897889 0.12830208 0.15440354 0.18587169
-0.117047094 -0.15688023 0.1297268 -0.0039447136 -0.09748212 -0.11676854 -0.1493023 -0.14857566
0.07293687 -0.10847419 -0.008943751 -0.020375535 0.13886894 -0.017999895 -0.07872828 0.17033252
0.09371691 0.17552441 -0.14423725 0.17051072 -0.07676694 -0.08712782 0.12860818 0.074846424
0.07033409 0.14226203 -0.10313496 0.06374283 -0.08668959 -0.024364734 0.12190611 0.12564066
-0.07781628 -0.18561736 0.088882014 0.09847828 -0.067505114 -0.01841461 -0.083261825 -0.06871934
-0.12348717 0.15250728 -0.11595115 0.17388907 0.15089622 0.027835226 -0.019837016 0.17123628
-0.14569013 -0.005266761 0.031629518 0.14123072 -0.10542069 0.20714997 0.10183858 -0.1087081
-0.08277148 0.06957239 -0.035205748 0.15576978 0.02465745 -0.119079016 -0.087890804 -0.13926215
-0.0488224 0.1356837 0.066582456 -0.016815072 -0.1570665 0.038768306 -0.07985425 -0.14698811
-0.065920286 0.020783752 0.038617823 0.1266331 -0.07008203 -0.06296783 0.033198312 -0.11585068
-0.09584145 0.022585932 0.13774383 -0.104971685 -0.09520905 0.16643217 -0.16062538 0.02493251
0.019716004 0.15438081 -0.044250675 0.16856034 -0.024590015 0.11861758 -0.14018719 0.09816783
-0.16698271 0.11930624 0.03932968 -0.06503673 -0.07228333 0.000522693 -0.06988233 -0.07764638
0.029462209 -0.15199904 0.015090719 0.1881243 -0.051747724 0.01572801 -0.1437085 0.06599625
-0.037032075 -0.15281789 0.01913808 -0.1201788 -0.080358274 -0.037390955 -0.056988508 0.13924874
-0.12337291 0.14460193 0.11499707 -0.06911115 -0.14050357 0.17262478 -0.13247533 -0.03795478
0.070120506 -0.14130579 0.12545724 -0.018576648 0.024837581 -0.058669947 0.06625497 -0.08220655
-0.16209216 0.0015982332 -0.09304131 -0.20730215 -0.12417391 0.128387 0.14850263 -0.1409622
-0.062055446 0.02455887 0.13133298 -0.09198373 0.13102679 0.13231051 0.043297272 -0.051875688
-0.05273246 -0.084183544 0.0645455 -0.12601346 -0.06262361 0.06380378 -0.14791733 -0.0013272992
-0.026861338 0.11293148 0.09094671 0.18929888 0.012628609 -0.16474377 0.19988403 0.01333882
-0.18145667 0.20604548 0.14729162 -0.12885745 0.026247643 0.093287654 0.12115307 0.15521066
-0.070017815 0.07961285 -0.13142636 0.15192035 0.14302897 0.13182048 -0.051709175 -0.12029839
0.09941056 -0.1677869 -0.16294841 -0.053386148 -0.0037911914 -0.08067314 -0.026376601 -0.07659407
00000000: f919 253d 11dd 05be bfb8 ca3d 1695 d8bd
00000010: ec55 e73d f437 e8bd 89a6 31be 8522 933c
00000020: 1254 673c 2dfd 413e 1c92 303e d836 09be
00000030: 08a5 083c c5d3 043e 9093 f33b 0632 193e
00000040: 65b4 e83d 9ca8 663d 2041 d0bd 4fe4 0bbe
00000050: c200 08bc 96cd da3d 8aee 33bb 10d8 dc3d
00000060: b89f 1e3e 1ec8 263b 43ef 4aba 5aa2 efbd
00000070: 6eaa 1dbe fe0d bdbc 5b2c 0e3d 979b 163e
00000080: ab4f 913d 3dcb b33d 075b 253e 3a1b ea3d
00000090: 5a9f 193e 0043 a73d fb27 01be 59e3 183e
000000a0: a9ab d5bd e36e dabd 5185 73bd 0e35 2f3b
000000b0: e12b 03be 6d92 443e 385a 723d c68e 543c
000000c0: 3e2f 3f3e e4f1 48bd badf a13d 776e 30bd
000000d0: 91e2 7ebc bb07 013e 1b20 c2bd fb3b 373e
000000e0: 00c4 1d3e ebb5 9f3c 4430 06ba 92d4 ecbb
000000f0: ec8d 18be 9f61 033e f61b 1e3e 2655 3e3e
00000100: 63b6 efbd 36a5 20be 1ad7 043e a842 81bb
00000110: b5a4 c7bd 5824 efbd b4e2 18be 3824 18be
00000120: ed5f 953d b727 debd d088 12bc 98ea a6bc
00000130: a933 0e3e 8474 93bc 4b3c a1bd a66b 2e3e
00000140: a7ee bf3d acbc 333e eeb2 13be 5d9a 2e3e
00000150: fc37 9dbd 1270 b2bd ddb1 033e 1549 993d
00000160: 520b 903d 23ad 113e 6c38 d3bd 9a8b 823d
00000170: 508a b1bd 8d98 c7bc e9a9 f93d f2a7 003e
00000180: 245e 9fbd 7a12 3ebe c607 b63d fbae c93d
00000190: 1f40 8abd 3cda 96bc 2d85 aabd babc 8cbd
000001a0: d7e6 fcbd de2a 1c3e cc77 edbd fa0f 323e
000001b0: 8a84 1a3e b306 e43c 3d81 a2bc 9058 2f3e
000001c0: cb2f 15be cb94 acbb f48d 013d c99e 103e
000001d0: cde6 d7bd 1f1f 543e bf90 d03d 5aa2 debd
000001e0: 1884 a9bd f87b 8e3d e733 10bd 1d82 1f3e
000001f0: 6cfe c93c b3df f3bd 1800 b4bd bd9a 0ebe
00000200: fff9 47bd abf0 0a3e 625c 883d c3bf 89bc
00000210: 0ad6 20be 84cb 1e3d a08a a3bd 0d84 16be
00000220: 3701 87bd b042 aa3c b92d 1e3d 1bac 013e
00000230: 2b87 8fbd 47f5 80bd f4fa 073d 1f43 edbd
00000240: 8648 c4bd 2206 b93c b80c 0d3e 65fb d6bd
00000250: f6fc c2bd 326d 2a3e fb7a 24be 433f cc3c
00000260: 7583 a13c 0116 1e3e 3240 35bd 159b 2c3e
00000270: 0071 c9bc c6ed f23d 3b8d 0fbe 370c c93d
00000280: 84fd 2abe d456 f43d 2918 213d fa31 85bd
00000290: 4809 94bd 5505 093a 781e 8fbd 1105 9fbd
000002a0: bb5a f13c a3a5 1bbe 103f 773c a8a3 403e
000002b0: 6cf5 53bd 07d8 803c 5228 13be 0b29 873d
000002c0: f2ae 17bd 4b7c 1cbe 76c7 9c3c 4d20 f6bd
000002d0: e192 a4bd 4227 19bd c86c 69bd 3997 0e3e
000002e0: f0aa fcbd 8712 143e 9583 eb3d 268a 8dbd
000002f0: 2be0 0fbe 8dc4 303e 9da7 07be 7976 1bbd
00000300: 579b 8f3d 77b2 10be dd77 003e 0e2e 98bc
00000310: 2f78 cb3c e64f 70bd b0b0 873d e85b a8bd
00000320: 7dfb 25be cf7b d13a 718c bebd 0447 54be
00000330: e44e febd e277 033e 1311 183e 6558 10be
00000340: da2d 7ebd af2f c93c 277c 063e f761 bcbd
00000350: e32b 063e 687c 073e 7b58 313d 9a7b 54bd
00000360: fefd 57bd 6c68 acbd 6e30 843d ac09 01be
00000370: cf40 80bd 8eab 823d a477 17be c5f8 adba
00000380: 4f0c dcbc 9f48 e73d 4542 ba3d 91d7 413e
00000390: 3ae8 4e3c 97b2 28be 66ae 4c3e 118b 5a3c
000003a0: c7cf 39be 96fd 523e 9dd3 163e 35f3 03be
000003b0: 4c05 d73c 990d bf3d 1a1f f83d 8bef 1e3e
000003c0: 8065 8fbd 100c a33d a294 06be 0291 1b3e
000003d0: 3076 123e f3fb 063e 00cd 53bd 015f f6bd
000003e0: c497 cb3d 54d0 2bbe f3db 26be 6fab 5abd
000003f0: a375 78bb f637 a5bd be13 d8bc 5add 9cbd

lstm.bias_ih_l0 f4 [128]
-0.15796216 0.062576994 -0.06573123 -0.03185111 0.102586135 -0.12007715 0.045128766 0.13737719
-0.095258795 -0.053659234 0.19781889 0.21375985 -0.1386572 -0.07880667 0.07775228 -0.037551507
0.033726104 0.032018363 -0.07736262 0.06310155 -0.11226832 -0.0018104602 -0.024129357 0.03234176
-0.1575677 0.031061169 0.010413704 -0.018513909 0.10223977 0.024978645 0.09671679 -0.06503167
-0.04436686 -0.003721162 0.07455024 0.06598708 0.16556723 0.027464041 -0.0754544 0.12279253
0.14907312 0.116683185 0.1473043 0.039002635 -0.14663136 0.15167883 0.2079515 0.054653224
0.13156617 0.11388303 -0.15546058 0.12036898 -0.13475734 -0.1311838 0.147311 0.014648526
-0.07718887 -0.124244116 -0.020799672 0.049054343 -0.00972865 -0.000935832 -0.062804155 0.087334305
0.16793506 -0.13453467 -0.16592263 0.15663686 -0.13646848 0.13058642 -0.069452286 -0.17042275
-0.1299492 -0.02984399 -0.09369494 -0.15890212 0.1266401 -0.0702775 0.17883869 0.0067313793
-0.017827293 0.06710432 -0.14074542 -0.005458281 -0.1630933 0.047847282 0.0862726 0.1030689
-0.08375965 0.031039314 -0.11750606 -0.010923675 0.04882034 -0.043587595 0.0072413394 0.11927798
-0.08403867 -0.031474274 0.086407274 -0.027833033 -0.031237578 -0.0048293206 -0.014736061 0.22181106
0.16259578 0.037420176 0.1284426 -0.0030354173 -0.051687542 -0.0046369056 0.1757942 -0.045829147
-0.0031250159 -0.11054996 -0.043648325 -0.060592 0.17116706 0.18378718 -0.13217713 -0.13769755
0.15075704 0.028631454 0.028264668 0.07596693 -0.15674284 -0.12183181 -0.046253867 -0.068337165
00000000: d5c0 21be 5e28 803d 189e 86bd 4f76 02bd
00000010: ae18 d23d 02eb f5bd f1d8 383d 9bac 0c3e
00000020: 0b17 c3bd c9c9 5bbd 0991 4a3e dde3 5a3e
00000030: 27fc 0dbe 6465 a1bd 963c 9f3d 9ccf 19bd
00000040: 6224 0a3d b025 033d 4b70 9ebd 633b 813d
00000050: efec e5bd f74c edba eeaa c5bc cb78 043d
00000060: 6d59 21be fe73 fe3c 3e9e 2a3c 7baa 97bc
00000070: 1663 d13d 04a0 cc3c 7413 c63d 532f 85bd
00000080: 06ba 35bd bdde 73bb ccad 983d 3c24 873d
00000090: 758a 293e 45fc e03c d687 9abd a67a fb3d
000000a0: a0a6 183e 98f7 ee3d f0d6 163e 3ac1 1f3d
000000b0: 8826 16be b251 1b3e 3df1 543e 0fdc 5f3d
000000c0: 48b9 063e 823b e93d 0f31 1fbe 0384 f63d
000000d0: d4fd 09be 0c55 06be b2d8 163e 5f00 703c
000000e0: 3315 9ebd b373 febd 1364 aabc 35ed 483d
000000f0: ea64 1fbc 9f52 75ba 779f 80bd 54dc b23d
00000100: 2bf7 2b3e 75c3 09be 9fe7 29be 6a65 203e
00000110: 65be 0bbe 72b8 053e 003d 8ebd 4d83 2ebe
00000120: 6711 05be 627b f4bc 22e3 bfbd 3db7 22be
00000130: f1ad 013e a6ed 8fbd 7d21 373e e792 dc3b
00000140: 8b0a 92bc fd6d 893d 911f 10be 61db b2bb
00000150: ee01 27be 83fb 433d b0af b03d ca15 d33d
00000160: 2e8a abbd 2946 fe3c 04a7 f0bd 37f9 32bc
00000170: d6f7 473d e888 32bd c248 ed3b 0348 f43d
00000180: 771c acbd 2beb 00bd 4cf6 b03d 1a02 e4bc
00000190: f3e5 ffbc 473f 9ebb 856f 71bc 7022 633e
000001a0: 827f 263e e645 193d 7586 033e daed 46bb
000001b0: 51b6 53bd 2ff1 97bb 6503 343e 58b7 3bbd
000001c0: 11cd 4cbb 0468 e2bd 96c8 32bd 512f 78bd
000001d0: 6b46 2f3e b532 3c3e 7159 07be 9600 0dbe
000001e0: 0e60 1a3e 838c ea3c 4e8b e73c 8d94 9b3d
000001f0: 3281 20be f582 f9bd b274 3dbd 5bf4 8bbd

lstm.bias_hh_l0 f4 [128]
-0.018938188 0.10332367 -0.12461346 0.015570062 -0.16373183 0.049178205 0.02388485 0.013736914
-0.06987181 -0.07551 0.096919775 0.012441577 -0.026272306 -0.12667407 0.06598441 -0.08414665
0.17935355 -0.0015600448 0.012486706 -0.15891947 -0.10890036 0.05423336 0.12481707 0.0039286856
-0.044534393 -0.11301168 0.1829242 0.19189586 0.098605536 0.20023592 -0.0071682185 0.12831865
-0.005815795 -0.061164897 0.15181728 0.16456059 -0.053481333 0.026480226 -0.10282535 -0.13029933
-0.12001626 -0.06539725 0.17244071 -0.0253858 0.11344612 0.046294905 -0.048254002 -0.07237309
-0.086381465 -0.13648301 0.13553268 0.08609292 0.0019916894 0.20243716 0.13285954 -0.11162388
0.124386415 -0.066547535 -0.14666829 0.030477064 0.14588794 0.09025137 0.1844674 -0.1280598
-0.085774355 -0.10326036 0.08034841 -0.10700293 -0.10501149 -0.15267423 0.064092696 0.05830784
-0.04280615 0.16661285 0.059467535 -0.038728345 0.10088211 0.1490023 0.07830383 0.14060424
0.097940646 0.14953387 -0.043272696 -0.102596834 0.16829231 0.1288747 -0.054066606 -0.046001434
-0.12217372 0.06049814 -0.11880416 0.002003496 0.08618803 0.064185455 -0.15819192 -0.11556235
-0.08711596 -0.16643056 0.17988084 -0.13026947 0.08630196 0.10054934 0.018077722 -0.0890148
0.1700942 -0.1312996 0.09461948 0.114540905 -0.13581753 -0.04857368 0.17930856 -0.058592983
0.15750574 0.029850366 -0.098735854 -0.047567986 -0.104801014 -0.05857071 -0.15877533 -0.00962521
-0.04207246 0.116447434 0.10674104 0.14532249 0.04244241 -0.05901362 0.04481774 0.0666647
00000000: 4224 9bbc 5c9b d33d 5735 ffbd 9319 7f3c
00000010: 51a9 27be 166f 493d 29aa c33c cb10 613c
00000020: f418 8fbd fda4 9abd e07d c63d c2d7 4b3c
00000030: 0539 d7bc d9b6 01be d622 873d 1455 acbd
00000040: 75a8 373e 6b7a ccba 0a95 4c3c c9bb 22be
00000050: 2707 dfbd cd23 5e3d 18a0 ff3d 34bc 803b
00000060: b269 36bd ab72 e7bd 7b50 3b3e 5980 443e
00000070: b3f1 c93d a50a 4d3e 60e3 eabb f765 033e
00000080: 6d92 bebb 0b88 7abd fd75 1b3e 9282 283e
00000090: 3e0f 5bbd 0fed d83c 1996 d2bd 306d 05be
000000a0: 16cb f5bd feee 85bd 4c94 303e e2f5 cfbc
000000b0: 7056 e83d ba9f 3d3d fda5 45bd 5838 94bd
000000c0: c4e8 b0bd 34c2 0bbe 14c9 0a3e 7c51 b03d
000000d0: 0187 023b b04b 4f3e 550c 083e 109b e4bd
000000e0: 4ebe fe3d 134a 88bd 3630 16be 09ab f93c
000000f0: a663 153e b6d5 b83d 06e5 3c3e 1c22 03be
00000100: 77aa afbd 2b7a d3bd b58d a43d 5a24 dbbd
00000110: 4410 d7bd a256 1cbe 0843 833d 34d4 6e3d
00000120: 8055 2fbd 8f9c 2a3e 3b94 733d 9da1 1ebd
00000130: 489b ce3d 0f94 183e c25d a03d 8ffa 0f3e
00000140: 1b95 c83d 681f 193e b63e 31bd 4a1e d2bd
00000150: d254 2c3e bbf7 033e f274 5dbd 006c 3cbd
00000160: 3736 fabd e6cc 773d 984f f3bd 164d 033b
00000170: 5a83 b03d aa73 833d 10fd 21be f4ab ecbd
00000180: da69 b2bd c66c 2abe af32 383e 5c65 05be
00000190: 15bf b03d d0ec cd3d bb17 943c 644d b6bd
000001a0: 2d2d 2e3e 6773 06be dcc7 c13d 6c94 ea3d
000001b0: c013 0bbe 32f5 46bd aa9c 373e 32ff 6fbd
000001c0: 2f49 213e c188 f43c 0636 cabd a6d6 42bd
000001d0: eaa1 d6bd d7e7 6fbd 0096 22be 0fb3 1dbc
000001e0: 2c54 2cbd fe7b ee3d 0c9b da3d 6bcf 143e
000001f0: 18d8 2d3d 44b8 71bd ce92 373d 8187 883d

lstm.weight_ih_l1 f4 [128, 32]
0.07913828 0.08686968 0.13422436 0.11685284 0.053930707 0.02725959 0.06320204 0.121135525
-0.104506776 0.14716084 0.09632272 0.103583425 -0.034853052 -0.0037918428 0.1247229 -0.104969114
-0.008173357 0.07055797 0.18741737 0.09715885 0.042716477 0.077969596 0.11210393 -0.12567942
-0.1786123 -0.030128654 -0.17588435 -0.008279805 -0.087937616 -0.11618833 0.0151035 0.03508856
0.13087831 0.03980277 -0.037163626 -0.05982134 0.06791468 -0.13959819 -0.17785412 -0.12580894
0.030942192 0.022619221 0.12192644 0.13592847 -0.1084401 0.19066742 0.016712107 -0.059393257
-0.08246865 0.071278594 0.03412795 -0.09048205 0.0857459 -0.045959767 0.12708999 -0.06501584
-0.12741804 0.07200379 -0.19420928 0.15236509 -0.1205403 -0.017109979 -0.120331824 -0.13611263
-0.14853069 0.10603582 -0.107019976 0.18209657 -0.13452299 0.18940483 0.008194564 -0.067102574
0.06364527 0.1611759 0.019758334 0.15864049 0.018037518 0.06299524 0.14689168 0.17639536
0.13130549 -0.11571824 -0.13094799 0.11390128 -0.08996858 0.019339489 0.049009357 0.003063042
0.066521324 -0.12867282 -0.118856974 0.11282237 0.0019056145 0.11099618 -0.14805986 -0.09102831
0.10363206 -0.08773628 0.1563406 -0.04327243 -0.06377824 0.0035606592 -0.10330352 -0.18763961
-0.12363699 0.01988477 0.0028138834 0.1678611 -0.10877961 -0.07615144 -0.080100045 0.2020355
-0.12656887 0.05957588 0.07179546 -0.18348436 0.11329416 -0.043167144 -0.047174115 0.14371043
0.10412693 -0.20415533 0.076170035 -0.043604974 0.06736204 0.20531607 -0.08185556 -0.14654326
-0.12992448 0.14614937 0.15799764 -0.15802996 -0.09134202 0.09134601 -0.23221137 -0.04345309
-0.0042401073 0.16679281 0.19403856 0.017788423 0.16216639 0.17320533 0.004722232 0.14418523
0.16386059 0.024136506 0.12617831 0.09573692 -0.104177915 -0.025754277 0.020067526 0.029742712
0.106118016 0.12602593 0.050223053 0.04774623 -0.090932995 -0.09136533 0.05212278 -0.16583823
-0.15073386 0.060814723 -0.11247794 -0.091885716 0.10912538 -0.12828189 -0.11440925 -0.033658773
-0.10307427 -0.085067764 0.09860662 0.12009263 -0.105857454 -0.08451221 0.15135157 -0.109251246
0.062031545 0.07835366 0.19916616 -0.0059302337 0.11816794 0.0036215708 -0.041670125 -0.16890666
-0.11777797 0.06018753 -0.20797975 0.1894527 0.16548073 0.1564922 -0.04688042 -0.08930747
0.18944694 0.092622384 -0.07275868 0.15342818 0.004597726 0.11767618 0.09076805 -0.18831678
0.10440956 0.1321934 -0.029202867 -0.110539414 -0.06454961 0.049346685 0.058168966 -0.11360712
0.038705684 -0.06739422 0.16267364 0.14318751 0.05249429 -0.026795411 0.15180619 -0.16854805
-0.06814626 -0.17032005 0.0066523235 -0.0776386 -0.03287691 -0.064958446 0.15862578 0.00050675235
0.097889535 -0.01414282 -0.08812192 0.01777332 -0.11180136 0.1568016 -0.1910464 -0.1056452
-0.07776647 -0.11247039 -0.068214715 0.15690747 0.09843273 0.11427279 0.020711524 -0.1919971
-0.16972843 0.13611929 0.12234474 -0.12817833 -0.16882217 0.053225446 0.017037936 0.1909901
0.17342268 -0.031592276 0.1093575 -0.027748823 -0.13430984 0.11490412 0.09825151 -0.0011086464
00000000: 4013 a23d bbe8 b13d 1c72 093e 8b50 ef3d
00000010: 72e6 5c3d 814f df3c 1270 813d e715 f83d
00000020: a607 d6bd 55b1 163e d944 c53d 8c23 d43d
00000030: 13c2 0ebd 9180 78bb b86e ff3d 0cfa d6bd
00000040: 8be9 05bc b280 903d 57ea 3f3e 38fb c63d
00000050: 79f7 2e3d 86ae 9f3d bf96 e53d 1bb2 00be
00000060: 25e6 36be 5ed0 f6bc 071b 34be 05a8 07bc
00000070: a318 b4bd 26f4 edbd ac74 773c 06b9 0f3d
00000080: f704 063e 3b08 233d e338 18bd 3907 75bd
00000090: da16 8b3d d4f2 0ebe 641f 36be 0fd4 00be
000000a0: 7b7a fd3c f24b b93c 92b4 f93d d530 0b3e
000000b0: d815 debd 523e 433e d4e7 883c 5846 73bd
000000c0: 53e5 a8bd 83fa 913d c0c9 0b3d a74e b9bd
000000d0: 8c9b af3d 4f40 3cbd e123 023e 0627 85bd
000000e0: e079 02be b976 933d ccde 46be 9805 1c3e
000000f0: d5dd f6bd 3a2a 8cbc 8870 f6bd 1c61 0bbe
00000100: 6e18 18be 4f29 d93d 4a2d dbbd 8677 3a3e
00000110: 65c0 09be 57f3 413e 7e42 063c 136d 89bd
00000120: 7458 823d 4c0b 253e 3bdc a13c a772 223e
00000130: 6bc3 933c a603 813d c66a 163e fca0 343e
00000140: f274 063e affd ecbd 3b17 06be 1345 e93d
00000150: 7241 b8bd d96d 9e3c 09be 483d 51bd 483b
00000160: 553c 883d cfc2 03be 496b f3bd 6a0f e73d
00000170: d0c5 f93a f751 e33d 019d 17be 0d6d babd
00000180: 0c3d d43d 14af b3bd c017 203e 6e3e 31bd
00000190: 2a9e 82bd f359 693b cc90 d3bd 9924 40be
000001a0: 6435 fdbd 63e5 a23c 2169 383b c8e3 2b3e
000001b0: d8c7 debd 49f5 9bbd 7e0b a4bd 65e2 4e3e
000001c0: 459b 01be d705 743d 8009 933d 53e3 3bbe
000001d0: c506 e83d 08d0 30bd a539 41bd d428 133e
000001e0: 8040 d53d 180e 51be 09ff 9b3d 219b 32bd
000001f0: 1cf5 893d 603e 523e e3a3 a7bd 700f 16be
00000200: ec0a 05be 2ea8 153e 22ca 213e 9bd2 21be
00000210: 8611 bbbd 9e13 bb3d d1c8 6dbe defb 31bd
00000220: 99f0 8abb bccb 2a3e 0bb2 463e 07b9 913c
00000230: f20e 263e bd5c 313e f4bc 9a3b 4ba5 133e
00000240: 12cb 273e ecb9 c53c e334 013e b811 c43d
00000250: 3b5b d5bd a2fa d2bc a764 a43c fda6 f33c
00000260: 6754 d93d f10c 013e b0b6 4d3d 8d91 433d
00000270: 143b babd bf1d bbbd b27e 553d 7fd1 29be
00000280: fa59 1abe dc18 793d d65a e6bd 942e bcbd
00000290: 217d df3d 545c 03be 664f eabd c8dd 09bd
000002a0: 9a18 d3bd 0238 aebd 45f2 c93d 20f3 f53d
000002b0: cbcb d8bd bd14 adbd e8fb 1a3e 1ebf dfbd
000002c0: ca14 7e3d e277 a03d 37f2 4b3e 6852 c2bb
000002d0: 0802 f23d e057 6d3b 4bae 2abd def5 2cbe
000002e0: 9435 f1bd 3387 763d a5f8 54be e3ff 413e
000002f0: c873 293e 7e3f 203e af05 40bd d6e6 b6bd
00000300: 61fe 413e ceb0 bd3d 8102 95bd 471c 1d3e
00000310: 85a8 963b 3600 f13d 99e4 b93d 1dd6 40be
00000320: aed4 d53d b55d 073e da3a efbc 7d62 e2bd
00000330: 9632 84bd c01f 4a3d 9542 6e3d daaa e8bd
00000340: da89 1e3d fb05 8abd eb93 263e bf9f 123e
00000350: 4104 573d 0d82 dbbc 1573 1b3e dc97 2cbe
00000360: 4490 8bbd 6168 2ebe bcfb d93b fc00 9fbd
00000370: f0a9 06bd ef08 85bd cc6e 223e 93d7 043a
00000380: 4f7a c83d 49b7 67bc 4479 b4bd 5b99 913c
00000390: 1df8 e4bd 9990 203e aba1 43be 835c d8bd
000003a0: 0744 9fbd e056 e6bd 28b4 8bbd 5aac 203e
000003b0: 1997 c93d da07 ea3d 37ab a93c e39a 44be
000003c0: 4acd 2dbe db62 0b3e e18f fa3d 2e41 03be
000003d0: b8df 2cbe ed02 5a3d 2493 8b3c e992 433e
000003e0: b795 313e e766 01bd d3f6 df3d 8051 e3bc
000003f0: 8588 09be da52 eb3d 1638 c93d 0050 91ba

lstm.weight_hh_l1 f4 [128, 32]
-0.18455625 0.015698837 0.11072101 -0.026384981 -0.01686383 0.06651995 0.13089347 0.17444028
0.08801415 0.16295034 0.17644164 -0.022790035 -0.13219349 -0.01704314 0.14866178 -0.13188037
0.17846414 -0.14034161 -0.0462002 -0.039552983 0.014077379 -0.13257782 0.05887766 -0.18884788
-0.10836448 0.08223587 0.04365469 0.0500828 0.16998382 -0.18240257 -0.14899567 0.03715216
-0.14407688 0.09106045 -0.15087622 0.043672107 0.08954254 -0.12384557 -0.013887179 -0.07261788
0.1377069 0.17721058 0.047980946 0.005128712 0.13574621 0.10715417 0.014996864 0.118745774
-0.0045757154 0.14605862 -0.11503689 -0.14683674 0.09284368 -0.10729725 -0.03131466 -0.00475865
0.15807226 0.12103645 -0.046490204 -0.16308415 -0.04964512 -0.040682282 0.025181292 0.0033546325
-0.039886124 0.08677285 -0.10295051 0.12054867 0.06618112 0.026322875 -0.1657424 0.17800955
0.024931852 -0.09982753 -0.07833984 0.07521745 0.16850081 -0.17228444 0.18102936 -0.0012967988
-0.10996601 -0.052608646 0.0707494 -0.06929054 -0.052667387 0.11340976 0.08972505 0.00994717
0.075990796 -0.113427386 -0.02562091 0.15464544 -0.04878625 -0.063933834 -0.07315192 -0.1345375
0.008206724 0.098527566 0.008772731 -0.1820858 -0.019699305 -0.039505992 -0.14539404 0.1440485
0.03337518 0.093290955 -0.1607364 0.14540134 0.010047029 0.112954654 0.09724806 -0.14564022
-0.115552686 -0.11377335 -0.088202626 -0.05976226 -0.023551537 0.1413057 -0.041078925 -0.11295826
-0.16625498 0.0842194 0.084459774 0.15212269 -0.11965099 -0.020012967 0.0893159 -0.20761086
-0.13875017 0.05660903 0.06986616 0.07384488 0.054033097 -0.06395844 -0.049796008 0.16850461
-0.147081 0.026107153 -0.071548745 0.11962268 0.036989458 0.004187216 0.16601436 0.013438592
0.17650321 -0.006001045 0.15487823 0.086611174 -0.0033515017 -0.17665516 -0.1667252 0.051446516
-0.009079774 -0.016340923 -0.11629236 0.049839124 0.044202417 0.11368253 0.16283175 -0.1332445
0.052808706 0.16444783 0.07392376 -0.027740879 0.149009 -0.080975845 -0.10999351 0.054319426
0.076946765 -0.027291141 -0.06877409 -0.06821886 0.09214424 -0.09936322 0.17703362 -0.008918014
0.057887454 -0.07942062 0.02795058 0.0010193608 0.04386644 0.05294814 -0.060515486 0.012691976
-0.13213605 0.1578866 0.07911373 0.023661217 0.10934029 -0.024340454 0.014261974 -0.15825799
0.08244978 -0.0725474 0.14966083 0.13481054 -0.09774085 0.10635647 0.16052619 0.04678483
0.20379338 0.07920698 -0.043787174 0.14994311 0.08910294 0.028168034 0.1534221 0.06456654
-0.1153017 -0.13070141 -0.043224093 -0.04095161 -0.012124646 0.1470176 -0.15193978 0.06754467
-0.05782131 0.075738594 -0.15271333 -0.008398744 0.05231123 0.075494714 0.1191102 -0.117977545
-0.12593357 -0.063282564 0.05181032 -0.15015562 -0.014289254 0.09679297 0.00086308783 -0.17699698
-0.15948898 -0.09535786 0.09773607 0.11165 -0.08028901 -0.03893192 -0.08773277 -0.09117334
0.12043551 -0.045358863 -0.118413754 0.06656967 -0.04972275 -0.070582576 -0.029431248 -0.06516212
-0.069809936 0.07174337 0.11535491 0.032168128 0.14723413 -0.09446486 0.16053528 0.03313123
00000000: 50fc 3cbe d99a 803c b2c1 e23d 5125 d8bc
00000010: 0426 8abc 9d3b 883d f008 063e 79a0 323e
00000020: c340 b43d 74dc 263e 1ead 343e 2bb2 babc
00000030: bb5d 07be 0e9e 8bbc cb3a 183e a60b 07be
00000040: 4ebf 363e b6b5 0fbe 6c3c 3dbd 4f02 22bd
00000050: cfa4 663c 7bc2 07be b429 713d 5761 41be
00000060: 32ee ddbd 486b a83d 43cf 323d 9f23 4d3d
00000070: 3d10 2e3e bdc7 3abe 5292 18be dd2c 183d
00000080: e488 13be e77d ba3d 4c7f 1abe 86e1 323d
00000090: 1462 b73d bfa2 fdbd 0d87 63bc afb8 94bd
000000a0: 0a03 0d3e b176 353e ab87 443d c10e a83b
000000b0: 0e01 0b3e a573 db3d 68b5 753c fc30 f33d
000000c0: e2ef 95bb 6490 153e 7698 ebbd 5f5c 16be
000000d0: d424 be3d a9be dbbd cd43 00bd 73ee 9bbb
000000e0: b2dd 213e f5e1 f73d 836c 3ebd 88ff 26be
000000f0: ae58 4bbd 77a2 26bd ff48 ce3c 65d9 5b3b
00000100: a25f 23bd f7b5 b13d b8d7 d2bd 39e2 f63d
00000110: f889 873d 12a3 d73c 60b8 29be 2348 363e
00000120: e23d cc3c 6072 ccbd a370 a0bd 9b0b 9a3d
00000130: 7a8b 2c3e 556b 30be c35f 393e 59f9 a9ba
00000140: dc35 e1bd 2a7c 57bd 10e5 903d 33e8 8dbd
00000150: c2b9 57bd 6043 e83d c4c1 b73d 74f9 223c
00000160: 10a1 9b3d 9e4c e8bd f1e2 d1bc 605b 1e3e
00000170: 17d4 47bd beef 82bd add0 95bd 33c4 09be
00000180: 7f75 063c d2c8 c93d 80bb 0f3c b374 3abe
00000190: 7060 a1bc 09d1 21bd 2de2 14be 7381 133e
000001a0: 6ab4 083d 540f bf3d 1598 24be 17e4 143e
000001b0: 4b9c 243c c554 e73d fe29 c73d b622 15be
000001c0: e3a6 ecbd 0102 e9bd 94a3 b4bd 46c9 74bd
000001d0: 27ef c0bc 71b2 103e 6042 28bd a956 e7bd
000001e0: bf3e 2abe 397b ac3d 3ff9 ac3d 0dc6 1b3e
000001f0: 940b f5bd 3cf2 a3bc 41eb b63d f197 54be
00000200: 8614 0ebe dfde 673d fd15 8f3d fc3b 973d
00000210: cf51 5d3d a5fc 82bd e6f6 4bbd 798c 2c3e
00000220: 679c 16be abde d53c 2688 92bd bcfc f43d
00000230: 4282 173d ea34 893b abff 293e 8a2d 5c3c
00000240: 42bd 343e 6aa4 c4bb 6698 1e3e 3361 b13d
00000250: dea4 5bbb 17e5 34be 03ba 2abe 95b9 523d
00000260: 55c3 14bc 66dd 85bc b02a eebd 1c24 4c3d
00000270: 980d 353d 63d2 e83d 5ebd 263e 3f71 08be
00000280: f14d 583d 0365 283e 5765 973d d740 e3bc
00000290: d195 183e aad6 a5bd 4744 e1bd 0c7e 5e3d
000002a0: 4496 9d3d ac91 dfbc 6ed9 8cbd 54b6 8bbd
000002b0: 1fb6 bc3d f27e cbbd 4d48 353e dd1c 12bc
000002c0: 651b 6d3d 47a7 a2bd 9df8 e43c 139c 853a
000002d0: 4cad 333d 26e0 583d 16df 77bd 01f2 4f3c
000002e0: ac4e 07be 06ad 213e 6106 a23d 2bd5 c13c
000002f0: cded df3d a265 c7bc 0eab 693c 620e 22be
00000300: 6edb a83d bb93 94bd b040 193e c60b 0a3e
00000310: 5b2c c8bd 6cd1 d93d fa60 243e 73a1 3f3d
00000320: 36af 503e 4537 a23d 2e5a 33bd b08a 193e
00000330: 9a7b b63d a6c0 e63c af1a 1d3e 763b 843d
00000340: 4c23 ecbd 97d6 05be bf0b 31bd e0bc 27bd
00000350: 74a6 46bc c88b 163e 1a96 1bbe dc54 8a3d
00000360: 0ad6 6cbd d61c 9b3d e260 1cbe e39a 09bc
00000370: 4d44 563d f99c 9a3d 0cf0 f33d 369e f1bd
00000380: bbf4 00be 4a9a 81bd 0f37 543d 65c2 19be
00000390: 7a1d 6abc 653b c63d d840 623a b23e 35be
000003a0: 1451 23be fb4a c3bd d929 c83d c1a8 e43d
000003b0: 916e a4bd 1477 1fbd 3dad b3bd 17b9 babd
000003c0: e5a6 f63d 37ca 39bd e982 f2bd ae55 883d
000003d0: 15aa 4bbd 998d 90bd cd19 f1bc b873 85bd
000003e0: 83f8 8ebd 30ee 923d 323f ec3d bac2 033d
000003f0: 8bc4 163e cb76 c1bd 5c63 243e 9db4 073d

lstm.bias_ih_l1 f4 [128]
0.0046005812 -0.12279404 0.005090554 -0.13948682 0.039326534 0.14824183 -0.005690558 -0.07654324
-0.111235656 0.027730247 0.049822513 -0.038726304 0.11155899 0.024394331 -0.09898509 -0.07014675
-0.04772424 0.1743554 0.12230179 -0.06338902 -0.11231322 0.06887914 -0.009030057 0.06699323
-0.12901573 0.14054182 0.07099989 -0.099985994 0.120894074 0.09826464 0.1060919 -0.009502815
-0.014327584 0.06767869 -0.12010014 0.07688403 0.15800266 0.0058361855 -0.105671115 -0.08242728
-0.0050161732 -0.08653758 0.16951841 -0.025387226 0.09539876 0.0609258 0.0019539322 -0.03683333
0.06749277 -0.057425387 0.10865708 0.06472864 0.06666533 0.102526695 0.10349341 -0.16012669
0.14116004 -0.07086292 -0.12873755 -0.1268199 0.19983752 0.047365766 0.15522166 -0.00926185
0.090365544 -0.080820896 0.056012366 0.030978028 0.12101351 0.059847005 -0.07975512 0.14580622
-0.10265452 -0.029982276 0.13795249 0.13645498 -0.058690544 0.08586828 0.04613365 0.09369254
0.03716745 0.14673753 -0.10701639 0.11529768 -0.023636855 -0.0025648286 -0.14981629 -0.16975975
-0.09868904 -0.15146789 -0.1611915 -0.05067983 0.09088543 -0.01772114 -0.06542586 -0.07785594
-0.049821023 -0.028319119 0.026866684 0.041116945 -0.15450643 -0.07733989 -0.04581299 0.1640697
0.17053136 0.12745422 0.073691756 0.031955402 0.19077818 0.13397986 0.1035708 -0.020734968
-0.028114943 0.1696482 -0.12284279 0.101069376 0.11126165 0.016532542 0.13389163 0.11685573
-0.13932738 0.006474654 0.071674526 0.010029978 0.19300877 -0.051670518 0.089798026 -0.06411711
00000000: 79c0 963b 717b fbbd a9ce a63b a2d5 0ebe
00000010: dc14 213d b5cc 173e dc77 babb b4c2 9cbd
00000020: 85cf e3bd 8b2a e33c b112 4c3d 799f 1ebd
00000030: 0a79 e43d 9fd6 c73c b2b8 cabd 19a9 8fbd
00000040: 7e7a 43bd 398a 323e 5c79 fa3d 1ad2 81bd
00000050: 7904 e6bd 8210 8d3d cef2 13bc bf33 893d
00000060: b31c 04be 32ea 0f3e 6468 913d 75c5 ccbd
00000070: 5097 f73d f93e c93d b646 d93d b2b1 1bbc
00000080: 3ebe 6abc 209b 8a3d 10f7 f5bd 6075 9d3d
00000090: 73cb 213e 793d bf3b 196a d8bd a2cf a8bd
000000a0: b65e a4bb 9d3a b1bd 3c96 2d3e dff8 cfbc
000000b0: 6d60 c33d 558d 793d 8b0d 003b 8cde 16bd
000000c0: a639 8a3d e236 6bbd 9a87 de3d 7390 843d
000000d0: d587 883d 84f9 d13d 5af4 d33d 40f8 23be
000000e0: 428c 103e 9420 91bd c7d3 03be 13dd 01be
000000f0: 35a2 4c3e 9b02 423d 6df2 1e3e 04bf 17bc
00000100: 9211 b93d 6d85 a5bd 396d 653d a2c5 fd3c
00000110: eed5 f73d 2222 753d a756 a3bd 3a4e 153e
00000120: 883c d2bd 649d f5bc 6b43 0d3e dbba 0b3e
00000130: 7f65 70bd b5db af3d a3f6 3c3d e0e1 bf3d
00000140: e53c 183d 5d42 163e 692b dbbd 3121 ec3d
00000150: 14a2 c1bc af16 28bb 7169 19be 80d5 2dbe
00000160: 7b1d cabd 661a 1bbe 620f 25be a795 4fbd
00000170: 2422 ba3d ed2b 91bc fefd 85bd ef72 9fbd
00000180: 2111 4cbd 7ffd e7bc 8517 dc3c 3e6a 283d
00000190: ef36 1ebe 6064 9ebd 67a6 3bbd e301 283e
000001a0: c69f 2e3e 5c83 023e b4eb 963d abe3 023d
000001b0: 5b5b 433e 0432 093e ed1c d43d 61dc a9bc
000001c0: 4f51 e6bc 42b8 2d3e 0095 fbbd 76fd ce3d
000001d0: 26dd e33d 416f 873c e31a 093e 0f52 ef3d
000001e0: d6ab 0ebe 5629 d43b 18ca 923d c754 243c
000001f0: 17a4 453e 77a4 53bd 07e8 b73d d54f 83bd

lstm.bias_hh_l1 f4 [128]
-0.153133 0.12557362 0.18711986 0.09333457 -0.12228152 -0.045672834 0.1155382 0.1556905
-0.053133924 0.15402564 -0.007697938 0.029576378 -0.07590914 -0.102594845 -0.018854043 0.13138974
0.09809646 0.17496437 0.05018646 0.105117366 -0.083003536 0.0032342183 0.010643362 -0.049788136
0.17339091 -0.11083151 0.19663076 -0.051526055 0.14053605 -0.13924883 0.022686869 0.081509106
-0.05761299 0.042440187 0.12429769 -0.035543177 0.02446304 0.10715326 -0.092082925 0.033046454
0.033662837 0.12904674 0.06981286 0.10937942 -0.016691571 0.049738247 -0.0019012089 0.05798032
0.086113274 0.052746832 0.005653246 -0.05771985 0.15475862 0.18649139 0.117635675 0.029694248
0.058750268 -0.10014324 -0.12560351 -0.047450066 0.10341765 -0.13065015 0.009546486 -0.13707036
-0.0055280034 0.13167386 0.08240671 -0.13836326 -0.16721219 0.13554423 -0.15186422 0.12886399
-0.11967257 0.102473214 -0.10691262 0.14209236 -0.006227213 -0.13757432 -0.055928357 -0.043867458
-0.1297227 -0.14450946 -0.0030981055 0.04162275 0.15362537 -0.13044916 -0.10987473 0.08822822
-0.005443092 -0.110663414 -0.041085936 0.1562393 0.01681506 0.04041012 -0.03258297 -0.083753735
0.017633805 -0.04986331 0.12726548 0.14580943 0.06530856 0.1639257 0.08410237 -0.06879696
-0.10102254 0.19587845 -0.010959684 0.060709916 0.041059427 0.17477286 0.16777967 0.09287392
0.06876102 0.018706432 -0.102748275 -0.07569 0.16560866 -0.08524826 -0.10881885 -0.062039763
-0.15403336 0.024819233 0.08718683 0.019251555 -0.105638236 0.04096697 -0.15220703 -0.13271247
00000000: e6ce 1cbe 5f96 003e 599c 3f3e 3226 bf3d
00000010: bc6e fabd 7013 3bbd 4b9f ec3d 556d 1f3e
00000020: f5a2 59bd e6b8 1d3e fc3e fcbb 294a f23c
00000030: 4076 9bbd 3f1d d2bd cb73 9abc 088b 063e
00000040: cce6 c83d dc29 333e 5190 4d3d c647 d73d
00000050: c2fd a9bd 2ef5 533b 7f61 2e3c a5ee 4bbd
00000060: 638d 313e a1fb e2bd 9359 493e fc0c 53bd
00000070: afe8 0f3e 3f97 0ebe d0d9 b93c 3fee a63d
00000080: 99fb 6bbd c3d5 2d3d ca8f fe3d b995 11bd
00000090: b766 c83c 2b73 db3d f995 bcbd b85b 073d
000000a0: 0be2 093d d424 043e 0bfa 8e3d 5102 e03d
000000b0: c3bc 88bc 55ba 4b3d fc31 f9ba c67c 6d3d
000000c0: 285c b03d 100d 583d dd3e b93b a66b 6cbd
000000d0: 0b79 1e3e 99f7 3e3e f9ea f03d 5a41 f33c
000000e0: 1fa4 703d e617 cdbd 359e 00be 005b 42bd
000000f0: a2cc d33d 27c9 05be dd68 1c3c 2c5c 0cbe
00000100: 4124 b5bb 83d5 063e d9c4 a83d 19af 0dbe
00000110: ac39 2bbe 1bcc 0a3e 4b82 1bbe ecf4 033e
00000120: e416 f5bd 7add d13d 01f5 dabd a980 113e
00000130: a60d ccbb 48e0 0cbe 2215 65bd 5dae 33bd
00000140: 07d6 04be 4afa 13be 9609 4bbb 9e7c 2a3d
00000150: f84f 1d3e 7794 05be 0106 e1bd ffb0 b43d
00000160: f75b b2bb 80a3 e2bd ba49 28bd 32fd 1f3e
00000170: bdbf 893c 1585 253d b875 05bd 1487 abbd
00000180: c574 903c 783d 4cbd e251 023e 114f 153e
00000190: 7fc0 853d 24dc 273e dd3d ac3d 6ce5 8cbd
000001a0: e8e4 cebd 5c94 483e 3f90 33bc f6aa 783d
000001b0: ee2d 283d a8f7 323e 6fce 2b3e af34 be3d
000001c0: 94d2 8c3d 3b3e 993c b06d d2bd 5c03 9bbd
000001d0: 5195 293e a496 aebd 6bdc debd 681d 7ebd
000001e0: ecba 1dbe b451 cb3c 028f b23d 70b5 9d3c
000001f0: dc58 d8bd fbcc 273d 29dc 1bbe c7e5 07be

lstm.weight_ih_l2 f4 [128, 32]
0.049607296 -0.07899172 0.16599645 0.025634583 -0.030887593 0.041291784 -0.075786024 0.10216577
-0.09179132 -0.04482963 -0.07378683 -0.0070835236 0.13291395 -0.06735441 0.19004183 0.13689956
0.014219373 0.11093753 0.03138492 0.00065832946 -0.039004263 -0.017388664 -0.08765529 -0.017934235
0.10995796 0.017348878 -0.12634493 0.1061371 0.08282599 -0.039611135 0.0014273232 -0.101495035
-0.08070609 0.15968092 0.16951135 -0.030450834 0.083223656 -0.0013629082 0.08031901 -0.15064956
-0.09958204 0.17367947 -0.13009548 -0.13533342 0.04181153 0.16281432 0.020032136 -0.09785895
0.016438236 0.044766758 0.100023374 0.1626534 0.069216214 -0.001154039 -0.14382951 0.17277004
-0.13781771 -0.018389106 0.025166163 -0.08772036 -0.06556583 0.034343854 -0.045455184 0.12393527
-0.07949497 0.011628308 -0.02458995 -0.19101597 0.15107481 -0.07835049 -0.08995221 -0.017184272
0.18553846 -0.054922607 -0.018784808 -0.034171935 -0.0067288885 0.1301179 -0.07756317 -0.03849502
-0.054517843 0.0035545956 -0.12183875 -0.04472305 -0.09003744 0.14213927 0.1023822 -0.08964051
0.09862247 -0.01436993 -0.18622173 -0.014731328 0.07692728 0.031100215 -0.07259848 0.10021674
-0.13974085 0.0880746 0.14359042 -0.16806573 0.11094244 0.14270511 0.034172185 -0.03596401
-0.11898485 0.090453066 0.15973555 -0.122680865 0.16072942 0.15644257 0.18436025 0.07666257
0.082332455 0.01794049 -0.041382257 -0.066688426 -0.14273213 0.058384426 0.11934137 -0.005713948
-0.08904164 -0.041603938 -0.15161124 0.12376223 0.031068321 -0.08548571 -0.012336137 -0.16395433
-0.084733404 0.054840636 -0.009810797 -0.16280751 0.0035035724 -0.14249189 -0.08902055 -0.016965345
0.052774183 0.14663476 0.21138075 0.18069246 -0.14334778 0.12600374 0.05504876 -0.057538066
-0.15851665 0.11174693 0.039216664 0.13761039 0.009133943 0.10657436 0.0376337 -0.041810043
-0.053425647 0.15158918 -0.16973177 -0.053898178 0.20992477 0.10868845 0.02602113 -0.15747532
-0.19776134 0.1148006 0.18223703 -0.07116977 0.050894376 0.007048841 0.0907896 -0.020227902
0.15295601 0.12686788 -0.023073433 -0.020592202 0.04922921 0.124123216 -0.027462266 0.0602767
-0.14018315 -0.119962476 -0.12004414 -0.13464005 -0.14408681 0.15105473 -0.11955271 -0.116448924
-0.16356912 -0.095774084 0.016349612 0.19364955 -0.03634877 0.04622772 0.12542853 -0.118868545
0.11151581 0.02528731 0.08604089 -0.15882339 -0.071679264 0.028328687 -0.09307411 -0.042941082
-0.025478065 -0.044971652 -0.13488734 0.18720968 0.08281861 -0.0012386908 0.15976238 -0.15497242
0.020980367 -0.10140582 0.0027980723 0.08689738 -0.03766374 0.13049603 0.07670304 -0.14664216
-0.116755374 0.18004595 0.010761357 0.08455243 0.20326152 -0.15363592 0.13926761 -0.0021510606
0.0038073778 -0.12403437 0.16578785 0.11742828 -0.075524606 -0.12213557 0.12757322 -0.021323115
0.11378789 -0.02273147 -0.06601937 0.01256861 -0.020851063 0.11472811 0.0006888709 0.14724772
-0.14923261 0.06126733 -0.044796254 0.058372788 0.094336845 -0.16490702 -0.030857997 -0.19423935
-0.13393879 0.040175743 -0.008613487 -0.10095795 -0.07006075 0.027945263 0.11838421 0.12502216
00000000: 0531 4b3d 69c6 a1bd f9fa 293e 9eff d13c
00000010: fa07 fdbc 9321 293d b435 9bbd 4a3c d13d
00000020: 16fd bbbd 469f 37bd 8d1d 97bd e71c e8bb
00000030: 981a 083e 1cf1 89bd 539a 423e 662f 0c3e
00000040: 60f8 683c 3733 e33d 798d 003d be93 2c3a
00000050: efc2 1fbd ac72 8ebc 9e84 b3bd d1ea 92bc
00000060: a431 e13d 3c1f 8e3c 9160 01be 685e d93d
00000070: aca0 a93d 493f 22bd 0515 bb3a a1dc cfbd
00000080: 3c49 a5bd 6583 233e 6294 2d3e 0774 f9bc
00000090: 2a71 aa3d 9ca3 b2ba 4b7e a43d e143 1abe
000000a0: abf1 cbbd 08d9 313e c037 05be d894 0abe
000000b0: 9142 2b3d ccb8 263e 6f1a a43c 466a c8bd
000000c0: 7ba9 863c 595d 373d 0ed9 cc3d 9d8e 263e
000000d0: 3bc1 8d3d 2043 97ba 0b48 13be a1ea 303e
000000e0: 1620 0dbe c0a4 96bc 4529 ce3c bba6 b3bd
000000f0: 6147 86bd 24ac 0c3d 372f 3abd c6d1 fd3d
00000100: 42ce a2bd a984 3e3c dd70 c9bc b199 43be
00000110: 5bb3 1a3e 3976 a0bd dd38 b8bd 08c6 8cbc
00000120: cbfd 3d3e 87f6 60bd 99e2 99bc dff7 0bbd
00000130: 027e dcbb a03d 053e 70d9 9ebd f4ac 1dbd
00000140: 1a4e 5fbd 38f4 683b 9886 f9bd 842f 37bd
00000150: 8d65 b8bd f58c 113e c2ad d13d 7295 b7bd
00000160: 94fa c93d db6f 6bbc e9b0 3ebe ab5b 71bc
00000170: 0d8c 9d3d e1c5 fe3c 83ae 94bd 6f3e cd3d
00000180: 3a18 0fbe 7560 b43d 5e09 133e 6c19 2cbe
00000190: ca35 e33d 4a21 123e 22f8 0b3d ff4e 13bd
000001a0: 54ae f3bd 753f b93d b791 233e 1b40 fbbd
000001b0: 4196 243e 7b32 203e efc8 3c3e 4401 9d3d
000001c0: eb9d a83d eff7 923c 7180 29bd f193 88bd
000001d0: 5f28 12be 8224 6f3d 4069 f43d 123c bbbb
000001e0: 775b b6bd e468 2abd fa3f 1bbe 0d77 fd3d
000001f0: fe82 fe3c 2213 afbd 821d 4abc a5e3 27be
00000200: b588 adbd 93a0 603d 77bd 20bc 03b7 26be
00000210: 319c 653b 65e9 11be 6850 b6bd e8fa 8abc
00000220: be29 583d 6c27 163e 3274 583e 7207 393e
00000230: c3c9 12be 2007 013e cf7a 613d 09ad 6bbd
00000240: 3052 22be 93db e43d a7a1 203d bde9 0c3e
00000250: 89a6 153c a843 da3d cb25 1a3d 0241 2bbd
00000260: dad4 5abd 323a 1b3e 2ace 2dbe 56c4 5cbd
00000270: 85f6 563e 0d98 de3d 442a d53c 3641 21be
00000280: f381 4abe 941c eb3d 589c 3a3e 75c1 91bd
00000290: 9f76 503d f7f9 e63b e6ef b93d fcb4 a5bc
000002a0: 80a0 1c3e a7e9 013e 7f04 bdbc fab0 a8bc
000002b0: 91a4 493d 5034 fe3d 8cf8 e0bc b3e4 763d
000002c0: 2c8c 0fbe e3ae f5bd b4d9 f5bd 15df 09be
000002d0: 7e8b 13be 17ae 1a3e 0dd8 f4bd c67c eebd
000002e0: aa7e 27be 3425 c4bd 9fef 853c 114c 463e
000002f0: 73e2 14bd 4759 3d3d 5670 003e 5a71 f3bd
00000300: 6762 e43d 5527 cf3c 3536 b03d 99a2 22be
00000310: 94cc 92bd 9011 e83c a49d bebd fde2 2fbd
00000320: 60b7 d0bc 3234 38bd e81f 0abe e5b3 3f3e
00000330: ce9c a93d 915b a2ba c098 233e 17b1 1ebe
00000340: 05df ab3c dbad cfbd dd5f 373b 41f7 b13d
00000350: 4b45 1abd c0a0 053e 7c16 9d3d 5d29 16be
00000360: 711d efbd f75d 383e 6750 303c d329 ad3d
00000370: ca23 503e bc52 1dbe 2b9c 0e3e cff8 0cbb
00000380: 3385 793b bb05 febd 4ac4 293e 3d7e f03d
00000390: a5ac 9abd 3722 fabd 8ea2 023e d0ad aebc
000003a0: a009 e93d 5937 babc 2a35 87bd 92ec 4d3c
000003b0: d9cf aabc 92f6 ea3d 5895 343a 1bc8 163e
000003c0: 6fd0 18be 74f3 7a3d 477c 37bd 4e18 6f3d
000003d0: ad33 c13d 63dd 28be e9c9 fcbc aee6 46be
000003e0: 4027 09be 528f 243d 951f 0dbc 0bc3 cebd
000003f0: 037c 8fbd 77ed e43c 6c73 f23d cf05 003e

lstm.weight_hh_l2 f4 [128, 32]
-0.012378176 -0.034978993 -0.008733853 -0.10482781 -0.059872676 -0.07863258 -0.10524711 0.16631712
-0.08989037 0.15008433 0.10233212 -0.09122937 0.17637563 0.057675958 -0.11817179 -0.14321335
0.008862629 0.08044807 -0.11657808 -0.06069921 0.14608164 0.15725468 -0.08773386 -0.04316005
-0.11764818 0.17893872 -0.017452635 0.16666982 0.1146312 0.00036155293 -0.14625663 -0.18494323
-0.09566289 -0.112509206 0.09825941 0.16169152 -0.055977836 0.08813026 0.030729119 -0.17722352
0.086311795 0.0032148473 -0.015215515 -0.023662288 0.028979883 -0.12014756 -0.08178249 -0.033830352
-0.05794055 -0.010273611 -0.13009082 0.12441369 -0.0144757945 0.1655222 0.0054883673 0.17812252
-0.07244584 0.048934795 0.16832536 0.14094652 0.10720888 0.12787484 0.13869794 0.06377941
0.057255924 0.081452735 0.07405581 0.033778634 -0.08852265 0.1522475 -0.17674325 0.022298913
-0.10500246 0.01909068 0.15882942 0.09322757 -0.043058444 0.13250613 -0.032257266 -0.021774892
0.07141712 -0.14228228 0.0038340164 -0.00560323 0.090891734 0.10845808 0.13315202 0.033137042
0.04753368 0.067754515 0.14948061 0.09204398 -0.073406026 0.18694773 0.030195262 0.014027319
0.010971828 0.08126963 0.009678052 -0.15672 0.0015024791 0.04120887 -0.10748898 -0.07455557
0.01602579 -0.083223924 0.06743798 -0.010861927 -0.032169696 0.11231555 -0.037964724 -0.020082757
-0.16423297 0.0036917434 0.12360323 0.11718094 0.12829804 -0.010902829 -0.044951007 0.059548974
0.14363341 -0.035494976 -0.12661639 0.090268046 0.10902904 -0.12917349 0.063919626 0.068817094
-0.07120088 0.017479533 0.13826331 0.14971228 -0.023832213 0.027668254 0.13294126 0.14760174
0.10298684 -0.063016936 0.062357962 0.0032460708 0.09019218 -0.017645335 0.022397732 0.12973055
-0.022188 -0.069062375 -0.120625466 -0.13797477 0.034854017 -0.041081097 0.1051051 0.17217933
-0.14542161 0.12382059 -0.061656423 -0.121665604 0.16099732 -0.0004797289 0.019451717 0.09802682
0.19125831 -0.0035243777 0.06233432 -0.033594444 -0.06687131 -0.026215024 0.01987704 0.11328555
0.19927552 0.03629544 0.11443775 -0.13780959 0.042964533 -0.053829744 -0.039042305 0.16911742
0.08575249 0.028878124 -0.03954937 0.07709718 -0.095843114 0.1659822 0.05016162 -0.044972006
-0.08478438 0.0034686695 -0.1768565 0.18241934 0.018302057 0.07660563 0.12538852 -0.08833329
-0.06342634 0.07409057 0.0516839 0.009613519 -0.01879047 0.022753531 0.04202438 0.026224634
0.1906897 -0.023081644 0.130566 -0.009926711 -0.09115868 -0.07310979 0.03957942 -0.039941836
0.13949579 -0.052901607 -0.0413706 0.094575 0.021229379 0.05964568 -0.09455237 0.014777703
0.069196075 0.1391315 -0.08554763 -0.08707759 -0.096915804 0.1338557 -0.06338193 0.051986884
-0.026694434 -0.018851504 0.10630583 0.031194225 0.0028067783 -0.017354812 0.11320084 -0.016278556
0.0012851876 -0.09384389 -0.09785504 0.15319547 0.058030352 0.06227944 -0.122201785 -0.010692755
-0.08859599 0.1641504 -0.055811927 0.07951722 -0.034467038 0.064247414 0.031063857 0.09338805
-0.07482435 -0.101591215 -0.015704269 0.16917527 -0.060305346 0.008644566 -0.010265066 -0.06632391
00000000: d5cd 4abc 2246 0fbd 6f18 0fbc f6af d6bd
00000010: 0d3d 75bd 1e0a a1bd cc8b d7bd 094f 2a3e
00000020: 7118 b8bd b5af 193e 8193 d13d 77d6 babd
00000030: d09b 343e a03d 6c3d 0d04 f2bd 85a6 12be
00000040: 8f34 113c f5c1 a43d 7dc0 eebd bc9f 78bd
00000050: 6d96 153e 5f07 213e cfad b3bd 98c8 30bd
00000060: 87f1 f0bd b63b 373e d4f8 8ebc 7eab 2a3e
00000070: c3c3 ea3d d08e bd39 4cc4 15be c261 3dbe
00000080: e8ea c3bd 3a6b e6bd 3b3c c93d 7692 253e
00000090: 0449 65bd a37d b43d a2bb fb3c 157a 35be
000000a0: 3dc4 b03d 30b0 523b 7f4a 79bc 6ad7 c1bc
000000b0: 3867 ed3c ed0f f6bd 947d a7bd b291 0abd
000000c0: 1253 6dbd a652 28bc 8736 05be 9bcc fe3d
000000d0: e22b 6dbc a77e 293e c3d7 b33b c065 363e
000000e0: 7c5e 94bd da6f 483d 7c5d 2c3e 4954 103e
000000f0: 5490 db3d 9ff1 023e d506 0e3e c89e 823d
00000100: 3085 6a3d b1d0 a63d 93aa 973d 775b 0a3d
00000110: 5d4b b5bd c5e6 1b3e 2ffc 34be 36ac b63c
00000120: 880b d7bd 0f64 9c3c 2ea4 223e 19ee be3d
00000130: 0d5e 30bd b0af 073e 3220 04bd 4261 b2bc
00000140: 2443 923d 72b2 11be 1f44 7b3b 4d9b b7bb
00000150: 7225 ba3d 451f de3d 0159 083e b5ba 073d
00000160: adb2 423d e1c2 8a3d 7211 193e 8e81 bc3d
00000170: e655 96bd 3a6f 3f3e 0e5c f73c d7d2 653c
00000180: 2fc3 333c b170 a63d b190 1e3c 357b 20be
00000190: d5ee c43a a2ca 283d 2f23 dcbd 97b0 98bd
000001a0: 8448 833c 4e71 aabd ec1c 8a3d 39f6 31bc
000001b0: 5fc4 03bd b205 e63d e680 1bbd 9884 a4bc
000001c0: b02c 28be 2df1 713b b123 fd3d 90fc ef3d
000001d0: 9060 033e c7a1 32bc 8c1e 38bd a0e9 733d
000001e0: a314 133e 2e63 11bd baa7 01be 74de b83d
000001f0: 9e4a df3d 0e46 04be 4be8 823d faef 8c3d
00000200: c4d1 91bd 3d31 8f3c e694 0d3e 2d4e 193e
00000210: c63b c3bc 89a8 e23c c121 083e e924 173e
00000220: c4ea d23d 060f 81bd 106b 7f3d 08bc 543b
00000230: adb6 b83d f38c 90bc 737b b73c 16d8 043e
00000240: 9cc3 b5bc 9370 8dbd 7c0a f7bd 4249 0dbe
00000250: 16c3 0e3d a744 28bd 5841 d73d c74f 303e
00000260: 67e9 14be a695 fd3d 728b 7cbd d12b f9bd
00000270: 7bdc 243e 1f84 fbb9 3559 9f3c 49c2 c83d
00000280: 38d9 433e 3ff9 66bb 4652 7f3d 549a 09bd
00000290: d3f3 88bd e4c0 d6bc 2dd5 a23c 4102 e83d
000002a0: e20e 4c3e 87aa 143d 575e ea3d f51d 0dbe
000002b0: 94fb 2f3d 947c 5cbd d3ea 1fbd 1e2d 2d3e
000002c0: 009f af3d d191 ec3c 85fe 21bd 20e5 9d3d
000002d0: 6549 c4bd 3df7 293e 4576 4d3d 9134 38bd
000002e0: 6fa3 adbd 9e52 633b df19 35be 23cc 3a3e
000002f0: 32ee 953c 6ae3 9c3d d965 003e 15e8 b4bd
00000300: abe5 81bd ccbc 973d 7fb2 533d 0582 1d3c
00000310: 79ee 99bc 9d65 ba3c c221 2c3d 0bd5 d63c
00000320: 2944 433e b715 bdbc 18b3 053e a5a3 22bc
00000330: 67b1 babd 96ba 95bd 081e 223d 0d9a 23bd
00000340: fcd7 0e3e 5baf 58bd 3874 29bd 8ab0 c13d
00000350: 3ce9 ad3c 074f 743d aca4 c1bd 2e1e 723c
00000360: acb6 8d3d 7d78 0e3e 9933 afbd bc55 b2bd
00000370: cb7b c6bd 7811 093e 63ce 81bd 33f0 543d
00000380: 49ae dabc 786e 9abc dfb6 d93d 088b ff3c
00000390: edf1 373b ae2b 8ebc d8d5 e73d 9b5a 85bc
000003a0: bd73 a83a 3a31 c0bd 3968 c8bd 46df 1c3e
000003b0: 3cb1 6d3d ba18 7f3d ee44 fabd aa30 2fbc
000003c0: d071 b5bd 0b17 283e 0c9b 64bd edd9 a23d
000003d0: 4f2d 0dbd 2694 833d a179 fe3c 3c42 bf3d
000003e0: 823d 99bd 0e0f d0bd 3da6 80bc 483c 2d3e
000003f0: bd02 77bd f0a1 0d3c cf2e 28bc d5d4 87bd
