pv/checkpoints/삼성환경동-checkpoint-2023-08-10 23_00.pt (torch, 304877 bytes, 38 tensors)

lstm.weight_ih_l0 f4 [128, 17]
0.18001464 0.0986237 -0.07638445 0.05523711 0.08839407 0.19542265 0.01366882 0.076218754
0.13746046 0.05542406 -0.15225294 -0.024623325 0.007926163 -0.008011669 -0.17418402 -0.06021422
-0.07006775 -0.06745305 0.08100716 0.15337601 0.18213935 0.14292242 0.08571238 0.08660331
-0.09598777 0.153358 -0.032222982 -0.033937264 0.058475032 0.03792111 0.04593466 -0.08985879
-0.016041871 -0.085196316 -0.12274649 -0.12291953 0.11033273 0.122505695 -0.14082927 0.1408205
-0.089265384 0.02759841 0.0029183354 -0.05347754 -0.088819854 -0.014020824 -0.113042876 0.017638382
-0.17463481 -0.06323443 0.013690537 0.09322268 0.13716854 -0.041551102 0.10883417 0.08253956
-0.11023785 0.0070369756 -0.08846979 -0.07180177 -0.09970282 0.069410786 -0.16510703 0.12555626
-0.053167176 -0.10780778 0.16781183 0.035826877 -0.15969615 0.11429029 0.050735254 0.06353534
-0.07960122 0.058042027 -0.14901689 -0.095082305 0.05657715 -0.044536732 -0.12993781 0.05260916
0.1497442 -0.13660371 -0.039105278 0.03380451 -0.013670568 0.018488716 -0.014198515 -0.15604696
-0.04731772 -0.09220375 0.19704282 -0.06750034 -0.07093634 -0.14317934 0.05564322 0.06712567
0.09053683 0.16398792 -0.047758356 -0.087431 0.051755965 -0.023437161 0.05969963 -0.0043553766
0.05470119 0.18989016 0.04937526 -0.063677095 -0.037431847 -0.15660715 0.17999586 -0.07287522
0.18469273 0.18002965 0.095389955 0.1565239 0.072461724 0.09893873 -0.120991856 0.11654136
-0.015486291 0.114473976 -0.04251739 0.027347814 -0.073493816 -0.029835021 0.021971872 0.070256405
0.07038452 0.12878054 -0.121427685 -0.013033468 0.0949592 -0.1598314 0.11733254 0.1168288
-0.08540696 0.07855841 -0.017692463 0.17542438 -0.087353595 0.0106285475 -0.045356847 0.14371067
0.029244479 -0.07391838 0.15381111 -0.007439126 0.11755411 -0.14625522 0.016043434 0.10211445
-0.015332333 -0.029998517 0.19261566 -0.1283794 -0.085809976 0.058178462 -0.12289833 -0.06020081
-0.10967022 -0.090773575 0.009981812 0.045983594 0.10701129 0.00042408676 0.095274545 0.022846099
-0.04029426 -0.07457097 -0.17067535 0.15255985 -0.12519473 -0.14233533 0.056879964 -0.112395346
-0.09454787 -0.14312835 -0.04265102 -0.091356605 0.13032909 -0.08980746 -0.118902095 0.1618325
0.037740935 0.17606686 -0.018965377 0.14508344 0.1695124 0.028350072 -0.06724646 0.009224772
0.15369684 0.080421485 0.0412362 -0.1530021 -0.08937255 -0.05169346 -0.0053683794 0.08411609
-0.12900493 0.12871352 -0.10178721 -0.042390876 0.15300022 0.027072877 -0.10750787 -0.08848997
0.021005992 0.105309136 0.14279674 -0.08864155 -0.021094054 -0.09434119 -0.17084853 0.017625446
-0.102621645 -0.13391177 0.12275146 -0.13829054 -0.10472679 -0.06713016 -0.091460876 0.050782315
0.09287451 -0.033896208 0.04650022 -0.08093132 -0.12507638 0.013191296 0.16216905 -0.11983302
0.05770396 0.16589487 0.10494839 0.06392038 -0.061233208 0.12983264 0.06423505 0.13125604
-0.15514529 0.09054612 0.06866752 0.035645463 0.0797747 -0.14514421 -0.08005898 0.020098878
0.038298167 -0.053770717 0.1251309 0.07380756 0.0035197525 -0.17215288 0.074365854 -0.15502194
00000000: c255 383e 39fb c93d 736f 9cbd 4f40 623d
00000010: f307 b53d e01c 483e 30f3 5f3c 9418 9c3d
00000020: 6fc2 0c3e 5704 633d 32e8 1bbe dbb6 c9bc
00000030: bddc 013c 6043 03bc 4c5d 32be 30a3 76bd
00000040: ae7f 8fbd d324 8abd 15e7 a53d 9a0e 1d3e
00000050: bd82 3a3e 415a 123e f989 af3d 145d b13d
00000060: 3c95 c4bd e109 1d3e 3ffc 03bd cd01 0bbd
00000070: 8483 6f3d 2a53 1b3d fb25 3c3d e307 b8bd
00000080: 3e6a 83bc 687b aebd 8362 fbbd 3cbd fbbd
00000090: 20f6 e13d 44e4 fa3d 8c35 10be 4033 103e
000000a0: c5d0 b6bd 1016 e23c 8b41 3f3b 440b 5bbd
000000b0: 2fe7 b5bd 99b7 65bc 0683 e7bd 5e7e 903c
000000c0: 78d3 32be 0e81 81bd 464e 603c 88eb be3d
000000d0: e975 0c3e 7d31 2abd 73e4 de3d 800a a93d
000000e0: 62c4 e1bd 6e96 e63b a62f b5bd ce0c 93bd
000000f0: fe30 ccbd 3e27 8e3d d111 29be d291 003e
00000100: d3c5 59bd 53ca dcbd ddd6 2b3e 34bf 123d
00000110: 6387 23be 0711 ea3d c5cf 4f3d d11e 823d
00000120: f705 a3bd 7abd 6d3d e297 18be 83ba c2bd
00000130: 71bd 673d 266c 36bd 6b0e 05be b47c 573d
00000140: 8b56 193e d8e1 0bbe db2c 20bd 9976 0a3d
00000150: 85fa 5fbc a675 973c e3a0 68bc c6ca 1fbe
00000160: 3ad0 41bd 52d5 bcbd 98c5 493e 9e3d 8abd
00000170: 1247 91bd 9b9d 12be 25ea 633d 2f79 893d
00000180: 606b b93d 73ec 273e 449e 43bd 060f b3bd
00000190: 10fe 533d 4aff bfbc 9987 743d 8cb7 8ebb
000001a0: 5b0e 603d 9172 423e b63d 4a3d 2369 82bd
000001b0: 2352 19bd a05d 20be d650 383e 9a3f 95bd
000001c0: 1720 3d3e b159 383e cf5b c33d cd47 203e
000001d0: d066 943d 64a0 ca3d 94ca f7bd 3dad ee3d
000001e0: 36ba 7dbc 5571 ea3d b726 2ebd 8608 e03c
000001f0: ed83 96bd 9368 f4bc 5bfe b33c 97e2 8f3d
00000200: c225 903d 0cdf 033e 14af f8bd 548a 55bc
00000210: f879 c23d d8aa 23be 0b4c f03d f043 ef3d
00000220: d8e9 aebd 3be3 a03d c9ef 90bc 73a2 333e
00000230: 71e6 b2bd 5c23 2e3c 1ac8 39bd e428 133e
00000240: 1e92 ef3c 8562 97bd a980 1d3e e9c3 f3bb
00000250: 36c0 f03d eec3 15be 856d 833c 6121 d13d
00000260: 7734 7bbc 73bf f5bc 0a3d 453e e475 03be
00000270: 24bd afbd 8a4c 6e3d 1fb2 fbbd 2095 76bd
00000280: c89a e0bd 7fe7 b9bd c18a 233c 4b59 3c3d
00000290: bc28 db3d f657 de39 4d1f c33d be27 bb3c
000002a0: 980b 25bd aab8 98bd 85c5 2ebe a638 1c3e
000002b0: 0c33 00be 5ac0 11be f7fa 683d 882f e6bd
000002c0: 50a2 c1bd 3d90 12be d6b2 2ebd 2c19 bbbd
000002d0: fd74 053e f9ec b7bd f182 f3bd 6bb7 253e
000002e0: 3d96 1a3d df4a 343e 475d 9bbc c190 143e
000002f0: a994 2d3e 693e e83c 83b8 89bd 8023 173c
00000300: b462 1d3e 05b4 a43d 4ae7 283d 95ac 1cbe
00000310: f508 b7bd 86bc 53bd 3be9 afbb 0e45 ac3d
00000320: de19 04be 7acd 033e d075 d0bd 0ea2 2dbd
00000330: 17ac 1c3e f0c7 dd3c 162d dcbd 3b3a b5bd
00000340: c214 ac3c 51ac d73d 4f39 123e b389 b5bd
00000350: 70cd acbc f435 c1bd ebf2 2ebe 3d63 903c
00000360: 4c2b d2bd 2b20 09be 1e65 fb3d 099c 0dbe
00000370: 007b d6bd 8a7b 89bd d74f bbbd 1e01 503d
00000380: fe34 be3d c0d6 0abd 0477 3e3d 52bf a5bd
00000390: 0614 00be 4e20 583c a50f 263e 046b f5bd
000003a0: fd5a 6c3d 58e0 293e 2eef d63d b0e8 823d
000003b0: accf 7abd d9f2 043e aa8d 833d fc67 063e
000003c0: 68de 1ebe 3f70 b93d 8fa1 8c3d fa00 123d
000003d0: eb60 a33d afa0 14be f6f5 a3bd 67a6 a43c
000003e0: 8ade 1c3d af3e 5cbd 5122 003e 6b28 973d
000003f0: a6ab 663b d848 30be 204d 983d 12be 1ebe

lstm.weight_hh_l0 f4 [128, 32]
-0.10608701 -0.1509956 0.020661158 -0.07789883 -0.08036775 0.005468433 0.123982534 -0.064908616
0.06361292 -0.12028217 0.10839384 0.095344365 0.037638105 0.15879446 -0.07380099 0.123008445
-0.092951916 0.117368266 -0.14954352 0.029525613 0.13152492 -0.098375976 -0.08125138 -0.1413533
0.09481582 -0.022835903 0.016212966 -0.08382538 0.17036013 -0.028259099 -0.028032076 -0.022917846
0.15330759 0.0812092 0.057802018 -0.054901604 0.0994487 0.14900175 -0.043090507 -0.020603402
0.11496923 0.011410095 0.15811922 0.08497381 -0.011134557 -0.014378102 -0.15805744 0.03380103
-0.122031204 -0.014018534 0.11992078 -0.116583094 0.083084375 0.068963386 -0.03828082 -0.0061330716
0.11949824 -0.021778857 -0.045206536 0.050235227 -0.010280904 0.16553749 0.0286864 -0.11325768
0.15664157 0.034213472 0.062344957 -0.14256473 -0.0071141114 -0.022309963 0.07846967 -0.12497099
-0.0782199 0.16569418 0.06199622 -0.054114904 -0.10509354 0.14494364 -0.034564313 0.07887222
0.006227612 -0.11174324 -0.16515432 -0.1642828 0.10827579 0.053493083 -0.15128696 -0.05809954
0.035399366 0.036777366 0.09746569 -0.101335324 0.0028825358 -0.16018443 -0.09728219 -0.13353531
0.14982648 -0.03552489 -0.107351825 0.087164275 0.02824148 0.06453275 0.05586935 -0.04083189
0.082395166 0.07130862 -0.0627632 0.015982337 -0.10008488 0.08186792 -0.096075945 0.111172654
-0.09067016 0.057313323 -0.17343603 0.07256653 0.06565768 0.039710537 -0.06006971 -0.027182372
0.1786034 0.053291846 0.0684038 -0.06106125 0.11519799 -0.012624888 -0.08635803 0.020689534
-0.124385536 0.07569673 0.15279572 -0.07490071 0.112103045 -0.009320735 -0.08382975 0.07914219
0.11979409 0.102765 -0.08543522 -0.109159425 -0.13340351 0.12627867 -0.16724701 0.046558827
-0.03002747 -0.13510641 -0.09040267 -0.1094054 0.04726757 0.039400063 -0.16988862 -0.10667673
0.017340655 0.14838946 0.009455099 -0.15657727 -0.15594998 0.050869707 0.005254742 -0.062246446
-0.15026174 0.1785768 0.07713688 -0.15411541 -0.014703663 0.11965641 0.18208694 0.04695644
0.09486483 0.15302965 -0.048370555 -0.018671127 0.18011549 0.011315575 -0.18852834 0.17867783
-0.051088348 0.090090044 0.06053005 0.061954327 0.048539344 0.075304694 -0.188659 -0.11830763
-0.10002413 -0.14448084 -0.121962175 -0.094662085 0.06564731 -0.063400954 0.0021517482 0.048688043
0.008384854 0.03358081 -0.13371561 -0.17037494 0.08137646 0.0547393 -0.13728307 0.023783427
-0.18170422 -0.17086114 0.077635616 -0.06639334 0.13047627 -0.03836463 -0.058659613 -0.10924171
-0.14896543 -0.10229458 0.15000276 0.15190946 0.13271621 -0.03716506 -0.15973324 -0.02462086
0.08909827 -0.022037435 -0.028098123 0.00769522 0.08454458 -0.054616738 -0.12552688 -0.036157433
-0.0096441405 -0.09005111 0.13913897 0.056943495 0.008409121 0.06973744 0.124286205 0.12936714
0.089159645 -0.15722129 -0.121214986 0.033781704 -0.009618331 -0.12208879 -0.064217016 -0.0006581097
0.093702786 -0.157394 -0.10691603 0.02658557 0.03306043 0.16231811 -0.073987015 -0.05239206
0.121641114 0.0015982414 0.12772582 -0.011007164 0.0013590956 0.089213535 0.032912068 -0.1421078
00000000: 2544 d9bd 979e 1abe 9741 a93c 6c89 9fbd
00000010: d997 a4bd 8a30 b33b 8eea fd3d cfee 84bd
00000020: 7e47 823d 8056 f6bd 97fd dd3d e843 c33d
00000030: 6a2a 1a3d 049b 223e f924 97bd daeb fb3d
00000040: 935d bebd c65e f03d f021 19be b3df f13c
00000050: 78ae 063e 5879 c9bd 2067 a6bd ebbe 10be
00000060: cc2e c23d 5c12 bbbc 0ed1 843c a4ac abbd
00000070: e372 2e3e a07f e7bc 86a3 e5bc 35be bbbc
00000080: aafc 1c3e 0251 a63d cfc1 6c3d 81e0 60bd
00000090: c3ab cb3d ea93 183e ac7f 30bd 77c8 a8bc
000000a0: fd74 eb3d 68f1 3a3c 01ea 213e c006 ae3d
000000b0: b86d 36bc 2192 6bbc cfd9 21be f372 0a3d
000000c0: 7feb f9bd fead 65bc 0799 f53d 1ec3 eebd
000000d0: 2428 aa3d ad3c 8d3d 59cc 1cbd eff7 c8bb
000000e0: 7ebb f43d 9369 b2bc 7d2a 39bd 74c3 4d3d
000000f0: 3d71 28bc a982 293e beff ea3c a4f3 e7bd
00000100: a666 203e 6d23 0c3d 6d5d 7f3d 7dfc 11be
00000110: 7e1d e9bb 62c3 b6bc b5b4 a03d caf0 ffbd
00000120: c131 a0bd bcab 293e c0ef 7d3d 97a7 5dbd
00000130: 483b d7bd 1b6c 143e 4f93 0dbd c287 a13d
00000140: ff10 cc3b a4d9 e4bd 371e 29be c039 28be
00000150: b3bf dd3d 901b 5b3d f8ea 1abe c9f9 6dbd
00000160: edfe 103d dda3 163d 179c c73d e588 cfbd
00000170: ede8 3c3b 6307 24be e33b c7bd 7bbd 08be
00000180: 1d6c 193e 8c82 11bd 46db dbbd 2f83 b23d
00000190: ad5a e73c bf29 843d 42d7 643d 573f 27bd
000001a0: ccbe a83d 410a 923d fe89 80bd 64ed 823c
000001b0: 4df9 ccbd 5eaa a73d 77c3 c4bd 7dae e33d
000001c0: 47b1 b9bd 60c1 6a3d 3799 31be c39d 943d
000001d0: 8977 863d 84a7 223d a80b 76bd 91ad debc
000001e0: cfe3 363e 8d48 5a3d 4b17 8c3d 5c1b 7abd
000001f0: ecec eb3d 9ed8 4ebc 7bdc b0bd 197d a93c
00000200: d8bd febd e306 9b3d 7b76 1c3e 8b65 99bd
00000210: 4896 e53d ffb5 18bc efae abbd 4d15 a23d
00000220: 9b56 f53d 7576 d23d a9f8 aebd fa8e dfbd
00000230: ee9a 08be 324f 013e cd42 2bbe 78b4 3e3d
00000240: 2bfc f5bc 5659 0abe 0925 b9bd f00f e0bd
00000250: a49b 413d f661 213d 48f7 2dbe 5479 dabd
00000260: fd0d 8e3c 68f3 173e 8fe9 1a3c cb55 20be
00000270: 5ab1 1fbe c15c 503d f92f ac3b 21f6 7ebd
00000280: 37de 19be d6dc 363e f1f9 9d3d 6ed0 1dbe
00000290: a2e7 70bc 6b0e f53d 0075 3a3e 6555 403d
000002a0: 7e48 c23d ceb3 1c3e 3420 46bd 31f4 98bc
000002b0: 3270 383e f664 393c 930d 41be 52f7 363e
000002c0: 0442 51bd 2181 b83d 5cee 773d d2c3 7d3d
000002d0: 31d1 463d 5939 9a3d d32f 41be 454b f2bd
000002e0: 73d9 ccbd c9f2 13be 4ec7 f9bd 32de c1bd
000002f0: 1972 863d 5cd8 81bd 5804 0d3b 1d6d 473d
00000300: a060 093c 088c 093d bfec 08be c576 2ebe
00000310: b4a8 a63d 5136 603d ef93 0cbe 76d5 c23c
00000320: ac10 3abe 39f6 2ebe 6cff 9e3d 3bf9 87bd
00000330: 929b 053e 3b24 1dbd 1045 70bd 1eba dfbd
00000340: 658a 18be d27f d1bd 539a 193e 278e 1b3e
00000350: c2e6 073e 643a 18bd 1c91 23be b0b1 c9bc
00000360: 2779 b63d da87 b4bc 092e e6bc 2f28 fc3b
00000370: b525 ad3d cdb5 5fbd 1e8a 00be d119 14bd
00000380: 7502 1ebc b76c b8bd 727a 0e3e 953d 693d
00000390: 69c6 093c 81d2 8e3d c489 fe3d d278 043e
000003a0: 5599 b63d 9efe 20be 903f f8bd af5e 0a3d
000003b0: 3496 1dbc b009 fabd 3684 83bd ff84 2cba
000003c0: 3fe7 bf3d e52b 21be cbf6 dabd fbc9 d93c
000003d0: 606a 073d b836 263e 8186 97bd 0f99 56bd
000003e0: fa1e f93d 157c d13a 8fca 023e 6457 34bc
000003f0: ae23 b23a 96b5 b63d cece 063d b584 11be

lstm.bias_ih_l0 f4 [128]
0.15366016 -0.017142838 0.05543852 -0.03428153 0.13496982 -0.02650444 -0.07113237 -0.03196214
-0.00064566574 -0.04003802 -0.025019702 0.06004475 0.0091240425 0.15657033 -0.07961305 0.045938883
-0.078659594 0.11256503 0.042649403 0.1257673 0.023705058 0.09641979 -0.07509307 0.0014446052
-0.117119975 -0.017688964 -0.07810519 0.03302977 -0.11932497 -0.010158811 0.10716694 0.05014522
0.02982558 -0.11573214 0.18296573 0.085776515 0.18865083 0.04888835 0.10746969 -0.002902573
0.030472679 -0.07199999 -0.016568156 0.08918956 -0.12317664 0.0653203 -0.10885154 -0.1430044
0.11132265 -0.027366325 0.059683546 0.14207168 -0.14692505 -0.07624136 0.031063383 0.1756625
-0.14762466 0.06382224 0.03511924 -0.116894335 -0.001036525 -0.05359407 0.023768371 0.06642998
-0.0663078 0.09687912 0.0711582 0.11064132 0.0158582 -0.15008652 -0.026415357 -0.15020217
-0.06032753 -0.093571626 0.102267236 0.18020098 -0.030285329 0.07413108 0.051132366 0.07229536
0.070579134 -0.06943535 -0.18172733 -0.11467166 0.09791203 -0.12513363 -0.09652594 -0.14527848
0.022954028 -0.064979106 0.06286058 -0.0964066 -0.027570939 -0.02384776 -0.10483723 -0.16438809
-0.09335488 0.021835834 0.02576645 0.024569487 0.15365514 0.031631865 0.07939638 -0.09836164
0.1804784 0.11961934 -0.08666086 -0.14361611 -0.08371967 -0.12665863 -0.13703625 -0.103649706
0.0873282 -0.11658523 -0.14167547 0.10515258 0.03304209 -0.14661342 -0.06654491 -0.05229882
-0.10954219 0.096814685 0.05840655 0.025628714 0.10909653 0.086828955 -0.06649019 -0.04940473
00000000: 1759 1d3e 236f 8cbc 8013 633d ca6a 0cbd
00000010: 8735 0a3e d71f d9bc d9ad 91bd bcea 02bd
00000020: e541 29ba e8fe 23bd 1ef6 ccbc 7cf1 753d
00000030: 027d 153c f953 203e 2b0c a3bd 692a 3c3d
00000040: 4818 a1bd 7f88 e63d 24b1 2e3d 25c9 003e
00000050: 1c31 c23c bd77 c53d 65ca 99bd e858 bd3a
00000060: 99dc efbd 72e8 90bc 9df5 9fbd 394a 073d
00000070: a660 f4bd 2471 26bc 577a db3d 1365 4d3d
00000080: c654 f43c f904 edbd 5e5b 3b3e 99ab af3d
00000090: af2d 413e 273f 483d 1219 dc3d 1839 3ebb
000000a0: d7a1 f93c bb74 93bd f1b9 87bc 04a9 b63d
000000b0: 0944 fcbd a6c6 853d 8eed debd bf6f 12be
000000c0: 21fd e33d 582f e0bc bc76 743d 3d7b 113e
000000d0: 8573 16be 6e24 9cbd a378 fe3c dfe0 333e
000000e0: eb2a 17be 3cb5 823d 31d9 0f3d 4c66 efbd
000000f0: 02dc 87ba 7585 5bbd e3b5 c23c 710c 883d
00000100: 62cc 87bd 8f68 c63d 64bb 913d eb97 e23d
00000110: 0ee9 813c 48b0 19be 0565 d8bc 99ce 19be
00000120: 001a 77bd 7ba2 bfbd 7c71 d13d 9b86 383e
00000130: f018 f8bc 09d2 973d 2c70 513d 970f 943d
00000140: cb8b 903d 1f34 8ebd bb16 3abe fad8 eabd
00000150: 1a86 c83d 0823 00be 64af c5bd e2c3 14be
00000160: 160a bc3c c413 85bd 0cbd 803d d370 c5bd
00000170: 73dc e1bc 615c c3bc e7b4 d6bd 5a55 28be
00000180: d830 bfbd 10e1 b23c 2a14 d33c f345 c93c
00000190: c657 1d3e 6a90 013d 929a a23d d471 c9bd
000001a0: 54cf 383e fcfa f43d 407b b1bd 1a10 13be
000001b0: 3875 abbd cdb2 01be 3b53 0cbe 4c46 d4bd
000001c0: 21d9 b23d 3dc4 eebd 6013 11be 3c5a d73d
000001d0: 2457 073d d421 16be b348 88bd 4a37 56bd
000001e0: a857 e0bd c746 c63d b53b 6f3d 4ff3 d13c
000001f0: 006e df3d 61d3 b13d 022c 88bd 9d5c 4abd

lstm.bias_hh_l0 f4 [128]
0.18779916 -0.116242744 -0.15326577 0.12649219 -0.09051753 -0.1027067 0.01471381 0.022400556
0.16203213 -0.05952985 0.14286089 -0.16474742 0.019621404 0.03521269 -0.10374267 0.00948749
0.04205478 0.04605652 -0.116161324 0.12904632 -0.04517178 0.13710806 0.18390381 -0.022820845
0.1377816 0.05816906 -7.513738e-05 -0.02757536 -0.12940799 -0.17246853 0.17974254 -0.14566231
0.04201447 0.062019873 0.07075017 0.1125699 0.14506468 0.08363441 -0.03662247 0.13757145
0.12821053 -0.15881072 -0.09928995 -0.033458646 -0.09282905 -0.08945274 0.11641411 -0.09185753
-0.01992399 0.11432169 0.18256593 -0.09404293 -0.0824205 0.0145427715 -0.11138205 0.1115417
-0.071068615 -0.07976164 0.06677552 0.018439587 0.14596598 -0.16826683 0.15412478 0.1927749
-0.13304323 0.10976585 0.060597923 -0.15018213 -0.024413409 0.055941965 -0.0128091555 -0.12856482
-0.16553445 -0.07017376 0.070040904 -0.05306386 0.05700772 -0.0036568409 -0.07004494 0.027489966
0.029667445 -0.16413501 -0.11968573 -0.040352944 0.086110406 -0.010598366 0.0018497646 0.043815184
0.17739199 0.117678 -0.10373594 -0.004467247 -0.055228952 -0.15089081 -0.11275123 -0.024357
0.15572019 0.15570831 -0.036215033 -0.05627736 0.022637803 -0.025039759 0.066166244 0.16500886
-0.095582314 0.08121501 0.108099975 -0.12291196 -0.0059871366 0.14959446 0.14207819 0.14778799
0.15029949 -0.14613423 0.035649538 0.12146906 -0.14010456 -0.10938165 -0.062297694 0.084893346
0.0063513666 0.090476975 -0.148995 -0.057590637 0.032554917 -0.09415964 0.030403119 0.13729541
00000000: 6c4e 403e ad10 eebd b4f1 1cbe 2b87 013e
00000010: 4161 b9bd e457 d2bd 3112 713c 5f81 b73c
00000020: c0eb 253e 92d5 73bd 204a 123e 8cb3 28be
00000030: 11bd a03c 2e3b 103d 0977 d4bd 6b71 1b3c
00000040: a241 2c3d c3a5 3c3d fde5 edbd b824 043e
00000050: 0b06 39bd 0e66 0c3e 4851 3c3e c8f2 babc
00000060: 9f16 0d3e ae42 6e3d 1393 9db8 b9e5 e1bc
00000070: 8783 04be 979b 30be 6e0e 383e 8028 15be
00000080: 5d17 2c3d 8d08 7e3d 77e5 903d 0c8b e63d
00000090: d68b 143e 8448 ab3d 7101 16bd 88df 0c3e
000000a0: 9f49 033e 479f 22be 8858 cbbd ef0b 09bd
000000b0: 281d bebd 0033 b7bd 856a ee3d cd1f bcbd
000000c0: a337 a3bc 7d21 ea3d 90f2 3a3e 9499 c0bd
000000d0: 14cc a8bd ce44 6e3c 461c e4bd fa6f e43d
000000e0: 6c8c 91bd 125a a3bd 9bc1 883d 9e0e 973c
000000f0: 1b78 153e 244e 2cbe e3d2 1d3e c966 453e
00000100: 7c3c 08be ebcc e03d 8735 783d 58c9 19be
00000110: a1fe c7bc 6723 653d 7edd 51bc 7fa6 03be
00000120: dd81 29be 43b7 8fbd 9b71 8f3d 7d59 59bd
00000130: ed80 693d 9ca7 6fbb b973 8fbd a332 e13c
00000140: 2409 f33c 0213 28be cb1d f5bd 2149 25bd
00000150: a75a b03d c5a4 2dbc cd73 f23a 8d77 333d
00000160: 3fa6 353e 2a01 f13d 8273 d4bd fc61 92bb
00000170: c137 62bd 1f83 1abe 1eea e6bd 5588 c7bc
00000180: 1d75 1f3e 0072 1f3e 3756 14bd 1783 66bd
00000190: ea72 b93c 2e20 cdbc 2b82 873d 15f8 283e
000001a0: a9c0 c3bd 0e54 a63d 8563 dd3d 44b9 fbbd
000001b0: be2f c4bb 4a2f 193e f27c 113e bc55 173e
000001c0: 1ce8 193e 36a4 15be 4005 123d c5c4 f83d
000001d0: 9277 0fbe 7d03 e0bd de2b 7fbd 90dc ad3d
000001e0: 201f d03b fe4b b93d 2592 18be 29e4 6bbd
000001f0: 4e58 053d c5d6 c0bd f60f f93c 2b97 0c3e

lstm.weight_ih_l1 f4 [128, 32]
0.115761966 -0.13712604 0.07413237 -0.043863848 -0.017304147 -0.06468284 0.12924251 -0.08693881
0.02151425 0.056609835 0.04314522 -0.08042503 -0.104524635 0.107500456 0.027719973 0.06679859
0.06504334 -0.0035990747 -0.14779592 0.07041627 0.044819605 0.012009021 0.14933191 0.11015194
0.054941963 0.118108995 0.08454628 0.004759389 -0.15506348 0.1346149 -0.096927896 -0.08481381
0.014577603 0.08314584 -0.064581156 0.102752514 0.16945337 -0.029565638 -0.13852267 -0.1379394
0.08931739 0.085414924 0.16715407 -0.066582665 0.06407858 0.031024186 -0.085332945 0.15347604
0.0816969 -0.028710052 0.1347458 0.092030354 -0.14530545 -0.12674299 0.10720352 -0.12280544
-0.043191213 -0.02384857 -0.13022067 -0.0019945863 0.105026506 -0.1413373 -0.16221584 -0.1766731
0.06864309 0.14649296 -0.072555296 -0.16198695 0.16994128 0.056587316 0.08086843 0.02921899
-0.049590405 -0.093146466 0.15286405 0.048824627 0.16102721 -0.06449132 -0.06873295 -0.11835916
0.11091167 0.053398985 -0.005261454 -0.051310282 0.03250447 0.041448493 -0.06047993 -0.14785068
0.17071712 -0.073676154 0.08290848 -0.014657089 0.071476586 0.03514193 0.13594551 -0.13889122
-0.07343141 0.036268905 -0.10775356 -0.04863747 -0.066701904 0.038910408 0.0004626362 0.16608103
0.09096633 0.15377955 0.18960102 -0.09397903 0.11008793 0.14950997 0.10651657 0.17050783
-0.056084756 0.11827387 -0.098945916 -0.11443763 -0.10206505 0.1386454 0.11645082 -0.12409348
-0.048937876 -0.004486986 -0.06625161 -0.14709984 -0.09372618 -0.029430185 -0.17091891 -0.07347012
0.11445832 0.1773536 0.13346763 -0.036743496 0.03868376 -0.027708165 -0.029375391 0.03301898
-0.07990555 0.12139796 -0.035002682 0.06937733 -0.02967919 -0.0016124664 0.11614021 -0.12980498
0.15319629 -0.030845348 -0.086752765 -0.1321896 0.11565479 -0.08624742 0.006627377 -0.116138384
-0.05473667 0.04914766 -0.12836055 -0.034370158 0.005533935 -0.06380236 0.09987968 0.09026318
-0.06771803 -0.05324728 0.12788126 0.12732127 0.12184885 -0.008313896 -0.016433578 -0.087297864
-0.18258464 0.1095121 0.15486485 -0.03074422 0.15346617 0.1388455 0.08326215 0.024962068
-0.073218554 -0.054816555 -0.035497084 0.004235303 0.0024033284 -0.020922381 -0.17349984 0.053012878
-0.110842444 -0.14219475 0.123915344 -0.06379505 0.004128574 -0.15858302 0.023358393 0.043312952
-0.08308981 0.1842249 0.095994934 0.05353631 0.04617009 -0.10757273 -0.077300146 -0.099546835
-0.07595154 -0.07164524 0.05728756 0.095025085 0.108481474 -0.08327658 -0.08326022 -0.003533529
-0.008840243 -0.006131551 0.11313894 -0.042085703 0.0018208795 0.08830414 -0.13700537 -0.027645348
0.008195514 -0.109321974 0.12108053 -0.08446244 -0.033714205 -0.14977218 0.061174534 -0.053593002
-0.025516443 0.12926902 0.13686948 -0.14013502 0.08847201 0.115249746 -0.041101042 0.026100827
-0.06277013 -0.13477962 0.115631424 0.016140813 -0.0010911505 0.028809603 -0.13650127 0.012710194
-0.17655537 0.033256367 -0.1904912 -0.09514088 -0.055767458 -0.024217885 0.15534493 0.0044821543
0.11173445 -0.13034236 0.11157769 0.09249247 0.04641367 0.1108602 0.008101617 -0.1847903
00000000: 9c14 ed3d c56a 0cbe b6d2 973d 94aa 33bd
00000010: 6dc1 8dbc 7078 84bd 2658 043e fa0c b2bd
00000020: a73e b03c b7df 673d 0bb9 303d e1b5 a4bd
00000030: 0311 d6bd 3329 dc3d ff14 e33c b3cd 883d
00000040: 7135 853d 74de 6bbb d057 17be 6836 903d
00000050: c394 373d 7cc1 443c 77ea 183e 5797 e13d
00000060: d30a 613d 21e3 f13d 9a26 ad3d a6f4 9b3b
00000070: f6c8 1ebe 7dd8 093e 2282 c6bd ddb2 adbd
00000080: e6d6 6e3c 5e48 aa3d 2043 84bd e96f d23d
00000090: 2f85 2d3e a333 f2bc e3d8 0dbe fc3f 0dbe
000000a0: 09ec b63d 05ee ae3d 702a 2b3e 7e5c 88bd
000000b0: a13b 833d 6f26 fe3c 0ac3 aebd d328 1d3e
000000c0: b450 a73d 5831 ebbc cefa 093e 697a bc3d
000000d0: f4ca 14be eac8 01be 858d db3d 6b81 fbbd
000000e0: 45e9 30bd 145e c3bc 9158 05be 9bb7 02bb
000000f0: 2318 d73d baba 10be e91b 26be cbe9 34be
00000100: c094 8c3d 4002 163e df97 94bd e8df 25be
00000110: 1605 2e3e 1ac8 673d 599e a53d aa5c ef3c
00000120: 4f1f 4bbd 93c3 bebd 6588 1c3e 55fc 473d
00000130: 51e4 243e 0614 84bd dcc3 8cbd 4a66 f2bd
00000140: a825 e33d e5b8 5a3d 4668 acbb bb2a 52bd
00000150: 6823 053d e5c5 293d ceb9 77bd 2b66 17be
00000160: 78d0 2e3e 86e3 96bd eccb a93d 4924 70bc
00000170: 5162 923d fcf0 0f3d 4d35 0b3e 8039 0ebe
00000180: 3563 96bd b48e 143d e6ad dcbd 1538 47bd
00000190: 029b 88bd 8560 1f3d fb8d f239 2511 2a3e
000001a0: 8e4c ba3d 6378 1d3e c526 423e 1478 c0bd
000001b0: c875 e13d 2419 193e 5c25 da3d 9b99 2e3e
000001c0: 21b9 65bd 9239 f23d 28a4 cabd 475e eabd
000001d0: 7b07 d1bd 0ff9 0d3e c47d ee3d b924 febd
000001e0: 1573 48bd 9107 93bb edae 87bd 57a1 16be
000001f0: 83f3 bfbd 9217 f1bc 5e05 2fbe 8177 96bd
00000200: 2069 ea3d 2f9c 353e bdab 083e 5980 16bd
00000210: dd72 1e3d 3cfc e2bc a9a4 f0bc e93e 073d
00000220: 85a5 a3bd 7e9f f83d f95e 0fbd b415 8e3d
00000230: c621 f3bc 6559 d3ba ebda ed3d 99eb 04be
00000240: 7ddf 1c3e 62af fcbc 6fab b1bd b65c 07be
00000250: 6bdc ec3d 7da2 b0bd 782a d93b f6d9 edbd
00000260: 8f33 60bd 0f4f 493d f370 03be b9c7 0cbd
00000270: 0356 b53b d0aa 82bd b88d cc3d e7db b83d
00000280: c0af 8abd d219 5abd 4ef3 023e 8260 023e
00000290: e48b f93d 0237 08bc b69f 86bc 39c9 b2bd
000002a0: 78f7 3abe e147 e03d e494 1e3e 4ddb fbbc
000002b0: 3c26 1d3e 842d 0e3e 5985 aa3d 407d cc3c
000002c0: 9cf3 95bd 5387 60bd 6465 11bd 4cc8 8a3b
000002d0: 2981 1d3b 6a65 abbc f1a9 31be 0824 593d
000002e0: 5d01 e3bd 809b 11be 54c7 fd3d fba6 82bd
000002f0: fd48 873b 9663 22be 1a5a bf3c ec68 313d
00000300: fe2a aabd 74a5 3c3e fe98 c43d e448 5b3d
00000310: d91c 3d3d 174f dcbd 8a4f 9ebd 36df cbbd
00000320: 7b8c 9bbd bdba 92bd 5ca6 6a3d 839c c23d
00000330: 892b de3d e98c aabd 5684 aabd c792 67bb
00000340: abd6 10bc 2eeb c8bb 63b5 e73d 0f62 2cbd
00000350: 94aa ee3a cdd8 b43d 234b 0cbe 7f78 e2bc
00000360: 7a46 063c 33e4 dfbd 12f9 f73d a5fa acbd
00000370: e817 0abd e15d 19be 2692 7a3d 5684 5bbd
00000380: dc07 d1bc 195f 043e 8327 0c3e 8e7f 0fbe
00000390: d030 b53d 0f08 ec3d 9159 28bd 67d1 d53c
000003a0: a08d 80bd ab03 0abe 2bd0 ec3d bd39 843c
000003b0: ef04 8fba 1e02 ec3c fdc6 0bbe 6b3e 503c
000003c0: eeca 34be d437 083d 2010 43be 39d9 c2bd
000003d0: 6b6c 64bd 9664 c6bc be12 1f3e 09df 923b
000003e0: 08d5 e43d 7878 05be d882 e43d b16c bd3d
000003f0: 431c 3e3d ac0a e33d a5bc 043c ab39 3dbe

lstm.weight_hh_l1 f4 [128, 32]
0.1455777 -0.13288122 0.04964404 -0.14247248 0.11718924 -0.021756126 0.021691367 0.05965838
-0.10257699 -0.052659985 0.111923896 0.07593579 -0.021471793 0.000498243 0.15281032 0.16985473
0.08932652 -0.008150189 -0.07981391 -0.096531354 -0.07812187 0.087389246 -0.07925781 -0.030157002
-0.15251085 -0.13671407 -0.07030365 0.082767434 0.030811911 -0.100041285 -0.18447149 0.18716821
0.047262408 0.079714626 -0.084764875 -0.16437033 -0.12308276 0.13912104 0.07073752 0.15342796
-0.05006735 0.051826525 0.13779546 0.053387314 -0.034720063 0.14268894 0.041725673 -0.0979203
-0.018884784 0.019020174 0.0039528497 -0.052941352 -0.124127105 0.15293741 -0.095201075 -0.065680645
0.09283011 -0.16843428 0.066662386 -0.035097852 0.1205953 -0.021096732 0.098628774 0.18760404
0.17186923 -0.074851125 0.02956198 -0.06130342 0.123727106 -0.11429311 -0.06030703 -0.119447656
-0.026538745 -0.115129955 0.060099997 0.1584767 0.058801968 -0.18161197 0.113485694 -0.13519244
0.110322006 0.05545677 -0.06945126 0.12250303 -0.07399787 -0.1817903 0.07120794 -0.09271662
-0.100599036 0.008813715 0.08830712 0.16067232 0.14454287 -0.14726055 0.09045407 -0.022750838
0.020721355 0.010505592 -0.009195439 -0.059979007 -0.16003123 0.1746661 0.058759082 -0.090871476
0.034513544 -0.13469255 -0.07319425 -0.14676774 0.15732683 0.0877616 -0.15634571 0.061641645
0.08029513 0.15410541 -0.08270777 -0.02165524 -0.15604395 -0.07671868 -0.097264886 -0.15636635
0.06557918 -0.0044616535 0.02793787 -0.061287913 -0.09280753 -0.08862949 0.047145654 0.089247964
-0.15573752 0.103649326 -0.10769052 -0.038304064 0.0284905 -0.1499641 0.07666651 -0.13880594
0.03836016 -0.02836488 0.15811409 -0.012282452 -0.09931768 0.16025336 -0.08868649 -0.026125757
0.00908193 -0.0051685385 0.039966248 -0.057982642 0.11096314 -0.051142428 -0.007822891 -0.113353305
-0.0057426332 -0.15834427 -0.11690059 0.07272122 -0.028981185 -0.1007752 0.020325618 -0.13127895
-0.050594352 0.09669464 -0.09160059 0.056791548 0.03557471 0.06400741 -0.008919927 0.05077962
-0.046250362 0.04620697 -0.18433887 -0.045291975 0.12031009 -0.03992405 -0.19025402 0.088341504
-0.08120723 0.0953183 -0.023012342 0.06391055 0.057941366 -0.13023384 -0.16347252 -0.060184833
0.078192666 -0.17596005 0.12704131 0.048729137 -0.11788483 0.046424802 -0.02868979 0.12072452
0.17015235 -0.030675521 0.0065470585 -0.07159961 -0.16260909 0.018754754 -0.0993006 0.17666142
0.13932274 0.05335324 -0.15546237 0.044442713 0.07132127 -0.09972968 0.14795859 0.17682742
0.09184634 0.17068018 -0.030238314 -0.10765133 -0.039937917 -0.07150271 0.049059227 0.018993033
0.039127193 0.04495545 -0.049608774 -0.08857385 -0.13140169 0.12306987 -0.14470786 0.020274345
0.0012383624 -0.1295646 0.08968805 -0.19153848 -0.100249454 0.018683596 -0.034633666 -0.07532114
-0.05218526 0.031471938 -0.16449857 0.085316576 -0.16442207 -0.16180748 -0.17980775 0.11612228
-0.16195092 0.14529222 -0.11623425 0.094803914 -0.17895381 -0.09909464 -0.08418151 0.006830894
0.12968968 -0.14050521 -0.04074352 -0.110480085 0.11546153 0.14941554 0.098907866 0.09575975
00000000: 5212 153e 0412 08be 8d57 4b3d 4ee4 11be
00000010: ea00 f03d e739 b2bc 18b2 b13c 585c 743d
00000020: e313 d2bd ffb1 57bd 5b38 e53d 3984 9b3d
00000030: 9de5 afbc 869c 023a 4f7a 1c3e 66ee 2d3e
00000040: d3f0 b63d 5f88 05bc 7a75 a3bd 3bb2 c5bd
00000050: 5cfe 9fbd 22f9 b23d eb51 a2bd d10b f7bc
00000060: ce2b 1cbe c6fe 0bbe 5cfb 8fbd f981 a93d
00000070: 4369 fc3c 72e2 ccbd 18e6 3cbe 06a9 3f3e
00000080: 3a96 413d 6c41 a33d 3599 adbd b250 28be
00000090: d012 fcbd bf75 0e3e d5de 903d 381c 1d3e
000000a0: 6c13 4dbd 0d48 543d 411a 0d3e a8ac 5a3d
000000b0: a036 0ebd 0d1d 123e 8ae8 2a3d 708a c8bd
000000c0: 43b4 9abc 32d0 9b3c e886 813b 08d9 58bd
000000d0: 5a36 febd a09b 1c3e c8f8 c2bd 9383 86bd
000000e0: b61d be3d 097a 2cbe 4a86 883d c4c2 0fbd
000000f0: abfa f63d 0ed3 acbc e2fd c93d 461b 403e
00000100: 7dfe 2f3e 8c4b 99bd f72b f23c 4c19 7bbd
00000110: a364 fd3d 8212 eabd 8104 77bd f9a0 f4bd
00000120: c867 d9bc 41c9 ebbd 6a2b 763d b747 223e
00000130: 55da 703d 7df8 39be 306b e83d e36f 0abe
00000140: 81f0 e13d a326 633d 763c 8ebd dee2 fa3d
00000150: 328c 97bd 3d27 3abe 78d5 913d 36e2 bdbd
00000160: de06 cebd 6667 103c 5dda b43d 4987 243e
00000170: 0c03 143e 78cb 16be fc3f b93d f75f babc
00000180: d5bf a93c a61f 2c3c 77a8 16bc 8cac 75bd
00000190: 3adf 23be acdb 323e 5dad 703d d31a babd
000001a0: 135e 0d3d d8ec 09be dee6 95bd 484a 16be
000001b0: 491a 213e 5bbc b33d 1719 20be f37b 7c3d
000001c0: c671 a43d cfcd 1d3e b162 a9bd 5466 b1bc
000001d0: fcc9 1fbe af1e 9dbd d032 c7bd 801e 20be
000001e0: 614e 863d 1033 92bb f6dd e43c 0909 7bbd
000001f0: e011 bebd 6183 b5bd cd1b 413d a3c7 b63d
00000200: a879 1fbe 1946 d43d d98c dcbd b9e4 1cbd
00000210: e964 e93c 3090 19be 5503 9d3d 2523 0ebe
00000220: 8b1f 1d3d 775d e8bc a9e8 213e 563c 49bc
00000230: 1167 cbbd 7519 243e 43a1 b5bd af05 d6bc
00000240: 60cc 143c d85c a9bb a6b3 233d 357f 6dbd
00000250: a540 e33d b97a 51bd 952b 00bc c725 e8bd
00000260: b32c bcbb 0025 22be 9469 efbd ddee 943d
00000270: f369 edbc 3a63 cebd e981 a63c fd6d 06be
00000280: 063c 4fbd d707 c63d 1799 bbbd 419e 683d
00000290: cab6 113d 5116 833d e324 12bc 4afe 4f3d
000002a0: 0571 3dbd 8543 3d3d 54c3 3cbe 1484 39bd
000002b0: 2365 f63d 6787 23bd f3d1 42be 64ec b43d
000002c0: fa4f a6bd 3e36 c33d 6184 bcbc 89e3 823d
000002d0: ed53 6d3d 055c 05be 5765 27be 5f84 76bd
000002e0: 7a23 a03d df2e 34be 1e17 023e 3498 473d
000002f0: 9a6d f1bd ef27 3e3d da06 ebbc 6b3e f73d
00000300: 6b3c 2e3e 3b4b fbbc b588 d63b d1a2 92bd
00000310: ff82 26be 92a3 993c 1d5e cbbd bbe6 343e
00000320: 9faa 0e3e ed88 5a3d 8731 1fbe 9009 363d
00000330: e310 923d 133f ccbd 7582 173e 3f12 353e
00000340: ef19 bc3d c9c6 2e3e 57b6 f7bc 4d78 dcbd
00000350: f195 23bd 0370 92bd 54f2 483d 4797 9b3c
00000360: d643 203d 3523 383d 9232 4bbd 3566 b5bd
00000370: 2a8e 06be 0e0c fc3d 4c2e 14be 6216 a63c
00000380: 8c50 a23a 95ac 04be 5eae b73d aa22 44be
00000390: 964f cdbd 570e 993c 08dc 0dbd f841 9abd
000003a0: 36c0 55bd b8e8 003d 5072 28be 75ba ae3d
000003b0: 425e 28be dcb0 25be 861f 38be 85d1 ed3d
000003c0: 76d6 25be 7cc7 143e 390c eebd 8e28 c23d
000003d0: ab3f 37be 21f2 cabd 5b67 acbd b1d5 df3b
000003e0: 5fcd 043e 99e0 0fbe ade2 26bd 6243 e2bd
000003f0: 1877 ec3d 6300 193e 3590 ca3d b01d c43d

lstm.bias_ih_l1 f4 [128]
0.10817681 -0.010539118 -0.15746708 0.039392114 0.08800713 -0.013821638 0.055797912 -0.15425096
0.07393842 0.07474845 -0.06774051 -0.044929236 0.067352995 -0.16315155 0.17602289 -0.09984386
0.10347117 0.056076143 -0.02220269 -0.1514319 0.1477209 -0.11843426 0.005191034 -0.0148450015
0.06935485 0.043907445 -0.14880978 0.10512256 0.11737822 -0.08044418 0.14787655 -0.012448998
-0.13727114 0.053636484 0.18374795 -0.13404009 0.012449507 0.14277883 0.081218496 -0.057986684
0.03982254 -0.08676346 0.11991289 0.026653344 0.18019374 0.15327825 0.01610642 0.003827665
-0.0069873547 0.14282635 0.0173598 -0.12618382 0.13786028 0.035906374 -0.08412843 -0.14532149
-0.1340366 0.033624027 -0.01247351 0.071776144 -0.09066063 0.13629584 -0.04871017 -0.07939854
0.008050177 -0.17927513 -0.15159315 0.040299267 0.013052386 0.12504564 0.11341065 0.068741515
0.18682192 0.13184111 -0.19100876 -0.019039104 -0.023482444 -0.056808483 -0.10525526 0.10193844
-0.17583749 0.04144026 -0.17399316 -0.12615316 -0.14891455 0.13453571 -0.01611834 0.009248043
0.12837647 0.11015572 0.16191575 0.1364873 -0.11578998 -0.0403724 0.0905885 0.05587519
-0.025516469 0.03267774 0.14154948 0.0502923 -0.15177129 0.096829675 0.02834994 -0.15023403
0.053237088 -0.105688855 0.024325518 0.09781393 -0.008321896 0.03617329 -0.021944316 -0.08840974
0.15359 0.010478772 -0.058404744 0.12893188 -0.073014304 0.05863431 0.014695939 0.0071563264
-0.035611123 -0.13297953 0.13671097 -0.094987966 0.11859885 0.007829541 -0.008614419 -0.085546404
00000000: ce8b dd3d 44ac 2cbc 0d3f 21be a059 213d
00000010: 153d b43d 2774 62bc 5a8c 643d f7f3 1dbe
00000020: 076d 973d b715 993d 89bb 8abd b807 38bd
00000030: 5ef0 893d 3311 27be 583f 343e f07a ccbd
00000040: b1e8 d33d 19b0 653d 6ae2 b5bc f710 1bbe
00000050: 2644 173e a98d f2bd 8d19 aa3b 7338 73bc
00000060: ea09 8e3d 4bd8 333d 9761 18be 7f4a d73d
00000070: fe63 f03d ebbf a4bd f36c 173e e2f6 4bbc
00000080: ce90 0cbe eeb1 5b3d 6c28 3c3e ce41 09be
00000090: 04f9 4b3c 9d34 123e e255 a63d 7283 6dbd
000000a0: f61c 233d 0ab1 b1bd e494 f53d 1d58 da3c
000000b0: b584 383e f9f4 1c3e 9cf1 833c 90d9 7a3b
000000c0: 2ef6 e4bb 1241 123e 2436 8e3c 5536 01be
000000d0: 3f2b 0d3e 9012 133d 874b acbd 28cf 14be
000000e0: e440 09be 59b9 093d b15d 4cbc 5fff 923d
000000f0: 48ac b9bd 2391 0b3e 5184 47bd b49b a2bd
00000100: e4e4 033c e693 37be 3c3b 1bbe d810 253d
00000110: add9 553c f70b 003e d843 e83d 5ac8 8c3d
00000120: 3f4e 3f3e 5b01 073e cd97 43be e5f7 9bbc
00000130: 415e c0bc 03b0 68bd 1290 d7bd 1ac5 d03d
00000140: be0e 34be 43bd 293d 432b 32be 4b2e 01be
00000150: 0e7d 18be bbc3 093e 9c0a 84bc 1b85 173c
00000160: 1f75 033e 5299 e13d 3ecd 253e 54c3 0b3e
00000170: 4c23 edbd 885d 25bd 7786 b93d 62dd 643d
00000180: ea07 d1bc 18d9 053d 59f2 103e 4cff 4d3d
00000190: ef69 1bbe a34e c63d 223e e83c f3d6 19be
000001a0: 220f 5a3d 6673 d8bd 4f46 c73c ab52 c83d
000001b0: 9058 08bc 722a 143d 91c4 b3bc 2a10 b5bd
000001c0: b246 1d3e 28af 2b3c d039 6fbd b806 043e
000001d0: 8688 95bd 882a 703d 3cc7 703c 9e7f ea3b
000001e0: f8dc 11bd c92b 08be f6fd 0b3e 0d89 c2bd
000001f0: f4e3 f23d 7a47 003c 7e23 0dbc f432 afbd

lstm.bias_hh_l1 f4 [128]
0.05841186 -0.053326633 0.16252878 -0.009029641 0.036853515 -0.14985076 -0.055580005 0.07430897
0.17946593 0.06372143 -0.06780571 -0.053493716 0.010624205 0.03177424 0.043229047 0.14503759
0.16615082 0.11903664 -0.06243238 -0.07263159 0.04809262 -0.17156209 0.061003074 0.060341977
0.07378118 0.14461738 0.17632681 -0.11701885 0.1250664 -0.08883235 -0.07207773 -0.05669343
-0.009735091 -0.118482925 0.10312196 -0.07092039 -0.028026676 0.19734809 0.13916959 0.13753515
-0.068909876 -0.067161545 -0.0052686827 0.18673033 0.035431378 -0.096993946 -0.1424299 0.038155906
-0.028912732 -0.13386436 0.08063277 -0.01396315 0.09315341 0.16408564 -0.10169728 0.18468001
-0.13122216 -0.10975265 0.10332633 0.1820091 -0.058100842 0.10981887 -0.097517364 0.020162562
-0.022411343 -0.010347361 0.117771104 -0.106289305 -0.11489038 0.07798924 -0.18129767 0.006132379
-0.018891998 0.16441242 -0.1013276 -0.12710641 -0.068478554 0.14870809 -0.1326541 0.17017148
-0.00703448 -0.027401505 -0.110508226 0.0074544684 -0.18627252 0.14446872 -0.11690643 0.13162416
-0.028591696 -0.18538915 -0.077490866 0.110121466 -0.061347377 0.16797796 -0.009148332 -0.060922794
0.037686225 0.017887525 0.17491016 0.035091817 0.13727751 -0.06035992 0.1531906 -0.061863218
-0.00039100662 -0.093264036 0.11072945 -0.04196728 0.10300118 -0.07602373 -0.004654547 0.1675996
0.007929116 -0.12398573 0.07542163 -0.0903339 0.07722994 0.08463078 -0.060360495 0.053945266
0.17458388 -0.12186219 0.16018495 -0.14069779 -0.004588153 0.08832997 -0.012700413 0.04518929
00000000: 4641 6f3d 076d 5abd f26d 263e 0ff1 13bc
00000010: b6f3 163d 7a72 19be dca7 63bd 4d2f 983d
00000020: ebc5 373e 6280 823d b8dd 8abd 3a1c 5bbd
00000030: 2511 2e3c b525 023d f110 313d bc84 143e
00000040: 7123 2a3e 7bc9 f33d 18b9 7fbd dfbf 94bd
00000050: c4fc 443d f9ad 2fbe 5cde 793d 2629 773d
00000060: 961a 973d 9416 143e 048f 343e 94a7 efbd
00000070: 6811 003e bced b5bd 7d9d 93bd 5f37 68bd
00000080: ee7f 1fbc 2da7 f2bd 9b31 d33d b63e 91bd
00000090: 3398 e5bc 9e15 4a3e 7982 0e3e 04d6 0c3e
000000a0: 9f20 8dbd fe8b 89bd eaa4 acbb 3c36 3f3e
000000b0: 7e20 113d c3a4 c6bd 25d9 11be 5e49 1c3d
000000c0: 65da ecbc bd13 09be cb22 a53d b2c5 64bc
000000d0: 37c7 be3d 1106 283e aa46 d0bd c21c 3d3e
000000e0: 1a5f 06be ffc5 e0bd c19c d33d 9860 3a3e
000000f0: 26fb 6dbd b7e8 e03d 2fb7 c7bd f52b a53c
00000100: fe97 b7bc fa87 29bc fa31 f13d 35ae d9bd
00000110: a64b ebbd d3b8 9f3d 19a6 39be 20f2 c83b
00000120: 64c3 9abc bb5b 283e d884 cfbd 2f28 02be
00000130: 7c3e 8cbd ef46 183e 7ad6 07be 6f41 2e3e
00000140: 7f81 e6bb 1f79 e0bc 2352 e2bd 9d44 f43b
00000150: 39be 3ebe 9cef 133e a36c efbd 7cc8 063e
00000160: 2239 eabc a7d6 3dbe 88b3 9ebd 5d87 e13d
00000170: 6347 7bbd 6a02 2c3e e3e2 15bc 2e8a 79bd
00000180: df5c 1a3d dc88 923c a61b 333e 70bc 0f3d
00000190: 7a92 0c3e f73b 77bd ffdd 1c3e 4964 7dbd
000001a0: 0500 cdb9 3701 bfbd 1fc6 e23d e2e5 2bbd
000001b0: 48f2 d23d 54b2 9bbd 2c85 98bb 3b9f 2b3e
000001c0: 1fe9 013c 3bec fdbd a876 9a3d fb00 b9bd
000001d0: bb2a 9e3d e752 ad3d 913c 77bd b6f5 5c3d
000001e0: 1ec6 323e e292 f9bd 8607 243e 1513 10be
000001f0: 3858 96bb 58e6 b43d 6515 50bc 6818 393d

lstm.weight_ih_l2 f4 [128, 32]
-0.0037990096 -0.085213736 0.0042754146 -0.13456716 -0.0005934607 0.06353286 -0.15480325 -0.014800573
0.08955456 0.122458674 -0.01612828 -0.17791554 -0.03749134 0.13218038 -0.18157494 -0.010770174
0.029113611 0.15747225 -0.04321503 0.04616701 -0.11463232 -0.15341935 -0.0652643 -0.051021595
0.16904262 -0.019338809 -0.13195907 -0.032605063 -0.07558786 0.16947608 0.15821844 0.1269117
0.06529779 -0.17539907 -0.060130283 -0.17492366 -0.18404633 0.17080514 -0.061866917 -0.15057017
-0.038625646 0.010377964 -0.18316789 -0.10494351 -0.09212466 0.10821052 -0.14122927 0.16583264
0.09929541 -0.05356651 -0.036830302 -0.017213812 -0.08777032 -0.1078324 -0.13749261 0.09170375
-0.04062365 -0.16028 0.16543561 -0.07095934 0.07219383 -0.0614914 0.04661394 0.057802547
-0.029644897 0.053743843 0.15580049 -0.05890675 0.10324279 0.06906512 -0.17503692 0.17307629
-0.12155759 -0.04755711 -0.027651196 0.07431004 -0.0035632069 -0.025687052 0.020429462 0.16971296
0.09689433 0.0045396253 -0.051014654 -0.12837495 -0.06862989 -0.039850783 0.0120587675 0.030497437
0.11440084 0.07824554 -0.10017113 0.06672863 -0.021606632 -0.10247601 -0.012136139 0.019088833
-0.11620204 -0.15786421 -0.15371478 0.064956784 -0.19205439 0.073197894 0.076697014 0.04792413
0.19531906 0.1555272 0.0064739184 -0.066198386 0.032656766 0.002354849 0.116359316 0.19193968
-0.09035062 0.028387345 0.11395276 0.09497256 -0.17017551 0.15795735 0.062649295 0.17024992
-0.14977337 0.08901441 -0.013418534 -0.020130904 -0.18363234 0.16859846 -0.1685096 -0.024717141
-0.14851893 0.101451516 -0.0020116693 0.12786756 0.050134517 0.098071724 0.11946338 0.062332306
-0.14869711 0.05215535 0.069757804 0.14151862 0.050498374 -0.016145226 -0.07824123 0.07740624
-0.10358023 0.0861305 0.06317551 0.07262861 0.07287062 0.08540599 0.036953434 0.07506464
-0.1525914 0.15774836 -0.09114832 -0.0757044 -0.1361888 -0.14658399 -0.16809425 -0.07848826
0.08260719 -0.019377826 0.13437499 0.11611806 0.010367591 0.014717393 -0.03515574 0.17801103
0.04227071 0.09456731 0.10933645 0.11938314 -0.10924034 -0.07817077 -0.012685167 -0.0083996095
-0.018641891 0.0790009 0.014390704 -0.15739204 -0.18131626 -0.16439052 0.16376005 0.16195011
-0.13700585 0.04904894 0.0890337 -0.16869186 -0.03478022 -0.0029655572 0.10775448 -0.11120561
0.017523669 -0.025464557 -0.055633906 0.036332525 0.014947798 0.19074367 -0.060467307 0.045321427
-0.1324277 -0.0526881 -0.034242943 -0.10807798 0.09115968 0.086618245 -0.15756857 0.16165598
0.12516488 0.073199354 0.15797463 0.09239514 -0.041073095 -0.1758756 0.049061157 0.13487495
0.18955731 -0.08548658 0.045872156 0.07014677 0.07018357 -0.05950788 -0.10390035 -0.06133526
-0.0789935 0.079918385 0.041654985 -0.121220484 -0.078029454 -0.12778291 -0.032511797 -0.04903391
0.1597031 0.07898375 0.09785118 0.004561999 0.115012206 -0.02071137 -0.082063586 -0.14093451
0.15472008 -0.10411607 0.11533679 0.14554378 -0.04418905 0.16973622 -0.12301918 -0.0966156
-0.051454514 0.08668372 0.062247213 -0.022328885 -0.056195725 -0.08036259 0.15923895 0.17030115
00000000: cef8 78bb 8a84 aebd c718 8c3b f9cb 09be
00000010: 7992 1bba 841d 823d be84 1ebe 1a7e 72bc
00000020: 6268 b73d 9dcb fa3d 741f 84bc 7e2f 36be
00000030: 8590 19bd 4b5a 073e c8ee 39be 6275 30bc
00000040: ab7f ee3c 6840 213e 3e02 31bd 9e19 3d3d
00000050: 5ac4 eabd f619 1dbe 4aa9 85bd 05fc 50bd
00000060: 8219 2d3e 6c6c 9ebc 4720 07be e38c 05bd
00000070: cfcd 9abd 238b 2d3e 0404 223e 24f5 013e
00000080: d9ba 853d d09b 33be 2c4b 76bd 301f 33be
00000090: a476 3cbe 8be7 2e3e 2a68 7dbd 112f 1abe
000000a0: ed35 1ebd 5608 2a3c 5d90 3bbe 9fec d6bd
000000b0: dbab bcbd 7a9d dd3d 689e 10be 08d0 293e
000000c0: 645b cb3d 8f68 5bbd 5fdb 16bd fb03 8dbc
000000d0: edc0 b3bd 3cd7 dcbd ddca 0cbe 2dcf bb3d
000000e0: fc64 26bd 7120 24be f467 293e 2153 91bd
000000f0: 5cda 933d 68de 7bbd 42ee 3e3d 5dc2 6c3d
00000100: dbd9 f2bc 8122 5c3d 2a8a 1f3e 3448 71bd
00000110: f570 d33d 0372 8d3d e13c 33be e93a 313e
00000120: 30f3 f8bd 3fcb 42bd c384 e2bc dd2f 983d
00000130: b184 69bb a76d d2bc b05b a73c 3cc9 2d3e
00000140: 8970 c63d 23c1 943b bef4 50bd b974 03be
00000150: d48d 8cbd 933a 23bd 2392 453c c3d5 f93c
00000160: fd4a ea3d 333f a03d 8526 cdbd 05a9 883d
00000170: 6400 b1bc f1de d1bd a8d6 46bc 2f60 9c3c
00000180: 56fb edbd 28a7 21be 6867 1dbe 1008 853d
00000190: e8a9 44be c7e8 953d 5313 9d3d 184c 443d
000001a0: b801 483e 8642 1f3e 2a23 d43b 0593 87bd
000001b0: 1ac3 053d cf53 1a3b cb4d ee3d d68b 443e
000001c0: bf09 b9bd 948c e83c 1160 e93d f980 c23d
000001d0: 7d42 2ebe 92bf 213e 464e 803d ff55 2e3e
000001e0: 315e 19be 304d b63d 69d9 5bbc 91e9 a4bc
000001f0: 1e0a 3cbe 13a5 2c3e c88d 2cbe 9a7b cabc
00000200: 5915 18be d0c5 cf3d 36d6 03bb b7ef 023e
00000210: da59 4d3d d4d9 c83d 37a9 f43d 2950 7f3d
00000220: 0e44 18be d9a0 553d 2edd 8e3d 42ea 103e
00000230: 62d7 4e3d fe42 84bc f03c a0bd 2a87 9e3d
00000240: df21 d4bd 3065 b03d 2962 813d 4fbe 943d
00000250: 313d 953d 56e9 ae3d 7c5c 173d 7dbb 993d
00000260: ec40 1cbe c988 213e f8ab babd e90a 9bbd
00000270: 1475 0bbe 1d1a 16be e620 2cbe 74be a0bd
00000280: f52d a93d 3fbe 9ebc 9999 093e 4ecf ed3d
00000290: d4dc 293c 3821 713c 77ff 0fbd 8648 363e
000002a0: 0d24 2d3d 81ac c13d caeb df3d 267f f43d
000002b0: 66b9 dfbd ff17 a0bd 72d5 4fbc 849e 09bc
000002c0: e1b6 98bc 39cb a13d fdc6 6b3c 612b 21be
000002d0: f8aa 39be fd55 28be b7b0 273e 40d6 253e
000002e0: 434b 0cbe 8be7 483d 4d57 b63d 8fbd 2cbe
000002f0: b475 0ebd cb59 42bb 61ae dc3d c4bf e3bd
00000300: cc8d 8f3c 0c9b d0bc 61e0 63bd 6ad1 143d
00000310: 9ce7 743c 4f52 433e 91ac 77bd f6a2 393d
00000320: 219b 07be 7acf 57bd 5442 0cbd fd57 ddbd
00000330: edb1 ba3d e864 b13d a859 21be 2589 253e
00000340: 392b 003e 8be9 953d 1ac4 213e aa39 bd3d
00000350: 433c 28bd bc18 34be 5af4 483d a91c 0a3e
00000360: 501b 423e 9713 afbd 71e4 3b3d 1ca9 8f3d
00000370: 67bc 8f3d 89be 73bd b5c9 d4bd ae3a 7bbd
00000380: 58c7 a1bd 40ac a33d 6b9e 2a3d 7242 f8bd
00000390: e8cd 9fbd 86d9 02be 172b 05bd c8d7 48bd
000003a0: 3689 233e 3bc2 a13d 3366 c83d d27c 953b
000003b0: 858b eb3d e4aa a9bc f410 a8bd 2351 10be
000003c0: f16e 1e3e ce3a d5bd b235 ec3d 6e09 153e
000003d0: 94ff 34bd 55cf 2d3e 7bf1 fbbd 66de c5bd
000003e0: f8c1 52bd 3c87 b13d eff6 7e3d 11eb b6bc
000003f0: 7d2d 66bd 2495 a4bd 890f 233e 6d63 2e3e

lstm.weight_hh_l2 f4 [128, 32]
0.059503444 0.1372105 -0.016797759 0.110926405 -0.0906743 -0.15047379 0.15538149 -0.108834244
0.047846004 -0.061505955 -0.030557998 -0.13192992 -0.047589466 -0.08503471 0.01834369 -0.018722402
-0.05637903 0.13870192 0.03793217 -0.1774392 -0.120304115 -0.1109698 -0.18450966 -0.038865916
-0.13722612 -0.0013341419 0.053948957 0.064994045 0.028020028 -0.05749955 -0.022723032 -0.15663035
-0.03484463 -0.12830275 -0.0040075164 -0.053150807 -0.06219899 -0.01917219 -0.019083844 -0.10460435
-0.07875178 -0.14095357 0.1460317 0.030498546 -0.033775695 0.15811399 0.022732828 -0.15694933
0.15379323 -0.047507063 0.021384291 0.13110125 -0.10514871 -0.05360568 0.14086626 0.06576319
-0.046550293 0.006661464 0.16045348 -0.11018272 0.03724933 -0.09995791 -0.013047537 -0.08351363
-0.13953707 0.0070563466 0.116298646 -0.054323882 -0.03415312 0.10259311 -0.03320023 -0.1609603
0.043015316 0.12847804 0.09761868 -0.14994104 -0.071442485 -0.018637672 0.014141709 -0.007985933
-0.15447295 0.102115124 -0.0047229114 0.15143447 -0.044831697 0.12070534 -0.15670763 -0.024752146
0.13432638 -0.043630604 -0.029420922 -0.04073942 0.018480098 0.11619218 -0.10157707 0.047573544
-0.06757071 0.12802632 0.11595355 -0.027891383 0.17907988 -0.020542474 0.07816056 -0.0998746
0.09972439 0.05663701 0.16943972 0.019111253 -0.18869719 0.13344976 0.120697156 0.011781784
0.15643781 0.12590471 0.06173695 -0.003673965 -0.07663585 -0.05586763 -0.005825577 0.13077721
-0.09041418 0.05069688 -0.1656128 0.11359424 -0.11380136 0.061872926 -0.056324497 -0.0781714
-0.03284124 -0.050561666 0.056518838 -0.08457005 0.046424977 0.0977749 0.075027354 0.11544038
0.14523815 -0.16076702 0.033332992 0.045456935 0.09093137 0.1784779 -0.03961178 0.11742995
-0.026512854 -0.14338294 0.1285079 -0.010168796 -0.16620535 0.0152095035 -0.15182063 0.16276205
-0.10288328 -0.010714266 0.02020372 0.016426919 -0.1121152 0.019940967 0.081023924 -0.06177948
-0.087624185 0.09985525 -0.11513171 -0.10613948 -0.06388036 -0.09790716 -0.16094962 -0.06341311
0.16747093 -0.15426914 -0.16232456 0.047154658 0.14648435 -0.12511535 0.117374375 -0.12199021
-0.057026505 0.008534823 -0.10109511 -0.0051480937 0.0215673 0.15889676 0.15856443 0.02222551
0.017177554 -0.16205148 0.07748871 0.08953927 -0.18277302 0.0741194 -0.012361841 0.16431831
-0.17524795 -0.047075517 -0.1484208 0.19228388 -0.07449115 -0.120257325 -0.0027348977 -0.07274039
0.078598335 -0.18978317 -0.008111045 -0.015418431 0.032429833 -0.08636761 0.053282358 0.12620947
-0.12100192 -0.18062192 -0.16557838 0.13778198 -0.07494004 0.06036738 -0.13731112 0.0972189
0.16397682 0.03670464 0.08185422 0.04237863 -0.13150984 -0.1593235 -0.15362993 -0.15708788
-0.11787462 0.009431207 -0.095330894 -0.0033071418 -0.039795186 0.15875638 0.001611669 -0.16845763
-0.016486056 0.026741678 0.013928266 -0.12946083 -0.02738005 -0.014513746 -0.011975023 -0.14783435
-0.18205872 0.05002864 0.10375788 -0.029861784 -0.047506884 0.06831455 0.08633628 0.06745612
0.156377 -0.012188028 -0.12741937 0.12509246 0.13888082 -0.0324035 0.050046757 0.023529856
00000000: e2b9 733d e980 0c3e 749b 89bc 622d e33d
00000010: 73b3 b9bd cd15 1abe 531c 1f3e 7de4 debd
00000020: 2cfa 433d abed 7bbd c454 fabc a318 07be
00000030: 2ced 42bd ae26 aebd 8245 963c b95f 99bc
00000040: b3ed 66bd e007 0e3e c35e 1b3d 9fb2 35be
00000050: 0162 f6bd 2244 e3bd 1af0 3cbe de31 1fbd
00000060: 0185 0cbe 60de aeba 95f9 5c3d 991b 853d
00000070: 428a e53c a684 6bbd a725 babc b563 20be
00000080: 3eb9 0ebd cc61 03be 7c51 83bb a9b4 59bd
00000090: 5ec4 7ebd ff0e 9dbc b955 9cbc ce3a d6bd
000000a0: 9d48 a1bd 2256 10be 5589 153e 16d8 f93c
000000b0: 6258 0abd a2e8 213e 323a ba3c 53b7 20be
000000c0: f97b 1d3e c496 42bd 1c2e af3c 683f 063e
000000d0: 3558 d7bd a191 5bbd 3f3f 103e daae 863d
000000e0: 85ab 3ebd 6948 da3b eb4d 243e 7aa7 e1bd
000000f0: c192 183d bcb6 ccbd 56c5 55bc 3209 abbd
00000100: cee2 0ebe ed38 e73b fc2d ee3d b882 5ebd
00000110: 24e4 0bbd 561c d23d f7fc 07bd c7d2 24be
00000120: d430 303d bf8f 033e 4dec c73d 258a 19be
00000130: 7050 92bd 08ae 98bc a0b2 673c 6ed7 02bc
00000140: 282e 1ebe bc21 d13d a7c2 9abb a311 1b3e
00000150: 71a1 37bd 5c34 f73d f777 20be 03c5 cabc
00000160: db8c 093e 01b6 32bd 2504 f1bc 61de 26bd
00000170: 9363 973c 2af6 ed3d a407 d0bd 7adc 423d
00000180: 8362 8abd 5519 033e 0e79 ed3d 787c e4bc
00000190: b760 373e b148 a8bc a512 a03d 0e8b ccbd
000001a0: 4d3c cc3d 36fc 673d 9b81 2d3e 348f 9c3c
000001b0: d639 41be 0ea7 083e 1230 f73d 6208 413c
000001c0: 3c31 203e 2aed 003e e2df 7c3d e8c6 70bb
000001d0: 42f3 9cbd 75d5 64bd 7be4 bebb 76ea 053e
000001e0: 122b b9bd 88a7 4f3d 6796 29be 19a4 e83d
000001f0: b010 e9bd 776e 7d3d 84b4 66bd 5418 a0bd
00000200: 8984 06bd c019 4fbd 4c80 673d 1033 adbd
00000210: 1e28 3e3d 353e c83d f1a7 993d 026c ec3d
00000220: 4fb9 143e 1ca0 24be 2d88 083d 0d31 3a3d
00000230: 3a3a ba3d e9c2 363e f63f 22bd 1d7f f03d
00000240: 7c31 d9bc fad2 12be 9397 033e 069b 26bc
00000250: bc31 2abe 4831 793c de76 1bbe 18ab 263e
00000260: 78b4 d2bd e48a 2fbc 4682 a53c bf91 863c
00000270: a79c e5bd 3d5b a33c dfef a53d 7b0c 7dbd
00000280: 4f74 b3bd e980 cc3d 2dca ebbd a85f d9bd
00000290: b5d3 82bd 8d83 c8bd facf 24be bcde 81bd
000002a0: 807d 2b3e bbf8 1dbe 6938 26be 3e25 413d
000002b0: feff 153e 3d1e 00be fa61 f03d 01d6 f9bd
000002c0: a094 69bd a4d5 0b3c f40a cfbd 57b1 a8bb
000002d0: e8ad b03c d5b5 223e b75e 223e 4612 b63c
000002e0: f1b7 8c3c d3f0 25be 67b2 9e3d 5d60 b73d
000002f0: da28 3bbe e9cb 973d 5289 4abc 0f43 283e
00000300: 3374 33be 42d2 40bd 9ffb 17be 11e6 443e
00000310: d18e 98bd 7949 f6bd f83b 33bb eaf8 94bd
00000320: 2af8 a03d 8556 42be 30e4 04bc 969d 7cbc
00000330: 25d5 043d 80e1 b0bd 9a3e 5a3d 0e3d 013e
00000340: dbcf f7bd f4f4 38be 618d 29be b816 0d3e
00000350: 2a7a 99bd c943 773d 499b 0cbe b41a c73d
00000360: 8ae9 273e 9b57 163d 2fa3 a73d 3795 2d3d
00000370: 84aa 06be b325 23be 2a51 1dbe a5db 20be
00000380: 4068 f1bd 5985 1a3c d83c c3bd a2bc 58bb
00000390: 4700 23bd 0891 223e a33e d33a 2880 2cbe
000003a0: c40d 87bc 5d11 db3c 6233 643c 6191 04be
000003b0: 204c e0bc 10cb 6dbc e332 44bc e361 17be
000003c0: 9a6d 3abe d5ea 4c3d 037f d43d b3a0 f4bc
000003d0: 9496 42bd 80e8 8b3d 13d1 b03d 6f26 8a3d
000003e0: 4b21 203e 4bb0 47bc 397a 02be 3d18 003e
000003f0: c636 0e3e 88b9 04bd d4fd 4c3d afc1 c03c
