pv/checkpoints/시설관리동-checkpoint-2023-08-10 23_09.pt (torch, 304719 bytes, 38 tensors)

lstm.weight_ih_l0 f4 [128, 17]
0	0xbd043a9f	-0.032282468
1	0x3e427190	0.18988633
2	0xbc96523c	-0.01834976
3	0xbd9ceb95	-0.07662121
4	0x3dbe1247	0.0928083
5	0xbdc9e811	-0.09858716
6	0x3e35edb2	0.17766455
7	0x3d93a0ef	0.0720843
8	0x3e125c60	0.14293051
9	0x3d9ee8ce	0.07759248
10	0xbdd89f85	-0.10577301
11	0xbdfbbc7c	-0.1229181
12	0x3e134f1c	0.14385647
13	0xbd48e85e	-0.049049728
14	0x3d6adb25	0.0573379
15	0x3d940e7e	0.07229327
16	0x3d043eaf	0.032286342
17	0xbca7788f	-0.020443229
18	0x3e1f1d6a	0.15538564
19	0xbca072ec	-0.019586049
20	0xbcba8859	-0.022770094
21	0xbb3a7657	-0.0028451884
22	0xbd48e750	-0.04904872
23	0x3e3ed743	0.18636803
24	0xbd835957	-0.064135246
25	0x3dda6acd	0.10664902
26	0x3db4f350	0.08835471
27	0x3e1db94f	0.15402721
28	0x3d94781b	0.07249471
29	0xbc91299d	-0.017720038
30	0x3e206aa2	0.15665677
31	0x3dee3bee	0.116325244
32	0xbdcaf335	-0.09909669
33	0xbb02d42f	-0.0019962897
34	0xbdd19423	-0.10233333
35	0xbd47dd9e	-0.048795335
36	0x3cfc50d6	0.030800264
37	0x3e127da3	0.14305739
38	0x3cc77472	0.024347518
39	0x3d2d093c	0.042245135
40	0xbd996704	-0.07490352
41	0x3e30a58c	0.17250651
42	0x3c99d975	0.01878045
43	0x3e25859a	0.16164246
44	0x3e0736a4	0.13204437
45	0xbd4c2e00	-0.049848557
46	0x3e35d3c8	0.1775657
47	0x3e0fb61f	0.14034317
48	0xbe0d2f6f	-0.13787626
49	0x3c6b90c8	0.01437778
50	0x3e044837	0.12918173
51	0xbdb4c0a7	-0.08825808
52	0x3c409168	0.011753418
53	0xbddd2887	-0.107987456
54	0xbd545939	-0.0518429
55	0x3dae1671	0.08500374
56	0x3bec1b96	0.007205437
57	0xbcb9e181	-0.022690536
58	0x3da4b0b3	0.08041515
59	0x3d0c1bf7	0.034206357
60	0x3e37add6	0.17937407
61	0x3e1f0b33	0.15531616
62	0x3e032964	0.12808758
63	0xbe087a80	-0.1332798
64	0xbe18ad1d	-0.14909787
65	0x3da22918	0.07917994
66	0xbcec5cff	-0.028852938
67	0x3d7a4a28	0.061105877
68	0x3d9129bd	0.07088039
69	0x3e037fab	0.1284167
70	0xbd7db624	-0.06194128
71	0x3e12b4f0	0.14326835
72	0xbe0dfba4	-0.13865525
73	0x3d1629a0	0.03666079
74	0xbd59b6e2	-0.053152926
75	0x3ce09e68	0.027419284
76	0xbd112c05	-0.03544237
77	0xbe1d87df	-0.15383862
78	0xbdefebd1	-0.117149
79	0x3dfcd2d1	0.123448975
80	0xbcfb18e7	-0.030651523
81	0xbde1bf5e	-0.110228285
82	0x3e25ce12	0.16191891
83	0xbe3ca52d	-0.18422385
84	0x3e3a4b30	0.18192744
85	0xbe2cfe5c	-0.16893905
86	0xba79060a	-0.0009499496
87	0xbdf3cd9e	-0.11904453
88	0xbdd07bef	-0.101798885
89	0xbd77685e	-0.060402267
90	0xbd4e82a8	-0.050417572
91	0xbe02a772	-0.12759188
92	0x3dcaa9b4	0.098956496
93	0xbca2263b	-0.01979362
94	0x3daccd12	0.084375516
95	0x3d13dd80	0.03609991
96	0x3d2f7425	0.042835373
97	0x3b264ebf	0.0025376526
98	0x3cf501d4	0.029908098
99	0xbd62392a	-0.055230297
100	0x3e0eb841	0.13937475
101	0xbd2056ea	-0.039145388
102	0x3d7f31e4	0.06230344
103	0xbd6e16a9	-0.05812708
104	0x3e23de5c	0.16002792
105	0x3d283f16	0.04107579
106	0x3de12596	0.10993497
107	0xbdbf66bb	-0.09345766
108	0x3e07cf8d	0.13262768
109	0x3dc76672	0.09736337
110	0xbd91895b	-0.071062766
111	0xbde85a52	-0.11345352
112	0x3bffd6bf	0.007807582
113	0xbd922091	-0.07135118
114	0xbc27a686	-0.010232573
115	0x3e1e098e	0.15433332
116	0x3e4af244	0.1981898
117	0x3d99e810	0.075149655
118	0xbdbecb8e	-0.09316169
119	0xbdc1d6c4	-0.094647914
120	0x3e0980d2	0.13428047
121	0x3d40c3b7	0.04706165
122	0xbceae772	-0.028674815
123	0xbe16c728	-0.1472441
124	0xbe1a57e3	-0.15072589
125	0x3db051c5	0.08609346
126	0xbe1d4a80	-0.1536045
127	0xbe290545	-0.16505916
128	0xbe37588b	-0.1790487
129	0x3b06599b	0.0020500186
130	0xbd050af7	-0.03248116
131	0xbe44caab	-0.19217937
132	0x3e06801f	0.13134812
133	0x3da7e679	0.08198256
134	0x3d2352c8	0.03987387
135	0x3e0b5a8b	0.13608758
136	0xbe14bac8	-0.14524376
137	0xbc20cefe	-0.009814976
138	0xbdb06b25	-0.08614186
139	0xbe0ace9b	-0.13555376
140	0x3ddc33ce	0.107520685
141	0x3db8622b	0.09003099
142	0xbd8786c5	-0.06617502
143	0xbd6d6038	-0.05795309
144	0xbcb13b87	-0.02163483
145	0xbe0d1ee2	-0.13781312
146	0x3e18f762	0.14938119
147	0xbbd57093	-0.006513664
148	0x3e14f936	0.14548191
149	0xbd1a7689	-0.0377107
150	0x3e293323	0.16523413
151	0x3e1e447b	0.1545581
152	0xbcdc2e7a	-0.02687763
153	0xbcc2ddbd	-0.023787374
154	0x3d174401	0.036930088
155	0xbd3f4c31	-0.04670352
156	0x3e424f92	0.18975666
157	0xbe125d7e	-0.14293477
158	0xbe055cef	-0.13023733
159	0xbe1be86a	-0.15225378
160	0xbd8c3c8a	-0.068474844
161	0x3992547e	0.00027910242
162	0x3d9c6926	0.07637243
163	0xbd8fab03	-0.0701504
164	0x3e33d3e8	0.17561305
165	0x3887ce6b	6.47575e-05
166	0xbe246165	-0.16052778
167	0x3c3b7de6	0.011443591
168	0xbdf3aea1	-0.11898542
169	0x3d4ab6ab	0.049490612
170	0xbe0eb418	-0.13935888
171	0x3d59be8e	0.053160243
172	0x3e286c8d	0.16447659
173	0x3e0cd15c	0.1375174
174	0x3d31a126	0.043366574
175	0x3e067b20	0.13132906
176	0xbc186835	-0.009302189
177	0x3d8918d4	0.06694189
178	0xbdb7112d	-0.08938823
179	0xbd8790aa	-0.06619389
180	0x3d020d28	0.031750828
181	0x3dd1cc62	0.10244061
182	0xbc55f2a5	-0.013058339
183	0xbddb0367	-0.10694008
184	0x3e38774f	0.18014263
185	0x3d99f7c1	0.075179584
186	0x3c479992	0.01218261
187	0x3cd6c4ab	0.026216825
188	0x3e06ddb9	0.13170518
189	0xbdb2f62f	-0.08738362
190	0xbd060c81	-0.03272677
191	0xbcd56ffa	-0.026054371
192	0xbd6d171e	-0.057883374
193	0x3e2b0fe8	0.16705287
194	0x3c480a9b	0.01220956
195	0xbe02e9a1	-0.12784435
196	0x3e4bb206	0.1989213
197	0x3de46635	0.11152307
198	0xbcfe2c03	-0.031026846
199	0xbdc80666	-0.097668454
200	0x3d722b5e	0.05912339
201	0xbe21bab0	-0.15793872
202	0xbd651810	-0.05593115
203	0x3c1cee33	0.0095782755
204	0x3dcbe192	0.099551335
205	0x3e07f045	0.1327525
206	0x3e2072a2	0.15668729
207	0x3df482dc	0.11939022
208	0x3d7b8182	0.061402805
209	0x3d4552f7	0.048174825
210	0xbda9d274	-0.08292094
211	0x3d625861	0.055260066
212	0xbd916740	-0.070997715
213	0x3e1f3f52	0.15551499
214	0x3e23e902	0.16006854
215	0xbdaf9204	-0.08572772
216	0xbe1f73a0	-0.15571451
217	0x3bac0b53	0.0052503734
218	0x3da86f4b	0.082243524
219	0xbde9c226	-0.11413984
220	0x3d96166d	0.07328496
221	0x3e17fca0	0.14842463
222	0xbd655b09	-0.05599502
223	0x3e379fd5	0.17932065
224	0xbdd25b2f	-0.10271298
225	0x3c7fa1ea	0.015602568
226	0x3e34bc70	0.17650008
227	0x3d8d9a37	0.0691418
228	0x3e10f3fc	0.14155573
229	0x3df7a0fe	0.12091254
230	0x3e444eca	0.1917068
231	0xbdeba9ea	-0.11507018
232	0xbd7650ea	-0.06013576
233	0xbe016281	-0.12635233
234	0x3c5ce8a1	0.013483197
235	0x3bbc965f	0.0057552303
236	0x3c2c945c	0.0105334185
237	0xbdfc83ce	-0.12329827
238	0x3d782149	0.06057862
239	0xbdb74644	-0.08948949
240	0x3e3118c3	0.17294602
241	0xbdd0850f	-0.10181629
242	0x3e3b65ec	0.18300599
243	0xbe004f24	-0.1253019
244	0xbd2f7b11	-0.042841975
245	0xbcb6e92b	-0.02232798
246	0x3e38a8bf	0.18033122
247	0x3dc53d02	0.09630777
248	0xbd888808	-0.06666571
249	0xbd16311a	-0.03666792
250	0x3d75a7cc	0.059974477
251	0x3de33704	0.11094478
252	0x3e0ae67e	0.13564488
253	0x3d667195	0.056260664
254	0xbdba1b3f	-0.09087228
255	0xbe148331	-0.1450317

lstm.weight_hh_l0 f4 [128, 32]
0	0xbe31b910	-0.17355752
1	0xbc91f805	-0.01781846
2	0x3e335f39	0.17516793
3	0xbd2794fe	-0.040913574
4	0xbd47ce8d	-0.048780967
5	0xbd56b5a9	-0.05241934
6	0x3d257f81	0.0404048
7	0xbe18df71	-0.14928986
8	0xbe4494cf	-0.19197391
9	0xbd380535	-0.04492684
10	0xbe063bbb	-0.13108723
11	0xbc715d90	-0.01473178
12	0xbdbe9a3d	-0.09306762
13	0x3db8eb1b	0.09029218
14	0x3df1267b	0.11774918
15	0xbe181656	-0.1485227
16	0xbe1549c1	-0.14578916
17	0x3e0840e0	0.13305998
18	0x3e0ba7fd	0.13638301
19	0xba84b58b	-0.0010124905
20	0xbdaa5c5e	-0.08318399
21	0xbda3ce58	-0.07998341
22	0x3e29707f	0.1654682
23	0xbab486da	-0.0013773099
24	0x3c879ab4	0.01655326
25	0x3ca6a586	0.0203426
26	0x3dfa6059	0.12225408
27	0x3d8846b0	0.066541076
28	0x3de961ab	0.11395582
29	0xbcfa8495	-0.030580798
30	0x3d0c74b4	0.034290984
31	0xbd463c28	-0.048397213
32	0xbca1036e	-0.019654956
33	0x3d34ddb8	0.04415676
34	0x3b879c2b	0.0041384897
35	0xbc9e5e3e	-0.019332048
36	0xbdbbced1	-0.091703065
37	0x3d9bde6f	0.07610785
38	0xbdf53218	-0.11972445
39	0xbd8259c3	-0.06364777
40	0xbdc959de	-0.09831594
41	0x3de13156	0.10995738
42	0x3dfa9a57	0.12236469
43	0xbdd8e363	-0.105902456
44	0x3c9bb538	0.01900731
45	0xbe01a4f4	-0.12660581
46	0xbdf4757e	-0.11936472
47	0xbd6550f4	-0.055985406
48	0x3d7d45ba	0.061834075
49	0xbb7f536a	-0.003895963
50	0xbcd88062	-0.026428405
51	0x3e1c6d3e	0.15276048
52	0xbb7bcae3	-0.003842049
53	0x3dcec076	0.10095303
54	0x3e0dee6d	0.13860483
55	0x3e25677d	0.16152759
56	0x3d273248	0.040819436
57	0xbdd7d202	-0.10538103
58	0xbde14826	-0.11000089
59	0x3e106066	0.14099273
60	0x3dd6d608	0.10490042
61	0x3d3f692a	0.04673115
62	0xbe05b8f9	-0.13058843
63	0xbe1824db	-0.14857809
64	0xbe0c621e	-0.13709304
65	0x3e3e4911	0.1858256
66	0x3d8f087e	0.06984042
67	0x3d2a398b	0.041558784
68	0x3dc35e84	0.09539512
69	0x3e3534e2	0.17695954
70	0xbdc6b76a	-0.09702952
71	0x3da32525	0.07966069
72	0xbd902fee	-0.07040392
73	0x3ca7dffd	0.020492548
74	0x3d6e0f62	0.05812014
75	0x3e1c12ae	0.152415
76	0x3e08392e	0.13303062
77	0x3cd3e6c2	0.02586687
78	0x3da43df3	0.080196284
79	0xbdf2b361	-0.1185062
80	0x3d993486	0.07480721
81	0xbe218ebb	-0.15777104
82	0xbdc646aa	-0.09681447
83	0x3dfa1ac1	0.12212134
84	0xbd75d6d9	-0.060019348
85	0xbb245d1d	-0.0025079914
86	0xbdb2119e	-0.086947665
87	0xbdac078f	-0.08399879
88	0x3e38257a	0.17983046
89	0xbca752f4	-0.020425297
90	0xbd7bd9d0	-0.06148702
91	0xbe0a3a85	-0.13498886
92	0xbd0ef301	-0.034899715
93	0xbb3296c2	-0.0027250503
94	0xbd7acd71	-0.06123108
95	0xbde778d1	-0.11302341
96	0x3e025b7d	0.12730213
97	0x3c6c0c18	0.01440718
98	0x3d85a55c	0.065256804
99	0x3d1c95a2	0.03822864
100	0x3e015985	0.12631805
101	0x3cadd15a	0.02121799
102	0x3e3a38a0	0.18185663
103	0xbda7d0b5	-0.081941046
104	0xbc8751f7	-0.016518576
105	0x3e4387ea	0.19094816
106	0xbe183040	-0.14862156
107	0xbde1da16	-0.11027925
108	0xbbcb6a63	-0.0062077506
109	0x3dccbb87	0.099967055
110	0x3e03acad	0.1285884
111	0xbe2b8c67	-0.16752778
112	0xbded4618	-0.11585635
113	0xbd8248a8	-0.06361514
114	0x3e05e21b	0.13074534
115	0x3c7475ad	0.014920634
116	0x3c86b4b4	0.016443588
117	0xbdeac8cb	-0.114640795
118	0x3e03f111	0.12884928
119	0x3ddfb53c	0.109232396
120	0x3d2b7578	0.041860074
121	0x3defa237	0.11700862
122	0xbe1fff85	-0.15624817
123	0xbd813f8f	-0.06310951
124	0xbda63b6b	-0.08116802
125	0xbc1d83ee	-0.009613974
126	0x3dc9dfcd	0.0985714
127	0xbc941c49	-0.018079894
128	0x3d9d4a27	0.07680159
129	0x3e081bd1	0.13291861
130	0x3d82b5a9	0.06382305
131	0x3d9f5ff4	0.077819735
132	0xbcaeae7d	-0.021323437
133	0xbd49f00c	-0.049301192
134	0xbe2c58a7	-0.16830693
135	0xbdd8aa91	-0.10579408
136	0x3da1462f	0.078747146
137	0x3cc5f8b5	0.024166444
138	0x3dc936d9	0.098249145
139	0x3d8ddb8a	0.069266394
140	0xbd86a204	-0.06573871
141	0x3ca1063f	0.019656299
142	0x3dcf64a3	0.10126617
143	0x3e220a84	0.15824324
144	0x3beaa34e	0.0071605807
145	0x3de38210	0.11108792
146	0x3cfa3c3e	0.030546304
147	0xbcd403ba	-0.025880683
148	0x3d3b4e61	0.045729045
149	0xbcbe30b7	-0.023216588
150	0xbe22a4c6	-0.15883169
151	0x3e06b8f9	0.13156499
152	0x3d1b4e59	0.037916515
153	0xbca39400	-0.019968033
154	0xbc05a60c	-0.008157264
155	0xbdfe7e62	-0.12426449
156	0xbddb63f1	-0.10712422
157	0xbccc66ce	-0.024951365
158	0x3e01b83d	0.12667938
159	0xbdc0ded0	-0.09417498
160	0x3dfc5c38	0.12322277
161	0x3d825a54	0.06364885
162	0x3e18806d	0.1489274
163	0xbb1f1ff0	-0.002428051
164	0x3d8339f0	0.06407535
165	0xbdec835b	-0.115484916
166	0xbd85a27d	-0.06525133
167	0xbd0d31f1	-0.034471456
168	0x3d9e3ec1	0.07726813
169	0xbbe56fbe	-0.007001846
170	0x3e015612	0.1263049
171	0xbe07b152	-0.13251236
172	0xbe125b1d	-0.1429257
173	0x3e02bde1	0.12767746
174	0x38a8ca5d	8.048557e-05
175	0xbd99818e	-0.07495414
176	0x3cd2551a	0.025675345
177	0x3d397bc0	0.045284033
178	0xbda149c9	-0.078754015
179	0x3d5dc9e1	0.054147605
180	0x3dc30bbf	0.09523725
181	0xbd48c45d	-0.04901539
182	0x3e0af156	0.13568625
183	0xbdb4e503	-0.08832743
184	0xbd990a26	-0.07472639
185	0xbdad920a	-0.0847512
186	0x3e1ac595	0.15114434
187	0xbe41c070	-0.18921065
188	0x3d588df4	0.052869752
189	0x3db660bd	0.0890517
190	0xbd936556	-0.07197063
191	0x3d9586f2	0.073011294
192	0x3df33db8	0.11877006
193	0xbdb93bb0	-0.090445876
194	0xbd7d89e5	-0.061899085
195	0xbcb311d1	-0.021859081
196	0x3e40987f	0.18808173
197	0xbd060b93	-0.03272588
198	0xbd65398c	-0.055963084
199	0x3d09530c	0.033526465
200	0xbe227972	-0.1586664
201	0x3d94205d	0.07232735
202	0xbd9af26c	-0.075657696
203	0xbd68935f	-0.05678117
204	0xbd9c38f8	-0.076280534
205	0xbe24842a	-0.16066042
206	0xbdaf6c98	-0.085656345
207	0xbdee824f	-0.11645948
208	0xbdc6c54f	-0.097056024
209	0xbcf15ace	-0.029462244
210	0x3ce81903	0.028332239
211	0xbe3b6067	-0.18298493
212	0xbd9c4894	-0.07631031
213	0xbd8b0d40	-0.067896366
214	0xbcce9b37	-0.025220497
215	0x3de69204	0.11258319
216	0x3e357164	0.17719036
217	0x3d319ba4	0.04336132
218	0xbe3eb84a	-0.18624988
219	0x3c816232	0.015793893
220	0xbd3e4d1b	-0.046460252
221	0x3d931b9a	0.07182999
222	0xbcc75e7b	-0.024337044
223	0xbe1680cd	-0.14697571
224	0x3db505b0	0.088389754
225	0xbe06e2fe	-0.13172528
226	0x3cd52f84	0.026023634
227	0x3e1df283	0.15424542
228	0x3b8de978	0.00433081
229	0xbe1b2d02	-0.15153888
230	0xbe2cf2c6	-0.16889486
231	0xbdf6b00b	-0.12045296
232	0x3d26f322	0.040759213
233	0x3e0cb14e	0.13739511
234	0x3d9c48e5	0.07631091
235	0xbdd538ba	-0.1041121
236	0x3e06390a	0.13107696
237	0x3e324370	0.17408538
238	0xbe18bb5c	-0.14915222
239	0xbe312952	-0.17300919
240	0xbd0c7896	-0.034294687
241	0x3dc969f5	0.09834663
242	0xbe1b1175	-0.15143378
243	0x3d5383f0	0.051639497
244	0x3e18bdfc	0.14916223
245	0x3decdca5	0.11565522
246	0xbe02af28	-0.1276213
247	0xbddc69f2	-0.10762395
248	0xbc31a46e	-0.010842426
249	0x3e095c3a	0.13414088
250	0xbd34af1a	-0.044112302
251	0x3e12e007	0.14343272
252	0xbd56d23e	-0.052446596
253	0xba4c8d44	-0.00078030326
254	0x3e17b522	0.1481519
255	0xbe006ca8	-0.12541449

lstm.bias_ih_l0 f4 [128]
0	0xbc23ac42	-0.0099898
1	0x3df9ffb5	0.12206975
2	0xbd734e7d	-0.059401024
3	0x3d6e7348	0.05821541
4	0xbe29dbbf	-0.16587733
5	0x3d020473	0.031742524
6	0x3e4b4106	0.19849023
7	0xbd0041fd	-0.03131293
8	0xbdfd2359	-0.12360258
9	0x3d58f2d5	0.052965958
10	0xbddc4cd7	-0.107568435
11	0x3d7ecae1	0.0622052
12	0xbe27855b	-0.16359465
13	0x3e04957f	0.12947653
14	0xbe1cff25	-0.15331705
15	0xbdd05f87	-0.101744704
16	0xbe059d5a	-0.13048306
17	0xbe03a92a	-0.128575
18	0xbcd157c5	-0.025554547
19	0x3e3a6723	0.18203406
20	0xbd047829	-0.032341156
21	0x3e10f46e	0.14155743
22	0x3e31abac	0.17350644
23	0x3cd62fa4	0.026145764
24	0xbc8f4114	-0.017487086
25	0xbdd3ec55	-0.10347811
26	0x3cdab9fa	0.026700009
27	0xbd64f718	-0.05589971
28	0x3ba21015	0.004945765
29	0xbbdde83e	-0.00677207
30	0xbd4ff162	-0.05076731
31	0x3daee740	0.08540201
32	0xbdcee4e8	-0.10102254
33	0xbe0d6643	-0.13808541
34	0xbdcfa848	-0.10139519
35	0xbd3cb130	-0.046067417
36	0x3dd9d4b1	0.10636271
37	0x3db3d3fc	0.08780667
38	0xbdb8f35b	-0.09030791
39	0x3d6ca4ef	0.05777448
40	0xbd8c292e	-0.06843792
41	0xbd547bbf	-0.051875826
42	0x3e22dc4d	0.1590435
43	0xbdac9ee7	-0.08428746
44	0x3d22ee92	0.0397783
45	0xbdc4e669	-0.0961426
46	0xbd0bfb8b	-0.034175437
47	0x3dab1a8c	0.08354673
48	0x3dc5180c	0.09623727
49	0xbe011e3d	-0.12609191
50	0xbdb6f37c	-0.0893316
51	0xbadbf6fb	-0.001678198
52	0xbc379ba1	-0.011206538
53	0x3e02f35e	0.1278815
54	0xbdaa7d97	-0.083247356
55	0xbd952f6f	-0.07284438
56	0xbcc021c1	-0.023453595
57	0x3c842fc8	0.016136065
58	0x3e11d66a	0.14241949
59	0xbdae087a	-0.084977105
60	0xbdd7c644	-0.10535863
61	0xbdf0ddf0	-0.11761081
62	0x3dd3d79c	0.103438586
63	0x3dd87705	0.10569576
64	0x3dc6dece	0.09710465
65	0x3e1a71e5	0.1508251
66	0x3c08e089	0.008354315
67	0xbd97b2fa	-0.07407184
68	0xbe1f8bf0	-0.15580726
69	0x3e12e962	0.14346841
70	0x3e1f4e58	0.1555723
71	0xbd63a6c6	-0.05557897
72	0xbd7e40ce	-0.06207352
73	0x3e44252d	0.19154806
74	0x3d848524	0.06470707
75	0x3dc5b120	0.096529245
76	0xbdceb134	-0.100923926
77	0xbdb03f77	-0.08605855
78	0x3e3fa8ad	0.18716688
79	0xbda1fe9c	-0.07909891
80	0xbda7ee54	-0.08199754
81	0x3de7e0be	0.11322163
82	0x3cf9dc2c	0.030500494
83	0x3e05fce9	0.13084759
84	0xbde18950	-0.110125184
85	0x3c8bd40e	0.017068889
86	0xbd8d7bdb	-0.06908389
87	0xbd244911	-0.040108744
88	0x3da614e4	0.08109453
89	0xbcf19d85	-0.029494056
90	0xbe34d5fa	-0.1765975
91	0xbe28b6a8	-0.16475928
92	0xbde48e17	-0.11159914
93	0xbe27ea0b	-0.16397874
94	0xbd415d9c	-0.047208413
95	0x3c36baef	0.011152967
96	0xbc90569d	-0.017619425
97	0xbe21ddf5	-0.15807326
98	0xbe00b4d5	-0.12568982
99	0x3e061490	0.13093781
100	0xbd9d220a	-0.07672508
101	0xbdaefb24	-0.08543995
102	0x3e2382e0	0.15967894
103	0xbd2135f0	-0.03935808
104	0xbe0317f3	-0.12802105
105	0xbce9887d	-0.028507465
106	0xbd9b0daf	-0.07570969
107	0xbdbcfedf	-0.092283
108	0x3d9472a5	0.07248429
109	0x3e215f4b	0.15759008
110	0xbd916f26	-0.07101278
111	0xbdaa68ae	-0.08320747
112	0xbdd9776c	-0.10618481
113	0x3df9ffe7	0.122070126
114	0xbdf0f809	-0.11766059
115	0xbd9b6cc9	-0.075891085
116	0x3dacd480	0.08438969
117	0xbd378ca1	-0.04481185
118	0xbdfa3e06	-0.12218861
119	0x3dda3b2f	0.106558196
120	0x3d71bb35	0.059016425
121	0x3c10eebb	0.00884598
122	0x3ddb59e0	0.10710502
123	0xbd80c36d	-0.062872745
124	0x3d3543b9	0.04425404
125	0xbd10a312	-0.035311766
126	0x3d299f7a	0.041411854
127	0xbe179081	-0.14801218

lstm.bias_hh_l0 f4 [128]
0	0x3dc0fc69	0.094231434
1	0xbe10bc5e	-0.14134356
2	0xbd3580d4	-0.044312313
3	0xbda964f3	-0.08271208
4	0xbe3c7b1c	-0.18406337
5	0xbdd4a4d1	-0.10382999
6	0xbd6df58c	-0.0580955
7	0xbe1f9e82	-0.1558781
8	0xbdaefab1	-0.08543909
9	0xbb9af820	-0.004729286
10	0x3bff1cab	0.0077854
11	0xbca5f6b4	-0.020259239
12	0x3d8b02c6	0.06787638
13	0xbc3c70d4	-0.01150151
14	0x3e105535	0.14095004
15	0x3e162719	0.14663352
16	0x3e263d61	0.16234352
17	0x3e221c45	0.15831096
18	0xbe279588	-0.16365635
19	0x3e256e7c	0.16155428
20	0xbda9e431	-0.08295477
21	0xbce07e4e	-0.027403977
22	0x3db8042f	0.08985173
23	0xbd905ffd	-0.07049558
24	0xbd40d09f	-0.047073957
25	0xbe1473cc	-0.14497298
26	0x3de13285	0.10995964
27	0x3e155a71	0.14585282
28	0xbd490feb	-0.049087446
29	0x3e4bbfcd	0.19897385
30	0x3cd477b0	0.025935978
31	0x3df25d29	0.11834175
32	0xbcf5e713	-0.030017411
33	0xbdafd312	-0.0858518
34	0xbc98c55b	-0.018648794
35	0x3e1bd623	0.15218405
36	0x3d410dcd	0.047132302
37	0xbe0aab6d	-0.13541956
38	0xbdcf223f	-0.10113954
39	0x3dae4cf9	0.08510775
40	0x3d32bc0f	0.043636378
41	0x3d54119d	0.05177461
42	0xbe11ec60	-0.14250326
43	0x3dee506e	0.116364345
44	0xbe1d4d44	-0.15361506
45	0x3dfdf9e9	0.12401182
46	0xbdb7b27e	-0.089695916
47	0xbd3eedaa	-0.046613373
48	0xbe081104	-0.13287741
49	0x3dd72ee0	0.105069876
50	0x3e08fb40	0.13377094
51	0x3e381f05	0.17980583
52	0xbdcb9eff	-0.099424355
53	0xbdf91127	-0.12161475
54	0x3ca1c2a7	0.019746138
55	0x3c61d391	0.0137833515
56	0x3df0620d	0.11737452
57	0xbd1494cb	-0.036274713
58	0xbd99910c	-0.074983686
59	0x3dbfb94d	0.09361515
60	0x3dd1d35d	0.102453925
61	0xbe0ec53c	-0.13942426
62	0xbb1bafdb	-0.002375594
63	0xbd6f28ba	-0.05838845
64	0xbdd8afe5	-0.10580424
65	0x3e092eb8	0.13396728
66	0x3cf820e3	0.03028912
67	0xbe450fb4	-0.19244272
68	0x3e0ea844	0.13931376
69	0x3e0eeecc	0.13958281
70	0xbda40399	-0.08008499
71	0x3e198963	0.14993815
72	0xbdfcef96	-0.12350385
73	0x3e216f27	0.15765058
74	0xbbf50bec	-0.007478228
75	0xbdfd2a47	-0.123615794
76	0xbdafb5b2	-0.085795775
77	0xbdbbbf07	-0.09167295
78	0xbd96231d	-0.07330916
79	0xbd3c372a	-0.045951046
80	0x3bb6aba6	0.0055746613
81	0x3de19829	0.1101535
82	0x3e24db65	0.16099317
83	0xbe0d8239	-0.13819207
84	0xbc640763	-0.013917777
85	0x3ddc9c5f	0.10772013
86	0xbc967e2a	-0.018370707
87	0xbdc1d977	-0.09465306
88	0x3e312715	0.17300065
89	0x3df35554	0.118815094
90	0xbe27d639	-0.16390313
91	0xbe0b3dba	-0.13597766
92	0x3d683681	0.056692604
93	0xbd4309da	-0.047616817
94	0x3d453678	0.04814765
95	0xbc83f4d2	-0.01610795
96	0x3d8dd0de	0.06924604
97	0x3c41e760	0.011834949
98	0x3e42f9e3	0.19040637
99	0xbd435965	-0.047692675
100	0x3d8d6b3e	0.069052204
101	0xbdf188e8	-0.11793691
102	0xbd0e5219	-0.034746263
103	0xbe3532c9	-0.17695154
104	0xbda2cee3	-0.07949617
105	0x3e379fef	0.17932104
106	0x3dc5b719	0.09654064
107	0x3c6415bf	0.0139212
108	0xbd67fb6e	-0.056636266
109	0x3d495e7d	0.049162377
110	0xbdf3bf62	-0.11901738
111	0x3e0e5fc2	0.13903716
112	0xbd98b4aa	-0.07456334
113	0x3d8353b4	0.064124495
114	0xbe2c9bf6	-0.1685637
115	0xbe04c1e7	-0.12964593
116	0x3d99f6f1	0.075178035
117	0x3d94e830	0.07270849
118	0xbcf5175f	-0.02991837
119	0xbd7ec7b8	-0.062202185
120	0xbd978e1e	-0.074001536
121	0x3ddf1bd6	0.10893981
122	0xbd8e0c90	-0.0693599
123	0x3d86d54e	0.065836534
124	0x3e182a93	0.14859991
125	0xbde8309d	-0.11337397
126	0x3e1f3017	0.15545689
127	0x3d9585f0	0.07300937

lstm.weight_ih_l1 f4 [128, 32]
0	0x3e1236bb	0.1427869
1	0xbd8bcd13	-0.06826224
2	0xbd04350e	-0.03227716
3	0x3de54323	0.11194446
4	0xbddf0b92	-0.10890879
5	0x3dbf160e	0.093303785
6	0xbdf0724b	-0.1174055
7	0xbde06568	-0.10956842
8	0x3e01833b	0.12647717
9	0xbd8ad0aa	-0.06778081
10	0xbc6e89ed	-0.014559251
11	0x3db62b5a	0.088949874
12	0x3e2ea011	0.17053248
13	0x3e244eaf	0.1604564
14	0xbe1db410	-0.1540072
15	0xbe166a4c	-0.14688987
16	0x3e201282	0.1563206
17	0xbd5bc5a0	-0.053655267
18	0xbe10972f	-0.14120172
19	0xbce3ded6	-0.027816217
20	0x3d4ac5c5	0.049505014
21	0xbd86b9ef	-0.06578433
22	0x3c39fdc8	0.01135201
23	0xbe352f26	-0.17693767
24	0x3da512f7	0.08060258
25	0xbdb164fd	-0.0866184
26	0x3c0e5ab8	0.008688621
27	0xbe219234	-0.15778428
28	0xbd7b912c	-0.061417744
29	0x3d50e11c	0.05099593
30	0x3db1eb2e	0.08687435
31	0x3d4c3c0f	0.049861964
32	0xbc6fbe8a	-0.01463283
33	0xbd318680	-0.04334116
34	0xbddd9fdc	-0.108215064
35	0xbd627c42	-0.055294283
36	0x3e09dce3	0.13463168
37	0x3d8f2dc6	0.069911525
38	0xbda3ec5a	-0.08004065
39	0xbba3fd5b	-0.0050045676
40	0xbe3646e4	-0.1780048
41	0xbd31fd61	-0.04345453
42	0xbdbb8ed0	-0.09158099
43	0xbbbc1ef9	-0.005740997
44	0xbd57ca2f	-0.05268305
45	0x3c447cf1	0.011992679
46	0x3e2caad6	0.16862044
47	0xbd802800	-0.062576294
48	0xbcfa86e4	-0.030581899
49	0x3daff15a	0.08590956
50	0x3d477431	0.048694793
51	0x3b86996e	0.0041076457
52	0x3e01292d	0.12613364
53	0x3d01d92a	0.031701244
54	0x3e2f679c	0.17129368
55	0xbe047d57	-0.12938438
56	0x3e1243e9	0.14283718
57	0xbe10ad1e	-0.14128539
58	0x3c213c7e	0.009841083
59	0x3c387fb5	0.0112609165
60	0xbdfc56d9	-0.123212524
61	0xbe31defa	-0.17370215
62	0x3daedef1	0.085386164
63	0xbe083103	-0.13299946
64	0xbc0efbaf	-0.008726998
65	0xbe08f672	-0.13375261
66	0x3e3ab25d	0.18232103
67	0x3c79fda3	0.015258226
68	0x3d51b879	0.051201317
69	0x3dd16274	0.102238566
70	0x3d177f71	0.036986772
71	0x3cca3d1f	0.024687348
72	0xbc0cdeeb	-0.00859807
73	0x3dd23cc5	0.10265497
74	0xbd4583df	-0.048221465
75	0xbe453c3a	-0.19261256
76	0x3e31e3ae	0.17372009
77	0xbd1ade9a	-0.037809946
78	0xbd392ec3	-0.04521061
79	0xbdac5f3a	-0.084166005
80	0x3de24e24	0.110500604
81	0xbc7d4e31	-0.015460537
82	0xbcb64ee8	-0.022254422
83	0x3d272ab9	0.040812228
84	0x3e3c524a	0.18390766
85	0x3e0432ea	0.12910047
86	0x3d63d47f	0.055622574
87	0x3ceed07a	0.029152144
88	0x3d5d62ac	0.05404918
89	0x3e2231a9	0.15839256
90	0xbe1dc599	-0.15407409
91	0x3e1bea0a	0.15225998
92	0xbc48ef1c	-0.012264039
93	0x3ab3bd42	0.001371302
94	0xbcb665ca	-0.022265334
95	0xbd328c27	-0.04359069
96	0xbe19d14d	-0.15021248
97	0x3c1763d7	0.009240112
98	0xbe2636a5	-0.16231783
99	0xbdb78ccb	-0.08962401
100	0xbe049021	-0.12945606
101	0xbe299ee8	-0.16564524
102	0xbd8d0c5a	-0.068871215
103	0x3cbb2b00	0.022847652
104	0xbdd12313	-0.10211768
105	0xbc09528c	-0.008381497
106	0x3df7b4ff	0.12095069
107	0x3e0cac60	0.13737631
108	0x3dc3c8da	0.09559794
109	0xbd806492	-0.06269182
110	0x3d339b81	0.043849472
111	0xbd59c1b1	-0.053163234
112	0xbc9861c0	-0.018601298
113	0xbe1bbafe	-0.1520805
114	0x3d7d08c5	0.06177594
115	0x3e381193	0.17975454
116	0x3dca96cb	0.09892043
117	0x3e24ebb3	0.16105537
118	0xbdd61532	-0.104532614
119	0xbe0458d9	-0.12924518
120	0x3e268b05	0.16263969
121	0x3cd6ad7a	0.026205767
122	0xbd0e199e	-0.0346924
123	0xbe18b992	-0.1491454
124	0x3bfb6bb0	0.0076727495
125	0x3e1339ad	0.1437747
126	0xbd3bba85	-0.045832176
127	0xbd5d82e4	-0.054079905
128	0xbe1c2b63	-0.15250926
129	0xbd1076e2	-0.035269625
130	0x3e23b138	0.15985572
131	0x3a242041	0.000626091
132	0xbd2401b1	-0.040040676
133	0xbd9d690f	-0.07686054
134	0xbdc8f61a	-0.09812565
135	0x3e157087	0.14593707
136	0xbe2ab20d	-0.16669483
137	0xbda2e50a	-0.07953842
138	0xbd8e1a80	-0.06938648
139	0x3d2dcde7	0.042432692
140	0x3e21a1d9	0.15784396
141	0x3d115eb6	0.035490714
142	0x3e07d54f	0.13264965
143	0xbde2ef44	-0.110807925
144	0xbdf403ea	-0.11914809
145	0x3ae4eeba	0.0017466166
146	0x3cf6266c	0.030047618
147	0xbde310ca	-0.11087187
148	0xbdd30b7a	-0.10304923
149	0x3da45e62	0.080258146
150	0x3d6c38be	0.0576713
151	0xbdfdd3f6	-0.12393944
152	0x3d223414	0.039600447
153	0x3d90932b	0.0705932
154	0x3e0e31dd	0.13886209
155	0xbc73a2ad	-0.014870328
156	0xbe1b6917	-0.15176807
157	0x3d96d310	0.07364476
158	0x3d3c71a3	0.04600681
159	0xbd6d94b2	-0.058003135
160	0x3b12c655	0.0022396047
161	0x3d67fa07	0.05663493
162	0x3d3746c3	0.044745218
163	0xbe3cdfc8	-0.18444741
164	0xbdc97edd	-0.098386504
165	0x3dc5a711	0.09651006
166	0x3c8e8862	0.017399017
167	0x3dbf436e	0.09339033
168	0x3bce1b07	0.006289843
169	0xbdd37a9f	-0.103261225
170	0x3d4872e3	0.04893769
171	0xbdd154a0	-0.10221219
172	0xbe0593bf	-0.13044642
173	0x3e0eae8a	0.13933769
174	0xbd49a821	-0.049232606
175	0xbdda26b4	-0.10651913
176	0xbd278a44	-0.040903345
177	0x3e1d036d	0.15333338
178	0xbd5d83f4	-0.05408092
179	0xbcca4c01	-0.024694445
180	0x3d48c9ae	0.04902046
181	0x3e03ac06	0.1285859
182	0x3b94e815	0.004544268
183	0x3cfc4b8c	0.030797742
184	0xbdc27631	-0.094951995
185	0xbd79e4d7	-0.061009254
186	0xbcabaaf2	-0.020955537
187	0xbe4a2e08	-0.19744122
188	0x3e16726d	0.14692087
189	0xbdb92af3	-0.09041395
190	0xbe025851	-0.12729003
191	0xbdbd8596	-0.09253995
192	0x3d913e7a	0.070919946
193	0xbe0e2a4a	-0.1388332
194	0x3b11f258	0.0022269692
195	0xbe189004	-0.14898688
196	0xbe2da56c	-0.16957635
197	0xbd7440b5	-0.059632022
198	0x3e2d0d76	0.16899666
199	0x3d700144	0.058594957
200	0x3e00035d	0.12501283
201	0x3e2e7979	0.17038526
202	0xbdcb1c5b	-0.09917518
203	0xbdbdd632	-0.0926937
204	0xbd55dde4	-0.052213565
205	0x3e2d3970	0.16916442
206	0xbd4469d0	-0.047952473
207	0x3dc8940c	0.09793863
208	0xbd7861cc	-0.06064014
209	0x3dd676ea	0.104719
210	0xbe1d6888	-0.15371907
211	0x3cd76d20	0.026297152
212	0x3e33f9fa	0.17575827
213	0xbe0239a9	-0.12717308
214	0x3e2d83b5	0.16944773
215	0x3d75e1e4	0.06002988
216	0x3c4f81d9	0.012665235
217	0x3e3e781e	0.18600509
218	0xbcd937b7	-0.026515825
219	0xbe0a737c	-0.13520616
220	0xbd1bcfc2	-0.03803993
221	0x3e019662	0.12655023
222	0x3cff56a6	0.031169247
223	0xbdf4df55	-0.1195666
224	0xbe2de1ea	-0.1698071
225	0x3dd92370	0.10602462
226	0x398b8093	0.0002660794
227	0x3e18fb2a	0.14939561
228	0xbc19c77e	-0.009385942
229	0x3d56c984	0.052438274
230	0xbd93028d	-0.07178221
231	0xbe15b9f7	-0.14621721
232	0x3d524038	0.051330775
233	0xbd5aecf7	-0.053448644
234	0xbe09c74e	-0.13454935
235	0xbe3b74e4	-0.18306309
236	0x3cf7d86b	0.030254563
237	0x3d7f349d	0.062306035
238	0xbe1971fc	-0.14984888
239	0xbde93f24	-0.11388996
240	0xbe117129	-0.14203323
241	0x3dcb31bf	0.09921598
242	0x3e14b004	0.1452027
243	0x3aca2015	0.0015420938
244	0xbc353a29	-0.01106123
245	0x3da77d05	0.081781425
246	0xbe1aac61	-0.1510482
247	0xbb9c2bc7	-0.004765961
248	0xbddc3169	-0.10751612
249	0x3dd205ec	0.10255036
250	0xbdaec942	-0.08534481
251	0xbb85ae3b	-0.004079608
252	0xbd8efbbb	-0.069816075
253	0xbe1af06d	-0.15130778
254	0xbe242d91	-0.16033007
255	0x3de73273	0.11288919

lstm.weight_hh_l1 f4 [128, 32]
0	0x3d8f5baf	0.06999909
1	0x3d9bf7f7	0.07615655
2	0xbdada51d	-0.084787585
3	0xbdef9ac8	-0.11699444
4	0x3ded8fcf	0.11599695
5	0xbe0d313f	-0.13788317
6	0x3da64a83	0.08119681
7	0x3e12285d	0.1427321
8	0x3d35ddd1	0.044400994
9	0x3e3db371	0.18525483
10	0x3c83307c	0.01601433
11	0x3b5df591	0.0033868293
12	0x3d53891e	0.051644437
13	0xbe397195	-0.18109734
14	0x3dd77c00	0.10521698
15	0x3d0759d2	0.033044644
16	0x3d0b3226	0.033983372
17	0x3debbec0	0.11510992
18	0x3df26b68	0.11836892
19	0x3dbb5736	0.091474935
20	0xbda223c5	-0.07916979
21	0x3dd16006	0.10223393
22	0xbdec0513	-0.11524405
23	0xbe0213bd	-0.12702842
24	0x3e14b101	0.14520647
25	0x3db31375	0.087439455
26	0x3e1f3384	0.15546995
27	0x3b954fa9	0.0045566154
28	0xbe343078	-0.17596614
29	0x3e36b1e0	0.17841291
30	0x3df37b3c	0.118887395
31	0xbc16ccbf	-0.009204089
32	0xbcd8d9fe	-0.026471134
33	0x3bf5f70b	0.0075062565
34	0xbd5bd4cb	-0.053669732
35	0xbcf99e7f	-0.030471085
36	0x3d33667e	0.043798916
37	0x3ddce275	0.10785381
38	0x3dc85769	0.09782297
39	0x3df99cb0	0.12188089
40	0x3cdbb053	0.026817476
41	0xbdd63f25	-0.104612626
42	0xbe1ef903	-0.15524678
43	0x3e06bc24	0.13157707
44	0xbdef12f6	-0.116735384
45	0xbdd00ccc	-0.10158691
46	0x3d1b8994	0.037973
47	0x3e2eda61	0.17075492
48	0xbe418f68	-0.18902361
49	0x3cfae05a	0.030624557
50	0xbdcdb841	-0.10044909
51	0x3d642851	0.05570251
52	0x3df5cb7f	0.120017044
53	0x39acbdb7	0.00032947745
54	0xbc2cb9c1	-0.010542334
55	0xbcea203c	-0.028579824
56	0xbd9a3711	-0.07530034
57	0xbd5a17e4	-0.05324544
58	0xbd6912ba	-0.056902625
59	0x3e11f6a2	0.14254239
60	0x3d7bcd30	0.06147498
61	0x3db977a5	0.090560235
62	0x3dde6c80	0.108605385
63	0x3d6925cb	0.056920808
64	0x3c0604bc	0.00817984
65	0x3df516de	0.11967252
66	0x3d97b5d7	0.0740773
67	0xbe0eec0d	-0.13957234
68	0xbe1468ce	-0.14493105
69	0xbc905ea6	-0.017623257
70	0x3d91ae8f	0.071133725
71	0xbe0f6854	-0.14004642
72	0xbda4e25a	-0.08050986
73	0xbbab07f5	-0.0052194544
74	0x3d0003b0	0.031253517
75	0x3df7f317	0.121069126
76	0x3e0d88a0	0.1382165
77	0xbdeef693	-0.11668124
78	0xbe0db3cb	-0.13838117
79	0x3c468db0	0.012118742
80	0xbe326f56	-0.17425284
81	0xbdd16827	-0.102249436
82	0xbd0f0c3f	-0.03492379
83	0x3d5fd9b2	0.05465097
84	0x3d0ca054	0.03433259
85	0x3de9ad1f	0.11409973
86	0x3bb35656	0.0054729385
87	0xbd2b21f6	-0.041780435
88	0xbdff498a	-0.12465198
89	0x3d877b7f	0.06615352
90	0xbba356ca	-0.0049847113
91	0x3cf6f95e	0.030148204
92	0x3e0bdb1c	0.13657802
93	0xbdcc4d69	-0.09975702
94	0xbd87686c	-0.06611714
95	0xbdf1bb02	-0.11803247
96	0xbd69179f	-0.056907292
97	0x3d02a62a	0.031896748
98	0xbe2374dd	-0.15962549
99	0xbd990288	-0.07471186
100	0x3def5f91	0.1168815
101	0xbd19ea34	-0.03757687
102	0xbe233cec	-0.15941209
103	0xbc810150	-0.015747696
104	0x3c485896	0.012228152
105	0x3e23331c	0.15937465
106	0x3d21fe0e	0.039548926
107	0xbded3713	-0.1158277
108	0xbe2e7be1	-0.17039444
109	0xbe318298	-0.17334974
110	0x3dc32642	0.095287815
111	0x3d41389b	0.047173124
112	0xbe003da8	-0.1252352
113	0x3e42a12b	0.19006793
114	0xbcf58a94	-0.029973306
115	0x3e1a9297	0.15094982
116	0xbdf56145	-0.11981443
117	0x3dc712ae	0.0972036
118	0xbe0b524f	-0.13605617
119	0x3da5ead3	0.0810143
120	0xbce2be24	-0.027678557
121	0xbe1529fe	-0.145668
122	0xbd97a681	-0.07404805
123	0x3d3135f3	0.04326434
124	0x3e169e05	0.14708717
125	0xbe021241	-0.12702276
126	0x3e00bbd8	0.12571657
127	0x3e2ee282	0.17078593
128	0x3cb2d30e	0.021829154
129	0xbdfb07e3	-0.12257364
130	0xbe17f1ee	-0.14838383
131	0x3e39a94f	0.18130992
132	0xbe18ad58	-0.14909875
133	0xbe3905f4	-0.18068677
134	0xbd7f4019	-0.062316988
135	0xbcb228d9	-0.021747993
136	0xbc8a9d3c	-0.016920678
137	0x3dff588f	0.12468063
138	0x3cb63805	0.02224351
139	0xbd786719	-0.060645197
140	0xbc760c52	-0.015017586
141	0x3d3a008d	0.04541068
142	0xbdb9868f	-0.09058868
143	0xbd81c3d0	-0.063361764
144	0xbc3ffa05	-0.011717324
145	0xbdbba93b	-0.091631375
146	0xbe35f659	-0.17769755
147	0x3e21f644	0.15816599
148	0x3c0ab230	0.008465335
149	0x3dfb4ab7	0.1227011
150	0x3d6d04be	0.05786585
151	0x3e30c628	0.1726309
152	0x3d5b1815	0.053489763
153	0x3d2ce8a7	0.042214062
154	0xbe1afae3	-0.15134768
155	0x3d778f71	0.06043953
156	0x3d135950	0.035973847
157	0x3b0e5df2	0.0021723476
158	0x3d0d7106	0.034531616
159	0x3e15bea9	0.14623512
160	0x3e40b94c	0.18820685
161	0xbdf2f40b	-0.11862954
162	0x3de2943e	0.11063431
163	0xbbf18cdb	-0.0073715276
164	0xbe079919	-0.13241996
165	0x3e04e84b	0.12979238
166	0x3e0c0e2f	0.13677286
167	0xbd912a4d	-0.07088146
168	0x3e082c0c	0.13298053
169	0x3e10eccf	0.14152835
170	0x3dc9e06c	0.09857258
171	0x3df68908	0.120378554
172	0x3dcb3228	0.09921676
173	0x3e16e312	0.14735058
174	0x3bd5eba7	0.006528336
175	0xbdb33737	-0.08750766
176	0x3d90b1b3	0.070651434
177	0xbdde63c1	-0.1085887
178	0x3dc05c84	0.09392646
179	0x3cb20f78	0.021735892
180	0xbe13e5f8	-0.14443195
181	0xbe3221d0	-0.17395711
182	0x3dd17977	0.10228246
183	0x3e0dfc92	0.13865879
184	0x3d8541e2	0.06506707
185	0x3c184daa	0.00929586
186	0x3e279afe	0.16367719
187	0x3dcfe72c	0.101515144
188	0x3e25329f	0.16132592
189	0x3d969b3f	0.073538296
190	0xbe1edba3	-0.15513472
191	0xbdfd8920	-0.1237967
192	0xbd6af351	-0.05736095
193	0x3d848c78	0.06472105
194	0x3da3da19	0.08000583
195	0x3de4b6eb	0.11167701
196	0x3ba0ddcb	0.0049092523
197	0x3dd91b60	0.106009245
198	0xbe1bb062	-0.15204003
199	0xbdd5177a	-0.104048684
200	0xbd927359	-0.07150907
201	0x3e19886f	0.14993452
202	0x3dd136fe	0.10215567
203	0xbdbf52a4	-0.09341934
204	0xbd20edac	-0.03928916
205	0x3e14c862	0.14529565
206	0x3cfa8d65	0.030585
207	0xbd8c6ebc	-0.068570584
208	0xbde87626	-0.1135066
209	0xbbc7c65e	-0.0060966453
210	0x3dddb528	0.108255684
211	0xbe2421ff	-0.16028593
212	0xbb4e522a	-0.003148208
213	0xbdf7a0f3	-0.120912455
214	0x3daae89d	0.08345149
215	0x3e189530	0.1490066
216	0x3e27f6bd	0.16402717
217	0x3de87752	0.113508835
218	0xbcc5947e	-0.024118658
219	0x3dde0a58	0.10841817
220	0x3e1d8b67	0.15385209
221	0xbcd3a776	-0.025836688
222	0xbe07f4a2	-0.13276914
223	0x3da6c0a9	0.08142216
224	0xbba6b8b4	-0.0050879363
225	0xbd4d50a7	-0.050125744
226	0xbde6af7e	-0.11263941
227	0x3d7b86a4	0.0614077
228	0xbd4142b1	-0.047182743
229	0xbdb9301a	-0.09042378
230	0x3e1ee094	0.15515357
231	0xbd8eb50a	-0.06968124
232	0xbdd01a2c	-0.10161242
233	0x3e37a908	0.17935574
234	0xbd8c52d9	-0.068517394
235	0xbdd38ac8	-0.10329205
236	0x3e20ed25	0.15715463
237	0x3ddafe74	0.10693064
238	0xbe1f74c9	-0.15571894
239	0xbd03b81a	-0.032157995
240	0x3e1f7952	0.15573624
241	0xbd4db049	-0.050216947
242	0xbdc89e81	-0.09795857
243	0x3e336838	0.17520225
244	0xbe117560	-0.14204931
245	0xbe3a9734	-0.18221742
246	0xbe1993ad	-0.1499774
247	0x3e3e3c85	0.18577774
248	0x3c29ef48	0.0103719905
249	0x3e0313bd	0.12800498
250	0xbd88d301	-0.06680871
251	0xbda633db	-0.081153594
252	0x3e1676ba	0.14693728
253	0x3dc5830e	0.09644137
254	0x3ceecaba	0.029149402
255	0x3ca63fd8	0.020294115

lstm.bias_ih_l1 f4 [128]
0	0x3e04c563	0.12965922
1	0xbdc56b8b	-0.09639653
2	0x3dfa1dd3	0.1221272
3	0xbe159295	-0.14606698
4	0x3db6523f	0.08902406
5	0x3e22135a	0.15827695
6	0x3e392202	0.18079379
7	0x3b8a58cc	0.004222011
8	0xbdfb337b	-0.122656785
9	0x3db58105	0.08862499
10	0x3e174009	0.14770521
11	0xbe0720ce	-0.13196108
12	0xbe1c11b4	-0.15241128
13	0x3d190eb7	0.03736755
14	0x3c9b2867	0.018940164
15	0x3df2c2b8	0.11853546
16	0x3ce91ad6	0.02845518
17	0xbddaeb7d	-0.10689447
18	0x3b867a6d	0.0041039498
19	0xbdacf59b	-0.08445283
20	0x3b2bd6c2	0.0026220535
21	0x3e366675	0.17812522
22	0x3b81c57d	0.00396031
23	0xbc06cd6b	-0.008227686
24	0x3cca3d73	0.024687504
25	0x3dcfdcb2	0.10149516
26	0xbc8782cc	-0.016541861
27	0xbd999f2e	-0.07501064
28	0x3e2c94ef	0.16853689
29	0x3e1577b0	0.14596438
30	0x3d30dc99	0.04317913
31	0xbd4f5910	-0.050622046
32	0xbe26763f	-0.16256045
33	0xbd321a79	-0.043482278
34	0x3d3dcb1e	0.046336286
35	0x3da4ce40	0.080471516
36	0x3dd260dd	0.102723815
37	0x3e28b7a6	0.16476306
38	0xbe135fba	-0.14391986
39	0xbe1fb43e	-0.155961
40	0x3b476f42	0.0030431305
41	0xbd73e445	-0.059543867
42	0x3d3e7615	0.04649933
43	0xbce52a6b	-0.027974328
44	0xbd0bcc88	-0.034130603
45	0x3e492f53	0.19646959
46	0x3b28f808	0.0025782604
47	0x3e2090fe	0.1568031
48	0xbdee4b1e	-0.11635421
49	0x3d18c99c	0.037301645
50	0xbdf324b6	-0.118722364
51	0x3e14c652	0.14528778
52	0xbdc0e5c3	-0.094188236
53	0x3cee21b0	0.029068798
54	0x3e49ce77	0.19707666
55	0xbe132e5c	-0.14373153
56	0xbc3a8805	-0.011384969
57	0x3c381b82	0.011237027
58	0xbdc71c7b	-0.09722229
59	0xbdf163de	-0.11786626
60	0x3e2f4d06	0.17119226
61	0x3e066932	0.13126066
62	0x3d5db3b8	0.05412647
63	0xbe156f76	-0.145933
64	0xbd5c8ab2	-0.053843208
65	0xbc3eda68	-0.011648752
66	0x3e1d0fdd	0.15338083
67	0x3dc6df18	0.097105205
68	0xbd9e1525	-0.07718877
69	0xbe2d8b0e	-0.16947576
70	0x3e2de02c	0.16980046
71	0xbd7c10f0	-0.06153959
72	0xbd02a363	-0.0318941
73	0xbd679478	-0.056538075
74	0xbe3494e4	-0.17634922
75	0x3db2deae	0.08733879
76	0xbe2ebac2	-0.1706343
77	0xbe18aab6	-0.14908871
78	0xbd923763	-0.071394704
79	0x3cc7bcef	0.024382083
80	0xbe0cb1c4	-0.13739687
81	0xbc054b75	-0.008135666
82	0x3d8404ac	0.064462036
83	0x3dc3d2f1	0.09561718
84	0xbd2a8357	-0.04162916
85	0xbdf0ec6b	-0.11763843
86	0xbdecbacd	-0.11559067
87	0x3d1d192f	0.038354095
88	0x3e3ee3c3	0.18641572
89	0x3e06e107	0.13171779
90	0xbe1d023f	-0.15332888
91	0xbc97848f	-0.018495826
92	0x3dc7f53e	0.09763573
93	0x3d2d1c28	0.04226318
94	0x3e2ab8df	0.16672085
95	0xbced40f9	-0.028961645
96	0x3db40941	0.087908275
97	0x3e20cd7a	0.15703383
98	0x3e06dd0e	0.13170263
99	0xbe1ae5a9	-0.15126671
100	0xbdd8cdbb	-0.10586115
101	0x3e2521fe	0.16126248
102	0xbd406b21	-0.046977166
103	0xbdbbc218	-0.0916788
104	0xbd99ab66	-0.07503395
105	0x3d0ea772	0.034827657
106	0xbd976d2c	-0.0739387
107	0xbda3d105	-0.07998852
108	0x3e2f3832	0.1711128
109	0x3b5da842	0.0033822213
110	0xbd35116e	-0.044206075
111	0xbc6c4459	-0.014420592
112	0xbd9e807e	-0.07739352
113	0x3d7cc6ec	0.061713144
114	0xbd1c3a51	-0.038141552
115	0xbdbf541c	-0.093422145
116	0x3e1efcaa	0.15526071
117	0xbc1efbed	-0.0097036185
118	0xbdb2d789	-0.08732516
119	0xbc6eb565	-0.014569615
120	0x3d97c435	0.074104704
121	0xbc29942a	-0.0103502665
122	0x3cad263e	0.0211364
123	0xbd298a90	-0.04139191
124	0xbdecc0bf	-0.11560201
125	0x3e35daf9	0.17759313
126	0xbddf8bce	-0.109153375
127	0xbda713e8	-0.08158094

lstm.bias_hh_l1 f4 [128]
0	0xbd429b86	-0.0475116
1	0xbc3b7a90	-0.011442795
2	0x3d9e0882	0.077164665
3	0xbdbfd8e4	-0.093675405
4	0xbd8cc72b	-0.06873926
5	0x3cf14d3f	0.02945578
6	0x3d8c468c	0.06849393
7	0x3d205467	0.039142992
8	0xbd76f024	-0.06028761
9	0xbd616a9f	-0.055033322
10	0xbcc1da4b	-0.02366366
11	0xbd852c0a	-0.065025404
12	0xbd318cc5	-0.04334714
13	0x3d256b9f	0.04038584
14	0xbb53eb62	-0.0032336344
15	0xbe2107d8	-0.15725648
16	0x3cef2470	0.02919218
17	0x3d71482f	0.05890673
18	0x3da732bc	0.08163974
19	0x3da6a6c5	0.081372775
20	0x3e0fb064	0.14032131
21	0x3e26adc5	0.16277225
22	0x3da03fa9	0.07824642
23	0x3e4aa8e4	0.19790989
24	0x3db13eb3	0.08654537
25	0xbda6559a	-0.08121796
26	0xbdb75285	-0.08951286
27	0x3e4b29a4	0.19840103
28	0x3e215704	0.1575585
29	0x3e48bdc3	0.19603638
30	0x3df19a03	0.117969535
31	0x3de53fe9	0.111938305
32	0x3d3a2749	0.04544762
33	0x3d8c18c4	0.06840661
34	0x3c03f250	0.008053377
35	0x3dcb407e	0.0992441
36	0x3e199ed1	0.1500199
37	0x3d304da2	0.043042786
38	0x3e324d7b	0.17412369
39	0x3d9d0da7	0.076686196
40	0x3e06f1c8	0.1317817
41	0x3d327ed7	0.043577995
42	0x3ddd4fd7	0.10806244
43	0xbe082d5c	-0.13298553
44	0xbdd7bc4b	-0.10533961
45	0x3d2cdad2	0.04220087
46	0xbd3f03f2	-0.046634622
47	0xbca35ae9	-0.01994081
48	0xbe10e1d5	-0.14148648
49	0xbc183389	-0.009289631
50	0xbdcfc822	-0.10145594
51	0x3cb4b800	0.022060394
52	0x3e3f9166	0.18707809
53	0xbd8bb96c	-0.06822476
54	0x3d1c4226	0.03814902
55	0x3d038662	0.03211058
56	0x3d2746b9	0.04083893
57	0xbc222579	-0.0098966295
58	0x3e35b92f	0.17746423
59	0x3dc59af0	0.096486926
60	0x3e32588f	0.17416595
61	0xbe195d7b	-0.14977066
62	0x3e0b6e3a	0.13616267
63	0x3a93be1b	0.0011271866
64	0xbd31ebd3	-0.04343779
65	0xbce29d28	-0.027662829
66	0x3d058641	0.032598738
67	0x3e09f8e1	0.13473846
68	0xbb65228d	-0.003496322
69	0x3d3e3e91	0.046446387
70	0x3df36705	0.11884884
71	0xbd7cc12a	-0.061707653
72	0x3dee78f7	0.11644166
73	0x3dae9c58	0.08525914
74	0x3b023d87	0.00198731
75	0x3d06da32	0.03292293
76	0xbdbb5cbf	-0.09148549
77	0x3db70fa4	0.0893853
78	0x3c5c8144	0.013458554
79	0xbdf5882b	-0.119888626
80	0xbe3e70d7	-0.18597732
81	0x3d4e392d	0.050347496
82	0xbd9750f7	-0.0738849
83	0x3daf5ff1	0.08563221
84	0xbe1e6c3c	-0.15470976
85	0xbddda1d1	-0.1082188
86	0x3e0e248b	0.13881128
87	0x3e2c7a39	0.16843499
88	0x3e33cd12	0.17558697
89	0xbe0f9032	-0.1401985
90	0xbe09b975	-0.13449652
91	0x3ddd23e5	0.10797862
92	0x3c340e36	0.010989716
93	0x3de78036	0.11303751
94	0x3e265cdc	0.1624636
95	0xbe2d54fe	-0.16926953
96	0xbd63568b	-0.055502456
97	0xbe1b9189	-0.15192236
98	0x3e45b2e3	0.19306521
99	0x3dfe2f49	0.12411363
100	0xbd92e723	-0.07172992
101	0x3e2e88ac	0.17044324
102	0x3e1bcfe4	0.15216023
103	0x3bc03385	0.0058655166
104	0xbd071568	-0.0329794
105	0x3e302f92	0.17205647
106	0xbd6fbf04	-0.058531776
107	0x3e109414	0.14118987
108	0x3d9d9628	0.07694656
109	0x3e3c2e0b	0.18376939
110	0x3d579753	0.05263455
111	0x3e26105b	0.16217177
112	0xbd898751	-0.06715263
113	0x3e0bd080	0.13653755
114	0x3e08d313	0.13361768
115	0x3d7deba6	0.06199231
116	0xbd95ebf3	-0.07320394
117	0xbe11121e	-0.14167067
118	0xbd51c8ad	-0.05121677
119	0xbd32c127	-0.043641236
120	0x3d809f04	0.0628033
121	0xbdb259bc	-0.08708522
122	0x3e25532e	0.16145012
123	0xbce36eb1	-0.027762743
124	0xbdf67ce0	-0.12035537
125	0xbc862429	-0.016374664
126	0xbce3641d	-0.027757699
127	0x3e25aa0c	0.16178149

lstm.weight_ih_l2 f4 [128, 32]
0	0x3df95990	0.12175286
1	0xbde6a0cc	-0.11261138
2	0x3dacbf53	0.0843493
3	0x3e15a251	0.146127
4	0x3d98ec45	0.0746694
5	0x3de77ae9	0.1130274
6	0x3e1c64c7	0.15272819
7	0x3e02248a	0.12709251
8	0x3d5b2139	0.05349848
9	0xbc9f212c	-0.019424997
10	0xbd230817	-0.039802637
11	0x3e27ffec	0.1640622
12	0xbe0880d7	-0.13330398
13	0x3ddc2569	0.10749323
14	0xbdb1e334	-0.08685914
15	0xbd2f0f64	-0.042739287
16	0xbda90096	-0.08252065
17	0x3dd8f826	0.105942056
18	0xbde26857	-0.110550575
19	0x3d701782	0.05861617
20	0x3ddf7766	0.10911445
21	0xbe223767	-0.15841447
22	0xbd28297c	-0.041055188
23	0xbd9d4564	-0.07679251
24	0x3cd4d29a	0.025979329
25	0xbd837b87	-0.06420045
26	0x3c837644	0.016047604
27	0x3e390559	0.18068446
28	0xbddd7763	-0.10813787
29	0x3dde59bc	0.10856959
30	0xbdc293df	-0.095008604
31	0x3d1cf48b	0.03831915
32	0xbd7daa58	-0.06193003
33	0x3e3757c5	0.17904575
34	0x3e148545	0.14503963
35	0xbdb026aa	-0.086011246
36	0x3de1134b	0.10990008
37	0xbdc92679	-0.09821791
38	0xbe08763f	-0.13326357
39	0x3e097dd0	0.134269
40	0xbe0f9956	-0.14023337
41	0xbd669246	-0.05629184
42	0x3c83ce68	0.016089633
43	0xbd7fc5ff	-0.062444683
44	0x3d38b140	0.045090914
45	0xbdc9eca5	-0.098595895
46	0x3dc690c2	0.09695579
47	0x3d961a28	0.07329208
48	0xbc169f5b	-0.009193267
49	0xbe15866a	-0.14602056
50	0xbdf90ea4	-0.121609956
51	0x3da8b1a4	0.08237007
52	0xbe351be1	-0.17686416
53	0xbde0ecba	-0.10982652
54	0x3c967c25	0.018369744
55	0xbc10430a	-0.008805046
56	0x3e28afe8	0.16473353
57	0x3cbaf836	0.022823434
58	0x3ddd79e8	0.108142674
59	0x3ddc9c2a	0.107719734
60	0xbdfcf849	-0.12352044
61	0x3e25e9ae	0.16202423
62	0x3ddaa20e	0.10675441
63	0x3e12853f	0.14308642
64	0xbca7d33c	-0.020486467
65	0x3d7bb8cd	0.061455537
66	0xbd6f4e81	-0.058424477
67	0xbd915425	-0.070961274
68	0x3d489749	0.0489724
69	0xbc8562fb	-0.01628255
70	0xbd4fda6f	-0.050745424
71	0xbe3338d8	-0.17502153
72	0xbb32fc88	-0.0027311165
73	0x3e421529	0.18953384
74	0x3d373232	0.044725604
75	0x3df026c2	0.117261425
76	0xbe352f8b	-0.17693917
77	0xbe19ec56	-0.15031561
78	0x3e1c821d	0.1528401
79	0x3e3d525a	0.18488446
80	0x3d97fa9c	0.07420847
81	0x3ce3f11e	0.027824935
82	0x3d9ffd2e	0.07811962
83	0xbded0dd0	-0.115749
84	0xbdeffa86	-0.117177054
85	0xbe354209	-0.17700972
86	0xbe06639a	-0.13123932
87	0x3e262356	0.16224417
88	0x3c3dca92	0.011583941
89	0xbdab1720	-0.0835402
90	0xbcce8619	-0.025210427
91	0x3e44e16b	0.19226615
92	0x3e165900	0.14682388
93	0xbdc8f96c	-0.098131984
94	0xbd9fb54e	-0.07798253
95	0x3e05fb74	0.13084203
96	0x3e0017e9	0.12509121
97	0xba17b948	-0.0005787802
98	0xbe02433f	-0.12720965
99	0xbdbc8098	-0.09204215
100	0x3e352b16	0.17692217
101	0x3dc127fe	0.09431456
102	0xbcbcd1f6	-0.023049336
103	0xbd4cef5c	-0.05003296
104	0x3dba25c9	0.09089238
105	0xbda465e2	-0.08027245
106	0xbd966643	-0.073437236
107	0xbd337a3f	-0.043817755
108	0xbd40e8d0	-0.047097027
109	0xbe3285b1	-0.17433812
110	0xbe2d0720	-0.16897249
111	0xbd554170	-0.05206436
112	0x3dbf976f	0.093550555
113	0xbe2f7a94	-0.17136604
114	0xbe2df565	-0.16988142
115	0x3c1785b5	0.009248187
116	0xbe25f97b	-0.1620845
117	0x3e0bb0ef	0.13641714
118	0x3de3281b	0.11091634
119	0xbcf991b1	-0.030464979
120	0x3dfaff3f	0.122557156
121	0x3d58f102	0.052964218
122	0xbdcd7f4f	-0.10034048
123	0x3e3e909b	0.1860985
124	0x3db4c4d6	0.08826606
125	0xbe115e7f	-0.14196204
126	0xbcb64fb9	-0.022254812
127	0xbe1c98af	-0.15292619
128	0xbd8e1c2f	-0.06938969
129	0xbd0677bf	-0.032829043
130	0x3e38a604	0.1803208
131	0x3de79066	0.11306839
132	0xbe1178ac	-0.14206189
133	0xbe1c9de5	-0.15294607
134	0x3d187723	0.037222993
135	0xbe12fee5	-0.14355047
136	0xbde7e477	-0.11322873
137	0x3e1f4f41	0.15557577
138	0xbcd86573	-0.026415562
139	0xbdf78ab5	-0.12087003
140	0xbc4b431b	-0.012406136
141	0xbd9b5bc2	-0.07585861
142	0xbe440c2a	-0.19145265
143	0x3e0cdd6b	0.13756339
144	0x3d5e23a7	0.05423322
145	0x3dd7dd3b	0.10540243
146	0xbe354c47	-0.17704879
147	0xbd9bbd61	-0.076044805
148	0x3df3239d	0.11872027
149	0xbe309515	-0.1724437
150	0xbdc56dcf	-0.09640085
151	0x3d2bb9f3	0.041925382
152	0xbe18d3ac	-0.14924496
153	0x3e42ff0f	0.1904261
154	0xbd0e403e	-0.034729235
155	0x3e28ce74	0.16485006
156	0xbd1ddb63	-0.0385393
157	0x3e0ea36f	0.13929532
158	0x3e32b462	0.17451623
159	0xbdbce3fe	-0.092231736
160	0x3e3a031a	0.18165246
161	0x3e37ab78	0.17936504
162	0xbb4ee58c	-0.0031569926
163	0xbe1551bd	-0.14581962
164	0x3cbf0489	0.023317592
165	0xbdd014dd	-0.10160229
166	0xbd43c1ba	-0.047792174
167	0x3e073b0c	0.13206118
168	0x3df2db3a	0.118582204
169	0xbdf1b83e	-0.118027195
170	0xbd924df8	-0.071437776
171	0x3d0ad627	0.033895638
172	0xbcbae187	-0.022812618
173	0xbdc705bc	-0.097178906
174	0x3d2f7167	0.04283276
175	0x3e0547fb	0.1301574
176	0xbda827b7	-0.082107
177	0xbd54a16b	-0.051911753
178	0x3dbf7c71	0.09349907
179	0xbe190f77	-0.14947306
180	0xbde46f10	-0.11153996
181	0xbd2ed31c	-0.0426818
182	0x3d615ec8	0.05502203
183	0x3db92946	0.090410754
184	0xbdc447d9	-0.09584016
185	0xbd3b8bf5	-0.04578777
186	0xba64adb8	-0.0008723396
187	0xbe0b5629	-0.13607086
188	0xba125fc6	-0.00055837294
189	0x3d999c87	0.07500558
190	0x3db29ebe	0.08721684
191	0xbd84da85	-0.06486992
192	0x3dd70bc5	0.10500292
193	0xbdba545a	-0.0909812
194	0x3dcce3b7	0.10004371
195	0x3c467ba2	0.012114437
196	0x3e36b947	0.17844115
197	0xbe230662	-0.15920404
198	0xbd375048	-0.044754297
199	0x3e04f804	0.12985235
200	0x3de44a9e	0.111470446
201	0x3e383cec	0.1799199
202	0xbe25d1a4	-0.16193253
203	0xbe0d918d	-0.13825054
204	0x3d01efe9	0.031722937
205	0xbe386717	-0.18008076
206	0xbe2455d8	-0.16048372
207	0xbe23cc76	-0.15995964
208	0x3dffaa9a	0.124837115
209	0x3e2c1790	0.16805863
210	0x3d812b11	0.063070424
211	0x3e2407a5	0.16018541
212	0x3db10063	0.08642652
213	0x3df7087d	0.12062166
214	0xbacf18c8	-0.0015800232
215	0xbd36008f	-0.044434126
216	0x3d246ca0	0.040142655
217	0xbe2604c3	-0.16212754
218	0xbdde885f	-0.108658545
219	0xbe1f3538	-0.15547645
220	0x3aa9dcce	0.0012959482
221	0x3e266e60	0.16253042
222	0x3d373a01	0.04473305
223	0x3d91f167	0.07126122
224	0x3e19b7a5	0.15011461
225	0x3e36c53b	0.17848675
226	0xbdb8644b	-0.09003504
227	0xbe0815d2	-0.13289574
228	0x3d9e809f	0.07739376
229	0xbda8fcc4	-0.08251336
230	0xbc0c9ab8	-0.00858181
231	0xbccbc3ed	-0.024873698
232	0x3d888dd0	0.066676736
233	0xbdfb2e93	-0.12264743
234	0xbe1ad52a	-0.15120378
235	0xbe200995	-0.15628655
236	0x3d8b8b2f	0.068136565
237	0x3de079c9	0.10960729
238	0x3dc263c4	0.09491685
239	0xbe11e084	-0.14245802
240	0x3e1e00d6	0.15430006
241	0xbd4efc7d	-0.05053376
242	0x3dc6e138	0.09710926
243	0x3e1c5398	0.15266263
244	0x3e17f83a	0.14840785
245	0xbc11a737	-0.008889965
246	0x3daa1133	0.08304062
247	0x3e24838a	0.16065803
248	0x3e2696e9	0.16268505
249	0x3da87255	0.08224932
250	0xbe076d6e	-0.13225338
251	0x3d2ebb9e	0.042659394
252	0x3e12f45b	0.14351027
253	0xbe0e7c94	-0.1391471
254	0xbd8d3c62	-0.06896283
255	0xbe1ec42c	-0.15504521
