pv/checkpoints/신재생에너지동-checkpoint-2023-08-10 23_18.pt (torch, 304907 bytes, 38 tensors)

lstm.weight_ih_l0 f4 [128, 17]
0	0x3d9e7033	0.07736244
1	0xbde1971e	-0.110151514
2	0xbe03671b	-0.128323
3	0xbca3d11d	-0.019997174
4	0x3e3dcb4b	0.18534581
5	0xbe1fbf6f	-0.1560037
6	0x3cdf837a	0.027284373
7	0x3d9141e5	0.070926465
8	0xbd83a466	-0.06427841
9	0x3c3bfdf9	0.011474126
10	0x3ddac66f	0.106823795
11	0x3dd327f7	0.10310357
12	0xbe177ea6	-0.14794406
13	0x3d8c2d41	0.06844569
14	0xbd5afd97	-0.0534645
15	0x3e3ab95f	0.18234776
16	0xbd48ce80	-0.04902506
17	0x3e337f71	0.17529084
18	0xbd0f2cea	-0.034954943
19	0xbda45942	-0.08024837
20	0xbd40b0b3	-0.047043514
21	0xbbe15229	-0.0068762493
22	0xbd91c166	-0.07116966
23	0x3e171c5e	0.14756915
24	0x3dfdd2a7	0.12393694
25	0xbe17f52d	-0.14839621
26	0x3e07d6ec	0.1326558
27	0xbe0ff2e4	-0.14057499
28	0xbde141bf	-0.10998868
29	0x3e29d6f1	0.165859
30	0xbd927a1d	-0.071521975
31	0x3e3fbe34	0.187249
32	0x3db61f62	0.088927045
33	0xbdf50b02	-0.1196499
34	0xbe1a0d43	-0.15044121
35	0xbcaec80f	-0.02133563
36	0x3db63fdd	0.088989
37	0x3e4442bd	0.19166084
38	0xbaa737f6	-0.0012757767
39	0x3d2e4897	0.042549696
40	0x3e19dd99	0.15025939
41	0x3d3ecd2c	0.046582386
42	0x3df1ed84	0.11812881
43	0xbd40f958	-0.047112793
44	0x3d2d6158	0.042329162
45	0xbca4d7ea	-0.020122487
46	0xbc86a71c	-0.016437106
47	0x3e34b238	0.1764611
48	0x3e42ae8f	0.19011901
49	0x3d5484f9	0.051884625
50	0xbd25d25f	-0.04048383
51	0x3d0c5cfc	0.034268364
52	0x3d15c0c7	0.0365608
53	0x3e181685	0.1485234
54	0x3d18dbe1	0.037319068
55	0x3e16ecc7	0.14738761
56	0x3e16dd74	0.14732915
57	0xbdc20a7c	-0.09474656
58	0xbdcd1898	-0.100144565
59	0x3d48e6bd	0.049048174
60	0x3c8c0360	0.017091453
61	0xbc073780	-0.008252978
62	0xbe0d5c13	-0.13804655
63	0x3e327676	0.17428002
64	0x3c94ecf2	0.01817939
65	0xbe052b6b	-0.13004844
66	0x3d5e69fa	0.054300286
67	0x3e0ab678	0.13546169
68	0x3e1cfc08	0.15330517
69	0xbdbe658a	-0.09296711
70	0x3b9ba84a	0.004750286
71	0x3d461ea7	0.048369076
72	0xbdc72617	-0.09724062
73	0x3df61c4c	0.12017116
74	0xbde05153	-0.10953011
75	0x3b260c95	0.002533709
76	0x3e0fddf2	0.14049509
77	0x3cabf935	0.020992855
78	0x3e2daeb9	0.16961183
79	0xbdcf233b	-0.101141416
80	0x3d8ad097	0.067780666
81	0xbdf65a1f	-0.12028908
82	0xbddcfa89	-0.10789973
83	0xbd505421	-0.05086148
84	0x3e11d009	0.14239515
85	0xbe1c85ef	-0.15285467
86	0x3ded0794	0.11573711
87	0xbd511434	-0.051044658
88	0xbcfb43e1	-0.030672016
89	0x3c282086	0.01026166
90	0x3e1196b9	0.14217652
91	0x3dc9200e	0.09820567
92	0x3e2b0700	0.16701889
93	0x3e1d8aac	0.1538493
94	0x3de63247	0.112400584
95	0xbd7430d6	-0.059616886
96	0xbdb942fa	-0.09045978
97	0xbdf5a8ac	-0.11995062
98	0x3df0cf26	0.117582604
99	0xbd780b53	-0.060557675
100	0xbd2a6264	-0.04159774
101	0xbe523737	-0.20528875
102	0xbe124334	-0.14283448
103	0xbdb960e2	-0.09051682
104	0x3cc8a5fe	0.024493214
105	0x3d9a0c2b	0.07521852
106	0xbd84a937	-0.06477588
107	0xbd9b982d	-0.075973846
108	0xbe1048fc	-0.14090341
109	0xbd18ea5a	-0.03733287
110	0xbdbe195e	-0.09282182
111	0x3d283ad7	0.04107174
112	0xbc58203c	-0.013191279
113	0x3c90593e	0.017620679
114	0x3e24f489	0.16108908
115	0x3d24658c	0.040135905
116	0x3e1c9bac	0.15293759
117	0xbe015c8c	-0.1263296
118	0xbcc6af01	-0.02425337
119	0x3cfc2bce	0.030782606
120	0xbe28b395	-0.16474755
121	0xbde5184f	-0.11186277
122	0xbbb747ea	-0.0055932896
123	0xbde49a86	-0.111622855
124	0x3d8218ec	0.0635241
125	0x3e12b89b	0.14328234
126	0x3dfd5c02	0.12371065
127	0x3d9d6ec8	0.076871455
128	0xbdf0c5a3	-0.11756446
129	0x3c65159f	0.013982206
130	0xbd840d46	-0.06447844
131	0x3d8e7821	0.069565065
132	0x3e0591a4	0.13043839
133	0x3d3a73b8	0.045520514
134	0x3e143f43	0.14477257
135	0xbe145e86	-0.14489183
136	0xbd7165a0	-0.058934808
137	0x3c9f67af	0.01945862
138	0xbd436d18	-0.04771146
139	0xbdcd062c	-0.10010943
140	0xbdf59c75	-0.119927324
141	0xbd88877f	-0.06666469
142	0x3dc94fb3	0.098296545
143	0xbdb94044	-0.09045461
144	0x3e3d70a0	0.18499994
145	0x3ded9135	0.11599962
146	0xbcbe2ba1	-0.023214163
147	0x3e004b00	0.1252861
148	0xbc8787e7	-0.016544295
149	0x3e15985b	0.146089
150	0xbd5ae30f	-0.053439196
151	0xbddf01d2	-0.10889019
152	0x39468da0	0.00018935511
153	0xbdba8242	-0.09106876
154	0xbe117c28	-0.14207518
155	0xbd2946cc	-0.041327283
156	0xbdc84b90	-0.097800374
157	0x3c7c010a	0.015381107
158	0x3a9ae4c6	0.0011817447
159	0x3e2974d2	0.1654847
160	0xbe17edcc	-0.14836806
161	0xbdd2385c	-0.10264656
162	0xbe01e2d2	-0.12684181
163	0x3d49a04c	0.049225137
164	0xbd06d2f3	-0.03291602
165	0xbc8362a5	-0.016038248
166	0x3e3bed94	0.18352348
167	0x3b590072	0.0033111838
168	0x3d15d615	0.036581118
169	0x3da0d9a7	0.07854014
170	0xbdf1c55b	-0.11805221
171	0x3d5463e9	0.051853094
172	0xbd4cd2b1	-0.05000562
173	0x3db3c05a	0.087769225
174	0xbc30db4c	-0.010794472
175	0x3d085c38	0.03329107
176	0x3d8374fe	0.06418799
177	0xbc58163c	-0.013188895
178	0xbd003561	-0.031300906
179	0x3c8e9178	0.01740335
180	0x3c3b01c2	0.011413993
181	0xbc5f77ce	-0.0136394035
182	0xbd0352fb	-0.03206156
183	0x3cf1f089	0.029533641
184	0x3e042a26	0.12906703
185	0xbe1300df	-0.14355801
186	0xbe38c006	-0.18042001
187	0xbcf12957	-0.029438658
188	0x3e0d11b2	0.13776281
189	0x3dcdc19e	0.10046695
190	0x3e1e9edc	0.15490288
191	0x3d02a26c	0.03189318
192	0x3ddcbe65	0.107785024
193	0xbdb2acaf	-0.08724343
194	0x3db6482e	0.08900486
195	0x3d941684	0.07230857
196	0x3e07d2c4	0.13263994
197	0x3e453126	0.1925703
198	0xbda3831b	-0.07983991
199	0x3e291fdf	0.16516064
200	0x3d7a557d	0.061116684
201	0x3df80b40	0.12111521
202	0x3dbf2571	0.09333313
203	0xbc9cf052	-0.019157562
204	0x3e2a0795	0.16604455
205	0x3dd23ee0	0.10265899
206	0x3dd39a24	0.10332134
207	0x3cdb39eb	0.026761016
208	0xbdacbcc4	-0.08434442
209	0xbdc8d934	-0.09807053
210	0x3cb9700d	0.022636438
211	0xbd69ae79	-0.057051156
212	0xbe28d5dd	-0.16487832
213	0x3e3fc0a9	0.18725838
214	0xbdc1a507	-0.094553046
215	0xbd710d4f	-0.058850583
216	0x3d85be63	0.06530454
217	0x3c8e38ee	0.01736113
218	0x3d78aae0	0.060709834
219	0xbdabf5be	-0.08396481
220	0xbe32819e	-0.17432258
221	0x3dcc6223	0.099796556
222	0x3ced6a5d	0.028981382
223	0x3d940b87	0.07228761
224	0x3e486ae6	0.19572029
225	0x3d8c91e8	0.06863767
226	0x3e44cbdf	0.19218396
227	0x3dfa4a59	0.12221212
228	0xbd2b1ff1	-0.04177851
229	0x3e27785a	0.16354504
230	0x3de03792	0.10948099
231	0x3b051967	0.002030933
232	0xbe2564a2	-0.1615167
233	0x3e2168f1	0.15762688
234	0xbd3808a4	-0.044930115
235	0xbe1515a6	-0.1455904
236	0xbc5fd442	-0.013661446
237	0xbe1c2800	-0.15249634
238	0x3dceba92	0.10094179
239	0xbd8e7b43	-0.06957104
240	0xbdc7d20b	-0.097568594
241	0xbb67e48e	-0.0035384032
242	0xbe311f2c	-0.17297047
243	0x3e00a416	0.12562594
244	0x3dff5b16	0.12468545
245	0xbdce197a	-0.10063453
246	0xbe41d43d	-0.18928619
247	0xbe3a1631	-0.18172528
248	0xbe1b43db	-0.15162604
249	0x3e0244ff	0.12721632
250	0xbd8d2aa1	-0.068928964
251	0x3ca79e04	0.02046109
252	0xbd9df8da	-0.0771348
253	0xbe1cb537	-0.15303503
254	0x3d9f08e8	0.077653706
255	0xbe03c75d	-0.1286902

lstm.weight_hh_l0 f4 [128, 32]
0	0x3d7db470	0.061939657
1	0xbc992670	-0.018695086
2	0x3d8506bc	0.06495425
3	0xbb50d6f0	-0.0031866394
4	0x3c633c5a	0.013869369
5	0x3d89adec	0.06722626
6	0x3e050729	0.12991013
7	0xbd4932ce	-0.049120717
8	0xbe250289	-0.16114248
9	0xbde47918	-0.11155909
10	0xbdd89897	-0.10575979
11	0xbd9a236e	-0.07526289
12	0xbdceaf3f	-0.10092019
13	0x3bd9b943	0.0066443994
14	0xbdee28ab	-0.116288505
15	0x3df0a5cf	0.117503755
16	0x3dcb07a5	0.099135675
17	0x3c18a6d0	0.009317115
18	0xbd6ff10f	-0.0585795
19	0xbd010260	-0.031496406
20	0x3e0ad5d9	0.13558139
21	0xbd020d22	-0.031750806
22	0xbbec0fa5	-0.0072040134
23	0x3dd7f692	0.105450764
24	0xbe1caa5f	-0.15299366
25	0x3deef561	0.11667896
26	0x3d46ee35	0.048567016
27	0x3e0a8e50	0.1353085
28	0x3c1ac435	0.009446193
29	0x3d796b71	0.06089348
30	0x3c44690e	0.011987938
31	0x3e1f435c	0.1555304
32	0x3e4d169d	0.20028158
33	0x3e21a3c0	0.15785122
34	0xbe4b9c49	-0.19883837
35	0x3e27a730	0.1637237
36	0xbd8bfd70	-0.06835449
37	0x3dd4d101	0.10391427
38	0xbe22e85e	-0.15908954
39	0x3e2a4193	0.16626577
40	0xbda824f7	-0.082101755
41	0xbe06ea28	-0.13175261
42	0xbd73ac8f	-0.059490737
43	0xbdfc510a	-0.123201445
44	0x3d3d6c03	0.046245586
45	0xbdf893da	-0.121375754
46	0xbdc907aa	-0.09815915
47	0x3db8e152	0.090273514
48	0xbd314e10	-0.043287337
49	0x3df580a8	0.1198743
50	0x3d5788f2	0.052620836
51	0xbc00dff6	-0.007865896
52	0xbb29f5e2	-0.002593391
53	0x3b9c7031	0.0047741164
54	0x3e1228eb	0.14273421
55	0x3cbaf588	0.022822157
56	0x3e0bb501	0.13643266
57	0x3db42d75	0.08797733
58	0x3e0464b3	0.12929039
59	0xbd93174b	-0.07182177
60	0xbd951efe	-0.07281302
61	0xbe24ad02	-0.16081622
62	0xbd980d81	-0.07424451
63	0xbe13d8b9	-0.14438142
64	0xbda3bcfb	-0.079950295
65	0x3d6a2dd6	0.05717262
66	0xbe0a5064	-0.13507229
67	0x3d76aad7	0.06022152
68	0xbde7fd5c	-0.11327621
69	0xbdb0fb12	-0.08641638
70	0x3ddb48f9	0.10707278
71	0xbdebdce3	-0.1151674
72	0xbd7f42c5	-0.062319536
73	0xbd05cb93	-0.032664847
74	0x3c197148	0.009365387
75	0x3d3125ae	0.043248825
76	0x3e4477ee	0.19186375
77	0x3e03ff48	0.12890351
78	0x3e07a9b2	0.13248327
79	0x3d966b2a	0.07344659
80	0xbc602e2c	-0.013682883
81	0x3e256cf7	0.16154848
82	0x3ddd49d3	0.108050965
83	0x3cb507f8	0.022098526
84	0x3db27cd5	0.08715216
85	0x3d963e74	0.07336131
86	0xbd4ae950	-0.04953891
87	0x3d803337	0.062597685
88	0xbdea0b33	-0.11427917
89	0xbc4cdf2f	-0.012504383
90	0x3e076713	0.13222913
91	0x3e11a8fb	0.14224617
92	0xbdffacd6	-0.12484138
93	0xbdd70956	-0.104998276
94	0xbdf621c9	-0.12018163
95	0xbd3dd0d8	-0.046341747
96	0x3e486516	0.19569811
97	0x3e34790e	0.17624304
98	0xbda3ded9	-0.08001489
99	0xbdce9c63	-0.10088422
100	0xbda0f230	-0.078586936
101	0xbdfa918e	-0.122347936
102	0x3d45b537	0.048268523
103	0xbd705e75	-0.05868383
104	0xbdce8351	-0.1008364
105	0xbe0b1981	-0.13583948
106	0x3e3d9a00	0.18515778
107	0x3e08dc7e	0.13365361
108	0xbe14bc78	-0.1452502
109	0x3d800673	0.0625123
110	0xbe315a27	-0.17319547
111	0x3cbabeac	0.022795998
112	0xbe0f144e	-0.1397259
113	0x3c8b6377	0.017015202
114	0x3d4dddee	0.050260477
115	0x3cfd973b	0.030955901
116	0xbddc1add	-0.10747311
117	0x3e2aef38	0.16692817
118	0xbcdff028	-0.027336195
119	0x3c5542dc	0.013016429
120	0x3e06bbd1	0.13157584
121	0x3e0f2257	0.13977943
122	0xbddc5993	-0.107592724
123	0xbe1d00ed	-0.15332384
124	0x3d03f225	0.03221335
125	0xbc029ead	-0.007972402
126	0xbdef39aa	-0.116809204
127	0x3e2a9976	0.16660103
128	0x3c805af2	0.015668366
129	0xbde41036	-0.111359045
130	0x3dcd96bb	0.10038515
131	0x3d17e367	0.037082102
132	0xbd0ded48	-0.034650117
133	0x3e0381f3	0.1284254
134	0x3ce7f32d	0.028314197
135	0x3d73ca99	0.059519384
136	0x3d6acc5d	0.057323802
137	0x3d937f5c	0.07202026
138	0xbd7e2458	-0.06204638
139	0x3da0e487	0.07856088
140	0xbdbfcfd4	-0.09365812
141	0xbe1c800f	-0.15283225
142	0xbe0065ec	-0.1253888
143	0x3e0b0815	0.13577302
144	0x3e21c7ae	0.15798828
145	0xbd445e98	-0.047941774
146	0x3d21f5ab	0.039540928
147	0xbe42984f	-0.19003414
148	0xbd800fb0	-0.06252992
149	0xbd486e1b	-0.04893313
150	0xbcd37d6c	-0.025816642
151	0x3c0ca26e	0.008583648
152	0x3e0df761	0.13863899
153	0x3e2fe2be	0.17176339
154	0x3dff0113	0.12451377
155	0x3c873bc4	0.01650799
156	0x3c1ad581	0.009450317
157	0xbc82949c	-0.015940003
158	0x3e18804e	0.14892694
159	0x3dc6b403	0.09702303
160	0xbd724943	-0.0591519
161	0x3e013d6e	0.1262109
162	0xbe19a2b8	-0.15003479
163	0x3d3ab04f	0.045578297
164	0x3d024e87	0.03181317
165	0x3d2f6b22	0.04282678
166	0xbc97b76d	-0.018520081
167	0x3c85afb0	0.016319126
168	0xbcd84d59	-0.02640407
169	0x3c68094e	0.014162375
170	0x3d823635	0.063579954
171	0x3d2162ad	0.039400745
172	0x3dd3a0c9	0.10333402
173	0xbd1d0d37	-0.03834268
174	0xbe278705	-0.163601
175	0x3e2d7205	0.16938026
176	0xbcc9583f	-0.024578212
177	0xbe0fc616	-0.14040408
178	0xbdca3846	-0.098740146
179	0xbe15bf75	-0.14623816
180	0xbe1b7648	-0.1518184
181	0x3d953f5d	0.07287476
182	0x3dde6d57	0.10860699
183	0xbcf506a4	-0.029910393
184	0x3d890030	0.06689489
185	0x3d62321b	0.055223566
186	0x3db75bb4	0.08953038
187	0x3d8350c7	0.064118914
188	0xbdf784d8	-0.12085885
189	0xbd91033f	-0.07080697
190	0x3e0710a5	0.13189943
191	0x3b31273a	0.0027031437
192	0xbe00ceb9	-0.12578858
193	0x3cc7fe61	0.02441329
194	0x3c6018b0	0.013677761
195	0x3d0925e3	0.033483397
196	0x3c1bb12b	0.009502689
197	0x3e37b08c	0.17938441
198	0x3d18eb38	0.037333697
199	0x3d931872	0.07182397
200	0x3deb9db5	0.115046896
201	0xbd99ccd2	-0.075097695
202	0xbdfb6aee	-0.122762546
203	0x3e1ee70e	0.15517828
204	0x3db43604	0.08799365
205	0xbe1dc04f	-0.15405391
206	0xbe248248	-0.16065323
207	0x3de1f50a	0.110330656
208	0xbd9f19ff	-0.0776863
209	0xbe16b6f2	-0.14718226
210	0xbe129bf8	-0.1431731
211	0xbbdcb2a5	-0.0067351633
212	0xbd958b25	-0.0730193
213	0x3d6c2245	0.05764987
214	0xbd8247a9	-0.06361324
215	0xbe2ced0c	-0.16887301
216	0x3d518f05	0.051161785
217	0x3c2baebe	0.0104786735
218	0xbb78e551	-0.003797848
219	0x3d9ef748	0.07762009
220	0x3d18613a	0.037202097
221	0xbe051972	-0.12997988
222	0xbbdb809c	-0.006698681
223	0xbd88bebe	-0.06677006
224	0xbc514187	-0.012771971
225	0x3c8c2e33	0.017111873
226	0xbd4249a0	-0.047433496
227	0x3d97b673	0.07407846
228	0x3918045f	0.00014497478
229	0x3d99381c	0.07481405
230	0x3e25e146	0.16199216
231	0x3d21b894	0.039482668
232	0xbcb7d77a	-0.022441614
233	0x3912ce19	0.00014000422
234	0x3b904483	0.0044026985
235	0xbcc37204	-0.023858078
236	0xbdb8beef	-0.09020793
237	0xbc80d045	-0.01572431
238	0xbe144665	-0.14479978
239	0xbdd284cf	-0.102792375
240	0x3c10a399	0.008828067
241	0xbcb0b226	-0.021569323
242	0x3da1e430	0.079048514
243	0x3dabd472	0.0839013
244	0xbdb5d79e	-0.08879016
245	0x3db1a7ac	0.08674559
246	0xbd08e5d7	-0.033422317
247	0xbbf385a6	-0.0074317036
248	0x3ce9c02c	0.028534018
249	0xbe2da65c	-0.16957992
250	0xbcd68a2a	-0.026188929
251	0x3bbe3a2b	0.005805274
252	0x3d79c257	0.060976353
253	0xbd8f17bd	-0.069869496
254	0x3dadac17	0.08480089
255	0xbe1068de	-0.14102504

lstm.bias_ih_l0 f4 [128]
0	0xbb339148	-0.0027399827
1	0x3e12b682	0.14327434
2	0x3da56446	0.08075766
3	0x3e1bfb0a	0.15232483
4	0x3d697589	0.056996856
5	0xbdda9d76	-0.106745645
6	0xbd9d99c8	-0.07695347
7	0x3e0cc84a	0.13748279
8	0xbe1bd03b	-0.15216152
9	0xbcfbccf0	-0.03073737
10	0xbdd797d8	-0.10527009
11	0x3e042d6b	0.1290795
12	0xbe14a988	-0.14517796
13	0xbe016a11	-0.12638117
14	0x3ddca377	0.10773366
15	0xbe005206	-0.1253129
16	0xbe079432	-0.13240126
17	0x3ce499c5	0.027905354
18	0xbd231ca8	-0.03982225
19	0xbd8e5b8b	-0.06951054
20	0xbcb69a9f	-0.022290526
21	0xbd6cf8e8	-0.057854563
22	0xbbc8dd27	-0.006129879
23	0xbd839321	-0.06424547
24	0x3d4cbfd2	0.04998762
25	0x3dc04b28	0.09389335
26	0xbd0ffe88	-0.03515485
27	0x3de8c5cf	0.11365854
28	0xbd65c008	-0.05609134
29	0xbe0b2840	-0.13589573
30	0x3e012f85	0.12615784
31	0x3d26b6bd	0.040701617
32	0xbcdcc4d5	-0.026949326
33	0xbbf7a486	-0.0075574545
34	0x3d9b13a1	0.07572103
35	0x3dcde51f	0.10053467
36	0x3dbb45b8	0.09144157
37	0xbca2d01a	-0.019874621
38	0xbe2995f3	-0.16561107
39	0x3d8b9c21	0.068168886
40	0x3b23c7f4	0.0024991008
41	0x3da76873	0.08174219
42	0xbe11d1ec	-0.14240235
43	0xbe22af98	-0.15887296
44	0xbd499680	-0.049215794
45	0xbd91e0c9	-0.071229525
46	0x3cbaa251	0.022782477
47	0xbe0d5be3	-0.13804583
48	0x3e425be6	0.18980369
49	0xbd09f2d2	-0.033678837
50	0x3e46306f	0.19354413
51	0x3ce646ef	0.028109996
52	0x3d84ef3b	0.06490942
53	0xbba1f515	-0.004942546
54	0x3d958453	0.073006295
55	0x3e380349	0.17970003
56	0xbe052545	-0.13002498
57	0x3e55cd09	0.20878996
58	0x3e674ef6	0.22588715
59	0x3d0b2a9a	0.033976175
60	0x3d1dfff7	0.038574185
61	0x3e257150	0.16156507
62	0x3d8fb310	0.07016575
63	0xbcb8c013	-0.022552526
64	0x3e2c47f7	0.16824327
65	0x38914f1a	6.9288726e-05
66	0xbab66f9e	-0.0013918763
67	0xbe131e9f	-0.1436715
68	0xbe351ecc	-0.1768753
69	0x3d51716d	0.051133562
70	0xbcf7f730	-0.030269235
71	0x3dc6800b	0.09692391
72	0x3d0bfad0	0.03417474
73	0x3c0d2495	0.008614679
74	0x3e4cf199	0.20014037
75	0x3cec0f11	0.028815778
76	0xbe1a8efd	-0.15093608
77	0x3e250e8b	0.16118829
78	0x3d453f36	0.048155986
79	0xbe13d5ac	-0.14436978
80	0x3e2b3dd5	0.16722806
81	0xbce4620b	-0.027878782
82	0xbc904233	-0.017609691
83	0xbba140ce	-0.0049210554
84	0x3e1d11bf	0.15338801
85	0xbdb32167	-0.08746605
86	0x3d41b644	0.047292963
87	0xbe0e6498	-0.13905561
88	0xbe3ac85c	-0.18240494
89	0x3e1c14ca	0.15242305
90	0x3e2c43e9	0.1682278
91	0xbe3346ed	-0.17507525
92	0xbde91330	-0.11380613
93	0xbe17b93f	-0.1481676
94	0x3d12ca13	0.035837244
95	0x3e22fd19	0.15916862
96	0x3e1bb3cd	0.15205307
97	0x3e225431	0.15852429
98	0x3d27ba12	0.040948935
99	0x3ce607a1	0.02807981
100	0xbde08972	-0.109637156
101	0x3e01b838	0.1266793
102	0x3db4f903	0.08836558
103	0x39ea239d	0.00044658492
104	0x3d658733	0.05603714
105	0x3cbb01be	0.02282798
106	0xbdf9c702	-0.12196161
107	0xbe03d4c3	-0.12874131
108	0xbcbe2207	-0.023209585
109	0x3e1d2483	0.1534596
110	0x3d104888	0.03522542
111	0x3e39e51d	0.18153806
112	0x3e1932d6	0.14960799
113	0x3e06f0c3	0.13177781
114	0x3d04e5fe	0.0324459
115	0x3e03c488	0.1286794
116	0x3df886c5	0.1213508
117	0xbdfec3ce	-0.124396905
118	0x3d26204b	0.04055814
119	0x3d40f475	0.047108132
120	0xbdb88c42	-0.09011127
121	0x3d07c8de	0.033150546
122	0x3b978c6b	0.0046248934
123	0xbe0e504c	-0.13897818
124	0xbdb207d7	-0.086929016
125	0xbdadcc5b	-0.08486243
126	0xbda1d5d9	-0.07902116
127	0xbde39e18	-0.11114138

lstm.bias_hh_l0 f4 [128]
0	0xbd91c5b0	-0.07117784
1	0xbd2c1ebf	-0.04202151
2	0x3df526d0	0.119702935
3	0xbd3122e3	-0.04324616
4	0x3c677766	0.014127588
5	0xbd99142f	-0.07474553
6	0x3dd5d103	0.104402564
7	0xbe1fceed	-0.1560628
8	0x3d0db4bf	0.0345962
9	0x3dd145c0	0.10218382
10	0x3e24fb8c	0.16111583
11	0x3d97186e	0.073777065
12	0x3cbb3614	0.022852935
13	0xbda66a82	-0.081257835
14	0xbd534cb5	-0.051586825
15	0x3df0dfb4	0.11761418
16	0xbd2307b1	-0.039802257
17	0xbd853c85	-0.06505684
18	0x3d65ea46	0.056131624
19	0xbd1c5ce2	-0.038174517
20	0x3cfc0288	0.030762926
21	0x3e365492	0.17805699
22	0x3dd2885b	0.10279914
23	0x3d000fff	0.031265255
24	0x3cf9872a	0.030459959
25	0x3daefbc6	0.08544116
26	0x3cc5262e	0.024066057
27	0x3dae85e9	0.08521635
28	0xbd451f9d	-0.048125852
29	0x3ddc0813	0.107437275
30	0x3e197f74	0.14990026
31	0x3b0ddd4c	0.0021646796
32	0x3e2d4c7a	0.16923705
33	0xbde29b66	-0.11064796
34	0xbd28eb3b	-0.04123996
35	0xbd2400c3	-0.04003979
36	0xbda71332	-0.08157958
37	0x3d0782cf	0.033083733
38	0xbbf93037	-0.0076046246
39	0xbddd8967	-0.10817223
40	0x3e41eec8	0.18938744
41	0xbd2e4f3c	-0.042556033
42	0x3db32c14	0.087486416
43	0x3e435e71	0.19078995
44	0x3e2e41c9	0.17017283
45	0x3e2fac8a	0.17155662
46	0xbe02d35b	-0.12775938
47	0xbe2d8720	-0.16946077
48	0xbd9d8a28	-0.07692367
49	0xbe094cdd	-0.13408227
50	0x3de0ba79	0.10973067
51	0xbe18dc2b	-0.14927737
52	0xbdeea6f1	-0.11652935
53	0x3d7ec2de	0.06219756
54	0xbc907cd7	-0.017637653
55	0x3d46be0e	0.048521094
56	0xbcd3f4f0	-0.025873631
57	0xbcc02923	-0.023457116
58	0x3c086a14	0.008326072
59	0x3e08779f	0.13326882
60	0x3dfbfae6	0.123037145
61	0x3d80e693	0.062939785
62	0xbe0f17cf	-0.13973926
63	0x3e0dcdb9	0.13848008
64	0x3e199c79	0.15001096
65	0xbdd49de7	-0.1038168
66	0xbe2f61ba	-0.17127123
67	0x3d9992ab	0.07498678
68	0x3d492bb4	0.049113944
69	0x3e024739	0.12722482
70	0x3d09a079	0.033600304
71	0xbd4bcc5c	-0.04975544
72	0x3df76921	0.120805986
73	0x3d886871	0.066605456
74	0x3d3889f4	0.045053437
75	0xbe1ce2a7	-0.15320836
76	0x3e0f8e7d	0.14019199
77	0xbe07044a	-0.1318523
78	0x3d3ac407	0.045597102
79	0x3e22fa1b	0.1591572
80	0x3d5d642e	0.054050617
81	0x3d5c66a7	0.053808834
82	0xbe2b4316	-0.1672481
83	0x3dab608c	0.08368024
84	0xbd810809	-0.06300361
85	0x3de03cf0	0.10949123
86	0x3ca9d5af	0.020731775
87	0x3d4c9a3e	0.049951784
88	0x3d5d4221	0.054018144
89	0x3d48f9d3	0.049066376
90	0x3d8d64b3	0.069039725
91	0xbdcdf45c	-0.100563735
92	0x3d162c82	0.03666354
93	0xbd1d3f51	-0.03839046
94	0xbcbbc901	-0.022922995
95	0xbddb0295	-0.10693852
96	0xbd798e3b	-0.060926657
97	0x3cc61e5d	0.0241844
98	0x3e2dfef7	0.16991793
99	0x3ba9c278	0.005180653
100	0x3de0aac6	0.109700724
101	0x3de0dac2	0.10979225
102	0x3e2c0346	0.16798124
103	0x3e2cf9e2	0.16892198
104	0x3c01f895	0.007932802
105	0x3ccb591e	0.024822768
106	0x3e0d51c7	0.13800727
107	0xbde88323	-0.11353137
108	0xbd132aef	-0.035929617
109	0x3da28025	0.07934598
110	0xbe3d5318	-0.18488729
111	0x3d070fc5	0.032974023
112	0xbe0c8335	-0.13721927
113	0x3dab95c3	0.08378174
114	0x3e008031	0.12548901
115	0x3d4a65d6	0.049413525
116	0x3de38e31	0.11111105
117	0x3c27f486	0.01025117
118	0x3dd8cd05	0.10585979
119	0xbe09418f	-0.13403915
120	0xbe1c3ec0	-0.15258312
121	0xbce99468	-0.028513148
122	0x3df92d07	0.121667914
123	0x3d1196df	0.035544273
124	0x3e3b2329	0.18275131
125	0x3e2170de	0.15765712
126	0xbc1c98f9	-0.009557956
127	0xbcbcc343	-0.023042327

lstm.weight_ih_l1 f4 [128, 32]
0	0xbd696b5f	-0.056987163
1	0x3d68a8bd	0.056801546
2	0xbda0c7fb	-0.07850643
3	0x3e0c6145	0.1370898
4	0x3d520a91	0.05127961
5	0xbda9e9ac	-0.082965225
6	0xbcfffc5d	-0.031248266
7	0xbe0eac75	-0.13932975
8	0x3d88dbd6	0.066825554
9	0x3b60912d	0.003426622
10	0x3e0a9ecc	0.13537139
11	0x3e0475ad	0.12935515
12	0x3ddf9e00	0.10918808
13	0xbd8220dc	-0.06353924
14	0x3dd3ad4d	0.10335789
15	0xbdf27e27	-0.11840468
16	0x3e335a5b	0.17514937
17	0x3a3d0f15	0.0007212025
18	0xbe3a3666	-0.18184814
19	0x3d9660bd	0.0734267
20	0xbdde5ca6	-0.10857515
21	0x3d1dd4e3	0.038533103
22	0x3e3abdf1	0.1823652
23	0x3d7d86a8	0.061895996
24	0x3dde0c24	0.108421594
25	0xbddb5ae9	-0.10710699
26	0x3e50914d	0.20367928
27	0xbd987c40	-0.07445574
28	0x3caaed02	0.020864967
29	0xbc192767	-0.009347773
30	0xbd22d826	-0.039756916
31	0x3e445024	0.19171196
32	0xbcf5accb	-0.02998962
33	0xbc9ca78e	-0.019122865
34	0x3da56534	0.080759436
35	0x3ddde3ff	0.108345024
36	0xbd0e1b64	-0.03469409
37	0xbc8de46f	-0.01732084
38	0x3e0e42e6	0.13892707
39	0x3cf11c15	0.029432336
40	0xbce8eb48	-0.028432503
41	0xbe0bae7d	-0.13640781
42	0x3d0800a2	0.03320373
43	0x3a6d7bd4	0.00090592843
44	0xbde1f6e4	-0.11033419
45	0x3e2f079d	0.17092748
46	0xbd61cc14	-0.055126265
47	0x3d9f9809	0.0779267
48	0xbd9720eb	-0.073793255
49	0x3d96c7d1	0.07362331
50	0xbd7b0ded	-0.061292578
51	0xbe1cdba1	-0.15318157
52	0x3d5ef610	0.054433882
53	0x3daa4fd0	0.08316004
54	0x3de29740	0.11064005
55	0x3dfbf89c	0.12303278
56	0x3e02a6fb	0.1275901
57	0xbdf2ceb3	-0.11855831
58	0xbd2ca688	-0.042151004
59	0xbd93c609	-0.072155066
60	0x3e3e4e1e	0.18584487
61	0x3d622491	0.055210654
62	0x3d85f74c	0.06541309
63	0x3e0dc885	0.13846023
64	0x3d85ca9b	0.065327846
65	0x3d64f555	0.05589803
66	0x3c5dab85	0.013529663
67	0x3df87220	0.121311426
68	0xbe43dbb7	-0.19126783
69	0x3dfafcc1	0.1225524
70	0xbd9497c2	-0.07255508
71	0xbe1c429a	-0.15259781
72	0xbd3a8a88	-0.04554227
73	0xbdf64895	-0.12025563
74	0x3d4a53c2	0.049396284
75	0x3ddf9dff	0.10918807
76	0x3ddd50dc	0.10806438
77	0x3dc9bbc2	0.09850265
78	0xbd96d378	-0.07364553
79	0xbcffeefc	-0.031241886
80	0x3e3e3537	0.18574987
81	0x3d1988f6	0.03748413
82	0xbcef4ffe	-0.029212948
83	0x3dde1505	0.10843853
84	0xbdfa0bdd	-0.12209294
85	0x3c7922b9	0.015206032
86	0x3d870e9c	0.065945834
87	0xbd7c0370	-0.061526716
88	0x3e020db2	0.12700537
89	0xbcb67240	-0.022271276
90	0xbc81b45a	-0.015833069
91	0xbe136347	-0.1439334
92	0x3d02aaa7	0.031901028
93	0xbccca674	-0.024981715
94	0xbd9a2681	-0.07526875
95	0xbd5a02f4	-0.053225473
96	0x3e2f2b7d	0.17106433
97	0xbdf52287	-0.11969476
98	0x3dfa050e	0.12207995
99	0xbd8456a6	-0.064618394
100	0xbe17b255	-0.14814122
101	0x3ce3afb8	0.02779375
102	0xbdca0adc	-0.098653525
103	0xbe116221	-0.1419759
104	0xbdeff660	-0.11716914
105	0x3dcb5e39	0.09930081
106	0x3dba78e7	0.091050915
107	0x3c869b7b	0.01643156
108	0x3d85c712	0.0653211
109	0x3dd768bb	0.105180226
110	0xbe01bb1d	-0.12669034
111	0xbe112862	-0.14175561
112	0x3e11ba38	0.14231193
113	0xbe255806	-0.1614686
114	0x3dd6dd35	0.10491411
115	0x3ccc7c51	0.024961622
116	0xbd78fdd5	-0.060788948
117	0xbd803068	-0.06259233
118	0xbe0478e3	-0.1293674
119	0x3d8bb779	0.06822104
120	0x3de8a3d1	0.113593705
121	0x3dcc60b5	0.09979383
122	0x3c261774	0.010137428
123	0x3d9830e8	0.07431203
124	0xbcc7f784	-0.024410017
125	0xbdb1721c	-0.08664343
126	0x3de47c34	0.11156502
127	0x3de9697e	0.11397074
128	0x3dd928d3	0.1060349
129	0xbc9809b5	-0.018559316
130	0xbded6665	-0.11591796
131	0x3d3cb43b	0.04607032
132	0xbdc4eac3	-0.0961509
133	0xbe152731	-0.14565732
134	0x3e1d729d	0.15375753
135	0xbda8f56a	-0.08249934
136	0xbcd1c8f9	-0.025608527
137	0x3daa4655	0.08314196
138	0x3e031e3a	0.128045
139	0xbe3e1e1c	-0.18566173
140	0x3d7467d8	0.059669346
141	0x3e2cab7c	0.16862291
142	0x3e0c1fc7	0.13683997
143	0xbe0aae51	-0.13543059
144	0xbdd76f00	-0.105192184
145	0x3ddd9f89	0.108214445
146	0xbce7f239	-0.028313743
147	0x3d5dd901	0.05416203
148	0x3e175337	0.14777838
149	0xbdbeeb01	-0.09322167
150	0x3d815bfe	0.06316374
151	0xbdb25197	-0.08706968
152	0xbe18cc44	-0.14921671
153	0xbd03abda	-0.032146312
154	0x3e4854ec	0.19563645
155	0xbb154194	-0.0022774683
156	0xbda2117c	-0.07913491
157	0xbe0394e7	-0.1284977
158	0x3e04ee07	0.12981425
159	0xbac88396	-0.0015298005
160	0x3df6bf8d	0.12048254
161	0x3e429ee0	0.19005919
162	0x3cfa2910	0.030537158
163	0xbe13dfa7	-0.14440785
164	0x3dd66994	0.10469356
165	0x3e45fabb	0.19333927
166	0x3d922e03	0.07137682
167	0xbcc9212c	-0.02455195
168	0x3de7060a	0.11280449
169	0xbe1c83c5	-0.15284641
170	0xbe077a11	-0.13230158
171	0xba8c9479	-0.0010725401
172	0xbde7f990	-0.11326897
173	0x3db046a2	0.08607222
174	0x3d2ff049	0.042953763
175	0x3d08a770	0.033362806
176	0xbdea688d	-0.11445723
177	0x3d99e3f1	0.075141795
178	0x3cadc4eb	0.021212062
179	0xbd1575c7	-0.036489274
180	0xbd8c5b52	-0.068533555
181	0x3d54aa64	0.05192031
182	0xbd4d5ed6	-0.05013927
183	0xbd773034	-0.060348704
184	0xbe3ba385	-0.18324097
185	0xbce692e3	-0.028146213
186	0xbd505a65	-0.050867457
187	0xbc1d04e4	-0.009583686
188	0xbe13dd55	-0.144399
189	0xbd7168d9	-0.05893788
190	0xbe438f76	-0.19097695
191	0x3d5601f3	0.052247953
192	0x3e2a62bc	0.16639227
193	0xbdaa495d	-0.08314774
194	0xbc6d2a68	-0.0144754425
195	0xbda6ffcc	-0.08154258
196	0x3d3471db	0.044053894
197	0x3e3f4393	0.18678121
198	0xbe2cd89e	-0.16879508
199	0x3d4c0f7f	0.049819466
200	0xbdd698db	-0.104783736
201	0x3d1cca40	0.038278818
202	0x3d94e219	0.07269687
203	0xba8f5ac1	-0.0010937081
204	0xbc16ef12	-0.009212272
205	0xbdb9ec5e	-0.090782866
206	0x3d205f30	0.039153278
207	0x3e044066	0.12915191
208	0xbd8d9088	-0.06912333
209	0xbe15b63d	-0.146203
210	0xbe08076a	-0.13284078
211	0xbe3a4c0e	-0.18193075
212	0xbddde5d9	-0.108348556
213	0xbdf2c602	-0.11854173
214	0xbde7e6fe	-0.11323355
215	0x3c17c894	0.00926413
216	0x3cfe141e	0.031015452
217	0xbde1bf73	-0.11022844
218	0xbd8f71c6	-0.070041224
219	0x3de9eab9	0.11421723
220	0x3c69a553	0.014260608
221	0x3d37d431	0.044880096
222	0x3ddb204e	0.10699521
223	0xbcb50c97	-0.02210073
224	0xbd81c46e	-0.06336294
225	0xbd2568d3	-0.04038317
226	0xbbb54a2f	-0.005532525
227	0x3bc66d48	0.006055508
228	0xbdde4017	-0.10852068
229	0x3e3257cd	0.17416306
230	0xbe1d082e	-0.15335152
231	0xbda72981	-0.08162213
232	0x3c7a97f8	0.015295021
233	0xbd8c65b8	-0.06855339
234	0x3e26b039	0.16278161
235	0x3dc18b84	0.094504386
236	0x3dbbc486	0.09168343
237	0xbe218503	-0.15773396
238	0x3d91051e	0.07081054
239	0xbdcb603f	-0.09930467
240	0x3e3c4bee	0.1838834
241	0xbe1e1cff	-0.15440749
242	0x3e0d9309	0.1382562
243	0x3d788610	0.060674727
244	0xbe0c63a7	-0.1370989
245	0x3e085030	0.13311839
246	0xbd85a618	-0.065258205
247	0x3da2ecd8	0.079553306
248	0xbd661187	-0.05616906
249	0x3db574e9	0.088601895
250	0xbdc45c0a	-0.095878676
251	0xbe430f38	-0.19048774
252	0x3e3aae4a	0.18230549
253	0x3982124e	0.0002480917
254	0xbd081d49	-0.033231054
255	0xbe1e7a57	-0.15476356

lstm.weight_hh_l1 f4 [128, 32]
0	0xbdd383be	-0.10327862
1	0xbcae1785	-0.02125145
2	0x3d7eaeae	0.062178306
3	0x3d99f864	0.0751808
4	0x3add7dd2	0.0016898459
5	0xbc0c732e	-0.008572383
6	0xbd37c429	-0.044864807
7	0xbdbb0833	-0.09132423
8	0x3e068414	0.13136321
9	0x3e0737a4	0.13204819
10	0xbd900280	-0.07031727
11	0xbc59a415	-0.013283749
12	0xbe29d4a7	-0.16585027
13	0x3affb4dc	0.0019508856
14	0xbe0a280d	-0.1349184
15	0xbd014f36	-0.031569682
16	0xbcc8ebd7	-0.02452652
17	0x3d1f5c25	0.038906235
18	0x3d88fc5b	0.06688758
19	0x3aec9723	0.0018050413
20	0x3e027c25	0.1274267
21	0x3d7c2219	0.061555956
22	0x3dbcde9d	0.092221476
23	0x3e2430b7	0.16034208
24	0x3dd9c802	0.106338516
25	0x3e09222e	0.13391945
26	0x3d575df0	0.05257982
27	0xbe072d13	-0.13200788
28	0x3e3e66a7	0.18593846
29	0x3d0273a2	0.031848557
30	0x3e3f1c4f	0.18663143
31	0xbd9bedfc	-0.07613751
32	0x3c8544db	0.016268184
33	0x3da1a002	0.07891847
34	0xbce2edac	-0.027701221
35	0x3cf6df98	0.030135915
36	0xbdfa3425	-0.12216977
37	0x3d0b6833	0.03403492
38	0x3deadef2	0.11468305
39	0xbc177265	-0.009243582
40	0x3d6b62b2	0.05746717
41	0xbdfa31b0	-0.122165084
42	0xbe033293	-0.12812261
43	0x3d69cce4	0.057080165
44	0x3d741fe4	0.059600726
45	0x3db8aace	0.090169534
46	0xbc6934a2	-0.01423374
47	0x3c508c4d	0.012728763
48	0x3e107f4b	0.14111058
49	0xbe1c557c	-0.15266985
50	0x3df86f96	0.12130658
51	0x3daa1be2	0.083060995
52	0xbe0f48b4	-0.13992578
53	0xbe18aa2c	-0.14908665
54	0x3bc2fefa	0.0059508057
55	0x3e091b0b	0.13389222
56	0xbdcef8a7	-0.101060204
57	0xbc78bb31	-0.015181349
58	0xbd821552	-0.06351723
59	0x3d749708	0.059714347
60	0xbde1faa5	-0.11034135
61	0x3e036664	0.12832028
62	0x3d9651d3	0.073398255
63	0x3da0b2cc	0.07846603
64	0xbe0fe36a	-0.14051595
65	0x3d3a634a	0.045504846
66	0x3b4c7107	0.00311953
67	0x3c916349	0.017747538
68	0xbb989ab5	-0.0046571144
69	0x3cdb3831	0.026760193
70	0xbdf7a33d	-0.12091682
71	0xbe0e7306	-0.13911065
72	0x3da1c897	0.078995876
73	0x3d92d132	0.07168807
74	0x3d1c7d14	0.03820522
75	0x3dc3adb1	0.095546134
76	0x3e04dbc5	0.1297446
77	0xbd8d1ba2	-0.06890036
78	0x3cf39a2b	0.029736599
79	0xbd1d01f1	-0.03833193
80	0xbdd82c8d	-0.105553724
81	0xbe0226d3	-0.12710123
82	0x3e1175c9	0.14205088
83	0xbd97f526	-0.07419805
84	0xbded86a9	-0.1159795
85	0xbd629629	-0.055318985
86	0x3c0a7d90	0.008452788
87	0xbd1f3d78	-0.03887698
88	0x3e2f9d90	0.17149949
89	0xbe1ab152	-0.15106705
90	0x3d420e0d	0.04737668
91	0xbd6f98f0	-0.058495462
92	0xbb8e1682	-0.0043361792
93	0x3dc274a8	0.09494907
94	0xbdf14b09	-0.1178189
95	0xbd63e534	-0.055638507
96	0xbd93e890	-0.07222092
97	0x3e1a6dd1	0.15080954
98	0x3d81b622	0.06333567
99	0xbccf6b0e	-0.025319602
100	0xbe3cff23	-0.18456702
101	0xbe0ceeb4	-0.13762933
102	0x3daa80d1	0.08325351
103	0xbdf5b4bd	-0.11997364
104	0xbd61a861	-0.05509222
105	0x3b8079b7	0.0039207595
106	0xbe142e3e	-0.14470765
107	0xbddad2dc	-0.106847495
108	0xbe107e60	-0.14110708
109	0xbdfa28cb	-0.12214812
110	0xbda5e268	-0.08099824
111	0x3da16a80	0.078816414
112	0x3dd26580	0.10273266
113	0xbd92b9a7	-0.071643166
114	0xbaf80cbf	-0.0018924697
115	0x3e22d66c	0.15902108
116	0xbe056a9d	-0.13028951
117	0x3dfb32e2	0.122655645
118	0xbd97226a	-0.07379611
119	0xbd095661	-0.033529643
120	0xbdcfa534	-0.10138932
121	0xbdae4bb4	-0.08510533
122	0x3e2017f5	0.15634139
123	0x3dd02ddb	0.10164996
124	0x3e0c99b5	0.1373051
125	0x3dc9707f	0.0983591
126	0x3bc22328	0.005924601
127	0xbe0398eb	-0.12851302
128	0x3e2cf732	0.16891173
129	0x3e0580ee	0.13037464
130	0xbe1b8d2a	-0.15190569
131	0xbddee73c	-0.10883948
132	0xbe1ba993	-0.15201406
133	0xbd9ea545	-0.077463664
134	0x3dde194a	0.10844667
135	0x3e303540	0.17207813
136	0x3dd67dce	0.10473214
137	0x3da61ee7	0.08111363
138	0xbdfd75f7	-0.12376016
139	0xbe09021a	-0.13379708
140	0xbbb2323d	-0.005438118
141	0x3b1504d2	0.0022738469
142	0x3e46150c	0.19343966
143	0xbda8ece0	-0.08248305
144	0x3de91df0	0.11382663
145	0xbdb3f1b0	-0.087863326
146	0x3e1f534d	0.1555912
147	0xbe355832	-0.17709425
148	0x3bb0d1e6	0.0053961156
149	0x3d641ed4	0.055693462
150	0xbd6f3d23	-0.058407914
151	0x3d117421	0.03551114
152	0xbce0baa8	-0.027432755
153	0x3d8b24c8	0.06794125
154	0x3e08501a	0.13311806
155	0x3e474521	0.19459964
156	0x3c5f0f9a	0.01361456
157	0x3e080dbc	0.13286489
158	0x3db86df2	0.090053454
159	0xbd6a6b5b	-0.05723129
160	0xbcced439	-0.02524768
161	0x3df9a17c	0.12189004
162	0x3cb06b7a	0.021535624
163	0x3deefa13	0.116687916
164	0x3d329b91	0.04360539
165	0x3dcfab94	0.10140148
166	0xbd015328	-0.031573445
167	0x3e2129de	0.15738627
168	0xbdffc33c	-0.1248841
169	0xbdc57711	-0.09641851
170	0xbe1cb48f	-0.15303253
171	0x3ddc3337	0.10751956
172	0x3add2397	0.0016871569
173	0xbbac08e9	-0.0052500856
174	0xbdb7c048	-0.089722216
175	0x3e0a71c1	0.13519956
176	0xbe0aec5a	-0.13566723
177	0x3c6866ae	0.014184637
178	0x3e0276c4	0.12740618
179	0xbdf1e8bc	-0.11811969
180	0x3c934fce	0.01798239
181	0x3dc24dc4	0.09487489
182	0x3e03a7f3	0.12857036
183	0x3d0aa847	0.033851888
184	0x3e03c95d	0.12869783
185	0x3c9af847	0.018917216
186	0x3c8538b7	0.016262395
187	0xbda65cef	-0.081231944
188	0xbd1cf7da	-0.038322307
189	0x3da4d011	0.08047498
190	0xbde5d3c3	-0.11222031
191	0xbe0a2384	-0.1349011
192	0x3d8c3d62	0.06847645
193	0x3c1db445	0.009625499
194	0xbdaebb68	-0.08531839
195	0x3d431fd7	0.047637787
196	0xbe2c4a80	-0.16825294
197	0x3d1bb818	0.038017362
198	0xbd958c2c	-0.07302126
199	0x3e302dfb	0.1720504
200	0x3ca26ae9	0.01982637
201	0x3da60c66	0.081078336
202	0xbd9c17f2	-0.07621755
203	0x3e170b1b	0.1475033
204	0xbd12850f	-0.035771426
205	0xbcdd314a	-0.027001042
206	0xbd2cab7e	-0.042155735
207	0x3d71fcde	0.059079044
208	0x3cc656db	0.024211338
209	0x3d6d0014	0.057861403
210	0xbdf902bd	-0.121587254
211	0x3dbfa9b2	0.09358539
212	0x3dbf6c1b	0.09346791
213	0x3de92a95	0.11385075
214	0x3a62c0c5	0.0008649941
215	0xbdbd9ad5	-0.092580475
216	0xbafdf353	-0.0019374884
217	0x3e2b5150	0.16730237
218	0x3dd9040c	0.10596475
219	0x3e1f9c76	0.15587029
220	0x3dfdc6be	0.12391423
221	0xbe15bde2	-0.14623216
222	0x3d9bf280	0.076146126
223	0xbc141541	-0.00903827
224	0x3ced2ce9	0.028952079
225	0x3de9fd9a	0.11425324
226	0xbe3feffa	-0.18743888
227	0x3d837f2f	0.06420743
228	0xbdacd3c5	-0.08438829
229	0xbe2ad8c7	-0.16684256
230	0x3b055b23	0.0020348511
231	0x3af98094	0.0019035512
232	0x3e116600	0.14199066
233	0x3cfdf6d6	0.03100149
234	0x3e193cb4	0.14964563
235	0xbd88e2ca	-0.066838816
236	0xbe3448d5	-0.17605908
237	0xbd81c18a	-0.06335743
238	0x3df59c05	0.11992649
239	0x3e0ea9d0	0.13931966
240	0x3df386e4	0.11890963
241	0x3dd5cac4	0.10439065
242	0x3dfe7e46	0.124264285
243	0x3d510772	0.05103249
244	0xbe14ee73	-0.14544086
245	0x3e254223	0.1613851
246	0xbda06387	-0.07831483
247	0x3d1c3ebe	0.038145773
248	0x3e29e028	0.16589415
249	0xbe1683d4	-0.14698726
250	0x3d4a325f	0.049364444
251	0x3cc826df	0.024432598
252	0x3def7536	0.11692278
253	0x3d34ea8a	0.044168986
254	0xbdd61226	-0.1045268
255	0x3e06723a	0.13129511

lstm.bias_ih_l1 f4 [128]
0	0xbd8584e0	-0.065194845
1	0x3e060daf	0.13091157
2	0xbd3c1ae7	-0.045924094
3	0xbd89ec19	-0.06734485
4	0x3dc49cb9	0.09600205
5	0xbd07c68a	-0.033148326
6	0x3e0938e9	0.13400616
7	0xbd4255d2	-0.047445126
8	0x3e400c11	0.18754603
9	0x3e153449	0.14570726
10	0x3cc2f05e	0.023796257
11	0xbda85907	-0.082201056
12	0xbc56f541	-0.0131199965
13	0xbe00baae	-0.12571213
14	0x3d928a77	0.07155316
15	0xbdc69f9e	-0.09698413
16	0x3e413f8d	0.18871899
17	0x3e2fd11b	0.17169611
18	0x3bb2f0b1	0.0054608216
19	0xbc8fc709	-0.017550962
20	0xbd8a6c4e	-0.06758939
21	0x3dbe593d	0.092943646
22	0x3e0761d5	0.13220914
23	0xbe1a4658	-0.15065897
24	0x3c0a8f8b	0.008457075
25	0x3e08b892	0.13351658
26	0x3e40f937	0.18845068
27	0xbdbb1d3d	-0.09136436
28	0x3c0cbfc6	0.008590644
29	0x3e0796d1	0.13241126
30	0xbe182b89	-0.14860357
31	0x3c3651ac	0.0111278705
32	0x3dc513e1	0.09622932
33	0x3d6ae576	0.057347737
34	0x3e122d39	0.14275064
35	0xbe0f557b	-0.13997452
36	0x3db5ecae	0.08883034
37	0x3e3f810f	0.18701576
38	0xbe12ad08	-0.14323819
39	0xb98a8c69	-0.00026426025
40	0xbd5140ba	-0.05108712
41	0x3b5d70ab	0.003378908
42	0xbe276e52	-0.16350678
43	0xbd420a4d	-0.047373105
44	0x3dac6bc0	0.08418989
45	0x3db0fbd6	0.08641784
46	0x3c8f800d	0.017517114
47	0x3e034eec	0.12823075
48	0x3b9a3501	0.0047060256
49	0x3cef4435	0.029207328
50	0x3de9cbbe	0.11415814
51	0xbc974414	-0.01846508
52	0xbcc750f2	-0.02433059
53	0x3dd0b499	0.10190696
54	0x3e09c848	0.13455307
55	0x3d436b25	0.047709603
56	0x3cfe228c	0.031022333
57	0xbe0d4583	-0.13796048
58	0xbe01455d	-0.12624116
59	0x3e3f88e6	0.18704566
60	0xbd8bbc01	-0.06822968
61	0x3ded2352	0.115790024
62	0x3e0d50ac	0.13800305
63	0xbd8448cd	-0.06459198
64	0x3d75ce59	0.06001124
65	0xbd625f8d	-0.055266906
66	0xbda4d442	-0.080482975
67	0x3e30f31c	0.17280239
68	0xbdddb2d2	-0.10825123
69	0xbcde5dec	-0.027144395
70	0xbdf81586	-0.1211348
71	0x3ce42b19	0.027852582
72	0x3e1146a5	0.14187105
73	0xbdf544a8	-0.11975986
74	0xbc594baf	-0.013262673
75	0xbe46a49d	-0.19398732
76	0xbe2f75eb	-0.17134826
77	0xbcf10e08	-0.029425636
78	0xbc19f459	-0.009396636
79	0xbe0b35fc	-0.13594812
80	0x3da480c8	0.080323756
81	0xbd12b0d5	-0.03581317
82	0x3dc2354f	0.09482824
83	0x3d84c448	0.0648275
84	0xbd3fb0f0	-0.0467996
85	0x3e1729f1	0.14762093
86	0xbd2f1f6c	-0.042754576
87	0x3db5dd3c	0.08880088
88	0x3da0b94b	0.07847842
89	0xbe1613db	-0.14656012
90	0xbe469919	-0.1939434
91	0x3e27c2a6	0.16382846
92	0x3e196f91	0.14983965
93	0x3dc44ca6	0.09584932
94	0xbdd279fb	-0.10277172
95	0xbd942842	-0.07234241
96	0xbe129a01	-0.1431656
97	0xbdd1c408	-0.10242468
98	0xbd11aa16	-0.035562597
99	0x3d6a6590	0.057225764
100	0x3e21ef99	0.15814056
101	0xbcf286e9	-0.029605346
102	0xbc8447b3	-0.01614747
103	0x3d8b5fe9	0.06805403
104	0xbccacffa	-0.024757374
105	0x3e4b8d34	0.19878083
106	0x3d857773	0.06516924
107	0x3e3e2426	0.18568477
108	0x3e3d62c2	0.18494704
109	0xbdd7bf6a	-0.10534556
110	0x3df8f169	0.1215542
111	0x3da5d898	0.080979526
112	0x3e05032a	0.12989488
113	0xbc249422	-0.010045083
114	0xbe10ccb0	-0.14140582
115	0x3e401e52	0.18761566
116	0x3d669a6a	0.056299604
117	0x3cdf0cbd	0.027227754
118	0xbdb0ef28	-0.086393654
119	0xbe080396	-0.13282618
120	0x3d084f36	0.033278666
121	0xbab2a12e	-0.0013628358
122	0x3b9bba61	0.0047524427
123	0x3d106dd7	0.035261
124	0x3e001b57	0.1251043
125	0xbdf1ce7d	-0.11806963
126	0xbe1f91d9	-0.1558298
127	0x3d8e2571	0.06940735

lstm.bias_hh_l1 f4 [128]
0	0xbda944d9	-0.08265085
1	0xbdc9120d	-0.09817896
2	0x3d7df15e	0.061997764
3	0xbd8867e2	-0.06660439
4	0x3d640869	0.055672083
5	0xbcfa7439	-0.030572997
6	0xbccab804	-0.024745949
7	0x3d4dc3a3	0.0502354
8	0x3e12af01	0.14324571
9	0x3df60917	0.120134525
10	0x3e1933f4	0.14961225
11	0x3e4a3a3a	0.19748774
12	0x3de91fe0	0.11383033
13	0x3e2d3e87	0.16918384
14	0xbd9e6b8f	-0.07735359
15	0xbdb652b4	-0.08902493
16	0x3e1203ff	0.14259337
17	0x3d8433e3	0.06455209
18	0xbdb734a9	-0.08945591
19	0xbe15e81e	-0.14639327
20	0xbd9d8b5d	-0.07692597
21	0x3d0b90f5	0.03407379
22	0x3dc9efb1	0.09860171
23	0x3e49d4c5	0.19710071
24	0x3e012894	0.12613136
25	0xbe0fe67a	-0.14052764
26	0x3d604063	0.054748904
27	0x3dff3cbe	0.124627575
28	0x3b9a840c	0.0047154482
29	0xbe0c8e78	-0.13726223
30	0xbe0bafea	-0.13641325
31	0x3d8f58a7	0.06999331
32	0xbdeecbfc	-0.11660001
33	0x3d43c7aa	0.047797836
34	0x3d868c57	0.065697365
35	0xbced9bbe	-0.029004928
36	0x3de99777	0.11405843
37	0xbe1c095c	-0.15237945
38	0x3e1f6d6f	0.1556909
39	0x3e2edbc6	0.17076024
40	0xbc8387b4	-0.01605592
41	0xbd19dc2a	-0.03756348
42	0x3e2103e1	0.15724136
43	0x3c0975b6	0.008389881
44	0xbcc335a8	-0.023829296
45	0xbd83182d	-0.064010955
46	0xbde511c8	-0.11185032
47	0x3e07944e	0.13240167
48	0x3cec8dda	0.028876234
49	0xbe13c32e	-0.14429924
50	0x3ddf6f9b	0.10909959
51	0xbe071581	-0.13191797
52	0xbd83705b	-0.064179145
53	0xbded6a37	-0.115925245
54	0x3d20326c	0.039110586
55	0x3bc6d75f	0.0060681547
56	0x3de299b7	0.11064475
57	0x3dcc11e2	0.099643484
58	0x3e0a5f04	0.13512808
59	0xbdbdaf2b	-0.09261926
60	0x3da66ca0	0.08126187
61	0x3c244f3b	0.010028656
62	0x3e0dd56e	0.13850948
63	0x3d38c26b	0.045107286
64	0x3cc3b50a	0.023890037
65	0x3e40a077	0.18811212
66	0xbd874ac9	-0.06606061
67	0x3dda0ff1	0.10647572
68	0x3d9b2b2e	0.07576595
69	0x3d52118e	0.051286273
70	0x3d863307	0.065527014
71	0x3e02d171	0.12775208
72	0xbd8bb8ab	-0.06822332
73	0xbe19e8c9	-0.15030207
74	0x3da316d8	0.079633415
75	0xbdaeb7a0	-0.085311174
76	0x3dfeb9bb	0.12437769
77	0xbdc708f2	-0.09718503
78	0x3e1de431	0.1541908
79	0x3d82fecf	0.06396257
80	0xbe3f0ab9	-0.18656434
81	0xbdf3ab1c	-0.11897871
82	0x3e10150c	0.14070529
83	0xbdd81e0b	-0.10552605
84	0x3c51844f	0.0127878925
85	0x3d9a4662	0.07532956
86	0x3d38b3b2	0.045093246
87	0xbd82b05a	-0.06381293
88	0x3dc1d17c	0.09463784
89	0xbdec3042	-0.11532642
90	0x3dff5baa	0.124686554
91	0x3e39d3ff	0.18147276
92	0x3e2a741b	0.16645853
93	0xbda63ee4	-0.08117464
94	0x3e13a84c	0.14419669
95	0xbe1b9257	-0.15192543
96	0x3b5c4b49	0.003361421
97	0xbdb65254	-0.089024216
98	0xbdb1fb52	-0.08690514
99	0xbd2c7ce6	-0.0421113
100	0xbdd649a9	-0.10463268
101	0xbdf6e044	-0.12054494
102	0x3e30ee0c	0.17278308
103	0xbcafed03	-0.02147532
104	0xbdfac967	-0.12245446
105	0xbe153992	-0.14572743
106	0x3dbd444d	0.09241543
107	0x3dfb850c	0.12281236
108	0x3d5f3cc3	0.054501306
109	0x3e2ba1de	0.16760966
110	0x3e10a795	0.14126427
111	0x3e1227a9	0.14272942
112	0xbdf1111c	-0.117708415
113	0xbe2b2ddf	-0.16716717
114	0xbc9ac3fa	-0.018892277
115	0xbe20ab4e	-0.15690348
116	0x3c8c0e75	0.017096737
117	0x3d4bbd4d	0.04974108
118	0xbdef59a0	-0.116870165
119	0x3bcdd563	0.006281541
120	0x3d26b257	0.040697422
121	0xbcd05304	-0.02543021
122	0x3b32130e	0.0027172002
123	0x3daff887	0.08592325
124	0x3e12eec6	0.14348897
125	0xbd08082c	-0.03321092
126	0x3ddae45a	0.10688086
127	0xbcd1f32b	-0.025628647

lstm.weight_ih_l2 f4 [128, 32]
0	0xbe07ace0	-0.1324954
1	0xbe052803	-0.13003545
2	0x3deb648a	0.11493786
3	0x3d991360	0.074743986
4	0x3dd302dc	0.1030328
5	0xbd7205ae	-0.059087448
6	0x3ccc8bac	0.024968944
7	0x3e16c8e7	0.14725076
8	0xb9bf2813	-0.00036460217
9	0xbe16c29c	-0.14722675
10	0xbddcca13	-0.1078073
11	0xbd9f8945	-0.07789854
12	0xbe3bb446	-0.18330488
13	0x3d86c92a	0.06581338
14	0x3e3a20ad	0.18176527
15	0xbdd4139c	-0.10355303
16	0xbe1a99ca	-0.15097728
17	0xbd1dc1d7	-0.03851494
18	0x3dba534b	0.09097918
19	0x3d059fc3	0.032623064
20	0x3e0bb5ab	0.1364352
21	0xbd4432df	-0.047900077
22	0xbde19060	-0.110138655
23	0x3dfd6189	0.12372119
24	0x3d26d9da	0.040735103
25	0x3e11be5a	0.1423277
26	0xbe372d03	-0.17888264
27	0xbe0c164e	-0.13680384
28	0x3e16fa39	0.1474389
29	0x3d22059a	0.039556123
30	0x3b8a44c1	0.004219622
31	0x3d754144	0.059876695
32	0x3d8f977e	0.07011317
33	0x3e2fc271	0.17164017
34	0xbe2607fe	-0.16213986
35	0xbe1f2016	-0.15539584
36	0x3d9113e5	0.07083873
37	0x3c850e63	0.016242212
38	0x3d975f68	0.07391244
39	0xbdb1b419	-0.08676929
40	0xbe1204c6	-0.14259633
41	0xbe0cf426	-0.1376501
42	0xbe13f219	-0.14447822
43	0x3daf1e79	0.08550734
44	0xbe0f305d	-0.13983293
45	0x3da8b5d1	0.08237804
46	0x3df79174	0.1208829
47	0x3dfa1a07	0.122119956
48	0x3d5107d6	0.051032864
49	0xbe0ae700	-0.13564682
50	0x3d54fdee	0.05199998
51	0xbd6f275d	-0.05838715
52	0xbd6aa797	-0.057288732
53	0x3e2109f1	0.15726449
54	0xbe0090d2	-0.12555245
55	0xbe168e9e	-0.14702842
56	0xbcbc081a	-0.022953082
57	0xbce1adf0	-0.02754876
58	0x3e28852e	0.16457054
59	0x3de7ac0d	0.11312113
60	0xbb18eeac	-0.002333562
61	0xbe03ca01	-0.12870027
62	0xbe11f589	-0.1425382
63	0x3e0a6190	0.1351378
64	0xbdf68e9f	-0.120389216
65	0xbe01a078	-0.1265887
66	0x3de343eb	0.11096939
67	0xbd351e08	-0.044218093
68	0x3e188e83	0.14898114
69	0xbbf39e7a	-0.0074346634
70	0xbd8d6b02	-0.06905176
71	0x3e295276	0.16535363
72	0x3acfeb4d	0.0015862972
73	0x3e24e04b	0.16101186
74	0xbdb49c19	-0.08818836
75	0xbca8ca9b	-0.020604422
76	0xbda19542	-0.07889797
77	0xbdd54001	-0.104125984
78	0xbd41f39e	-0.047351472
79	0xbd4e158d	-0.05031352
80	0x3cfc1de5	0.030775974
81	0xbd25567f	-0.040365692
82	0xbd1d86d1	-0.03845865
83	0x3e027f73	0.1274393
84	0x3df4c73d	0.11952064
85	0xbe077ad3	-0.13230447
86	0x3e2f65ed	0.17128725
87	0x3d9dd430	0.07706487
88	0xbc8dea8b	-0.017323753
89	0xbdaf62a6	-0.085637376
90	0x3cf7756e	0.030207362
91	0x3da520a5	0.08062867
92	0xbdc34d76	-0.09536259
93	0xbe0e010a	-0.13867584
94	0xbd7e368d	-0.062063742
95	0xbe11610d	-0.14197178
96	0x3d81d852	0.06340088
97	0x3e424cb6	0.18974575
98	0xbda900db	-0.08252116
99	0x3d6b2fb4	0.05741854
100	0x3d7e3437	0.062061515
101	0x3df3e82a	0.11909516
102	0xbd45d127	-0.048295166
103	0x3c66e6fb	0.014093156
104	0xbe38acbf	-0.18034647
105	0xbcff55d1	-0.03116885
106	0x3d26a205	0.040681858
107	0x3d0e5f8c	0.03475909
108	0xbe36c8ae	-0.1784999
109	0x3e1860cf	0.1488068
110	0xbcb131b4	-0.021630146
111	0xbdf86dfd	-0.121303536
112	0x3df402da	0.119146064
113	0x3c6f0af0	0.01459001
114	0x3e450e51	0.19243743
115	0x3d052dc3	0.032514345
116	0x3db9cee5	0.09072665
117	0xbe0983e0	-0.13429213
118	0xbde8f0e6	-0.11374073
119	0x3db31ffc	0.08746335
120	0xbd84da98	-0.06487006
121	0x3e1c0e5f	0.15239857
122	0xbe2a99d8	-0.16660249
123	0xbe085922	-0.13315251
124	0x3e46ff74	0.19433385
125	0x3df4daeb	0.11955818
126	0xbbc57a52	-0.0060265446
127	0x3dcdf350	0.10056174
128	0xbe04b389	-0.12959112
129	0x3e3cc390	0.18433976
130	0xbde41932	-0.11137618
131	0x3de3da32	0.11125602
132	0xbe467e3d	-0.19384094
133	0x3e0401f6	0.12891373
134	0xbdf75cab	-0.12078222
135	0xbd9d2ea7	-0.07674914
136	0x3e09c55e	0.13454196
137	0x3dde7144	0.108614475
138	0xbe1747d5	-0.14773495
139	0x3bcd46f9	0.006264564
140	0x3d9b5014	0.07583633
141	0xbcfe6162	-0.031052295
142	0xbe1666c6	-0.14687642
143	0xbdaef205	-0.08542255
144	0xbd7c8092	-0.06164605
145	0x3cba3267	0.022729112
146	0x3dc93755	0.09825007
147	0xbe2933da	-0.16523686
148	0x3dac86eb	0.08424171
149	0xbd4f9646	-0.05068042
150	0xbd3862fa	-0.045016266
151	0xbda3fc79	-0.0800714
152	0xbdab91fa	-0.08377452
153	0x3d1457bc	0.036216483
154	0x3cde9bcc	0.0271739
155	0xbd3873c4	-0.045032278
156	0x3e26aa87	0.16275989
157	0xbe0c0090	-0.1367209
158	0xbd6f661b	-0.058446985
159	0xbd48800f	-0.04895025
160	0xbdab5795	-0.08366314
161	0x3df8d9fb	0.121509515
162	0x3d0d5405	0.034503955
163	0x3d5f3801	0.05449677
164	0x3d17b573	0.037038278
165	0xbdaacb6e	-0.083395824
166	0x3e386944	0.18008906
167	0x3e07c2c6	0.13257894
168	0x3d6f3c76	0.05840727
169	0x3dd53c31	0.10411871
170	0xbde24478	-0.11048216
171	0xbd8cc977	-0.06874364
172	0xbd8f3528	-0.069925606
173	0x3e07168e	0.13192198
174	0xbd0274ca	-0.03184966
175	0x3dca570f	0.09879886
176	0xbb491d97	-0.0030687803
177	0x3e36d1ad	0.17853422
178	0xbdb17ab6	-0.086659834
179	0x3c80f87c	0.015743487
180	0xbd63c64e	-0.05560904
181	0xbdab7167	-0.08371239
182	0x3e0d1d67	0.13780747
183	0xbb19f440	-0.0023491532
184	0x3d9e9a2b	0.07744249
185	0x3d6fec2a	0.058574833
186	0xbe3bcfc5	-0.18340977
187	0x3bdfae62	0.006826208
188	0x3c87a4bb	0.016558042
189	0xbd97f969	-0.07420618
190	0x3c984c5a	0.018591095
191	0x3dca8de1	0.098903425
192	0x3d7e3ca4	0.06206955
193	0x3d03432f	0.032046493
194	0xbd7e701d	-0.06211864
195	0x3c5d68bf	0.013513743
196	0xbcc76370	-0.024339408
197	0xbdbeaa84	-0.09309867
198	0xbcbaee93	-0.02281884
199	0xbdac2f44	-0.08407453
200	0xbcdc4e2b	-0.026892742
201	0xbda47ff3	-0.08032217
202	0xbd57bdf0	-0.052671373
203	0x3b548476	0.0032427586
204	0x3d4817f0	0.048850954
205	0x3d962656	0.07331531
206	0xbc973aaf	-0.0184606
207	0x3c907e53	0.017638361
208	0xbd7c1257	-0.061540928
209	0xbe129b2b	-0.14317004
210	0x3e1f34e2	0.15547517
211	0xbe2b8423	-0.16749625
212	0x3e13d42d	0.14436407
213	0x3c497719	0.0122964615
214	0xbbeccb9a	-0.0072264196
215	0x3e28edbb	0.16496937
216	0xbe0da46e	-0.13832256
217	0xbe2e35fa	-0.17012778
218	0xbc8ac8dc	-0.01694148
219	0x3daeea41	0.08540774
220	0x3bef7e8c	0.0073087867
221	0xbe21518c	-0.15753764
222	0x3d6ee20d	0.058321048
223	0xbd40db27	-0.047084
224	0x3c6c8170	0.014435157
225	0xbdfaae37	-0.1224026
226	0xbe379f52	-0.1793187
227	0x3d8075ae	0.062724456
228	0xbdec5e35	-0.11541406
229	0x3e464883	0.19363599
230	0x3dc541eb	0.096317135
231	0xbd9e5cf3	-0.077325724
232	0x3dbe82eb	0.09302314
233	0x3e111f34	0.1417206
234	0x3e1ea090	0.15490937
235	0x3d9f7fa6	0.07788019
236	0xbd63f31d	-0.055651773
237	0xbe16cc7a	-0.14726439
238	0x3e09433c	0.13404554
239	0xbd1b69d7	-0.037942734
240	0xbdc89760	-0.097944975
241	0x3e3dd5b8	0.18538558
242	0x3dce004b	0.1005865
243	0xbe292929	-0.16519608
244	0xbe3131c7	-0.17304145
245	0x3ccb23b0	0.02479729
246	0x3e35e87d	0.17764468
247	0xbb344476	-0.0027506626
248	0x3e253189	0.16132177
249	0x3d840727	0.06446677
250	0xbc8124bc	-0.015764587
251	0xbd4892e9	-0.04896823
252	0xbd55e3e1	-0.052219275
253	0x3db25288	0.08707148
254	0x3dca05aa	0.098643616
255	0x3dc2c6db	0.09510585
