pv/checkpoints/중앙도서관-checkpoint-2023-08-10 23_26.pt (torch, 304719 bytes, 38 tensors)

lstm.weight_ih_l0 f4 [128, 17]
0	0x3d6f2878	0.058388203
1	0x3d193651	0.037405316
2	0x3dc6daf6	0.09709732
3	0x3c72430d	0.014786494
4	0x3def88cf	0.11696016
5	0xbe0936a5	-0.13399751
6	0xbbdb71ba	-0.006696907
7	0xbe116de2	-0.14202073
8	0x3dc09ae2	0.094045416
9	0xbd92abab	-0.07161649
10	0x3d542db6	0.051801406
11	0x3deef989	0.11668689
12	0xbdb9562b	-0.09049638
13	0xbe0d9ef8	-0.13830173
14	0xbe24e8cc	-0.1610443
15	0xbddf8023	-0.10913112
16	0xbe06e9ea	-0.13175169
17	0x3da2c06f	0.0794686
18	0x3e1e8870	0.15481734
19	0x3c8d3c0b	0.017240545
20	0x3dd09a9a	0.10185738
21	0x3db808a9	0.08986027
22	0xbdbf7e7b	-0.09350296
23	0xbd8fad8e	-0.07015525
24	0x3e3c3491	0.18379427
25	0xbdf1ebdf	-0.11812567
26	0x3dcccc2f	0.099998824
27	0x3d60362a	0.054739155
28	0xbd9a5621	-0.07535959
29	0x3e243590	0.16036057
30	0x3b453bd1	0.0030095468
31	0xbe11249d	-0.14174123
32	0xbe1ef5c7	-0.15523444
33	0x3cea55da	0.02860539
34	0x3e2ceaec	0.1688649
35	0xbdcb0c36	-0.099144384
36	0x3e08921b	0.13336985
37	0x3ca1dc32	0.019758318
38	0x3e0fb376	0.14033303
39	0xbc369128	-0.011143006
40	0xbd9f7cd3	-0.0778748
41	0x3d1cae1b	0.038251977
42	0xbd758792	-0.059943743
43	0xbdfba8c0	-0.12288046
44	0x3dd9937d	0.10623834
45	0xbe079833	-0.13241653
46	0x3d3719e4	0.044702426
47	0x3e129c29	0.14317383
48	0xbd607edc	-0.054808483
49	0xbe05026d	-0.12989207
50	0xbbf4e397	-0.00747342
51	0x3e2a9695	0.16659005
52	0x3e15247e	0.14564702
53	0x3cd30b85	0.025762329
54	0x3d384f60	0.044997573
55	0x3a8bddf7	0.0010671009
56	0xbb261714	-0.0025343345
57	0x3cc43615	0.02395157
58	0xbd026fb3	-0.031844806
59	0x3e2acd1a	0.16679803
60	0x3e012b15	0.1261409
61	0x3bc62fd2	0.006048181
62	0x3e0c7cff	0.13719557
63	0xbdf5516f	-0.11978423
64	0x3d6c87f1	0.05774683
65	0xbd376351	-0.04477245
66	0x3e3e2662	0.1856933
67	0xbcb2468a	-0.021762151
68	0xbdebf069	-0.11520464
69	0xbdc34df9	-0.095363565
70	0xbd95436d	-0.07288251
71	0x3de87b5a	0.113516524
72	0xbcae81a3	-0.02130205
73	0x3e09c4c7	0.13453971
74	0xbe066a0f	-0.13126396
75	0x3d647476	0.05577513
76	0xbe1de89b	-0.15420763
77	0xbd09ccc6	-0.033642553
78	0x3da540de	0.08069013
79	0x3e22d143	0.1590014
80	0xbc40162d	-0.011724037
81	0x3e599591	0.21248461
82	0xbe2e3435	-0.17012103
83	0xbde8a7a6	-0.113601014
84	0x3d06ee64	0.03294219
85	0x3df62492	0.12018694
86	0x3cf36c13	0.02971462
87	0x3e0fde37	0.14049612
88	0x3d4cd7e5	0.05001058
89	0x3dfcbd92	0.12340845
90	0xbdf9574a	-0.12174852
91	0x3e158b01	0.14603807
92	0x3e224341	0.15845968
93	0xbde0c05f	-0.10974192
94	0x3deef8b3	0.11668529
95	0xbdec9bba	-0.1155314
96	0xbe07ff67	-0.13281022
97	0xbc029956	-0.007971128
98	0x3e489da0	0.19591379
99	0x3c98a8a2	0.018635098
100	0x3db12545	0.08649687
101	0x3df18cb4	0.11794415
102	0xbd91b3d4	-0.071143776
103	0x3e42a710	0.19009042
104	0x3cb45c26	0.022016596
105	0x3d821572	0.063517466
106	0x3e40e703	0.18838124
107	0xbdbac939	-0.091204114
108	0xbe049b76	-0.12949929
109	0xbda8097e	-0.082049355
110	0x3db278ea	0.08714469
111	0x3e47a674	0.1949709
112	0xbd81dedd	-0.06341336
113	0xbdee3752	-0.11631645
114	0x3c005d4a	0.007834742
115	0x3e6dce26	0.2322317
116	0x3cdd2c27	0.026998593
117	0x3d78fd66	0.060788535
118	0x3d18eeb6	0.037337027
119	0xbe181165	-0.14850385
120	0x3e1dd78f	0.1541426
121	0xbd827001	-0.06369019
122	0x3d4eb4e8	0.050465494
123	0x3c9c391a	0.019070197
124	0xbd7d523c	-0.061846003
125	0xbe2002ca	-0.15626064
126	0x3db6ce77	0.08926099
127	0xbe27137a	-0.16316023
128	0xbde60685	-0.11231712
129	0xbd9ce3ef	-0.076606624
130	0x3e0a03a8	0.13477957
131	0x3d47d667	0.048788454
132	0xbdaf64ef	-0.085641734
133	0xbc31ef6e	-0.010860307
134	0xbd710bf5	-0.058849294
135	0xbe6d2dc6	-0.23161992
136	0xbdd04b94	-0.101706654
137	0xbd5c93dc	-0.053851947
138	0x3e10ee5d	0.14153428
139	0x3dc0b2d6	0.0940911
140	0x3d7b4d99	0.0613533
141	0x3e1fec35	0.1561745
142	0x3d036fc6	0.032089017
143	0xbdad35fa	-0.08457561
144	0x3d8dee35	0.069302
145	0x3dba845a	0.09107275
146	0x3d19b2df	0.0375241
147	0x3e2df746	0.16988859
148	0xbe13125c	-0.14362472
149	0x3d03a0f0	0.032135904
150	0xbe40ac98	-0.1881584
151	0xbc3e22c8	-0.011604972
152	0x3c2ba2ab	0.010475795
153	0x3dd5865d	0.104260184
154	0x3e3642a3	0.17798857
155	0xbdf01a3b	-0.11723753
156	0xbe0df1ee	-0.1386182
157	0xbd954c9d	-0.072900034
158	0x3cae26c2	0.021258716
159	0x3e22c7b0	0.15896487
160	0x3e05d381	0.13068964
161	0xbd625c84	-0.05526401
162	0x3ce7e251	0.028306158
163	0xbdc01ade	-0.093801245
164	0xbe1f25bc	-0.15541738
165	0xbd710264	-0.05884017
166	0x3e3acb1c	0.18241543
167	0xbd97b9ff	-0.07408523
168	0x3df14185	0.11780075
169	0xbe5b1872	-0.21396044
170	0xbd8892b7	-0.06668609
171	0xbdd24566	-0.10267143
172	0x3d806ec4	0.06271127
173	0xbe18c267	-0.14917909
174	0x3e2572bf	0.16157053
175	0xbe239686	-0.15975389
176	0xbd8e0430	-0.069343925
177	0x3d7a0047	0.06103542
178	0xbce24429	-0.027620392
179	0x3df560ec	0.11981377
180	0x3e11792c	0.1420638
181	0x3e185f61	0.14880134
182	0x3da41b53	0.08013024
183	0x3dfc6646	0.123241946
184	0x3ded9372	0.116003886
185	0x3e3d1224	0.18463951
186	0xbd126c08	-0.035747558
187	0x3e324da0	0.17412424
188	0xbd339b7f	-0.043849465
189	0xbcee9398	-0.029123113
190	0xbb4a68ca	-0.0030885213
191	0x3e108676	0.14113793
192	0x3e1545bc	0.14577383
193	0x3b9a13c0	0.0047020614
194	0xbc8e9faa	-0.017410118
195	0xbdfee314	-0.124456555
196	0x3ca5a2bc	0.0202192
197	0xbe057a77	-0.13034998
198	0x3c240150	0.010010079
199	0x3afb528b	0.001917438
200	0xbd9e0468	-0.07715684
201	0xbdcaf687	-0.099103026
202	0xbd498727	-0.049201157
203	0x3d2574d7	0.04039463
204	0xbd75c77a	-0.06000469
205	0x3dc6752a	0.09690316
206	0xbd10cc39	-0.035351012
207	0xbd7672f6	-0.06016823
208	0x3e29ad83	0.16570096
209	0x3de830e7	0.113374524
210	0x3dae0504	0.084970504
211	0x3e3d83d1	0.18507315
212	0x3dd40307	0.1035214
213	0xbe04a522	-0.12953618
214	0x3dd61a55	0.10454241
215	0x3d989f38	0.074522436
216	0xbe17024c	-0.1474697
217	0x3cf235ba	0.029566634
218	0x3b413d15	0.002948587
219	0x3d9f53f9	0.077796884
220	0x3d1cf9e1	0.03832424
221	0xbe005a94	-0.12534553
222	0xbb7a0b0d	-0.003815356
223	0x3d310724	0.0432197
224	0x3e3ef2be	0.18647286
225	0xbdbe9f18	-0.093076885
226	0x3e488909	0.19583525
227	0xbd298de9	-0.0413951
228	0x3dc62dba	0.096766904
229	0xbdbc7580	-0.09202099
230	0xbdad0185	-0.084475555
231	0xbe19e95a	-0.15030423
232	0x3de6904b	0.112579904
233	0xbe1ffee8	-0.15624583
234	0xbe0667c3	-0.1312552
235	0xbca68bb9	-0.020330297
236	0x3e213245	0.15741833
237	0xbdc0d8bf	-0.09416341
238	0xbd6196d6	-0.05507549
239	0x3df51d5c	0.119684905
240	0x3dd2bf7c	0.10290429
241	0x3dc37ef0	0.09545696
242	0x3dd2f8a6	0.10301332
243	0xbdbee325	-0.09320668
244	0xbdeee2ae	-0.116643295
245	0xbde6b43e	-0.11264847
246	0xbcb14de1	-0.02164358
247	0x3c7bb010	0.015361801
248	0x3d496d9a	0.04917679
249	0x3e1db2ad	0.1540019
250	0x3e35339a	0.17695466
251	0xbd9435ce	-0.07236825
252	0x3d527e51	0.051389996
253	0x3e2acc26	0.16679439
254	0xbe0dc3c1	-0.13844205
255	0xbe04230f	-0.12903999

lstm.weight_hh_l0 f4 [128, 32]
0	0x3e486c8f	0.19572662
1	0x3c5bdfc0	0.013420045
2	0x3c729e67	0.014808274
3	0x3d877de6	0.0661581
4	0xbc78af34	-0.01517849
5	0x3d841c31	0.064506896
6	0x3d7aaec6	0.061201833
7	0xbde23b0e	-0.1104642
8	0xbc2d95ba	-0.01059478
9	0xbc7f2c33	-0.015574503
10	0x3e0739c4	0.1320563
11	0xbd4e41e4	-0.050355807
12	0x3e054262	0.13013604
13	0xbd5bc52a	-0.053654827
14	0x3d05eb61	0.032695178
15	0x3e1993fc	0.14997858
16	0xbceaf9a0	-0.028683484
17	0x3d203ae4	0.039118662
18	0x3e496315	0.19666703
19	0xbdb6437a	-0.08899589
20	0xbdf8adbf	-0.121425144
21	0x3e095d06	0.13414392
22	0x3d637024	0.055526868
23	0xbc3c53f9	-0.01149463
24	0xbe156dee	-0.14592716
25	0x3dbb5785	0.091475524
26	0x3e3a32f6	0.18183503
27	0x3e1cf250	0.1532681
28	0x3ddd0fee	0.10794054
29	0xbd517253	-0.05113442
30	0xbda898ac	-0.08232245
31	0x3d931e09	0.07183463
32	0xbdfed921	-0.12443758
33	0xbd9c7f33	-0.07641449
34	0x3e1037ec	0.14083833
35	0x3e10b45f	0.14131306
36	0xbd59d2c8	-0.053179532
37	0xbe40a4d6	-0.1881288
38	0x3d9e88ea	0.07740958
39	0xbd7ed7ce	-0.062217526
40	0xbd850b8e	-0.064963445
41	0xbe2e6804	-0.17031866
42	0x3e2f6fa5	0.17132433
43	0xbac4be25	-0.0015010281
44	0x3dde20fb	0.10846134
45	0x3d44588b	0.047936004
46	0xbd1b90a9	-0.037979756
47	0xbe208c62	-0.15678552
48	0x3c8f5fc2	0.017501716
49	0xbe239a28	-0.15976775
50	0xbde63ee1	-0.11242462
51	0x3db8519d	0.089999415
52	0xbe35ef8a	-0.17767158
53	0x3e0893a1	0.13337566
54	0x3dc35237	0.095371656
55	0xbdce6b12	-0.10079016
56	0xbbc3200a	-0.005954747
57	0xbdefdbfc	-0.117118806
58	0xbb5d884c	-0.0033803163
59	0x3dc0854a	0.09400423
60	0xbdd0ee7e	-0.10201739
61	0x3d7ed79b	0.062217336
62	0x3d223519	0.03960142
63	0x3d9fcff7	0.07803338
64	0x3d38f97d	0.045159806
65	0xbd10b5ba	-0.035329558
66	0x3e051b39	0.12998666
67	0x3d5b5e57	0.053556766
68	0x3e0b8327	0.1362425
69	0x3cb6b118	0.022301242
70	0xbc3b7510	-0.011441484
71	0x3d614a31	0.055002395
72	0x3e263956	0.1623281
73	0x3d6d9837	0.05800649
74	0xbc2560f7	-0.010093919
75	0x3d2d50e4	0.04231347
76	0x3e287a75	0.16452964
77	0x3df9ca80	0.12196827
78	0xbdf74737	-0.1207413
79	0x3e0f2bfe	0.13981625
80	0x3e2660d1	0.1624787
81	0x3e1990af	0.14996599
82	0x3ca0b6eb	0.019618472
83	0xbdb30777	-0.08741658
84	0xbc791e36	-0.015204957
85	0x3e1e83bc	0.1547994
86	0xbc833081	-0.01601434
87	0x3db36b44	0.08760694
88	0xbd837766	-0.06419258
89	0x3d8cda7f	0.06877612
90	0xbd55a5eb	-0.052160185
91	0x3e1afbe8	0.15135157
92	0x3cea4589	0.02859761
93	0x3ded4900	0.11586189
94	0x3e24b32e	0.16083977
95	0xbd7aeda3	-0.061261784
96	0x3c5514a6	0.013005411
97	0xbc2cac51	-0.01053913
98	0x3d9aa2e7	0.075506024
99	0x3d8e6855	0.069534935
100	0xbd34996b	-0.044091623
101	0x3e2d60cb	0.16931455
102	0x3db449f6	0.088031694
103	0xbe157abf	-0.14597605
104	0x3e46dee7	0.19420968
105	0xbde9a65d	-0.114086844
106	0xbd4a8ee4	-0.049452677
107	0x3d830acf	0.06398546
108	0x3d8a2498	0.06745261
109	0xbe0b116a	-0.13580862
110	0xbdfc001c	-0.12304708
111	0xbdc8d6b0	-0.098065734
112	0xbdf5d946	-0.12004332
113	0x3d1d4e68	0.038404852
114	0x3db8b0e1	0.09018112
115	0xbd9b38c7	-0.07579189
116	0xbd82dd5d	-0.06389878
117	0x3d5d7af3	0.05407233
118	0xbd584505	-0.052800197
119	0x3e371c04	0.17881781
120	0x3ce9f824	0.028560705
121	0x3db2a9bc	0.087237805
122	0x3cc9aa30	0.024617285
123	0x3ce2ce8e	0.027686384
124	0xbdbad96e	-0.09123503
125	0x3e4526ba	0.19253054
126	0x3d93041f	0.071785204
127	0xbdac0808	-0.08399969
128	0x3e07da58	0.13266885
129	0x3d1be7cb	0.038062852
130	0xbca33797	-0.019923968
131	0x3cca002e	0.024658289
132	0xbe409dec	-0.18810242
133	0xbe4661cd	-0.19373246
134	0x3d981b8e	0.07427131
135	0x3d3b4fd1	0.045730416
136	0xbb448688	-0.0029987413
137	0x3db115b0	0.08646715
138	0x3db54405	0.08850864
139	0x3de9cf10	0.11416447
140	0xbe155b14	-0.14585525
141	0xbca908cf	-0.020634083
142	0x3e0424e7	0.12904702
143	0xbe353fb6	-0.17700085
144	0x3d35f882	0.04442645
145	0xbe1ff8fc	-0.15622324
146	0xbdbed7eb	-0.09318527
147	0x3e31f74d	0.17379494
148	0xbdec1a33	-0.115284346
149	0x3e0a9535	0.1353348
150	0xbd9eef4a	-0.077604845
151	0x3e02f33e	0.12788102
152	0x3db98d89	0.09060199
153	0xbe39f2a3	-0.18158965
154	0x3e0cf450	0.13765073
155	0x3d0567ff	0.03256988
156	0xbe0d27f5	-0.13784774
157	0xbdcd6b73	-0.1003026
158	0x3e129654	0.14315158
159	0x3b091cf6	0.0020921803
160	0x3d67bd6d	0.056577135
161	0xbe3a9453	-0.18220644
162	0x3e032a70	0.12809157
163	0xbcbe1687	-0.023204101
164	0xbd053c64	-0.032528296
165	0x3dfcae6c	0.12337956
166	0xbdf344c4	-0.118783504
167	0x3ccbebf7	0.02489279
168	0x3de1e692	0.11030306
169	0xbddcef0b	-0.10787781
170	0x3e2aba91	0.16672732
171	0xbda8f6c0	-0.08250189
172	0xbc120f14	-0.008914728
173	0x3dc2252a	0.09479745
174	0xbd1aa81b	-0.037757974
175	0xbe057153	-0.13031511
176	0x3cf0e6c7	0.029406918
177	0xbd10e51b	-0.035374742
178	0x3e136995	0.14395745
179	0x3ceaeb67	0.028676702
180	0xbe2d0f17	-0.16900288
181	0xbc401b56	-0.011725267
182	0xbe10d19b	-0.14142458
183	0x3d8bf699	0.06834144
184	0xbd5fa9f2	-0.05460543
185	0xbe431c21	-0.19053699
186	0x3e1b841e	0.15187117
187	0xbdf8f45f	-0.12155985
188	0x3d8d1d11	0.068903096
189	0x3dcf0d05	0.10109905
190	0x3d0e5dfe	0.034757607
191	0xbd670a8f	-0.056406554
192	0xbcb9ef27	-0.022697045
193	0x3e0a0678	0.1347903
194	0xbd1fd841	-0.039024595
195	0x3c85a840	0.01631558
196	0xbe503216	-0.20331606
197	0xbda7bee1	-0.08190704
198	0x3d714f19	0.058913324
199	0xbe18d2d4	-0.14924175
200	0x3dfadd8c	0.12249288
201	0xbd95f9d6	-0.07323043
202	0xbe16e7b6	-0.14736828
203	0xbcccc4ab	-0.024996122
204	0x3e0f58bc	0.13998693
205	0xbe5de03b	-0.21667568
206	0x3dfd6e0d	0.12374506
207	0x3d82654e	0.063669786
208	0xbccfc876	-0.025364142
209	0x3de3a9f2	0.11116399
210	0xbd722559	-0.05911765
211	0x3d9abc92	0.07555498
212	0x3caaf23c	0.02086746
213	0x3e1e37c6	0.15450963
214	0xbd9fbecd	-0.07800064
215	0x3d9f7f40	0.07787943
216	0x3da9f78f	0.08299171
217	0xbc3ed4fa	-0.011647457
218	0xbe2141b3	-0.15747719
219	0xba553854	-0.0008133699
220	0xbc1a2b66	-0.009409761
221	0x3dc50426	0.09619932
222	0xbe3d3266	-0.18476257
223	0xbd307241	-0.04307771
224	0xbd9137a5	-0.070906915
225	0xbdc70993	-0.09718623
226	0x3d4bad96	0.04972609
227	0xbd8eae3a	-0.06966825
228	0x3e0daac0	0.13834667
229	0x3de7c93e	0.11317681
230	0xbdcc5b8b	-0.09978398
231	0xbcaafd98	-0.020872876
232	0x3e2a5b36	0.16636357
233	0x3d709866	0.05873909
234	0xbd839759	-0.06425352
235	0x3d765fdf	0.060150024
236	0x3c5b6010	0.013389602
237	0x3dcf7fa1	0.10131765
238	0xbd86bb59	-0.065787025
239	0x3e396e4d	0.18108483
240	0x3dc75ad0	0.09734118
241	0xbd39428e	-0.045229487
242	0xbcb22afb	-0.02174901
243	0x3e2b4c5a	0.16728345
244	0xbdf23cba	-0.11827989
245	0xbdd3983d	-0.103317715
246	0xbc884f3b	-0.016639343
247	0x3cc8c110	0.024506122
248	0x3e51a1cf	0.20471881
249	0xbe119fb9	-0.14221086
250	0xbd99d685	-0.075116195
251	0xbd3ae37c	-0.045627102
252	0x3de73dce	0.11291085
253	0x3e16475a	0.14675656
254	0x3d72a74f	0.05924159
255	0x3dba8e61	0.09109188

lstm.bias_ih_l0 f4 [128]
0	0xbddd6151	-0.10809577
1	0x3df0020f	0.11719143
2	0x3dcebc80	0.10094547
3	0x3d9bd5c5	0.07609133
4	0xbd49af8a	-0.049239673
5	0x3de98052	0.11401428
6	0xbc21b559	-0.009869897
7	0xbdbed868	-0.0931862
8	0xbdb6c920	-0.0892508
9	0x3de15b4a	0.1100374
10	0x3c1e3238	0.009655528
11	0x3d5f0192	0.054444857
12	0xbb04230c	-0.002016249
13	0xbdc036ec	-0.093854755
14	0xbd91f97c	-0.071276635
15	0xb800aeba	-3.0680305e-05
16	0x3d77aae0	0.060465693
17	0x3c4fc61d	0.012681511
18	0xbe06b1cc	-0.13153762
19	0x3da40925	0.08009557
20	0x3cbe5465	0.023233602
21	0xbdc29e47	-0.09502845
22	0xbc58f886	-0.013242846
23	0x3d20e237	0.039278235
24	0xbcb723fd	-0.022356028
25	0xbe019862	-0.12655786
26	0x3c063289	0.008190759
27	0xbe024948	-0.12723267
28	0x3dd12151	0.10211433
29	0x3e569a05	0.20957191
30	0xbdf7431d	-0.12073348
31	0xbdc8c557	-0.098032646
32	0x3e06944c	0.13142508
33	0xbe0ad9f6	-0.13559708
34	0x3d813fc6	0.06310992
35	0x3e2efdd4	0.17089015
36	0x3c8ca0e3	0.01716656
37	0x3d85d43c	0.06534621
38	0xbdcac718	-0.09901255
39	0x3dbf9e6f	0.09356391
40	0x3d2785eb	0.0408992
41	0x3e3a3f99	0.18188323
42	0x3e176ecd	0.14788361
43	0xbc9c8acc	-0.019109152
44	0x3d5a4e27	0.053297188
45	0xbdad4e47	-0.08462196
46	0xbbe99868	-0.007128764
47	0x3e05ebd1	0.13078238
48	0xbd94bdbd	-0.07262752
49	0xbdcb89d9	-0.09938402
50	0x3bb708b5	0.0055857548
51	0x3d096330	0.03354186
52	0x3da19bc4	0.07891038
53	0xbd4cbc49	-0.04998425
54	0x3c8c0e47	0.017096652
55	0x3e3159f1	0.17319466
56	0x3d0e82f0	0.03479284
57	0x3de0c1f4	0.109744936
58	0x3e0ae448	0.13563645
59	0x3d6b5325	0.05745234
60	0xbda74007	-0.08166509
61	0xbc0b44e0	-0.008500308
62	0xbdda902b	-0.10672029
63	0x3caae18a	0.020859499
64	0x3b923d5d	0.0044628815
65	0xbb976f67	-0.0046214345
66	0x3d217004	0.039413467
67	0xbd33cb23	-0.0438949
68	0xbd73c65d	-0.059515346
69	0xbab28b19	-0.0013621777
70	0xbe2321fe	-0.15930936
71	0xbcadab0b	-0.021199724
72	0xbd88b99d	-0.06676028
73	0xbe04204a	-0.12902942
74	0x3c7634ac	0.015027206
75	0xbd8d0a1f	-0.06886696
76	0x3d95394b	0.072863184
77	0x3cd9f196	0.026604455
78	0x3e15a49d	0.14613576
79	0x3de8b3ab	0.11362394
80	0xbd73ba52	-0.05950386
81	0x3d70ed77	0.058820214
82	0x3e06d930	0.13168788
83	0x3e253957	0.16135155
84	0xbd7ecc57	-0.062206592
85	0xbd0d11b3	-0.034440707
86	0x3d260635	0.040533263
87	0x3de30392	0.11084665
88	0x3dd544a7	0.10413485
89	0xbdb7bb9e	-0.08971332
90	0x3d23663e	0.039892428
91	0x3ce18842	0.027530793
92	0x3db76453	0.08954682
93	0xbd77a3a9	-0.060458813
94	0xbd5783f4	-0.052616075
95	0xbe0b3558	-0.13594568
96	0x3e0f47ae	0.13992187
97	0x3e2584da	0.1616396
98	0xbdb75691	-0.08952058
99	0x3e403323	0.18769507
100	0x3cc0c2a6	0.023530316
101	0xbdd38c30	-0.10329473
102	0x3e207f97	0.15673672
103	0xbce3d1e4	-0.027810045
104	0x3dc11d33	0.094293974
105	0x3e008a5b	0.12552778
106	0x3e183a8b	0.14866082
107	0xbde01f20	-0.109434366
108	0xbda42048	-0.0801397
109	0xbdce88b5	-0.100846685
110	0x3de26eba	0.11056276
111	0xbdcd639c	-0.100287646
112	0x3e49236f	0.19642423
113	0x3dab04e1	0.0835054
114	0x3e2b4ab8	0.16727722
115	0x3d18b7e8	0.03728476
116	0x3c815e69	0.015792089
117	0x3c6fe799	0.0146426195
118	0x3d79e856	0.06101259
119	0xbce43efa	-0.02786206
120	0x3e625e23	0.22106223
121	0x3c12d830	0.008962676
122	0xbe1be1f3	-0.15222912
123	0xbdaae027	-0.08343535
124	0x3e527df5	0.20555861
125	0x3ceaf0d4	0.028679289
126	0x3d3764fa	0.044774033
127	0x3de6b07d	0.11264131

lstm.bias_hh_l0 f4 [128]
0	0xbdf11844	-0.117722064
1	0xba8389db	-0.0010035591
2	0x3adf7cf0	0.0017050784
3	0xbd6e00bf	-0.05810618
4	0x3d72ea8c	0.059305713
5	0xbe1591a0	-0.14606333
6	0x3d1f3503	0.038868915
7	0xbd82294d	-0.06355534
8	0x3d376855	0.044777233
9	0x3d6a94f1	0.057270948
10	0x3d191c46	0.03738048
11	0xbdc69c75	-0.096978106
12	0xbb19aa95	-0.0023447622
13	0x3e20ddfe	0.15709683
14	0xbe109ca5	-0.14122255
15	0xbdac1cbd	-0.08403919
16	0xbdd08569	-0.10181696
17	0x3e265a4b	0.16245382
18	0xbdb53d73	-0.08849611
19	0x3d99896b	0.074969135
20	0xbd4abcf2	-0.0494966
21	0x3df9f28b	0.122044645
22	0x3dcb52a0	0.09927869
23	0xbd381603	-0.044942867
24	0xbdb8c565	-0.09022025
25	0x3d404ba2	0.04694713
26	0xbdc888fa	-0.09791751
27	0x3e0c6d47	0.13713561
28	0x3da9266e	0.08259283
29	0xbcbd5393	-0.02311114
30	0x39034f41	0.00012522658
31	0x3dd2cd07	0.10293012
32	0x3da9f34a	0.08298357
33	0xbd93224b	-0.07184275
34	0x3da4fb22	0.08055712
35	0x3c6ae731	0.014337347
36	0xbd5ba6b5	-0.05362578
37	0xbd70af6a	-0.058761038
38	0xbdb0ffca	-0.08642538
39	0xbce169ba	-0.027516235
40	0x3d73cc89	0.05952123
41	0xbd20dd75	-0.039273698
42	0xbdbccbc1	-0.092185505
43	0x3e44deb8	0.19225585
44	0x3d8819eb	0.066455685
45	0x3dd12efa	0.10214038
46	0xbe168d2a	-0.14702287
47	0x3e0db904	0.13840109
48	0x3e3dc0bb	0.18530552
49	0x3d9d83db	0.07691165
50	0x3dd1f228	0.10251266
51	0x3deed620	0.11661935
52	0x3df326a4	0.118726045
53	0xbd63bf65	-0.05560245
54	0xbc301455	-0.010747035
55	0x3e325396	0.17414698
56	0xbd2d8a6f	-0.04236835
57	0xbd98365b	-0.074322425
58	0xbdb06f90	-0.08615029
59	0xbce6d96c	-0.028179847
60	0x3e221cc4	0.15831286
61	0x3e3ce264	0.18445736
62	0xbd615349	-0.055011068
63	0xbd8a6035	-0.06756631
64	0xbda3b400	-0.07993317
65	0x3b844959	0.004037064
66	0x3de50344	0.111822635
67	0xbccb44c7	-0.024813069
68	0xbd4a73cc	-0.04942684
69	0xbd6980e8	-0.0570077
70	0x3da6247a	0.08112426
71	0x3e0f2adb	0.13981192
72	0x3e329a18	0.17441595
73	0x3d9b1668	0.07572633
74	0x3c0f6ab5	0.008753468
75	0x3dc13f25	0.09435872
76	0x3dd2bbd3	0.10289731
77	0x3c17993a	0.009252841
78	0x3d5f780e	0.054557852
79	0xbc9e2c61	-0.01930827
80	0x3d1543ca	0.0364416
81	0xbde1960e	-0.11014949
82	0x3d60dba5	0.05489697
83	0x3e31c909	0.17361845
84	0xbe50a9a9	-0.2037722
85	0x3dc0f689	0.09422023
86	0x3e406745	0.18789394
87	0xbcd5bc29	-0.026090698
88	0xbd8d8a2d	-0.069111206
89	0xbdf2801c	-0.11840841
90	0xbe205a2d	-0.156594
91	0xbc155975	-0.0091155665
92	0xbda2cd87	-0.079493575
93	0xbe01b79d	-0.12667699
94	0xbdf2a797	-0.118483715
95	0x3d3d8cf9	0.04627702
96	0x3d7f813c	0.062379107
97	0x3d2da1de	0.042390697
98	0x3d3a4aff	0.045481678
99	0xbda015f5	-0.07816688
100	0xbd43f7d5	-0.047843773
101	0xbe1de34b	-0.15418737
102	0x3e0677ab	0.13131587
103	0xbd7314a6	-0.059345864
104	0x3e2979b6	0.16550335
105	0xbde3d6c7	-0.1112495
106	0xbe284998	-0.16434324
107	0x3dcbeaa4	0.099568635
108	0x3e328752	0.17434433
109	0xbb74817d	-0.0037308626
110	0x3d6b3893	0.057427
111	0x3e0dae84	0.13836104
112	0x3e179490	0.14802766
113	0x3dee0f8c	0.11624059
114	0x3db13c5e	0.08654092
115	0x3db0f40f	0.086403005
116	0x3dc1cd23	0.09462955
117	0x3e10d0c9	0.14142145
118	0x3e29c98c	0.1658079
119	0xbd1df65d	-0.03856503
120	0xbdb9a678	-0.090649545
121	0x3e308cca	0.17241207
122	0xbd33467b	-0.043768387
123	0x3e17ae8c	0.14812678
124	0xbe0cc9a9	-0.13748802
125	0x3d120f7a	0.03565929
126	0x3dbb4fe1	0.09146095
127	0x3c9cdd7e	0.019148584

lstm.weight_ih_l1 f4 [128, 32]
0	0x3d1447e8	0.036201388
1	0xbdc996f3	-0.098432444
2	0xbd9eaa48	-0.07747322
3	0xbde62a00	-0.112384796
4	0x3d7419c7	0.059594896
5	0xbe108844	-0.14114481
6	0x3d85e2c8	0.06537396
7	0xbdb1beef	-0.08678996
8	0x3d4a68a2	0.049416192
9	0xbc21d9b6	-0.0098785665
10	0x3d17f52d	0.037099052
11	0x3e270915	0.16312058
12	0x3d29dda6	0.041471146
13	0xbc7b5cc4	-0.015341941
14	0x3c910352	0.017701779
15	0x3d002172	0.031281896
16	0x3e2151b3	0.15753822
17	0x3d57a28f	0.052645262
18	0x3e116201	0.14197542
19	0x3e0d3a96	0.1379188
20	0xbe387ebd	-0.18017097
21	0x3da1a64f	0.07893049
22	0xbdaef0a4	-0.08541992
23	0x3cc290f5	0.023750762
24	0x3db38542	0.08765651
25	0x3ded20de	0.115785345
26	0x3de08f74	0.109648615
27	0x3b9783fa	0.004623887
28	0x3cc72bc7	0.024312867
29	0x3e454704	0.19265372
30	0xbd7317a3	-0.059348714
31	0xbdd632e4	-0.10458925
32	0x3df8cf5a	0.12148924
33	0x3dc99409	0.098426886
34	0xbd8de41b	-0.06928273
35	0xbd9207a6	-0.07130365
36	0x3dcdfcaf	0.10057961
37	0xbe036682	-0.12832072
38	0xbd324042	-0.043518312
39	0x3d8a9434	0.06766549
40	0x3dc1e534	0.09467545
41	0xbd711129	-0.058854256
42	0xbba57de6	-0.0050504087
43	0xbe34addb	-0.17644446
44	0x3dbcf515	0.09226433
45	0xbe19f849	-0.1503612
46	0xbe0c1723	-0.13680701
47	0xbcb5f199	-0.02220993
48	0xbdd1c74d	-0.10243092
49	0x3d1ea592	0.03873212
50	0xbd25a194	-0.040437296
51	0xbdacdc9a	-0.08440514
52	0x3cdcec49	0.026968138
53	0xbd95ef59	-0.073210426
54	0xbdd77d0f	-0.105219
55	0xbe132032	-0.1436775
56	0x3db7eab8	0.08980316
57	0x3c20610b	0.009788762
58	0x3d11df13	0.03561313
59	0x3e07a75a	0.13247433
60	0x3d135f7a	0.035979725
61	0x3e51f49e	0.2050347
62	0x3dd48685	0.1037722
63	0x3de62b63	0.11238744
64	0xbe0b050e	-0.13576147
65	0xbe13d4e4	-0.1443668
66	0xbdc28eb0	-0.09499872
67	0xbd023f0e	-0.031798415
68	0x3def6c29	0.11690552
69	0xbdb91bcb	-0.09038504
70	0x3c233ce1	0.009963245
71	0xbd2e7ab7	-0.0425975
72	0x3ce18804	0.027530678
73	0xb91534d3	-0.00014229426
74	0x3e36276f	0.1778848
75	0xbe0d0c42	-0.13774207
76	0x3d62932a	0.055316128
77	0xbdbbc5fe	-0.091686234
78	0x3a8711c9	0.0010304983
79	0x3d7ccdb6	0.06171962
80	0xbe0c72fd	-0.1371574
81	0x3dc19509	0.09452254
82	0xbd60a560	-0.054845214
83	0x3e31bf67	0.1735817
84	0x3dce153e	0.100626454
85	0xbbb047ec	-0.0053796675
86	0x3cec7667	0.028865052
87	0x3de33337	0.11093753
88	0x3da8a465	0.08234481
89	0xbddbee13	-0.107387684
90	0xbe1091b5	-0.14118083
91	0x3e4161f5	0.18885024
92	0x3e31f81f	0.17379807
93	0x3e02ae4d	0.12761803
94	0xbe0526c9	-0.13003077
95	0xbd959b94	-0.07305065
96	0x3d02ee81	0.031965736
97	0x3da9183e	0.08256577
98	0x3dbf7253	0.093479775
99	0x3d5b7b5c	0.05358444
100	0xbcadd526	-0.021219801
101	0xbd3f641f	-0.046726342
102	0x3d921e44	0.07134679
103	0x3d21b5e4	0.039480105
104	0x3dde2142	0.10846187
105	0xbc71e2af	-0.014763518
106	0x3df1eba2	0.118125215
107	0xbe25cf5d	-0.16192384
108	0xbe3c3e7b	-0.1838321
109	0xbd586039	-0.05282614
110	0xbd98d28a	-0.07462032
111	0xbe23489d	-0.15945669
112	0xbd52a834	-0.051429942
113	0xbb214456	-0.0024607382
114	0x3e10a6c7	0.1412612
115	0x3df1b6d1	0.118024476
116	0x3e367737	0.17818914
117	0x3e019b18	0.1265682
118	0x3e04b7cc	0.12960738
119	0xbcd46fa2	-0.025932137
120	0xbdf1f8a0	-0.118149996
121	0x3e20e052	0.15710571
122	0xbd9126ac	-0.07087454
123	0xbdf4d440	-0.11954546
124	0x3deb2023	0.11480739
125	0x3c804c93	0.015661513
126	0x3dbe436a	0.09290202
127	0xbd8cfa28	-0.06883651
128	0x3e500114	0.20312911
129	0xbe0f661e	-0.14003798
130	0x3d9d9972	0.07695283
131	0xbd0e6fc8	-0.03477457
132	0xbe21ce2b	-0.15801303
133	0xbd118dcc	-0.03553562
134	0xbd02cf70	-0.03193611
135	0x3d8ed21d	0.0697367
136	0xbe16d647	-0.14730178
137	0xbe133085	-0.14373977
138	0x3de3fc17	0.11132067
139	0x3e117a61	0.1420684
140	0xbe3c7748	-0.18404877
141	0x3dafdbf1	0.08586872
142	0x3d56a2ee	0.052401476
143	0xbd5eac44	-0.054363504
144	0x3d06aeba	0.032881476
145	0xbca3440b	-0.019929906
146	0x3e35667a	0.17714873
147	0xbd09ceac	-0.033644363
148	0xbcd68868	-0.02618809
149	0x3da79771	0.08183182
150	0xbcadef7a	-0.021232355
151	0xbe358a2d	-0.17728491
152	0xbd0adcbe	-0.033901922
153	0xbe496fc3	-0.1967154
154	0x3d42cc91	0.04755837
155	0x3cdb77ad	0.026790464
156	0x3c3aece3	0.011409017
157	0x3dd49e80	0.10381794
158	0x3ced535b	0.028970411
159	0xbdb79d05	-0.08965496
160	0x3db3b557	0.08774822
161	0x3d54fe46	0.052000307
162	0x3c6c6a6e	0.014429672
163	0x3e110150	0.14160657
164	0xbdcf642a	-0.10126527
165	0x3da12c86	0.0786982
166	0xbde55b61	-0.1119907
167	0xbd0f508e	-0.034988932
168	0x3dfa5ef2	0.12225141
169	0x3e12d125	0.14337595
170	0xbe0f2248	-0.13977921
171	0x3c6e961f	0.014562159
172	0xbd503b41	-0.05083776
173	0x3dc4e7f5	0.09614555
174	0xbdec2b57	-0.11531704
175	0x3b98b910	0.004660733
176	0x3e109c59	0.14122142
177	0x3d3ecff1	0.046585027
178	0xbd7b988d	-0.06142478
179	0x3e31b8bd	0.17355628
180	0x3dcec384	0.100958854
181	0xbe144233	-0.14478378
182	0x3e46f5b8	0.19429672
183	0xbcc39461	-0.023874464
184	0x3df7b036	0.120941564
185	0xbe126b15	-0.14298661
186	0xbcba5f5d	-0.02275055
187	0x3d28edca	0.0412424
188	0x3d9f5b5f	0.077810995
189	0x3e0d5b10	0.13804269
190	0x3dfe03fa	0.12403102
191	0xbc5c18cd	-0.013433647
192	0x3da99fdb	0.08282443
193	0x3c917e4e	0.017760422
194	0xbce2e413	-0.027696645
195	0x3e044885	0.12918289
196	0xbdd46192	-0.103701726
197	0xbd478a90	-0.048716128
198	0x3cd6f79b	0.026241114
199	0x3dfb6f57	0.12277096
200	0xbd12401b	-0.035705667
201	0x3c522e25	0.0128283845
202	0xbc873c58	-0.016508266
203	0xbe25f638	-0.16207206
204	0x3e1dcb1b	0.1540951
205	0x3c96be2b	0.018401226
206	0x3e3b26fe	0.18276593
207	0x3dd3e40b	0.1034623
208	0xbdd70b96	-0.10500257
209	0xbc95acc4	-0.018270858
210	0x3ca8859d	0.020571524
211	0x3e19f2fa	0.15034094
212	0xbe29f5b6	-0.16597638
213	0x3e2c3970	0.16818786
214	0x3e122c6f	0.14274763
215	0x3dd0ced4	0.10195699
216	0x3dd3006d	0.103028156
217	0xbde8e650	-0.113720536
218	0x3e411ba8	0.18858206
219	0xbd9e4ba3	-0.0772927
220	0x3e274f19	0.16338767
221	0xbd761140	-0.060075045
222	0xbd7c6efa	-0.061629273
223	0x3e05ceee	0.13067219
224	0x3e27c9f9	0.1638564
225	0x3d3408ea	0.043953814
226	0x3df32789	0.11872775
227	0x3cc445be	0.023959037
228	0x3ca0f371	0.019647332
229	0xbdc43fee	-0.09582506
230	0xbd8b468f	-0.06800567
231	0x3d82a6c2	0.06379463
232	0xbe1d752e	-0.15376732
233	0x3d95a792	0.07307352
234	0x3d7844c0	0.06061244
235	0x3d9a35bf	0.075297825
236	0x3dd06318	0.10175151
237	0xbe1802b8	-0.14844787
238	0x3dc6e959	0.09712476
239	0xbc8a972a	-0.016917784
240	0xbe1a758f	-0.15083908
241	0xbdfed0ec	-0.124421924
242	0xbd931ccf	-0.07183229
243	0x3e2210c1	0.15826704
244	0xbd372b3a	-0.04471896
245	0x3d8e46d0	0.069471
246	0x3e373abb	0.17893498
247	0xbe0378c5	-0.12839039
248	0xbe42c2f6	-0.19019684
249	0xbe22a810	-0.15884423
250	0xbcbc3213	-0.022973096
251	0x3dbff5cc	0.09373054
252	0x3decbc14	0.115593106
253	0xbe05fdfd	-0.1308517
254	0xbe40f7ee	-0.18844578
255	0x3c9c0e08	0.01904966

lstm.weight_hh_l1 f4 [128, 32]
0	0x3db1b722	0.08677508
1	0xbd0ea80f	-0.034828242
2	0xbe200f69	-0.15630879
3	0xbe1a6407	-0.1507722
4	0xbde1da96	-0.1102802
5	0x3e330cfa	0.17485419
6	0xbdc1794c	-0.09446964
7	0xbc2202b8	-0.0098883435
8	0xbabc5e98	-0.0014371453
9	0xbe27dc4c	-0.1639263
10	0x3db6c73b	0.08924719
11	0xbe02a5f9	-0.12758626
12	0xbe0e58c8	-0.13901055
13	0xbe28f7af	-0.16500734
14	0x3dfc9aa5	0.123341836
15	0x3e15a47b	0.14613526
16	0xbce60111	-0.02807668
17	0x3e073a49	0.13205828
18	0xbdfb00f7	-0.122560434
19	0x3b9cb637	0.004782464
20	0xbdfe67f2	-0.1242217
21	0xbe361f2f	-0.17785333
22	0x3dab06da	0.08350916
23	0x3c85ddee	0.016341176
24	0x3c48ed3d	0.012263593
25	0xbcddd8e3	-0.027080959
26	0xbe221ac9	-0.1583053
27	0xbdad6c8c	-0.08467969
28	0xbccddcba	-0.025129665
29	0xbe0ca177	-0.13733469
30	0x3dc974b2	0.09836711
31	0xbd7135a5	-0.05888905
32	0xbe024310	-0.12720895
33	0xbe216c4e	-0.15763971
34	0x3d92a80b	0.07160958
35	0x3db815f4	0.08988562
36	0xbcfc8215	-0.030823747
37	0xbdb98479	-0.0905847
38	0x3d8521c5	0.06500582
39	0x3cccf1fb	0.025017729
40	0x3da05337	0.07828372
41	0x3da1e14f	0.07904302
42	0xbbb016c3	-0.005373807
43	0x3dbb613b	0.091494046
44	0xbdb6390a	-0.08897598
45	0xbdbcbc7d	-0.09215639
46	0x3e02c3a1	0.12769939
47	0xbdd990d1	-0.10623325
48	0x3d837470	0.06418693
49	0x3d9e40f6	0.07727234
50	0x3d7b631e	0.061373822
51	0xbe3edaec	-0.186382
52	0xbe26f319	-0.16303672
53	0xbd09d57c	-0.03365086
54	0xbda8fb19	-0.08251018
55	0x3c93e645	0.018054137
56	0x3e383b6c	0.17991418
57	0x3db01eb5	0.08599607
58	0x3d2bd9f3	0.0419559
59	0xbd9fb813	-0.07798781
60	0xbdde16a0	-0.10844159
61	0xbddb26ee	-0.107007846
62	0xbc2fd573	-0.010732043
63	0xbe108c17	-0.1411594
64	0xbdc22cb9	-0.094811864
65	0xbd885736	-0.06657259
66	0xbe394e4a	-0.18096271
67	0x3cf55c19	0.029951142
68	0x3d38eeb0	0.045149505
69	0x3dd2f6fb	0.10301014
70	0xbdefd3c0	-0.1171031
71	0xbe12e662	-0.14345697
72	0xbe277245	-0.16352184
73	0xbdbeaf56	-0.093107864
74	0x3c2b5664	0.010457609
75	0x3dc0835e	0.09400056
76	0x3d7c019f	0.061524983
77	0xb98af7cb	-0.0002650603
78	0xbe156c74	-0.14592153
79	0xbd6caaf5	-0.057780225
80	0xbdf5d262	-0.12003018
81	0xba27b359	-0.00063972693
82	0x3e3dcf66	0.18536147
83	0xbe31970c	-0.17342776
84	0xbe20d6b0	-0.15706897
85	0x3dcea461	0.100899465
86	0xbbe1a7f0	-0.006886475
87	0xbd291743	-0.04128195
88	0x3e23994e	0.1597645
89	0x3ad79f14	0.0016450607
90	0x3cdb36a9	0.026759462
91	0xbdc66076	-0.09686367
92	0x3dce1cbc	0.100640744
93	0xbdc0baf9	-0.09410662
94	0x3d35e809	0.04441074
95	0xbd8a8481	-0.06763554
96	0xbdf9a37d	-0.12189386
97	0x3d1c0fbf	0.038100954
98	0x3d942a46	0.072346255
99	0xbcbd4b9e	-0.023107346
100	0x3db0cd08	0.086328566
101	0x3be870ec	0.0070935395
102	0xbe2b2638	-0.16713798
103	0x3d8c9613	0.06864562
104	0x3b769702	0.0037626629
105	0xbe160004	-0.14648443
106	0x3d7192c5	0.05897786
107	0xbd96ceb9	-0.07363648
108	0xbd8fa45c	-0.07013771
109	0x3d91b344	0.0711427
110	0x3d09b6dc	0.033621654
111	0xbdd0ad82	-0.10189344
112	0xbe1301e5	-0.14356191
113	0x3d17b0f0	0.037033975
114	0xbdc6f75e	-0.0971515
115	0x3d5cf832	0.053947635
116	0xbd3d0aa6	-0.046152733
117	0x3d67da4e	0.056604676
118	0xbdcd1739	-0.10014195
119	0x3d820c0b	0.06349953
120	0x3de2ed0c	0.11080369
121	0x3b3f778c	0.0029215543
122	0x3d8ff13b	0.07028433
123	0x3d53c057	0.0516971
124	0xbdb9d3cd	-0.09073601
125	0xbdb55277	-0.088536195
126	0x3dee35a5	0.11631326
127	0xbd82eef1	-0.06393231
128	0xbe2bca95	-0.16776498
129	0xbd7b09fe	-0.061288826
130	0x3e026229	0.12732758
131	0xbcd11125	-0.02552087
132	0x3d062321	0.032748345
133	0xbddd6378	-0.10809988
134	0xbc4ab5ff	-0.012372493
135	0xbd2394a6	-0.039936684
136	0xbde09fa9	-0.10967953
137	0x3dd306cd	0.103040315
138	0xbd13e555	-0.03610738
139	0xbe29587a	-0.16537657
140	0x3d7e5962	0.06209696
141	0x3af55c62	0.0018719549
142	0xbd95f307	-0.073217444
143	0x3e1ab2fc	0.1510734
144	0xbe06fa5f	-0.13181446
145	0xbe0e0eae	-0.13872787
146	0xbe063fe6	-0.13110313
147	0xbcf4b81e	-0.02987295
148	0xbdc96d60	-0.09835315
149	0xbc16aa99	-0.009195947
150	0xbe00cade	-0.12577388
151	0xbb8d1fc4	-0.0043067653
152	0xbd9f9811	-0.07792676
153	0x3dd52e92	0.10409273
154	0xbd1b87ee	-0.03797143
155	0xbdf58599	-0.11988372
156	0xbe313ad1	-0.17307593
157	0xbdf14376	-0.11780445
158	0xbc8e934d	-0.017404223
159	0x3d996a1e	0.07490943
160	0xbd0d3b54	-0.034480408
161	0xbc8dc013	-0.017303502
162	0x3e053703	0.13009267
163	0x3bb07c2f	0.0053858976
164	0xbe100b01	-0.14066698
165	0xbd26e989	-0.04075006
166	0xbdbeb3d0	-0.0931164
167	0x3d8b4f4f	0.06802236
168	0x3d5de8f0	0.054177225
169	0x3de1c66d	0.11024175
170	0xbca538d1	-0.020168694
171	0xbe0545c9	-0.13014902
172	0xbdb238c8	-0.087022364
173	0xbdb11509	-0.0864659
174	0xbc674fc9	-0.014118143
175	0x3e391527	0.18074475
176	0x3e19c444	0.15016276
177	0xbe160a5b	-0.14652388
178	0xbd1b7083	-0.037949096
179	0xbe2c3018	-0.16815221
180	0xbc7278b4	-0.014799286
181	0xbd99182a	-0.07475312
182	0x3bdbb9df	0.006705507
183	0x3e434d4d	0.19072457
184	0xbd4e6109	-0.05038551
185	0xbd9ed7ff	-0.07756042
186	0xbd3c36d8	-0.04595074
187	0x3c2459f9	0.010031217
188	0xbe155897	-0.14584576
189	0xbe2922f8	-0.16517246
190	0xbdf7594a	-0.120775774
191	0xbcb51f77	-0.02210973
192	0xbdf0dc03	-0.11760714
193	0xbe037738	-0.12838447
194	0xbe2756f3	-0.16341762
195	0x3df0e8b7	0.11763137
196	0x3d17c48e	0.037052684
197	0xbe1bbf9f	-0.15209816
198	0x3e04abc7	0.12956153
199	0xbe23a17e	-0.15979573
200	0xbe48b49e	-0.1960015
201	0xbc7e98fa	-0.015539402
202	0xbd759ebf	-0.059965845
203	0x3d576da3	0.052594792
204	0xbdd52078	-0.104065835
205	0xbe23c43c	-0.15992826
206	0x3e016207	0.1263505
207	0x3e296892	0.16543797
208	0x3acf941e	0.0015836989
209	0x3dcf99ab	0.10136732
210	0x3d308156	0.043092094
211	0xbdcbb2e6	-0.099462315
212	0x3dfe3717	0.12412851
213	0xbe045a10	-0.12924981
214	0xbc8e4bf1	-0.017370196
215	0x3e3b2456	0.1827558
216	0x3ba3b115	0.004995475
217	0xbd590870	-0.052986562
218	0xbcefc07e	-0.029266592
219	0xbde39e5a	-0.111141875
220	0x3d001412	0.03126914
221	0x3da22062	0.07916333
222	0x3dca0921	0.098650225
223	0xbe3203a9	-0.17384209
224	0x3d181eea	0.037138857
225	0x3e20012b	0.15625446
226	0x3e11eca1	0.14250423
227	0xba9b8f55	-0.0011868278
228	0x3e1cb58c	0.1530363
229	0x3ce7664f	0.028247027
230	0xbe47f62a	-0.19527498
231	0xbc360e22	-0.011111768
232	0x3e435466	0.19075164
233	0xbe37c300	-0.1794548
234	0xbdd89088	-0.10574442
235	0x3d1d48e2	0.038399585
236	0xbcc724c5	-0.024309525
237	0xbdf9ac6d	-0.12191091
238	0xbdc9ced6	-0.09853904
239	0xbc2dff51	-0.010619954
240	0x3de1566c	0.11002812
241	0xbdb3550d	-0.087564565
242	0x3c9264e8	0.017870381
243	0x3df00aed	0.11720834
244	0xbde6d5ce	-0.11271249
245	0x3e0141e3	0.1262279
246	0x3e04f2ce	0.12983248
247	0x3e2a8304	0.16651541
248	0xbe173abc	-0.14768499
249	0xbc3b043f	-0.011414587
250	0xbda9f7d1	-0.0829922
251	0xbe2391b0	-0.15973544
252	0xbdf1a0ea	-0.1179827
253	0xbe28005c	-0.16406387
254	0x3e379a84	0.17930037
255	0x3dfd7299	0.123753734

lstm.bias_ih_l1 f4 [128]
0	0xbdb39c50	-0.087700486
1	0x3e12eec2	0.14348891
2	0x3c94fd80	0.018187284
3	0xbe11b62d	-0.14229651
4	0x3da87a86	0.082264945
5	0x3d54cc65	0.05195274
6	0xbd7b0997	-0.061288442
7	0x3d4add8c	0.04952769
8	0xbe12869d	-0.14309163
9	0x3d36afec	0.044601366
10	0xbd84b6fe	-0.064802155
11	0xbe0fc069	-0.14038242
12	0x3d5ed422	0.054401524
13	0x3cda7a19	0.026669549
14	0x3d2e1878	0.042503804
15	0x3e0bd47e	0.13655278
16	0x3e1107b4	0.14163095
17	0x3dba27c3	0.09089615
18	0xbc46aefe	-0.012126682
19	0x3d9b5d9a	0.075862125
20	0x3e18c5f1	0.14919259
21	0xbd30604c	-0.043060586
22	0x3e3d6e8a	0.18499199
23	0xbd81476f	-0.06312453
24	0xbd89abcb	-0.0672222
25	0x3df6bb63	0.1204746
26	0x3dba703b	0.091034375
27	0x3d9ae06b	0.075623356
28	0x3d92f32b	0.07175287
29	0xbe1c87b9	-0.15286149
30	0xbcb0243c	-0.021501653
31	0x3da1c0b7	0.078980856
32	0x3d24337c	0.04008816
33	0xbcd24cf2	-0.025671456
34	0xbc666561	-0.014062257
35	0x3cde1283	0.027108436
36	0x3d2d3d48	0.04229477
37	0x3cb79a6f	0.022412507
38	0x3e3766db	0.1791033
39	0xbd1f437f	-0.03888273
40	0x3e3f27ea	0.1866757
41	0x3dc81ee1	0.09771515
42	0x3d0867c4	0.033302084
43	0x3e33d0e5	0.17560156
44	0x3e485ac7	0.19565879
45	0x3db6843c	0.089119405
46	0x3da5af5f	0.0809009
47	0x3cdc1378	0.026864752
48	0xbd009243	-0.031389486
49	0x3d6349c2	0.055490263
50	0xbcc3031f	-0.0238052
51	0x3dc77a01	0.09740067
52	0xbe1182ba	-0.14210024
53	0x3d95d947	0.07316833
54	0xbda3b345	-0.07993177
55	0x3cf3142f	0.02967271
56	0x3dcb44ed	0.09925256
57	0xbd3bcbdb	-0.04584871
58	0xbe0e854c	-0.13918036
59	0xbc96a27d	-0.018388027
60	0x3e43a422	0.1910558
61	0xbd4a40cf	-0.049378213
62	0xbd979f81	-0.0740347
63	0x3da81d41	0.08208705
64	0xbd00323e	-0.031297915
65	0xbe242727	-0.1603056
66	0xbe456566	-0.19276962
67	0xbd8e5dd6	-0.069514915
68	0xbe2be013	-0.16784696
69	0xbd9ac300	-0.075567245
70	0xbc7e73c6	-0.015530532
71	0x3e12e6e6	0.14345893
72	0xbe0aaae9	-0.1354176
73	0xbdeb1dd2	-0.11480297
74	0x3da42255	0.08014361
75	0xbce9128b	-0.028451225
76	0x3c836d12	0.01604322
77	0xbd9e388a	-0.07725628
78	0xbe3d6e57	-0.18499123
79	0x3d5f49c0	0.054513693
80	0x3d8f626e	0.07001196
81	0x3e0294bd	0.12752052
82	0xbdb9286c	-0.09040913
83	0x3dcec10e	0.10095416
84	0xbd63100a	-0.055435218
85	0x3c3948a1	0.01130882
86	0xbdf63724	-0.12022236
87	0xbd042531	-0.03226203
88	0x3e3e8a17	0.18607365
89	0xbe1421b6	-0.14465985
90	0x3db8c28c	0.09021482
91	0xbe0b9eab	-0.13634746
92	0xbe2f1807	-0.1709901
93	0xbe31c267	-0.17359315
94	0x3db27f52	0.08715691
95	0xbc2bd45d	-0.010487643
96	0x3dc437c9	0.09580953
97	0x3d13a150	0.03604251
98	0x3dabef7e	0.08395289
99	0xbd687d5e	-0.056760184
100	0x3cb2bc46	0.021818291
101	0x3d33f80c	0.043937728
102	0x3d5b2749	0.053504262
103	0x3e21ba26	0.15793666
104	0x3e331c07	0.1749116
105	0xbe12ce84	-0.14336592
106	0x3d1ad80c	0.037803695
107	0xbda168e4	-0.078813344
108	0x3e36fd89	0.17870153
109	0xbcc5048f	-0.024050025
110	0xbd183485	-0.03715946
111	0x3e2cbf9c	0.16869968
112	0x3e24a900	0.16080093
113	0x3d8b9aea	0.06816657
114	0x3cc09278	0.023507342
115	0xbdf3bf6b	-0.119017445
116	0xbd999e66	-0.07500915
117	0x3dbe82a7	0.09302264
118	0x3b7c2075	0.0038471494
119	0x3de810f0	0.113313556
120	0xbdeed37d	-0.11661432
121	0x3c935197	0.017983241
122	0x3e08e9bc	0.13370413
123	0xbcec3359	-0.028833078
124	0x3d66903d	0.0562899
125	0xbe1f20c1	-0.15539838
126	0xbd8a415c	-0.067507476
127	0xbddb6699	-0.10712928

lstm.bias_hh_l1 f4 [128]
0	0x3d28f9df	0.04125392
1	0xbd65f44c	-0.056141183
2	0x3dd2011f	0.1025412
3	0xbdd23a12	-0.10264982
4	0x3e15d6db	0.14632742
5	0xbe06b6d0	-0.13155675
6	0xbdd1b33e	-0.10239266
7	0xbe109f60	-0.14123297
8	0xbde122d3	-0.1099297
9	0x3c3633c6	0.011120742
10	0x3a48b5ee	0.0007656504
11	0x3e063645	0.1310664
12	0x3dc102f1	0.09424389
13	0xbdcd99de	-0.100391135
14	0xbcdfc463	-0.027315324
15	0xbce722ed	-0.028214896
16	0x3e1b1dba	0.15148059
17	0x3de3a06b	0.11114582
18	0xbd6755c9	-0.056478295
19	0x3d721e75	0.059111077
20	0xbdba7737	-0.0910477
21	0x3dba7fd9	0.09106416
22	0x3e4c6679	0.19960965
23	0xbda286c2	-0.07935859
24	0xbe125cc5	-0.14293201
25	0x3df07562	0.11741139
26	0xbdc5e37e	-0.09662531
27	0xbd966f69	-0.073454686
28	0xbd41e1db	-0.047334533
29	0x3dba06da	0.09083338
30	0xbd8052a6	-0.06265764
31	0x3c38dc62	0.011283012
32	0xbce7f714	-0.028316058
33	0xbd1a16b6	-0.037619315
34	0xbc6a9516	-0.014317771
35	0x3d815df1	0.06316746
36	0x3dad58fb	0.08464237
37	0x3cfc7e35	0.030821899
38	0x3dbe4980	0.09291363
39	0x3c74b4df	0.014935701
40	0xbd8e211a	-0.06939907
41	0x3e03ccb4	0.12871057
42	0x3d0eb330	0.034838855
43	0xbcaa54fc	-0.020792477
44	0x3d009656	0.03139337
45	0xbe113665	-0.14180906
46	0x3e0df387	0.1386243
47	0x3e17db11	0.14829661
48	0x3e3c9e27	0.18419705
49	0x3cce53ce	0.025186446
50	0x3d5dff0b	0.054198306
51	0x3e324ea9	0.17412819
52	0xbc85bbdf	-0.016324935
53	0x3e104cd1	0.14091803
54	0x3e037766	0.12838516
55	0x3e1509d4	0.1455453
56	0xbe0fb37a	-0.14033309
57	0xbd3ccd38	-0.04609415
58	0x3d965b1f	0.07341599
59	0x3d83c1d7	0.064334564
60	0x3d1ec723	0.03876413
61	0xbdcf7439	-0.101295896
62	0x3d88dedf	0.06683134
63	0xbd53ab67	-0.051677134
64	0xbca88b7a	-0.02057432
65	0x3d75b8a2	0.059990533
66	0xbdb8b68f	-0.09019195
67	0xbce792cb	-0.028268239
68	0xbe02e34f	-0.12782024
69	0x3e3948fd	0.18094249
70	0xbdaa3c07	-0.083122306
71	0xbc83f93b	-0.016110053
72	0x3c7c4359	0.015396916
73	0xbe0167a6	-0.12637195
74	0x3dddc0f7	0.10827821
75	0x3cc159dc	0.023602419
76	0xbe180bc1	-0.14848234
77	0x3dd521f4	0.10406867
78	0xbd5519c0	-0.05202651
79	0xbd8f1392	-0.069861546
80	0x3dbf94b7	0.09354537
81	0x3e37dcda	0.17955342
82	0x3dde1235	0.108433165
83	0xbe0e8cbc	-0.13920873
84	0x3d1c779d	0.03820001
85	0x3ce09c60	0.027418315
86	0xbaf0354f	-0.0018326434
87	0x3e10dd0b	0.14146821
88	0xbd68b458	-0.056812614
89	0x3d81a815	0.06330887
90	0x3e1d773d	0.15377517
91	0xbe07faa2	-0.13279203
92	0xbdcdd959	-0.100512214
93	0x3d5b6681	0.053564552
94	0x3e378fd7	0.17925964
95	0xbdd0f5f1	-0.102031596
96	0x3e1f6a63	0.15567927
97	0x3de38928	0.11110145
98	0x3e409664	0.1880737
99	0x3d5691d4	0.052385166
100	0x3e146b74	0.14494115
101	0xbdc6c2df	-0.097051375
102	0x3d5cde39	0.053922866
103	0x3db307e7	0.087417416
104	0x3dd340b0	0.103150725
105	0xbcf6adae	-0.030112114
106	0x3cff4866	0.031162452
107	0x3de1a9a1	0.11018682
108	0xbd3257d7	-0.0435408
109	0x3b9bc234	0.0047533754
110	0x3e355931	0.17709805
111	0x3d00c9e4	0.031442538
112	0xbe0310b5	-0.12799342
113	0x3dc5758f	0.09641563
114	0x3e067150	0.13129163
115	0x3c45975d	0.012060014
116	0x3dd532af	0.10410058
117	0x3d3ae565	0.045628924
118	0x3e0fb956	0.14035544
119	0xbbda4bd9	-0.006661874
120	0x3ce38a13	0.0277758
121	0xbd6b9ce5	-0.057522673
122	0x3e2b48a4	0.16726929
123	0xbdede24c	-0.11615428
124	0x3e450448	0.19239914
125	0xbd90a973	-0.0706357
126	0x3d084f54	0.03327878
127	0x3db91f50	0.090391755

lstm.weight_ih_l2 f4 [128, 32]
0	0x3d7bbeff	0.061461445
1	0x3de019f1	0.10942448
2	0x3daa0a46	0.08302741
3	0x3dc3af8c	0.09554967
4	0xbce81bc6	-0.028333556
5	0x3d972dde	0.07381795
6	0xbe256f9c	-0.16155857
7	0xbc890b7f	-0.016729115
8	0xbe4d143f	-0.20027255
9	0x3dad398e	0.08458243
10	0x3de4127c	0.11136338
11	0x3dfa52c1	0.12222815
12	0xbe314b1a	-0.17313805
13	0x3dbd68cf	0.09248506
14	0xbcd26657	-0.025683565
15	0x3da072c0	0.07834387
16	0x3e48845c	0.19581741
17	0x3d13ca46	0.036081575
18	0x3e4846cd	0.19558258
19	0x3d67abaa	0.056560196
20	0x3e008629	0.12551178
21	0xbcc59442	-0.024118546
22	0xbe39cd53	-0.18144731
23	0xbe11b175	-0.1422785
24	0xbd4c72c3	-0.049914133
25	0xbe2f59f5	-0.1712416
26	0xbd588027	-0.05285659
27	0xbce2b30a	-0.027673263
28	0x3d61622b	0.05502526
29	0xbdd38c94	-0.103295475
30	0xbe1e0748	-0.15432465
31	0xbd5982b0	-0.05310315
32	0x3d38fc4d	0.045162488
33	0xbe2aebc5	-0.16691501
34	0xbdb203c8	-0.086921275
35	0x3e2a4344	0.16627222
36	0xbd7d9552	-0.06190998
37	0xbbf721e9	-0.007541884
38	0xbe0b7fc2	-0.13622954
39	0xbdb88210	-0.090091825
40	0xbde57193	-0.11203303
41	0xbde45318	-0.111486614
42	0x3e210e7d	0.15728183
43	0x3b355540	0.002766922
44	0xbe3f2068	-0.18664706
45	0x3dc0f459	0.094216056
46	0xbdb30906	-0.087419555
47	0xbd21aa94	-0.039469317
48	0xbdd87ef1	-0.10571087
49	0x3e05a2b3	0.13050346
50	0xbdf7939e	-0.120887026
51	0xbe408e21	-0.18804218
52	0x3e2561ac	0.1615054
53	0xbe097289	-0.13422598
54	0x3d3445e0	0.04401195
55	0x3de6d582	0.11271192
56	0x3da6f090	0.081513524
57	0x3e1449cb	0.14481275
58	0x3c1a8013	0.009429949
59	0xbdcf235c	-0.10114166
60	0x3b7f3cec	0.0038946224
61	0xbe20e520	-0.15712404
62	0xbd80e473	-0.06293573
63	0xbc7bc54f	-0.015366866
64	0xbda43061	-0.0801704
65	0x3df64f27	0.12026816
66	0xbb41cc29	-0.0029571152
67	0xbcf913b7	-0.030404909
68	0x3c86016e	0.016358104
69	0x3de514ec	0.11185631
70	0x3dd636bc	0.104596585
71	0x3dafec10	0.08589947
72	0x3ce945c4	0.02847565
73	0xbda0d758	-0.078535736
74	0xbdae853a	-0.08521505
75	0xbde977be	-0.11399792
76	0x3cad003f	0.021118281
77	0x3e1f39bc	0.15549368
78	0x3dee3771	0.11631668
79	0x3e1d799c	0.15378422
80	0xbe1e6759	-0.15469112
81	0xbe00c789	-0.12576117
82	0x3decf702	0.115705505
83	0xbdbfa8b7	-0.09358352
84	0x3e2a8216	0.16651186
85	0xbe4268bd	-0.18985267
86	0xbbf058ae	-0.00733479
87	0x3de08725	0.10963277
88	0xbd080ce1	-0.033215407
89	0xbdd97267	-0.10617524
90	0x3e2b5120	0.16730165
91	0x3b8600c7	0.004089448
92	0xbe0c077b	-0.13674729
93	0xbc49357b	-0.012280817
94	0x3d827b0f	0.06371128
95	0xbe112cc0	-0.14177227
96	0xbdc64e0b	-0.09682854
97	0x3d11cc00	0.03559494
98	0xbe37995c	-0.17929596
99	0x3d5fd2e5	0.054644484
100	0xbbefcdf9	-0.007318255
101	0xbdf2b542	-0.118509784
102	0xbdc9d740	-0.09855509
103	0xbe306856	-0.17227301
104	0x3d70d1c0	0.058793783
105	0x3c9bd9e3	0.019024795
106	0x3e12c4ab	0.14332835
107	0x3d7b57a0	0.061362863
108	0xbe10625e	-0.14100024
109	0x3d3e3524	0.046437398
110	0x3dbf8c26	0.09352903
111	0x3e3037b9	0.17208757
112	0xbd236ab1	-0.03989667
113	0x3de98a15	0.1140329
114	0x3e11a82c	0.14224309
115	0xbe18d8ae	-0.14926407
116	0x3d986955	0.074419655
117	0xbe0dacc8	-0.13835442
118	0x3e07fe13	0.13280515
119	0x3dbe1389	0.0928107
120	0x3e286ae0	0.1644702
121	0x3e03fb0f	0.1288874
122	0xbd9a6cf1	-0.0754031
123	0xbdc63325	-0.09677724
124	0x3e1745a7	0.14772664
125	0x3cfc5d5c	0.030806236
126	0x3e0d5a95	0.13804086
127	0xbe2841f5	-0.1643141
128	0xbe3029c5	-0.17203434
129	0xbd87a504	-0.06623271
130	0xbc6d744b	-0.014493058
131	0x3ddc6b53	0.10762658
132	0x3ca47168	0.020073608
133	0x3dbfc244	0.09363225
134	0x3e3d3fda	0.18481389
135	0xbd73b9a7	-0.059503224
136	0xbe49a13b	-0.19690411
137	0xbd5aebf7	-0.05344769
138	0x3d8f4ff9	0.069976754
139	0xbd9e9062	-0.077423826
140	0xbc413c47	-0.011794156
141	0xbd2ea458	-0.0426372
142	0x3d306f28	0.043074757
143	0xbda1c86f	-0.07899558
144	0xbe1f63e9	-0.15565456
145	0x3dcbc2eb	0.09949287
146	0x3db8cd7e	0.090235695
147	0x3e38e5f1	0.18056466
148	0xbcedcd74	-0.029028632
149	0x3e14e34b	0.1453983
150	0xba83fe2f	-0.001007026
151	0x3d5f7ad6	0.054560505
152	0x3e1d7875	0.15377982
153	0x3df85f03	0.12127497
154	0xbd9e3e5d	-0.077267386
155	0xbe05b03c	-0.1305551
156	0xbde629fd	-0.112384774
157	0x3e0ce752	0.13760117
158	0x3e015504	0.12630087
159	0xbe2d1f16	-0.1690639
160	0xbde8466a	-0.113415554
161	0xbbffe42a	-0.0078091817
162	0x3db6f700	0.0893383
163	0xbde634b7	-0.11240523
164	0xbe1bd76e	-0.15218899
165	0xbd834480	-0.0640955
166	0xbda645b8	-0.081187665
167	0x3de0c91a	0.10975857
168	0x3d83c67f	0.064343445
169	0xbe0a3898	-0.13498151
170	0x3c8b12d1	0.016976746
171	0xbdf961df	-0.121768706
172	0x3e028e19	0.12749518
173	0x3d03ee14	0.03220947
174	0xbdcbf53b	-0.099588834
175	0x3e265a4e	0.16245386
176	0xbd231e94	-0.039824083
177	0xbd197ff3	-0.037475538
178	0xbc52a939	-0.012857729
179	0x3db8c450	0.09021819
180	0xbcb8c612	-0.022555385
181	0xbd5e8cd2	-0.054333515
182	0x3cace621	0.021105828
183	0x3c643056	0.01392754
184	0x3e134371	0.14381196
185	0xbc886824	-0.01665122
186	0x3c82f073	0.015983796
187	0xbe277063	-0.16351466
188	0x3d952684	0.07282737
189	0xbe39982e	-0.18124458
190	0x3da0fba9	0.078605
191	0xbdaaccb9	-0.08339829
192	0x3e17c604	0.1482163
193	0xbe1286c0	-0.14309216
194	0x3dad07a1	0.08448721
195	0x3dbf767c	0.09348771
196	0x3d972f94	0.07382122
197	0xbd5d7bee	-0.054073267
198	0x3d8748a9	0.06605656
199	0xbcf6b26f	-0.03011438
200	0xbe1a2788	-0.15054142
201	0x3deceb82	0.11568357
202	0x3df3bba9	0.11901028
203	0x3db11fe4	0.08648661
204	0x3db246c1	0.087049015
205	0x3dc660df	0.096864454
206	0x3dbbbab0	0.09166467
207	0xbde6318a	-0.112399176
208	0x3e3ae9de	0.18253276
209	0x3dba1d13	0.09087577
210	0xbe11afec	-0.14227265
211	0xbc8ea560	-0.017412841
212	0xbcfb4f1f	-0.030677376
213	0x3b29f861	0.00259354
214	0x3ba8136d	0.005129269
215	0xbe199822	-0.1499944
216	0xbd864a80	-0.065571785
217	0xbd1b20f0	-0.03787321
218	0x3d79968e	0.060934596
219	0x3b566cfc	0.0032718768
220	0x3e117a00	0.14206696
221	0xbe2b8177	-0.16748606
222	0xbe07ee56	-0.13274512
223	0x3dad9cdb	0.084771834
224	0xbe39683c	-0.18106169
225	0xbde49c89	-0.11162669
226	0xbe12ae6d	-0.1432435
227	0xbd193d97	-0.037412252
228	0xbe2c2ac9	-0.16813196
229	0x3e10dac4	0.14145952
230	0xbe44243e	-0.1915445
231	0x3da6e104	0.08148387
232	0x3ded1614	0.11576477
233	0xbd1067bf	-0.03525519
234	0xbd6d3b5d	-0.05791794
235	0x3da6b94e	0.08140813
236	0xbd8aed7d	-0.067835785
237	0xbe0d7c5d	-0.13816972
238	0xbe3c7a4c	-0.18406028
239	0xbe1eb189	-0.15497412
240	0x3def4db2	0.11684741
241	0x3d927a11	0.071521886
242	0x3db86b52	0.09004845
243	0xbdb8ac20	-0.09017205
244	0xbb603373	-0.0034210354
245	0x3dcfd962	0.10148884
246	0xbddb93d9	-0.10721559
247	0xbddd5ada	-0.10808344
248	0xbde77874	-0.113022715
249	0xbca23d90	-0.019804746
250	0x3d8e2bcf	0.069419496
251	0xbe2d0ec1	-0.1690016
252	0x3def3fe3	0.11682107
253	0xbdecca26	-0.11561994
254	0xbd3728fd	-0.044716824
255	0x3c33f105	0.0109827565
