pv/checkpoints/중앙창고-checkpoint-2023-08-10 23_35.pt (torch, 304625 bytes, 38 tensors)

lstm.weight_ih_l0 f4 [128, 17]
000000 3b b8 7a 3d 49 5b 94 bd c0 22 9f 3d aa 78 3f 3e
       0.061210852 -0.07243974 0.077703 0.18698373
000010 e2 0a 86 bc d5 3c db 3c eb f7 14 bd 22 80 eb 3d
       -0.016362611 0.026762405 -0.036369245 0.11499049
000020 a3 67 ed 3d 09 74 a8 bc de 3b 1e 3e 84 5f 32 3e
       0.11592033 -0.020563142 0.15452525 0.17419249
000030 3b ee 68 bd 7c 1e da 3d 26 05 1b be 74 61 1e 3e
       -0.05686782 0.10650346 -0.15138683 0.15466863
000040 71 ea 35 3e 68 f9 f9 3d f4 66 71 bd a5 d7 07 bc
       0.17765214 0.122057736 -0.058936074 -0.00829116
000050 7f ec b6 3d 7f 6d 3b 3e ac 6f b9 3c 89 6c cc bd
       0.08931827 0.18303488 0.022636257 -0.09981639
000060 a1 c3 f2 3c 4e 53 e5 3c 19 26 95 bc 89 77 82 3d
       0.029634299 0.027993824 -0.018206643 0.06370456
000070 0b 60 c1 3d bc 8e 8a 3d 39 58 ae 3d d7 00 f9 bb
       0.09442147 0.06765506 0.08512921 -0.007598977
000080 48 6c d3 3c de 68 04 bd 92 2b fa bd 93 22 ca 3d
       0.025808468 -0.03232657 -0.12215342 0.09869876
000090 76 e9 2a 3e 3a 37 1b 3e be df 94 3d 83 9b 09 be
       0.16690621 0.15157786 0.07269238 -0.1343823
0000a0 b3 f2 9a bd 50 70 0e 3e 21 49 d4 3d 2f 9e 26 3d
       -0.075658225 0.13910031 0.10365511 0.0406782
0000b0 86 7c ac 3d 00 3b e9 bc 38 34 81 3d 04 5d 1c bd
       0.084221885 -0.028470516 0.06308788 -0.038174644
0000c0 29 51 d5 3d 3a d2 0b 3e f9 ef 81 bd 41 70 92 bd
       0.10415871 0.13654414 -0.06344599 -0.07150317
0000d0 39 fc bd bb cd 25 01 bd 7e 69 1c 3e 5a 94 21 be
       -0.0057978895 -0.03153019 0.15274617 -0.15779248
0000e0 53 f9 b3 3d 23 96 16 3e ae 55 7a bd 5f 96 30 bd
       0.08787789 0.1470571 -0.061116867 -0.043112155
0000f0 c3 89 be 3d 31 eb bb bd bb 67 19 3c 1c c4 01 3e
       0.0930362 -0.091757186 0.00936311 0.12672466
000100 88 68 a2 3d c6 0e 23 3e eb 8e d2 3d 37 dd 05 3d
       0.07930094 0.15923604 0.10281166 0.03268167
000110 67 a7 50 ba 9e 93 8b bc 05 b7 91 3c a2 21 95 3c
       -0.0007959515 -0.017038163 0.017787466 0.018204514
000120 6f 0e b6 bc f1 00 c8 bd 17 50 f6 bd 86 14 fa 3d
       -0.02222368 -0.097658046 -0.12026995 0.12210946
000130 3c 1c 21 3e 9b af c5 3d 19 d9 d9 3c f8 a8 18 3e
       0.15733427 0.09652635 0.026592778 0.14908206
000140 49 50 50 3e 0b a3 ce bd fa 87 bd bc c5 7d 54 bd
       0.20343126 -0.10089692 -0.023136128 -0.051877756
000150 89 82 4d bb b5 56 70 3c 7a d1 fe 3d 20 16 87 3c
       -0.0031358323 0.01466911 0.12442298 0.016490042
000160 3d 4d 38 3e fe 6c 10 be 61 63 3d 3e f8 ed 48 3b
       0.17998214 -0.14104077 0.18494941 0.0030659419
000170 d9 ea db bd 66 9f 43 3e cc bf af bd f4 07 c9 3d
       -0.10738153 0.19103774 -0.08581504 0.0981597
000180 9b 1b 74 bd 4e 4a ba bd 42 c5 26 3e 89 52 6d 3d
       -0.05959664 -0.09096204 0.16286185 0.05794004
000190 01 0c 4f 3e fe 46 f6 3d 27 f4 af bd 60 7c d8 3d
       0.20219423 0.120252594 -0.0859149 0.10570598
0001a0 13 52 05 be 29 59 92 bd 8c 4d 5f bc 82 88 8f bd
       -0.1301959 -0.07145912 -0.013629328 -0.07008459
0001b0 07 16 8e 3d 6b 15 db 3c df a5 96 3c a3 0e a3 3d
       0.06937795 0.026743611 0.01838964 0.07961776
0001c0 28 e8 03 3e 8d 3c 6b bc b7 92 49 3e 0d ae 1a 3e
       0.1288153 -0.014357698 0.19684874 0.15105458
0001d0 26 b5 f3 bd 90 e4 1a 3e 7f 4a 19 bd 7a 70 da bd
       -0.11899786 0.15126252 -0.03742456 -0.106659845
0001e0 94 b1 2c bc fa 21 39 3e a4 6c ee bd c7 8c 0f be
       -0.010540385 0.18079367 -0.11641815 -0.14018546
0001f0 17 30 c4 bd a3 a5 51 bd 39 7a 27 bd 6b d7 a5 3d
       -0.09579485 -0.051183354 -0.040888045 0.08097728
000200 2d 7b 40 3e 47 73 ff bd 94 0e 1a 3e 16 9b d7 3d
       0.18796988 -0.12473159 0.15044624 0.10527627
000210 c6 e8 b8 bd 31 c1 12 3e 7f 21 a2 bd 85 64 fc 3d
       -0.09028773 0.14331509 -0.07916545 0.1232386
000220 f1 d9 36 3d 43 77 90 3d 32 09 f1 3d b8 1b 15 3e
       0.04464144 0.07053997 0.11769332 0.14561355
000230 bc 4e c7 3d 3f 5d 0c 3e 07 43 96 3d 8c 1b b0 3b
       0.09731814 0.13707446 0.07337003 0.0053743776
000240 1b 6e 16 be 02 77 37 3e 4b dd a4 3b c9 17 b9 3d
       -0.1469044 0.17916492 0.005031263 0.0903774
000250 ad 09 3f 3d db 41 8c bd 83 8c 11 3e 21 45 70 3b
       0.046640087 -0.068484984 0.14213757 0.0036662298
000260 69 5a be 3c 0e ab 66 3d 05 cd 47 3d f3 fc be bd
       0.02323647 0.056315474 0.048779506 -0.0932559
000270 15 ec e6 3d b4 c9 0f be 02 2c f6 bd 2d ca 3a bc
       0.11275498 -0.14041787 -0.120201126 -0.0114007415
000280 69 b0 f3 3d 9c 2f 81 bd df d0 ca b9 69 3a 84 bd
       0.11898882 -0.06307909 -0.00038684063 -0.06456453
000290 95 a0 4d bc a8 eb de 3d 34 63 c5 bd 44 46 79 bd
       -0.012550493 0.108847916 -0.09638062 -0.060858026
0002a0 c8 3c f8 bd 8d 25 c5 bd 6a dd 46 3e a0 70 2f 3d
       -0.12120968 -0.09626303 0.194204 0.042832017
0002b0 d1 a2 ad bd ed 3d 59 3d 38 9c a3 bd 74 85 36 3e
       -0.084783204 0.053037573 -0.07988781 0.17824346
0002c0 76 07 b7 bc 29 f4 a5 bd 65 44 fc bd 73 87 8b bd
       -0.022342425 -0.081032105 -0.12317733 -0.06812944
0002d0 ae 1f 1d be 50 23 1f be 2b d0 00 be 30 7a c4 3d
       -0.15344116 -0.15540814 -0.1257941 0.09593618
0002e0 f9 e9 80 bd 6a 15 24 be bc f2 38 bd a4 6d 2a bd
       -0.06294627 -0.16023794 -0.045153365 -0.041608468
0002f0 46 26 be bd 7f 4d 0a be c6 3a af 3d cc 35 c3 3d
       -0.09284644 -0.13506125 0.08556132 0.09531745
000300 b7 a3 37 3d 48 fd eb bd cc ba d1 3d 24 d3 64 bd
       0.044833865 -0.11522919 0.10240707 -0.055865422
000310 ab 09 f0 bd ea 8b 3e bd f3 c7 1e be 40 c7 13 be
       -0.11720594 -0.04652015 -0.15505962 -0.14431477
000320 15 df ac 3d de e5 b6 bd 39 7b 5f 3e 3e 6d b0 3d
       0.08440987 -0.089305624 0.2182435 0.08614586
000330 14 43 3e bd ec db db bd 70 d8 c3 bd 92 78 16 3e
       -0.04645069 -0.10735306 -0.095627666 0.14694431
000340 13 04 18 3d e4 41 33 be 36 4c 27 bd 22 83 03 3e
       0.03711326 -0.17505604 -0.040844165 0.12842992
000350 3d 75 99 bd d0 f1 23 3e df fd 09 be b6 28 30 bd
       -0.074930646 0.16010213 -0.1347575 -0.043007575
000360 b3 72 62 bc 89 04 4d be ad 72 b3 bc dc 94 1e 3e
       -0.013821292 -0.20021261 -0.021905268 0.15486473
000370 c4 0a 61 3d f7 a0 4f 3d db e9 9d bc 53 63 99 3d
       0.054941908 0.050690617 -0.01927655 0.07489648
000380 44 f4 1a 3d d5 a2 7e bd 3b 5e 21 3e c2 82 17 3e
       0.037830606 -0.062167007 0.15758602 0.14795974
000390 50 d7 ed bd fd 5d b2 3d 55 d1 0a bb e7 46 42 3d
       -0.11613333 0.08709333 -0.00211819 0.0474309
0003a0 9f cc cc 3d 61 d9 08 bd b6 a6 da 3d e5 97 29 3e
       0.09999966 -0.033410434 0.10676329 0.1656185
0003b0 b1 d4 cb 3d af 76 76 bd 68 9a de bd 0b a0 78 bd
       0.09952677 -0.06017178 -0.108692944 -0.060699504
0003c0 a4 4a 70 bd 7f 80 1a 3e c1 25 bc bd c1 74 dd 3d
       -0.058664933 0.1508808 -0.091868885 0.10813285
0003d0 52 1d 9a bd 62 b0 29 3e fd 86 04 3d 93 94 61 bd
       -0.07525124 0.16571191 0.032355297 -0.055073332
0003e0 29 8f 8d 3d 24 54 3c 3d 90 d1 00 3e 76 8b dd bd
       0.06912071 0.04597868 0.12579942 -0.10817616
0003f0 3e 33 d8 3d 28 8e ab bd 54 e9 f6 bd 57 71 0f 3e
       0.10556649 -0.083767235 -0.120562226 0.1400808

lstm.weight_hh_l0 f4 [128, 32]
000000 4f 22 e7 bd 58 c7 ae bc e3 33 0c 3e 8b 34 a2 bc
       -0.11285841 -0.021335289 0.13691668 -0.019800445
000010 00 13 08 be 66 38 79 bd 36 e2 98 3d 49 4b 1e 3e
       -0.13288498 -0.0608448 0.07465021 0.15458407
000020 d8 93 d7 3d 4f 40 a5 bd 35 40 81 bd 12 8d 5b be
       0.10526246 -0.080689065 -0.06311075 -0.21440533
000030 f4 d8 3b bc c8 23 29 bc 14 c5 36 bd 70 53 fa 3d
       -0.0114653 -0.010323472 -0.044621542 0.12222946
000040 fd 69 62 3b d4 f9 41 3e 69 a1 1e bd e3 34 10 be
       0.0034548037 0.18942958 -0.03872815 -0.14082675
000050 70 7f b4 bd 67 96 3c bd a4 3a 29 3e 5a fb e6 3b
       -0.08813369 -0.046041872 0.16526276 0.0070490064
000060 46 26 27 bd 56 06 0d 3e 35 72 0d 39 2d 40 73 bd
       -0.040807985 0.13771948 0.00013489353 -0.059387375
000070 5b 33 ab bd e7 f6 b6 3d ab 15 be 3d 67 91 c2 3d
       -0.08359405 0.08933812 0.092814766 0.095003895
000080 09 09 49 3e 45 50 a7 bd 0d ba b9 3d 5d ff ed bd
       0.19632353 -0.08169607 0.090686895 -0.11620972
000090 dd f3 1e 3e 8a dc 2f 3d eb 1b 2a 3e 5a 66 88 bd
       0.15522714 0.04293493 0.16612212 -0.06660147
0000a0 f3 fc b3 3d 87 0d c9 3c 9c d9 94 bd c5 54 b9 3d
       0.087884806 0.024542583 -0.07268068 0.09049372
0000b0 2d 55 c3 3c 61 65 b2 3d 39 34 1a 3e f1 01 0d be
       0.023844326 0.08710743 0.15058984 -0.13770272
0000c0 7d 0c fa 3d 0e 7b 0f 3e f4 d2 5a 3d 77 d3 1f 3e
       0.12209413 0.14011785 0.053423837 0.15608011
0000d0 42 75 24 be 06 ea fe bd 3c d9 51 bd ad a6 1a 3e
       -0.16060355 -0.1244698 -0.05123256 0.15102644
0000e0 f1 9c c2 3d 3b 8c f5 bc 30 85 91 3c 8a 50 0b be
       0.095025904 -0.029974094 0.017763704 -0.13604942
0000f0 a3 96 06 be 8e bd b7 bd 15 5a 11 bd e0 08 f4 3d
       -0.13143401 -0.089717016 -0.0354863 0.11915755
000100 c4 70 40 bb 37 94 81 bd 35 bb ff bd c9 71 e6 3d
       -0.0029364089 -0.06327098 -0.12486879 0.112521715
000110 2b 4c 92 3d 54 e1 1b 3e 24 26 1f 3e ed 41 b2 bd
       0.07143434 0.15222675 0.15541893 -0.087039806
000120 31 db 14 bd 5d bb 1f bc 7f 80 93 3d 87 b6 2a be
       -0.03634185 -0.009749261 0.07202243 -0.16671191
000130 7e b8 9f bc 86 3e d3 bd 7b 72 dc bd fb c2 2e be
       -0.019497152 -0.1031466 -0.10764023 -0.17066567
000140 56 5c 92 bd 37 d7 2c 3d 08 2f 7f 3c 1b ce 3e be
       -0.07146518 0.042197432 0.015575178 -0.1863331
000150 af ec 36 3e 0d f5 8e ba 80 1d ed bb f6 07 13 3e
       0.17863725 -0.0010906771 -0.0072361827 0.14358506
000160 f8 87 ce bd 5a f6 f2 3d 1b 77 d3 bc b1 1b 3c be
       -0.10084528 0.11863394 -0.02581363 -0.18369938
000170 6a c8 81 bd 41 77 46 3e a9 f1 b5 bd ea 3a 8e 3c
       -0.06337054 0.1938143 -0.08883984 0.017362077
000180 db 5e bc 3c 64 94 ad bd c0 82 bf 3d 2e be 2f 3e
       0.02299445 -0.08475569 0.093511105 0.17162392
000190 77 3f dc 3c 79 60 80 3d 8d 26 03 bd c0 ea 71 3d
       0.026885731 0.06268401 -0.032019187 0.059061766
0001a0 60 2e 9a bd b1 ba 6d bd d7 ae 94 bd 10 b6 77 bc
       -0.075283766 -0.05803937 -0.072599106 -0.015119091
0001b0 ed f9 10 be 46 f0 36 bd ec df 6e 3d 64 99 ce 3d
       -0.14157839 -0.044662736 0.058319017 0.10087851
0001c0 0b de e4 bd ea 30 58 bd ef d2 c6 3d 69 fe 33 be
       -0.11175164 -0.052781023 0.09708201 -0.17577519
0001d0 3c 4f 17 be 82 e1 92 bd 39 61 66 3d 82 f1 91 bd
       -0.1477632 -0.071719185 0.056245063 -0.07126142
0001e0 5f ab 0b be fc cd d2 3c e7 b1 60 bc 63 0e ae 3c
       -0.13639592 0.025732987 -0.01371429 0.021247094
0001f0 19 24 26 be db dd db bd 4e a2 79 bd a0 61 0c bd
       -0.16224708 -0.10735675 -0.0609458 -0.03427279
000200 87 b2 10 be 29 b6 a5 bd 9e 77 9c 3d 8d e8 87 3d
       -0.14130603 -0.08091385 0.07640003 0.066361524
000210 a0 eb 84 bb 3d b7 7d 3d e2 6e cf bd f6 ec cd 3b
       -0.004056409 0.061942328 -0.10128571 0.0062843515
000220 e9 77 6d bd 81 2a a7 3c cc ea 69 bd 87 e9 40 bd
       -0.057975683 0.02040601 -0.057108685 -0.04709771
000230 26 87 cd 3d 26 7f 01 be 13 b7 d4 3c f2 cf ba 3d
       0.10035543 -0.1264616 0.025966203 0.09121694
000240 02 d9 3c be 3a 2c 13 3e e0 01 98 bd 23 d8 0b 3d
       -0.18442157 0.1437234 -0.07422233 0.03414167
000250 fb 45 11 bd 84 f1 80 3d 7c 8a 3f bd e3 55 cb 3d
       -0.03546713 0.062960654 -0.04676293 0.09928491
000260 b7 b3 4f bd f8 49 4d 3e f1 fe 38 bb 62 de 3a bd
       -0.0507085 0.20047748 -0.0028228129 -0.045622237
000270 77 fe 82 3d 66 e1 10 3e 77 1e ca 3d 78 bb 9b bd
       0.063961916 0.14148483 0.09869092 -0.07604116
000280 7a 5b 22 3e c0 b0 94 3d 35 f7 59 3e 8c 7f 09 be
       0.15855208 0.07260275 0.21285708 -0.13427562
000290 62 f3 6b 3d 4c 26 4b 3e c0 89 35 bd d0 58 19 3e
       0.057605155 0.19838828 -0.04432082 0.14975286
0002a0 7e c5 3f be 29 04 aa 3d 37 31 77 3d a9 05 e8 3b
       -0.18727681 0.08301575 0.06034967 0.007080753
0002b0 4f 60 15 3e 87 e8 89 3d 8e 20 b9 3d 15 10 19 3e
       0.1458752 0.06733804 0.090394124 0.14947541
0002c0 9f 0c 55 3a c7 20 2c 3e 13 a2 27 bd 34 34 43 be
       0.0008127186 0.16809379 -0.04092605 -0.19062883
0002d0 b0 20 0c be e2 84 1d 3e bf 55 20 3e b3 ad 1d 3d
       -0.13684344 0.15382722 0.1565771 0.03849573
0002e0 77 bc 25 3e 8b da e9 bd 75 7b b2 ba 68 7b 86 3d
       0.16185175 -0.11418637 -0.0013617115 0.065665066
0002f0 9f de e0 bd 59 27 25 3e c9 cc f4 bd b3 d0 4b 3e
       -0.109799616 0.16128291 -0.11953122 0.19903831
000300 54 6c c8 3c cd 17 ea bd 7c 43 10 bc e5 69 00 3e
       0.024465717 -0.11430321 -0.008805152 0.12540396
000310 2d 8e 1b be ad ef 47 3e 57 13 c2 bd e2 71 19 3e
       -0.15190955 0.19525023 -0.09476345 0.14984849
000320 ae 99 6a 3d 11 20 80 3d f9 c8 a9 39 9d f1 17 be
       0.057275467 0.06256116 0.00032383928 -0.14838262
000330 57 c0 00 be 35 a0 2f 3e 7a 99 43 3e 46 91 0d bd
       -0.12573372 0.17150958 0.19101515 -0.03456237
000340 0b 29 94 3d a3 ac 88 3d 3f 8b 13 be b1 26 4b bd
       0.07234391 0.06673553 -0.14408587 -0.049597446
000350 f2 a6 4f 3e b9 cc b8 3c ad 25 1e bd bf 2c 0e 3e
       0.20278528 0.022558557 -0.03861015 0.13884257
000360 0d fd 46 3e f7 bd e4 3d 67 5f 26 be 67 3c 0a 3e
       0.19432469 0.111690454 -0.1624733 0.13499604
000370 56 c3 20 3c 8c d6 0e be 5c 90 1e bd 0a f6 3b 3e
       0.009812197 -0.1394903 -0.03871189 0.18355575
000380 77 37 8b 3c f0 fd c5 3d 4f cf 44 3e d0 af a8 3d
       0.016994221 0.09667575 0.19219707 0.082366586
000390 08 b9 35 3d ea bf 94 b7 89 02 1a bd 54 86 86 3b
       0.044365913 -1.7732342e-05 -0.037600074 0.0041053686
0003a0 07 ba e2 bd 26 b7 c2 3d fc ad b9 bd a3 e2 2b be
       -0.11070638 0.09507589 -0.09066388 -0.16785674
0003b0 a5 56 0b be 02 8c 18 be a7 7b 2a 3e a4 71 0e 3e
       -0.13607271 -0.14897159 0.16648732 0.13910538
0003c0 e0 92 ff bc b1 cd 37 3a b7 51 2e be b7 85 81 bc
       -0.031197965 0.00070115464 -0.17023359 -0.01581083
0003d0 19 ca 95 bd c8 6f f4 bd d5 80 af 3c f7 b1 17 3e
       -0.07313938 -0.11935383 0.021423737 0.14813982
0003e0 15 35 1a 3e 0b 80 3d 3e 07 b4 01 be 41 a7 1f be
       0.15059312 0.18505876 -0.12666331 -0.15591146
0003f0 8e 81 b7 3d 01 52 dd bd 8b ed 27 3d 64 98 1e bd
       0.089602575 -0.10806657 0.040998023 -0.03871955

lstm.bias_ih_l0 f4 [128]
000000 a2 1f 46 3e ec 25 35 3e b4 3d dc bd db c0 d4 3d
       0.19348004 0.17690247 -0.107539564 0.10388347
000010 5d ac ee bd 44 d0 38 bd 2d 78 60 3d da bf be 3c
       -0.116539694 -0.045120493 0.05480211 0.023284841
000020 cf 22 a2 bd 52 f3 82 3d 18 a1 3b 3e bf 07 9c 3c
       -0.079167955 0.06394066 0.18323171 0.019046662
000030 df 9d da 3d e9 c7 19 be 3b 96 af bc be 05 11 3e
       0.10674643 -0.15017666 -0.02143394 0.14162347
000040 83 61 2a bc 90 2c 17 bd 2a 1c 7c bd 0d 99 11 3e
       -0.010399225 -0.036907732 -0.061550297 0.1421854
000050 5b e0 11 be 9b fa 0b be be d0 16 bd d7 f0 ce bd
       -0.14245741 -0.13669817 -0.036820166 -0.1010453
000060 b4 73 2a 3d 99 c1 1f 3b b5 89 e0 bc e4 57 19 be
       0.04161425 0.0024376868 -0.027409414 -0.14974934
000070 2f 0b ab bd cb 9a a6 3c ce f1 24 bd 9a 24 28 3e
       -0.083517425 0.020337483 -0.040269665 0.16420212
000080 35 50 4d 3e 26 18 2b 3d 7c 7d 83 3d 5d 92 e0 bd
       0.20050128 0.041771077 0.064204186 -0.109654166
000090 2c 0a 62 3e cb 9c 07 3d 09 b7 ad 3d a0 99 e5 bd
       0.22074193 0.033108514 0.08482177 -0.11210942
0000a0 65 32 f3 bc b0 f7 08 3e 08 05 f3 bd 3c 1d 7b bd
       -0.029687116 0.13375735 -0.11866194 -0.061307177
0000b0 f6 c6 bb 3d 7d b1 71 3d 31 ac 6a bd 37 22 97 3b
       0.09168808 0.059007157 -0.05729312 0.004612233
0000c0 9b 7e eb 3c 1e c8 95 3d 7a c3 bd 3d 2d ee 6c bd
       0.028746894 0.0731356 0.092658 -0.05784433
0000d0 6a 47 87 bb d1 e0 03 be f3 4c b6 bd 80 f7 00 3e
       -0.0041283863 -0.1287873 -0.08901396 0.12594414
0000e0 7b e4 4f 3e d7 1c 10 3e 5e ca 82 bd 66 84 34 3d
       0.20302002 0.14073502 -0.06386255 0.044071577
0000f0 4e 9b 2c 3e 29 16 4d 3e 8a ee 35 bd 02 00 1d be
       0.16856119 0.20027985 -0.04441694 -0.15332034
000100 fb 2e 8f 3d 85 8b 77 bd cd 8c 2d 3e 12 41 0b be
       0.06991383 -0.06043579 0.16948242 -0.13599041
000110 ff 35 8a 3d 7a 3a c0 3d d7 dc 3a 3d 85 53 2c 3e
       0.0674858 0.093861535 0.045620766 0.16828735
000120 73 89 a1 3d c6 58 96 3d c8 f4 06 3e af ed 66 bd
       0.078875445 0.07341151 0.13179314 -0.056379016
000130 45 b6 b8 3d 65 67 9f bb 85 cf 68 bc b8 b7 ad bd
       0.0901914 -0.0048646205 -0.014209633 -0.08482307
000140 61 0b 01 be 0b 1f 12 3e 76 e3 9b 3b fe ce 32 be
       -0.12601997 0.14269654 0.00475734 -0.17461774
000150 83 7d f6 3d a6 88 c6 bd ef a2 20 3e 35 47 3e 3e
       0.12035658 -0.09694032 0.15687154 0.18581851
000160 53 e3 f6 bc e5 8b 18 bd af dc cd 3d 48 1d 89 bc
       -0.030137694 -0.03724279 0.10051858 -0.016737595
000170 9c 40 35 be 2a 99 b1 3d a7 35 9f bd 64 c5 7f 3d
       -0.17700428 0.08671792 -0.07773905 0.062444106
000180 9b be 95 bc 16 be 20 3e a3 71 0b 3e 37 27 ad 3d
       -0.018279364 0.15697512 0.13617568 0.08454745
000190 52 f8 ff 3d 10 2a 5d 3e b3 85 49 bd c3 e7 5d 3d
       0.12498535 0.21598077 -0.04919977 0.054176103
0001a0 0b a5 bb 3c 41 bd 89 3d 6d 09 a6 3d 45 1e e6 3d
       0.022905847 0.067255504 0.081072666 0.11236242
0001b0 8c 71 ac bc d0 db 3d 3e 4a 1f 1f 3e e1 01 aa 3d
       -0.021050237 0.18540883 0.1553928 0.083011396
0001c0 ef 71 07 3b 42 55 67 bd ed 8f a3 bc 0b d8 4f bd
       0.0020667275 -0.056477793 -0.01996609 -0.050743144
0001d0 01 49 c4 bd df 45 1d bd af b9 18 be 50 ba 1f 3d
       -0.09584237 -0.038396712 -0.14914583 0.03899604
0001e0 60 93 fe bd 52 97 27 3e 94 65 30 3e d9 ea 35 be
       -0.12430453 0.16366318 0.17226249 -0.17765369
0001f0 3a 04 21 3d 4e 4a 46 3e 0d 56 c0 3b 0e ad b5 bd
       0.03931067 0.19364282 0.005869633 -0.08870898

lstm.bias_hh_l0 f4 [128]
000000 71 20 3c 3e 13 9e 49 bd 32 b9 93 bd ee a7 f0 bb
       0.1837175 -0.049223017 -0.072130576 -0.0073442375
000010 d7 27 f2 bd ae 08 7b bb bb b7 6b bd fb 25 43 bd
       -0.11824005 -0.0038304734 -0.057548266 -0.047643643
000020 50 1f c0 3d 7d aa b7 3a 6e b3 c2 bd a7 1c 1d 3e
       0.093809724 0.0014012601 -0.0950688 0.15342961
000030 d9 46 b1 3d 87 18 08 be 56 48 15 be a8 b1 3a be
       0.08656091 -0.13290606 -0.14578375 -0.18231833
000040 77 3f 52 3e 5d 29 90 3d 14 3b 3b be 55 30 d3 3d
       0.20532022 0.070391394 -0.18284255 0.10311953
000050 4b ea 06 3e b0 37 85 bc 13 3f e5 bd ae e4 3c 3e
       0.13175313 -0.016261905 -0.11193671 0.1844661
000060 61 4c 14 be 26 08 93 3d 67 e3 92 3d 6b a8 8b bd
       -0.14482261 0.071792886 0.0717228 -0.068192326
000070 b2 9a 8f bd b8 05 d5 bd e2 ad ab bd 49 0b d4 bd
       -0.07011928 -0.104014814 -0.08382775 -0.10353715
000080 58 ce d3 3d 90 a8 8a 3d 57 04 0c 3e e5 d7 5b bd
       0.10342091 0.06770432 0.1367353 -0.05367269
000090 c5 74 bb 3d 17 a5 81 3d 7a 82 a3 bc 0f bf f1 3d
       0.091531314 0.063303165 -0.019959677 0.1180402
0000a0 49 86 96 bb d0 0b 55 bd 15 f8 09 be 7c 2d fc 3d
       -0.0045936448 -0.05201322 -0.13473542 0.12313363
0000b0 1e bd 05 3d 1d a2 4e bc 9d 40 37 3e b1 c3 8c bd
       0.03265106 -0.012611893 0.17895742 -0.06873263
0000c0 3c 36 c8 3d 1d 5e ba bc 6d a6 8d bd a3 7c a5 bd
       0.097759694 -0.022749955 -0.06916509 -0.08080413
0000d0 3b 52 7e 3d a0 4a c9 3d d1 dd 27 3e bb c3 fa bd
       0.06209014 0.09828687 0.1639321 -0.12244364
0000e0 85 a8 4b 3d 76 6a d1 bb 84 28 35 3e c7 40 d0 bd
       0.04972126 -0.006390865 0.17691237 -0.10168605
0000f0 f6 42 0e 3d 19 ae 3d 3e c4 34 15 3d b0 06 fd bd
       0.034731828 0.18523444 0.036427274 -0.12354791
000100 9f 94 33 3e fa 57 c2 bc 68 0e f2 bd 49 0b b6 bc
       0.17537163 -0.023723591 -0.11819154 -0.022222178
000110 89 be e7 bd a8 f9 55 bd 96 5c 09 be 20 77 d4 bd
       -0.113156386 -0.052240044 -0.13414225 -0.10374284
000120 93 5c 1b be 4e 36 06 be 66 f2 1a 3e 06 4a 39 bd
       -0.15172033 -0.13106653 0.1513153 -0.04523661
000130 16 50 28 3e 5f 70 cd 3c 95 4e fd bd 8f b2 44 3d
       0.164368 0.025077997 -0.12368504 0.04802185
000140 49 be e7 3d ae 83 14 3e 2f 1b 97 bc 31 96 e8 3d
       0.11315591 0.14503357 -0.01844558 0.11356772
000150 4c d0 40 3e aa c8 4a 3e 33 d8 c4 3d 66 aa f4 3d
       0.18829459 0.1980311 0.09611549 0.119465634
000160 c7 b0 1f 3e 8c ba db 3c 10 21 0b 3e 7e 5b 8a bd
       0.15594779 0.02682235 0.13586831 -0.06755732
000170 94 82 14 bc b3 1c 48 3e 69 c3 0a 3c 5c 43 da bc
       -0.009064335 0.19542198 0.008469441 -0.026643448
000180 50 03 44 3d 85 d7 82 3d e7 c2 32 bc e6 50 e9 bd
       0.04785472 0.06388763 -0.010910726 -0.11392383
000190 b8 c5 7e 3d 72 8e bf bd a5 b8 69 3b 37 81 17 3e
       0.062200278 -0.09353341 0.0035663035 0.14795385
0001a0 9d 1c 0e 3e 4b 10 2e 3d 87 8d 96 3b a7 e4 bc 3c
       0.13878103 0.042496007 0.004594508 0.023058249
0001b0 57 79 c3 bd 37 3b d4 bc 96 f4 f9 bd e1 9e ec 3c
       -0.09544628 -0.025907142 -0.12204854 0.028884353
0001c0 a1 70 bc 3d dd cd 90 3d d3 df 63 bd f4 f9 6b 3d
       0.0920117 0.07070515 -0.055633377 0.05761142
0001d0 81 31 2f 3e 1c 21 10 3e 75 78 93 3c 49 19 29 bd
       0.17108728 0.1407513 0.018001774 -0.04128388
0001e0 3c fc fd 3d ac d6 9f 3c 0e b1 11 be 73 3b 2c be
       0.124016255 0.019511543 -0.14227697 -0.16819553
0001f0 c2 cb 5d 3d e2 72 3f bd a5 4d 8b bd 17 31 02 be
       0.054149397 -0.04674042 -0.06801919 -0.12714039

lstm.weight_ih_l1 f4 [128, 32]
000000 d7 03 79 3e 77 7a e2 bd 79 d8 06 be d7 e7 fd bd
       0.24317871 -0.110585146 -0.13168515 -0.123977356
000010 2d 85 98 b8 59 b8 24 3e 21 34 b7 bd 87 06 9d 3d
       -7.272731e-05 0.16085948 -0.0894549 0.076672606
000020 4d c9 e6 3d f2 d2 3d bb 07 31 e2 b9 3a b0 ca 3d
       0.11268864 -0.0028964845 -0.00043142607 0.09896894
000030 0e 04 39 3e 19 83 6d bc 7b d4 26 3c 68 51 ad bd
       0.18067953 -0.014496588 0.010182495 -0.08462793
000040 3a 6a 6d 3c 40 bb 89 bd a9 5c 58 bd ad 74 23 be
       0.014490658 -0.06725168 -0.052822743 -0.15962477
000050 78 dd 31 3d 2a 28 2e be b7 0a 26 be ac be c8 bd
       0.0434241 -0.17007509 -0.16215025 -0.09801993
000060 d4 22 34 be 25 a0 99 3d b1 a0 e1 bd 0e 18 97 bc
       -0.17591411 0.07501248 -0.110169776 -0.018444087
000070 73 4c 9f bc f3 6a 3b 3d 84 fe 23 3d 1f 26 3e bd
       -0.019445634 0.04575629 0.040037647 -0.046423074
000080 e4 af 30 3e e9 c1 f4 bd 91 65 76 3d 79 e9 22 bb
       0.17254597 -0.11951048 0.060155455 -0.0024858399
000090 e0 c3 9b bc 6e 7a 1d 3e 26 26 44 bb b8 b8 b1 3d
       -0.019014299 0.15378734 -0.0029929965 0.086778104
0000a0 24 dd a7 bb f4 45 69 3d df 12 f3 3d 2f 56 22 be
       -0.0051227976 0.056951478 0.11868834 -0.15853189
0000b0 b9 e6 86 3d 60 1a 5d 3d 7d a6 09 3e 8b 34 4c 3d
       0.065869756 0.05398023 0.13442416 0.049854796
0000c0 44 98 19 be 42 00 44 bd 2d e7 ad 3b 68 2e c3 3d
       -0.14999491 -0.04785181 0.0053070993 0.09530336
0000d0 30 c8 e2 3d 9b 98 01 be ca 21 76 bb 9d e2 31 3d
       0.11073339 -0.1265587 -0.003755676 0.043429006
0000e0 42 9a 28 3d 8e d9 35 3e 4f 4b 4b bc f7 e8 f6 ba
       0.041162737 0.17758772 -0.012408092 -0.001883774
0000f0 76 eb 63 bc 76 8b 8d 3d a6 b5 90 bd 10 85 8f 3d
       -0.013911119 0.06911366 -0.07065897 0.070078015
000100 4f 36 f3 bd 09 47 ed bd 7a 49 07 3d 41 b5 ba bd
       -0.11875593 -0.115858145 0.033029057 -0.09116603
000110 72 93 b1 bd 95 a5 12 3d a6 85 2e 3e 53 9b be bb
       -0.08670701 0.035802443 0.1704317 -0.005816856
000120 7f 83 aa bc 9e 91 26 be 74 32 46 bd 12 43 09 3d
       -0.020814655 -0.16266486 -0.04838796 0.03351123
000130 0d 62 89 3d f8 cf df 3d 49 dc f7 3d 58 67 8c 3d
       0.06708155 0.10928339 0.12102563 0.06855649
000140 ac 34 7b 3c 20 b9 d7 3d 00 93 2b be 24 97 bd bc
       0.015332382 0.10533357 -0.16755295 -0.023143359
000150 1b a2 7f 3d cb 9e 36 3e 37 52 21 bc d0 3d 95 bd
       0.062410455 0.17834012 -0.009846262 -0.072871804
000160 37 20 6a 3d ef fd 3a 3d 89 33 f4 bc bf 4c 97 bd
       0.05715963 0.045652326 -0.02980973 -0.07387685
000170 d7 c7 81 bd 15 87 2d 3e 0e 82 bb 3d c7 5e dd bd
       -0.063369446 0.16946061 0.09155665 -0.10809093
000180 82 12 16 3e e0 9a 15 3e e2 54 25 3e 90 5f 51 bd
       0.14655498 0.14609861 0.16145661 -0.051116526
000190 74 57 8c 3c 10 12 15 be a6 68 28 be 0f 6a 8e 3d
       0.017131545 -0.14557672 -0.1644617 0.06953823
0001a0 15 8c 34 3d fb 61 04 be be 41 ce 3d ed 7e cf bc
       0.044078905 -0.12928002 0.10071133 -0.025329078
0001b0 d4 0a a9 3d 20 67 2c be 1b 71 01 be be 13 a6 3d
       0.082540184 -0.16836214 -0.12640803 0.08109234
0001c0 cd 3b b4 3b fc 74 85 bc 0a 3b c3 3d 6b 36 09 3e
       0.005500293 -0.016291134 0.09532745 0.13399665
0001d0 48 78 31 be 0f 55 0e 3e c6 a5 52 3b cd 98 be bd
       -0.1733104 0.13899635 0.0032142266 -0.09306488
0001e0 8c 05 a1 bd 94 4b c5 bc ea 21 2e 3e 1f e9 c2 bd
       -0.07862386 -0.02408389 0.17005125 -0.095171206
0001f0 64 83 f3 bd d6 76 b2 bc 61 6e 37 bd 83 f9 11 be
       -0.11890295 -0.021785181 -0.044783 -0.14255337
000200 fc 3c e2 bd 39 aa dd 3d 89 cf 9a bd c0 8d 27 3c
       -0.11046788 0.10823483 -0.075591154 0.010226667
000210 a2 fa f9 bd 41 f5 c1 3c 8d a5 80 3d 76 38 f1 bd
       -0.122060075 0.023676516 0.06281576 -0.11778347
000220 66 de 8e 3d b6 8c f0 bd 85 18 5b bd 19 d3 24 be
       0.06976013 -0.117455885 -0.05349018 -0.16096152
000230 cf 8a d6 3d a4 4c c8 3d 39 19 a6 3d 39 2e 3c be
       0.104756944 0.09780243 0.081102796 -0.18377008
000240 2f a0 3c 37 da f5 86 3a 3b d6 f0 3c b8 60 3d be
       1.1242969e-05 0.0010296658 0.029399028 -0.18493927
000250 a4 41 39 3e 2c 0a aa bd 9b b9 91 bd c3 0c 21 3e
       0.18091446 -0.083027214 -0.071154796 0.15727524
000260 38 9a 9c 3c 55 85 a4 bd 60 b5 df 3d f6 61 df bd
       0.019116506 -0.080332436 0.109232664 -0.109073564
000270 ff 03 13 3e 42 2c f7 3d dd 3a 39 3d 03 ed 19 bd
       0.14356993 0.120689884 0.045222152 -0.037579548
000280 6f 6b 9c 3c 33 a8 9b 3d f0 fa 1e 3c cc ac 24 be
       0.019094197 0.07600441 0.009703383 -0.16081542
000290 59 05 84 bd 99 9e ec bd b7 a9 30 3c 22 4e d4 3d
       -0.064463325 -0.115536876 0.010782651 0.10366465
0002a0 14 6b 0f 3d ac 0c 39 3d 3f e1 01 bd 32 70 54 3a
       0.035014227 0.0451781 -0.031708952 0.00081038766
0002b0 e1 23 94 bd 7e 1d 2b bb 55 6a 9a bd c5 32 22 be
       -0.07233406 -0.0026110108 -0.075398125 -0.1583968
0002c0 8f 47 b4 3d f0 64 ee 3d 2e 45 05 3e d3 36 91 bd
       0.08802711 0.11640346 0.13014671 -0.07090535
0002d0 1e f8 89 3d f3 11 16 be e6 39 7b bd 1f 83 06 be
       0.06736778 -0.14655285 -0.061334513 -0.13135956
0002e0 1f 8d 27 be 4d 03 d4 3d d6 2d 5b 3d da 94 d7 bd
       -0.16362427 0.10352192 0.05351051 -0.10526438
0002f0 b0 7a b9 bd db 0a 21 be e8 39 98 bd bf 33 2c 3e
       -0.09056604 -0.15726797 -0.0743292 0.16816615
000300 9a dc 3d 3e d4 8b 72 bc a9 4f 89 3b e0 80 06 bc
       0.18541184 -0.014803845 0.0041904044 -0.008209437
000310 67 31 61 3d 8f da 03 3e db 5e 3a 3e ac cb 27 be
       0.054978754 0.12876342 0.18200247 -0.16386288
000320 7c e3 13 be 65 d8 0b 3e 8e d3 ad bd 73 8a df bc
       -0.14442247 0.13656767 -0.084876165 -0.027287697
000330 1a 5a bb 3d db e6 78 bc 98 6d 99 bd e4 b9 8f 3c
       0.09148045 -0.015191759 -0.074916065 0.017544694
000340 b6 f6 a3 3d 6a 98 6d bd 3f 99 39 3e 2d 7e 40 3c
       0.08006041 -0.05800668 0.18124865 0.011748833
000350 7d 48 29 bc 36 b9 c3 3d 6b f6 06 be 62 12 e4 bd
       -0.010332224 0.095568106 -0.13179938 -0.11136319
000360 f6 4f b3 3d 2f 63 ee 3d 4c df 2a be 87 d0 43 bd
       0.08755486 0.116400115 -0.16686743 -0.04780629
000370 e2 09 14 bd 1e e5 f6 bd 69 2c 0c bb d3 9b ff 3d
       -0.036142237 -0.120554194 -0.0021388775 0.12480893
000380 c8 f3 39 3d 3a af f1 3d f6 f2 95 bb 43 c2 df 3d
       0.045398504 0.11801 -0.0045760823 0.10925724
000390 8b 9f 2d bc b2 83 34 3d 70 0f 17 3d 96 c0 7e bd
       -0.01059712 0.044070907 0.036879957 -0.062195383
0003a0 e6 2b ee ba 0d ac 83 bd 1c fa 3f 3e f2 fb 30 be
       -0.0018171042 -0.064293005 0.18747753 -0.1728361
0003b0 09 eb 00 bd 59 63 30 bc 3d 80 23 3c c6 56 7c 3c
       -0.031474147 -0.010765874 0.009979305 0.015401548
0003c0 d5 3b d8 bc 97 47 95 bd 59 18 7d bd 91 00 ea bd
       -0.026395718 -0.07289045 -0.061790798 -0.11425889
0003d0 59 75 aa 3d 8e 82 67 bd 22 23 a8 bc be eb 16 bd
       0.083231635 -0.05652099 -0.020524565 -0.036845915
0003e0 47 cb 8b bd 6c f1 8e bd 84 04 d9 3d 1e ee 86 3c
       -0.068258815 -0.06979641 0.105965644 0.016470965
0003f0 f0 3a 8f bd 0f 0b b8 bd b3 b3 e2 bb 8e 51 bb 3d
       -0.06993663 -0.08986484 -0.0069183945 0.09146415

lstm.weight_hh_l1 f4 [128, 32]
000000 b7 de ed bd 86 ab 3d bc b3 fa 2e 3e bb 2d 90 bd
       -0.11614745 -0.011576539 0.17087822 -0.070399724
000010 d6 26 89 bc c2 4a a1 bd f9 da 18 3e 8a 5f c1 bd
       -0.016742151 -0.07875587 0.14927281 -0.09442051
000020 16 2b 54 bd 36 f7 4f 3e ce 98 02 be e1 73 f9 3d
       -0.051798902 0.20309147 -0.12753603 0.12180305
000030 d6 80 48 3d ba 4c 1c 3e dd 8c d1 3d bf d6 8e bd
       0.048950993 0.15263644 0.10231946 -0.06974553
000040 26 e0 47 3e ed c8 07 be f3 4a 09 be 86 d0 bf bc
       0.195191 -0.13260241 -0.13407497 -0.023414861
000050 57 29 12 3d 08 67 11 3e 22 9b 48 bd 48 47 3a bd
       0.035683956 0.1419946 -0.04897607 -0.045478135
000060 9f 02 d6 bc bc fa 14 bd 2b 90 a7 3d ec 83 06 3d
       -0.026124297 -0.03637193 0.08181795 0.032840654
000070 bf fb 21 3d df fa aa bd ae 79 2a bc 23 37 30 3e
       0.039546724 -0.08348631 -0.010404987 0.17208533
000080 a9 07 cd 3d a0 17 34 3e 33 d5 89 bd 52 cf fe 3d
       0.10011227 0.17587137 -0.06730118 0.12441887
000090 dd b9 11 3d 6c c9 9b 3d 02 f8 fb 3d 84 f2 24 3d
       0.035577644 0.076067775 0.12303163 0.040270343
0000a0 17 b7 17 3e b7 7d 17 3e 25 5e d0 bd 6b 7c d6 3a
       0.14815937 0.1479405 -0.10174207 0.0016363984
0000b0 ca 4e dc 3d 01 2e 45 be 57 26 03 bd 23 7f 04 3e
       0.10757215 -0.1925583 -0.032018986 0.12939124
0000c0 4f 7e c5 bd ad ee 31 bd 0c 75 f1 bc 31 5c 13 be
       -0.09643232 -0.04344051 -0.029474758 -0.14390637
0000d0 7f 04 5b 3d 21 a1 8e 3d 3c 75 a1 bd e0 63 2b bd
       0.053471085 0.06964327 -0.07883689 -0.041843295
0000e0 be c3 0e be 45 50 2e 3d e5 e9 b9 bd 6d a4 0f be
       -0.13941857 0.04255702 -0.09077815 -0.14027567
0000f0 3c 5b 49 3d ea c6 ee 3c 09 36 34 3e fb ae af 3d
       0.049159274 0.029147584 0.17598738 0.08578297
000100 46 d1 64 3c b6 12 07 be 44 3e f2 bc 3d e6 57 3d
       0.01396591 -0.13190731 -0.029570706 0.052709807
000110 dd cc 13 be e0 8c d4 bd 74 f5 1c 3d 74 57 e9 bc
       -0.14433618 -0.10378432 0.03832002 -0.028484084
000120 3b b3 10 bc fe 53 77 bd eb 65 88 3d 57 c3 06 be
       -0.008831794 -0.060382836 0.06660064 -0.13160454
000130 c4 eb 00 3e 4e 02 bb bd 38 31 1b 3d 19 47 88 3d
       0.12589937 -0.09131299 0.037888736 0.06654186
000140 c3 00 30 bc 86 93 1a 3e c6 40 05 be 8c 42 52 bd
       -0.010742369 0.15095338 -0.1301299 -0.051332995
000150 9f 42 f5 bd 88 ff 16 be 17 fa 45 bd a4 2e f3 bd
       -0.119755976 -0.14745915 -0.048334207 -0.1187413
000160 49 4c d6 bb a1 34 3c 3b 73 c9 16 be 14 c2 2f 3d
       -0.0065398556 0.0028717893 -0.14725284 0.042909697
000170 e1 91 21 3e eb 2d 38 3d e1 2e 22 3e 44 25 1c 3e
       0.15778305 0.044965666 0.15838195 0.1524859
000180 20 10 9c bd c4 3f 42 3d 94 2b 10 3d 99 42 9c 3b
       -0.07620263 0.047424093 0.03519781 0.0047686812
000190 5b 45 f9 3c 6d 79 0b 3e 9a 86 2f bd 20 4a b7 bd
       0.03042858 0.13620539 -0.042852975 -0.08949685
0001a0 da 62 1f 3c 7d 5b e1 3d 90 d0 e1 bd eb 99 1a 3e
       0.009728158 0.11003778 -0.11026108 0.15097778
0001b0 d9 30 09 3e 3d 20 47 3d 16 78 9a 3d 73 a1 ae 3d
       0.1339754 0.04861473 0.07542436 0.08526888
0001c0 64 ba 87 3c 26 eb da 3d c2 84 92 3d fa 61 19 be
       0.01656837 0.10689382 0.07154228 -0.14978781
0001d0 ba 3d bf bd 9b 7a dc bc f8 24 d8 3c d2 49 ff 3d
       -0.09337945 -0.026913932 0.026384816 0.12465252
0001e0 38 7f c6 bd 7c 26 19 3d 9b 5e 71 3d 59 26 84 3d
       -0.09692234 0.037390217 0.058928113 0.06452627
0001f0 05 1a d2 3d 79 eb 5c bc 0e 01 0f 3e cf 08 15 3e
       0.10258869 -0.013483875 0.13965246 0.14554141
000200 64 ee ea 3d 25 ea 81 bd 4f 47 2d be 19 a9 85 bd
       0.11471251 -0.06343488 -0.16921733 -0.065263934
000210 ba 92 e1 bd 0b 67 97 3d dd 3e e2 3d 37 53 1b 3e
       -0.11014314 0.07392701 0.110471465 0.15168463
000220 60 76 5e bd 09 73 ea 3d f6 1e ae bd c4 97 3e bb
       -0.05431211 0.114477225 -0.08501999 -0.0029082159
000230 19 63 b4 3d 5a bd cd 3c 78 fe 9d 3c 5e 37 19 3e
       0.08807964 0.025114704 0.01928638 0.14962527
000240 39 7b 1e 3e a8 65 19 3e f1 cf fc bd 57 aa 53 3c
       0.15476693 0.14980185 -0.12344349 0.01291903
000250 8a ba 52 3d 2c 51 40 be d8 1a 90 3c 61 0a 05 be
       0.05144743 -0.18780965 0.017590925 -0.1299224
000260 51 6d 7f bd 96 3c a7 3c 79 45 38 be 76 55 65 3d
       -0.06236011 0.020414632 -0.17995252 0.055989705
000270 14 53 cb 3b 48 3f 26 be 49 fd d1 3d 05 2a f8 bd
       0.006204972 -0.16235077 0.102533884 -0.121173896
000280 3e f2 cd bd b5 b2 12 be 77 4d b1 bd e0 bb 19 3e
       -0.1005597 -0.14325984 -0.08657353 0.15013075
000290 48 dd 00 3d ad 93 1b bd 4d e1 a8 3c 58 1b fd bd
       0.03146103 -0.03798263 0.020615244 -0.12358731
0002a0 e0 34 41 3d 62 d5 7d bc f1 b7 cd bd 59 e0 82 bc
       0.047169566 -0.015492769 -0.1004485 -0.015976118
0002b0 bc 91 e4 3c c8 db 6c ba fd f5 93 3d 90 ac b0 bc
       0.027901523 -0.00090354355 0.07224653 -0.02156666
0002c0 63 2b d0 3d 24 5f 0d be 56 b2 6f 3c ca ff 13 be
       0.10164525 -0.13805825 0.014629921 -0.14453045
0002d0 47 d1 a5 3d d8 a1 a0 bc 66 a8 33 be 4b 1a 26 3e
       0.08096557 -0.019608423 -0.17544708 0.16220967
0002e0 6b 4c bd bc b4 91 3b 3e 6f 2f ab bd 6d a9 c5 3d
       -0.023107728 0.183173 -0.083586566 0.09651456
0002f0 92 fa e0 bd 59 6b 95 bd f6 c9 1a 3e 38 b0 8c bd
       -0.109852925 -0.072958656 0.15116104 -0.068695486
000300 1f dc 9a 3d 4f 19 8d bc bc 75 df bd 10 b8 b7 3c
       0.07561516 -0.017223982 -0.10911128 0.022426635
000310 f3 0c e5 bc 85 76 0c be 48 bb 65 bc ca f1 e7 3d
       -0.027960276 -0.13717087 -0.014021702 0.113254145
000320 88 4b 42 be 43 d6 34 3e fb 38 29 3c c3 d7 12 3e
       -0.18974125 0.1765986 0.010328527 0.14340119
000330 6b 37 b2 bd d7 35 b9 bd e2 14 d4 3d 28 df 57 bd
       -0.087019764 -0.09043472 0.103555456 -0.052703053
000340 1c 0d 0c 3e 8a de 6e bd 24 37 50 3d bf be 08 3e
       0.13676876 -0.0583177 0.050833836 0.13354014
000350 12 99 33 bd 00 95 16 3e 9b 63 2b be 53 ac 95 3d
       -0.04384715 0.14705276 -0.16737215 0.07308259
000360 95 1e d5 3d 2d 86 5d bc 2e 3d 1c bb 04 6b b9 3c
       0.10406224 -0.0135207595 -0.0023840177 0.022634037
000370 5e d6 13 3e 39 a8 f8 3d 78 1d 98 bc c7 ad 22 3e
       0.14437243 0.12141461 -0.01856874 0.15886603
000380 3c bf da 3d d3 14 cb 3c 8a 64 4c 3c 19 bf 16 3b
       0.10681006 0.024790203 0.012475142 0.0023002087
000390 eb 33 2f be fb ce 37 3e 3f 86 d6 3d 42 f1 f8 bd
       -0.17109649 0.1795005 0.10474824 -0.12155391
0003a0 6b 3f 3d bd ac f8 d7 bc 63 2c 4b 3b 7d a0 02 be
       -0.04620306 -0.026363693 0.0031001798 -0.12756534
0003b0 1d 68 57 3e b8 d2 6e bc 00 7c 40 bd 0f 02 c7 bd
       0.2103581 -0.014576606 -0.046993256 -0.097171895
0003c0 99 91 19 be 5f f6 0e 3e 7a 3f 58 3d 40 9c f5 bd
       -0.14996947 0.1396117 0.05279491 -0.11992693
0003d0 e9 b0 17 be 1f 65 09 be a1 77 f2 bc ca 3f b8 bc
       -0.1481358 -0.13417481 -0.02959806 -0.022491354
0003e0 61 e6 d3 3d e9 fc de 3c 0c 55 41 be b0 a3 dd bd
       0.10346676 0.027220206 -0.18880099 -0.108222365
0003f0 cb 2f b5 bc 91 d6 e8 3d 91 dd 51 3d 0b 51 f9 3c
       -0.022117516 0.1136905 0.051236693 0.030434152

lstm.bias_ih_l1 f4 [128]
000000 7e c1 23 be a9 ad 05 be ea 5e 24 bd a3 a4 a1 bd
       -0.1599178 -0.13054527 -0.04012958 -0.0789273
000010 1f 77 22 3d 48 5b 67 bd b8 5a 01 be dd a3 f2 bd
       0.039664384 -0.056483537 -0.12632263 -0.11847661
000020 c2 10 68 3c be 36 36 3e e9 23 28 be 4c 38 ea 3d
       0.014164152 0.1779432 -0.16419949 0.11436519
000030 35 ea a2 3d 08 c6 1c bc 04 02 7b bd 38 2a a1 bd
       0.07954828 -0.009568699 -0.06128122 -0.07869381
000040 f2 14 0b 3e b3 ef df bc 31 8a cd 3d c4 a4 13 3e
       0.13582209 -0.027335977 0.100361235 0.14418322
000050 83 f4 5f bd 2c 74 e0 3d f1 00 e6 bd e2 d6 4c bd
       -0.054676544 0.10959658 -0.11230648 -0.050009616
000060 31 c4 ba bb 17 73 75 bd fd 45 84 bd 85 41 1b bd
       -0.0056996574 -0.05992421 -0.06458662 -0.03790428
000070 d6 64 0c 3d 02 a7 ca 3d 21 9d 89 3d 38 b2 25 be
       0.034275852 0.098951355 0.06719423 -0.16181266
000080 db cc 34 3e 80 9d 9e bd 10 29 17 be 96 40 0a be
       0.17656271 -0.077448845 -0.14761758 -0.135012
000090 d2 f1 45 3e 35 76 47 bd 9d 3e 65 bd 46 89 b6 bc
       0.19330528 -0.048696715 -0.055967916 -0.022282254
0000a0 42 8b 09 bd 51 c1 59 3e 8e 82 33 3e 96 59 15 3e
       -0.033580072 0.2126515 0.17530271 0.14584956
0000b0 ad 5b 2e bd 8b de 92 3d a6 59 73 bc 35 44 84 bd
       -0.042567898 0.07171353 -0.014852917 -0.06458322
0000c0 4a 0d d5 3c 95 dc b1 3c e6 94 10 3e 65 46 b3 bd
       0.026007313 0.021711627 0.141193 -0.08753661
0000d0 92 7e 97 3d 33 29 39 3e 3e ec b7 bd d9 20 07 3e
       0.07397188 0.18082123 -0.089806065 0.13196124
0000e0 97 f4 40 3d 5c 9c 1c 3e 13 7c 10 be 12 e7 c1 3d
       0.04710826 0.15294021 -0.1410983 0.09467901
0000f0 81 13 be 3d 5d 6c 14 3e 91 a7 d5 3d 73 b7 a3 3d
       0.09281064 0.14494462 0.104323514 0.079939745
000100 91 93 0b 3e 77 d8 37 3e 8d ad 16 3e f8 9b 34 be
       0.13630511 0.17953669 0.14714642 -0.17637622
000110 29 71 10 bd b9 13 8b bd cf b5 21 3e ba 4a 21 be
       -0.035264168 -0.06790871 0.1579201 -0.15751162
000120 30 5d 4e bd a7 b3 dc 3d 29 a7 0d be 71 96 47 bd
       -0.05038184 0.107764535 -0.13833298 -0.048727456
000130 70 ce 9c 3d 34 79 bb 3d b9 96 36 be f5 b3 db 3c
       0.07656562 0.09153977 -0.17830934 0.026819209
000140 89 70 08 3e fd 08 5d 3d 1e 0b 26 be 22 9d b8 bd
       0.13324179 0.05396365 -0.16215178 -0.09014346
000150 4a c8 b9 bd 26 50 3f be 1a 6a 1e be 0c 25 53 bd
       -0.09071405 -0.18682918 -0.15470162 -0.051549003
000160 59 6c a6 3c 5e 7c e6 3d dd 33 b3 bd 24 a7 14 be
       0.020315336 0.1125419 -0.087501265 -0.14516884
000170 09 c3 16 ba 09 14 36 be 6b 08 14 be f2 47 b5 3d
       -0.00057511084 -0.1778108 -0.14456336 0.08851613
000180 08 0e 20 3c 3b c9 34 3d 03 1e 47 3e 68 6b 8f 3d
       0.00976897 0.04413722 0.19445042 0.07002908
000190 df 90 1c 3b 0f 37 84 3d cc 3d 3b 3e 84 e8 94 3d
       0.002389006 0.06455814 0.18285292 0.07270911
0001a0 96 7b 27 3e e9 e5 5a bd 9b 86 1c bd d7 39 2b bd
       0.16355738 -0.053441916 -0.038214307 -0.041803207
0001b0 89 f1 13 3d 7a 25 fe 3d 3b 31 28 bd ac 1f fa bd
       0.036119018 0.12409492 -0.041062575 -0.12213072
0001c0 d2 0a 8b bd b1 c5 f7 bd 14 9a d5 3b 16 c7 e0 bd
       -0.06789173 -0.120982535 0.0065186117 -0.10975473
0001d0 f1 25 db 3d f1 ac e7 3d bd 93 38 3d 95 29 93 bd
       0.10700596 0.11312283 0.04506277 -0.071856655
0001e0 3d bd 18 3e 2d ce 28 bd 28 d1 2d 3e f4 5f fa 3d
       0.14915939 -0.04121225 0.16974318 0.12225333
0001f0 c9 e4 ab bd cb 38 88 bd c6 bc a9 bd 21 d7 bd bc
       -0.08393247 -0.066514574 -0.08287959 -0.02317387

lstm.bias_hh_l1 f4 [128]
000000 36 3a 4f 3b 48 34 09 be 7f e8 27 3d 26 a6 16 be
       0.003162039 -0.1339885 0.04099321 -0.14711818
000010 e0 1d a3 3c ea 3a 0b be 79 94 a0 bb c7 68 22 3e
       0.019911706 -0.13596693 -0.004900512 0.15860282
000020 a0 ba cb bd fb a2 16 3c 2b 1b 92 3d 3c f3 40 3e
       -0.09947705 0.009194131 0.07134088 0.18842787
000030 1b d3 fd bc 9c 14 95 bd b1 ad df 3d 67 e6 d1 3c
       -0.030984452 -0.072793216 0.10921801 0.02562256
000040 b2 95 e7 bd ea 4f 4e 3d e0 c0 cc 3d eb 54 1e be
       -0.11307849 0.05036918 0.099977255 -0.15462081
000050 94 d7 1d be f0 95 18 be 56 0a 0f 3d 21 67 1c 3e
       -0.15414268 -0.14900947 0.034921966 0.15273716
000060 ee a1 62 3d 5b c5 f2 3c 29 b0 c8 bd 37 3f ff bd
       0.05533021 0.029635122 -0.09799225 -0.12463229
000070 be fe 32 3d 7e 81 f0 3c 65 9c a0 bd 84 7d 3c 3c
       0.043699972 0.029358622 -0.0784233 0.011504535
000080 03 75 ae 3d ad 18 c4 bc bd 86 d6 3c f8 e9 e8 bd
       0.08518412 -0.023937548 0.026187295 -0.11372751
000090 21 96 44 bd 47 3b 16 3e ae 5c 34 3d 91 cb 43 3e
       -0.047994737 0.1467105 0.0440337 0.19120623
0000a0 f2 af 34 3e 6c b3 54 3e 3d 55 26 bd 53 86 1e 3e
       0.17645243 0.20771569 -0.040608633 0.15480928
0000b0 4b ac f1 bb 61 ef a1 bd 80 44 27 3e a3 7c 84 3b
       -0.0073752753 -0.07906986 0.16334724 0.004043178
0000c0 a6 4f 1a 3e 63 a6 62 bc 3a a8 c4 3d cd 7b 13 3e
       0.15069446 -0.013833615 0.09602399 0.14402695
0000d0 6d a2 0e 3d e6 83 1e 3e ed aa dd 3c 7a 8b 35 3e
       0.03482287 0.15480003 0.027059043 0.17728987
0000e0 b6 40 83 bd e6 ed b7 bc 9f b1 3e 3e fa aa ce bd
       -0.06408827 -0.022452306 0.18622445 -0.10091205
0000f0 56 71 c9 3d b6 f3 e4 bd f5 8f 3e 3e ca 0a 6b bc
       0.0983607 -0.11179297 0.18609603 -0.014345834
000100 52 56 ef bd 07 f9 94 bd c5 eb 0c be 74 7e 22 be
       -0.11686386 -0.07274061 -0.13761814 -0.1586855
000110 b1 85 05 be 11 bd 19 3d a3 c6 3b 3e 1b 73 20 be
       -0.1303928 0.037533823 0.18337493 -0.15668909
000120 c9 59 c3 3d 11 e7 16 3e 20 57 c0 3d 71 20 cb 3d
       0.095386095 0.14736582 0.09391618 0.09918297
000130 81 9f db 3d 6d 2f ae bd bf 76 21 be 6d cc 35 3e
       0.10723782 -0.085051395 -0.15767954 0.17753763
000140 07 51 0a 3e 55 81 f9 3d cb b4 ae bd 09 3f 28 3e
       0.13507472 0.12182871 -0.08530577 0.16430296
000150 d0 d2 7d bc 0d b5 2a be 6a 8b 3b bd 09 7c 4e 3c
       -0.015492156 -0.16670628 -0.045787252 0.0126028145
000160 9d 38 d0 bd 50 c7 50 3d f3 d1 e0 3d b1 6b 9c bd
       -0.10167048 0.05097133 0.10977545 -0.07637728
000170 de 03 5f 3d 7f ce 91 bc 3e 83 2a 3e 44 b8 06 3e
       0.054447047 -0.01779866 0.16651627 0.1315623
000180 20 a6 f1 3d 79 d6 96 3d 30 35 78 3d da 0f 55 bd
       0.11799264 0.07365126 0.0605976 -0.05201707
000190 7e 68 5a bc a2 7d 22 be b1 8a ec bc 94 58 b4 3d
       -0.013330577 -0.15868238 -0.028874727 0.088059574
0001a0 f5 12 42 3e 2f 9b d1 3d 22 f7 0e 3e 82 b4 53 3c
       0.18952544 0.10234677 0.13961461 0.012921454
0001b0 f4 9a 12 bd dd 64 2f 3e 71 f1 65 bd 08 84 1a 3e
       -0.035792306 0.1712832 -0.05613846 0.15089428
0001c0 ac 5e e9 3c fb 00 18 3e e2 5b 30 3d 9e 29 b7 bd
       0.028487526 0.14844124 0.043056376 -0.08943485
0001d0 09 be b1 3d dd 9f 1e be 81 bf a1 3d f1 40 ae bd
       0.086788245 -0.1549067 0.078978546 -0.0850848
0001e0 49 5d 0f be 68 3d 3f bd b7 14 ec bd a0 c4 2b bd
       -0.14000429 -0.04668942 -0.115273885 -0.041935563
0001f0 39 45 cf 3c ea 1e 4d bd 75 c6 ed 3d 3d e0 6e 3d
       0.025301563 -0.05007831 0.11610118 0.05831932

lstm.weight_ih_l2 f4 [128, 32]
000000 1c 9e 8a 3d 7a 90 0f bd 4d b3 d1 3d 32 c8 2d 3d
       0.06768438 -0.035049893 0.10239277 0.04242725
000010 8c 39 01 3d d3 02 18 3d 86 76 d4 bd f9 71 37 be
       0.03154902 0.03711207 -0.10374169 -0.17914571
000020 ab 09 28 be b1 87 58 3d db 5a d7 3d 53 b8 fd bd
       -0.16409938 0.05286378 0.10515376 -0.12388673
000030 04 e1 01 3e c9 8e 11 3e d8 14 b2 bd f4 3f 0a be
       0.12683493 0.14214624 -0.08695382 -0.13500959
000040 0a 70 05 3e ec ea 2a 3e 15 8a d8 3d 20 b9 05 3e
       0.13031021 0.16691178 0.10573212 0.13058901
000050 a7 e0 06 be 02 c2 e4 3d 7a 7d 44 be 24 f3 36 be
       -0.13171636 0.111698166 -0.1918849 -0.17866188
000060 c4 db f1 bd 31 e8 17 3e 6d ba 39 bd ff 1e cb bd
       -0.11809495 0.14834668 -0.045343805 -0.099180214
000070 e9 92 ee bd 2f 8a 3e be 5f 4b f1 3d 1f d9 38 3e
       -0.11649115 -0.186074 0.11781954 0.18051575
000080 27 cf 8f 3d b2 c5 04 be 16 27 48 bd 5a 31 f8 3d
       0.07021933 -0.1296604 -0.0488654 0.12118788
000090 be 50 e1 3d 69 0b 21 be e9 17 b3 3d 64 19 55 3d
       0.110017285 -0.15727009 0.08744795 0.052026168
0000a0 d1 03 b0 bd bc ef 32 bc d5 b1 bc 3b 50 25 45 3e
       -0.08594478 -0.010921415 0.005758504 0.19252515
0000b0 16 cc 19 bd 42 24 36 be a3 a9 fc bd 89 44 8f 3d
       -0.037548147 -0.17787269 -0.12337043 0.06995494
0000c0 53 6c 82 3d fa fb 4d 3e b3 03 86 bd 33 a9 17 bd
       0.063683175 0.20115653 -0.06543674 -0.037026595
0000d0 59 2d f1 3c 00 f1 45 be 95 68 82 bc ca f8 0d 3e
       0.029440569 -0.19330215 -0.01591901 0.13864437
0000e0 c6 33 12 3e b3 e5 0e bd 71 41 11 3d 61 fe 0e 3d
       0.14277562 -0.034887027 0.0354628 0.034910563
0000f0 d0 fe b8 bc 93 f8 ee 3d fd 13 a7 bd 4b cb 47 bc
       -0.022582442 0.116685055 -0.08158109 -0.012194465
000100 07 c5 34 be 03 29 83 3d d8 dd 05 be 7e 2b 0c 3e
       -0.17653285 0.06404307 -0.13072908 0.13688466
000110 3b 4d da ba 9a 7f 08 be 48 b5 fa 3d e7 f9 a6 3d
       -0.0016655097 -0.13329926 0.12241608 0.08153134
000120 c1 66 2d be 08 dc 4d 3e 74 6c ba 3d 49 d5 86 3d
       -0.16933729 0.20103467 0.09102717 0.0658365
000130 3c 8f 98 bc d4 5f 60 3d 4d e9 ed bd 04 31 e6 3c
       -0.018622987 0.05477889 -0.11616764 0.028099544
000140 9a c0 bc bc 4a 52 a0 bc 8c f7 1f be 5c 8a 46 3d
       -0.023041058 -0.019570488 -0.15621775 0.048471794
000150 8e 22 36 bb 25 e2 2a be 69 01 2e be 7c 02 04 bb
       -0.0027791592 -0.1668783 -0.16992725 -0.0020143082
000160 51 ff db bd 77 eb 31 3d 6a d1 4b be 41 5a 6b bd
       -0.10742057 0.043437447 -0.19904104 -0.05745912
000170 64 52 28 3e 41 f3 10 be e1 cd 2c 3e 89 6b a9 bb
       0.1643768 -0.14155294 0.16875412 -0.00517029
000180 97 e1 aa bd 88 5c 62 3d c8 1d 77 3c 17 6a f6 3d
       -0.08343809 0.055264026 0.015082784 0.12031954
000190 4f 33 fd bd 16 43 26 3e 7b 5e bb 3d 82 fa 46 be
       -0.12363302 0.16236529 0.0914888 -0.19431499
0001a0 7b c4 28 3e 41 ee b1 3a 0a a9 e8 bc c7 a2 31 3e
       0.16481201 0.0013575034 -0.028400917 0.17347251
0001b0 01 92 67 bd 9f 88 e7 3b 5f d4 eb bd b9 e1 18 3e
       -0.056535725 0.007065847 -0.11515116 0.14929856
0001c0 71 8d 5b 3c 1d 93 08 bb 23 4a fb 3d 06 57 82 bd
       0.0134004215 -0.002083964 0.1227 -0.06364255
0001d0 4f bb 0e be e2 90 99 bd 33 eb 47 3d 07 00 27 be
       -0.1393864 -0.07498337 0.048808288 -0.16308604
0001e0 ca 5b 94 bd f4 ec fe bd f6 37 0f be b8 58 89 3d
       -0.0724407 -0.12447539 -0.13986191 0.06706375
0001f0 1b 50 22 3d 61 54 75 3d b6 37 33 3e f3 49 c8 3d
       0.039627176 0.059894923 0.17501721 0.0977973
000200 ed 12 43 be bc ea 17 3e 6c 3c eb 3d 8a 52 fc 3d
       -0.19050188 0.14835638 0.11486134 0.123204306
000210 11 11 bb 3d 62 f3 07 be f9 00 4c 3e 61 03 d4 bd
       0.091341145 -0.13276437 0.19922246 -0.10352207
000220 3a 84 05 be 94 06 d7 bd 99 4a e3 bd a4 c2 05 bc
       -0.13038722 -0.104993016 -0.11098213 -0.008164082
000230 ab 21 b2 3d 82 be bd 3d 93 a1 44 be 51 18 cb bd
       0.08697828 0.09264852 -0.1920226 -0.09916747
000240 1c 16 0d 3e 32 9f d5 bd 33 78 fb bc 18 84 d2 bd
       0.13777965 -0.10430755 -0.030696964 -0.10279101
000250 c2 d0 17 be b9 dc ce bd ca 79 59 bc 1d 0c 39 be
       -0.14825729 -0.10100693 -0.013273666 -0.18071027
000260 ab 48 2c bc 9b ba 37 3e 26 aa 97 bd b9 c6 01 bd
       -0.010515372 0.17942278 -0.074055 -0.031683657
000270 f3 70 e3 bc 1b 13 55 3c 6b 9c b5 3c 71 ee fc 3c
       -0.02776382 0.013005043 0.022169312 0.030875416
000280 ca af da 3d df 6d 9c bd 50 da 6c 3d a3 37 b1 bd
       0.1067806 -0.07638144 0.057825387 -0.0865319
000290 13 d9 1b bc 43 12 63 3d 71 a0 09 3e cf 74 2b be
       -0.009512204 0.055437338 0.1344011 -0.16743778
0002a0 29 41 df bd 24 32 9e 3d 9e 11 0a be 78 35 e2 3d
       -0.109011 0.07724407 -0.13483283 0.110453546
0002b0 77 39 16 bd 22 0b 2e be f5 3d 45 be ee 07 f2 bc
       -0.036675896 -0.16996434 -0.19261916 -0.029544797
0002c0 b9 1a d5 bb 78 8e 07 3d 96 1a db bc 26 36 96 3d
       -0.0065034297 0.033094853 -0.026746076 0.07334547
0002d0 05 25 13 3c ed 0d a0 bc 02 6d 4a bc 93 bc 15 3e
       0.008980994 -0.01953789 -0.012355091 0.14622717
0002e0 97 3d 15 be 20 17 13 bd 65 f7 1f be fd 68 d1 bd
       -0.14574276 -0.035910726 -0.15621717 -0.10225103
0002f0 e5 81 df bd 0f 54 4b be 1c 74 de 3d 44 7f a5 3d
       -0.10913447 -0.19856285 0.1086199 0.080809146
000300 41 6d d9 bd 47 91 63 3c 26 a5 1c be 74 bd f4 bd
       -0.10616542 0.013889617 -0.15297374 -0.11950198
000310 c6 6c 21 be c2 8f e4 3d 87 9d 64 bd f2 8e fa 3d
       -0.1576415 0.11160232 -0.055814292 0.12234296
000320 1e 4b e5 3d 00 14 92 3d 36 59 e2 3d 85 11 25 be
       0.11195968 0.07132721 0.11052172 -0.16119964
000330 d5 58 ac 3d bb 1c e7 bd 1c ac 23 3e 34 34 31 3e
       0.08415381 -0.11284777 0.15983623 0.1730507
000340 d4 2f d1 bd ec de 10 be a2 8f 72 3d 50 50 fa bd
       -0.102142006 -0.14147538 0.05921901 -0.1222235
000350 e2 2d e2 3d e9 e3 b0 bd 62 bf 1d bd cd 1c 91 3d
       0.11043908 -0.086372204 -0.038512595 0.070855714
000360 98 1f db bd 0f 95 8c 3d 9f e5 13 be 6a e2 32 be
       -0.106993854 0.06864368 -0.14443062 -0.17469183
000370 8d 56 03 bc 20 ca 86 bc bc 26 d7 bb e7 26 a3 3d
       -0.008016241 -0.016453803 -0.006565897 0.079664044
000380 76 d1 3e be 67 25 d2 bd 99 6a 01 bb 13 11 a4 3c
       -0.1863459 -0.1026104 -0.0019747375 0.020027673
000390 b1 2e 13 3d e8 81 c6 bd 3c fb 07 3e 28 76 38 bd
       0.0359332 -0.096927464 0.13279432 -0.045034558
0003a0 20 fa a3 bd 71 bf 18 3e 32 4f 06 be 19 67 3e 3e
       -0.08006692 0.14916779 -0.13116148 0.18594016
0003b0 d7 cc bb 3d 33 28 40 be 92 c8 c1 bd 2d 13 b4 3a
       0.091699295 -0.18765335 -0.09462084 0.0013738625
0003c0 bc 35 10 3e 34 46 07 3e a1 8c 32 3d ea 56 3c be
       0.14082998 0.13210374 0.043591145 -0.1839253
0003d0 a3 68 4d bd ce aa 77 bd 92 35 55 be 77 b5 b0 bc
       -0.050148617 -0.060465626 -0.20821217 -0.021570904
0003e0 b6 da 1c 3e 74 1c 18 be 12 ee 81 3d b1 08 51 be
       0.15317807 -0.14854604 0.063442364 -0.20413472
0003f0 59 80 18 3e d6 6f fa bd e5 c9 a8 3d b9 32 2b 3d
       0.14892711 -0.12228362 0.08241633 0.04179642
