pv/checkpoints/축구장-checkpoint-2023-08-10 23_44.pt (torch, 304580 bytes, 38 tensors)

lstm.weight_ih_l0 f4 [128, 17]
000000 aa 82 27 3e ac 5f 9e 3d 77 3d 45 3e 2e 3e 94 3c
       0.16358438 0.07733092 0.19261728 0.018096056
000010 cc 02 bd bc 2c 96 1c be e0 45 e5 bd d5 4e 9f bd
       -0.023072623 -0.15291661 -0.11194968 -0.07778708
000020 4d b1 71 3d 08 7b e5 3d 70 ae cd 3d 71 5d e2 bd
       0.059006978 0.11205107 0.10043037 -0.11052979
000030 50 66 c7 bc c3 be cd bd 3f 25 06 3d 69 4e 2a 3d
       -0.024340779 -0.100461505 0.032750364 0.041578684
000040 d0 e1 e0 bc a2 c3 63 3d ec ba 31 3e ca 40 a9 bd
       -0.027451426 0.055606492 0.17356461 -0.08264311
000050 d1 dd 01 3e 4b 5e 06 3e 9e 08 07 3e d1 c6 47 3d
       0.12682272 0.13121907 0.13186881 0.04877359
000060 10 81 9f 3d 06 8d 37 bb db 4c 05 3c d3 19 2d 3e
       0.077882886 -0.002800764 0.008136 0.16904382
000070 69 c3 04 3e c2 67 84 3d 77 e3 4f be 66 c7 c7 bd
       0.12965168 0.06465103 -0.20301615 -0.09754829
000080 08 59 25 bd 3b 43 fd 3d c3 33 59 bd af 77 0d 3e
       -0.04036811 0.12366339 -0.05302788 0.13815187
000090 7d 0d 15 3e 35 06 0e be 08 14 02 be 4e fa 20 be
       0.14555927 -0.13869555 -0.12702954 -0.15720484
0000a0 e2 81 ab bd af 6c 0c be ac c9 a0 bc ee 37 bb bd
       -0.083743826 -0.13713335 -0.019627415 -0.09141527
0000b0 b3 f0 a8 3d c0 f5 f4 bd 42 36 20 3e 2a 93 10 be
       0.08249035 -0.119609356 0.15645698 -0.14118639
0000c0 26 c3 2d 3d 71 0f ac 3d 54 fe 03 be d4 9f 66 bd
       0.042422436 0.08401383 -0.12889987 -0.056304768
0000d0 d9 bc d3 bb 2f 8f 08 bd 53 66 2e 3e ab a6 33 3e
       -0.0064617214 -0.033339676 0.17031221 0.17544048
0000e0 14 f1 1e 3e c4 d8 3d bd 07 a8 f2 3d f6 12 4b 3e
       0.15521652 -0.046349302 0.11848455 0.19831452
0000f0 dd 4d 8c bc 75 2c 8f bd 28 7a 1d 3e 4a 40 6b 3d
       -0.017126972 -0.069909014 0.1537863 0.057434358
000100 63 6a 3e be 82 82 08 be 71 4f 2d 3e 84 1f 9d bd
       -0.18595271 -0.13331035 0.16924836 -0.07672027
000110 07 d0 14 3e f6 d8 3f 3e 40 ea 0a 3e f4 1b d4 bd
       0.14532481 0.18735108 0.13565922 -0.10356894
000120 31 02 5d 3c 8c d7 46 3e 85 fd 03 3e f8 cb 01 3d
       0.013489292 0.19418162 0.12889679 0.03168866
000130 d6 ae a6 3d 31 74 1a bd f4 a3 45 3e cf c9 49 3e
       0.08138816 -0.037708465 0.19300824 0.1970589
000140 4a 50 9d bd 36 ec 41 3d e2 11 31 bd ad 15 84 bd
       -0.076813295 0.04734441 -0.043229945 -0.06449447
000150 e4 88 8c bd 9d fc 3f 3d b7 9a 2d 3e 75 6b f8 3d
       -0.06862047 0.04687177 0.1695355 0.12129871
000160 d1 92 01 be 1d 13 35 be e6 ca aa 3d 94 81 22 3e
       -0.12653662 -0.17683072 0.08339481 0.15869743
000170 b4 06 e7 3d 30 a3 1a be b5 d7 04 3d e2 bc 0e bc
       0.112805754 -0.15101314 0.032432277 -0.008712025
000180 ed 9e 91 3d c8 67 ac 3d 8c cc 8e 3d 42 5e ce bd
       0.07110391 0.08418232 0.06972608 -0.10076572
000190 79 2e 58 bc 51 55 29 3e d9 15 c0 3d 72 63 34 3e
       -0.013194674 0.16536452 0.09379167 0.1761606
0001a0 d8 19 a2 3b f8 64 c3 bc 4f 31 5c bd 9c b5 cf bd
       0.0049469285 -0.023851857 -0.05375796 -0.10142061
0001b0 18 fa 92 bd a4 ed 08 bd c1 01 ea bd 36 71 ef 3d
       -0.07176608 -0.033429757 -0.11426116 0.11691515
0001c0 78 a4 14 3e 12 6e 30 3e 85 ea a7 bd e8 c7 8d 3d
       0.14515865 0.17229488 -0.08199028 0.06922895
0001d0 64 32 e8 b9 16 c7 0b be 82 0f 63 bd fc d4 eb bd
       -0.00044288032 -0.13650164 -0.05543471 -0.11515233
0001e0 d5 34 8d bd f7 9b 8d 3d ba d4 87 bb 49 b1 72 bd
       -0.068948425 0.069145136 -0.004145232 -0.059251104
0001f0 a6 4f 08 be 54 47 04 bc ca 9a 99 3d 68 7b d8 bd
       -0.13311633 -0.008073647 0.07500227 -0.10570413
000200 b8 f8 8c 3d 7b 84 d3 bd c8 8a 5f bd 53 31 8f 3d
       0.06883377 -0.10328003 -0.05457571 0.0699183
000210 4f 80 15 3e b6 d7 13 3d 03 4d af bc 16 59 08 be
       0.14599727 0.03609439 -0.021399027 -0.13315234
000220 72 88 fe bd 71 0a 82 3d 36 dc 16 be f1 ca 4c 3d
       -0.12428369 0.06349648 -0.14732441 0.049998228
000230 40 f8 20 bd 56 80 8d bd 6e ab 46 3d 77 a8 8b 3d
       -0.03929925 -0.06909244 0.04850333 0.068192415
000240 c5 39 a2 3c c9 8c e6 bd 73 3a 7b 3d d7 4b cd 3d
       0.019802937 -0.112573214 0.06133504 0.10024231
000250 23 92 92 3d 1e bd 2c 3e 03 2a b7 bd a6 67 b9 3d
       0.071567796 0.16869017 -0.0894356 0.090529725
000260 06 a9 3e be 69 f7 25 3e 3d b3 60 3d b8 59 21 3e
       -0.18619165 0.1620766 0.054858435 0.15756881
000270 8e 14 11 be 87 d7 c6 3d 74 50 09 3d b3 0b b4 bd
       -0.14167997 0.09709077 0.03352399 -0.08791294
000280 bb fd 9a bd de ab 7a bd 7b bd b9 3d 8d a5 c2 bd
       -0.075679265 -0.06119906 0.09069344 -0.095042326
000290 f3 23 a0 bd ee 26 a2 3d 2f 8f 85 3c 16 8b d6 bd
       -0.07819357 0.079175815 0.016303627 -0.10475747
0002a0 be 2d 4a 3e 3b 4b 0b 3e 08 35 6e 3d db cc 35 3d
       0.19744012 0.13602917 0.058156043 0.04438482
0002b0 87 c4 91 bd bc 2c 1a 3e 24 ed 10 3e 2d 7c ae 3d
       -0.07117563 0.15056127 0.14152962 0.085197784
0002c0 51 1a 98 3d 22 b7 11 bd d0 39 20 3e f7 02 3a bd
       0.074268945 -0.03557504 0.15647054 -0.045412984
0002d0 14 6c 86 bb e0 99 f5 3c 07 1b 95 bd d7 51 f3 bd
       -0.0041022394 0.0299806 -0.07280546 -0.11880844
0002e0 c8 16 03 be 83 55 36 3e 5b d1 cc 3d c1 b1 27 3d
       -0.12801659 0.17806058 0.10000869 0.040941004
0002f0 7f 12 0b be 5d 01 39 3e 22 35 0f 3e 5b 10 91 bd
       -0.13581274 0.18066926 0.13985112 -0.07083198
000300 f5 a2 10 bd 0d 7a 3a 3c 9d f8 b8 3c 1f 03 22 be
       -0.035311658 0.011381638 0.022579486 -0.15821503
000310 ce 94 77 3d b3 31 79 bc 6a 95 ee 3d 1e a1 01 3d
       0.060444646 -0.015209603 0.11649592 0.031647794
000320 43 f9 a3 bd 33 71 0a 3e 2c 0e 32 be be bc 23 3e
       -0.08006527 0.13519745 -0.17388219 0.15989968
000330 4d 4b e9 3c 14 22 bf 3d 22 8a 0b 3e 1c ef 33 3e
       0.028478289 0.09332672 0.13626912 0.17571682
000340 24 cd 98 3c 03 4f 82 bd 9f 7a d6 3d 2e 78 07 3e
       0.018652506 -0.063627265 0.10472607 0.13229439
000350 25 53 64 3d 37 36 2c bd 45 6f 06 3d c4 e9 ae 3d
       0.055743355 -0.04204389 0.03282096 0.08540681
000360 cd 3c d1 3d a2 c9 3c 3c 58 73 13 be 96 bb 01 3e
       0.10216675 0.011522682 -0.14399469 0.12669215
000370 a1 73 9f bd 2c 82 27 3e 73 07 0e 3d c6 0b 8b 3d
       -0.07785726 0.1635825 0.034675073 0.06789355
000380 0c 6c 23 bd 18 e9 28 be 7f 61 04 bd f3 8b b7 bd
       -0.039897963 -0.16495168 -0.032319542 -0.0896224
000390 6c 63 fe 3d cf 7e f6 bd 04 eb 5b bd 84 c6 f0 3d
       0.12421307 -0.120359056 -0.053690925 0.11756614
0003a0 87 8e 6f 3c 9e 51 b1 3d a9 b8 3f bd 32 19 72 3d
       0.0146213835 0.08658145 -0.046806965 0.05910606
0003b0 69 80 5a 3d 5f 72 16 3e 1a 59 08 3e c2 e3 1f 3e
       0.053345118 0.14692067 0.1331524 0.15614226
0003c0 e2 7f ce 3b e2 b5 ac bd 46 2b 71 bc 50 c4 8c 3d
       0.006301866 -0.08433129 -0.01471979 0.06873381
0003d0 92 dc 41 bd 5f ef 3f bd a2 b0 1c 3e 1c bd 72 3e
       -0.047329493 -0.04685914 0.15301755 0.23704952
0003e0 ce 59 0e 3e f7 c8 c9 3d 07 d4 0a 3e 2b 9e 2e be
       0.13901445 0.09852784 0.13557445 -0.17052524
0003f0 8a 65 01 be 54 5c 0b be 89 e5 fa bd d1 98 b8 3a
       -0.1263639 -0.13609439 -0.122508116 0.0014083629

lstm.weight_hh_l0 f4 [128, 32]
000000 93 35 1b be 20 af 38 3e 92 f1 0d 3e 51 8a a2 bc
       -0.15157156 0.18035555 0.13861683 -0.019841345
000010 8c 9a 43 3e 68 a9 31 be 9a 5e be 3d f6 ec c7 3c
       0.19101924 -0.1734978 0.092953876 0.024404984
000020 96 e1 a8 bd 28 e1 f3 bd db 11 a5 bd dd 24 2d 3e
       -0.08246152 -0.119081795 -0.08060046 0.16908593
000030 8f 3d ec 3d 51 1f c8 3d b1 e5 5e 3e 72 d8 0a be
       0.11535179 0.09771598 0.21767308 -0.1355913
000040 d7 84 a6 bd aa 42 14 be ea 55 16 bb bf 79 d4 bc
       -0.08130806 -0.14478555 -0.0022939392 -0.02593696
000050 14 f9 36 bd e2 f2 f7 3c ff 9a 56 bd d7 7a 0f 3e
       -0.044671133 0.030267183 -0.05239391 0.14011703
000060 0f 95 2a be b1 93 4f 3e 94 4c 91 bc 68 a4 f0 bc
       -0.16658424 0.20271184 -0.01773671 -0.02937527
000070 45 ab 21 be bb b3 40 bd ff 3d 43 bc a8 be 17 be
       -0.1578799 -0.047046404 -0.0119166365 -0.14818823
000080 65 b4 36 be 9d 74 48 bd fd 2a 9a bc 82 eb c0 bd
       -0.17842253 -0.048939336 -0.018819327 -0.094199196
000090 c7 6e 39 bd f4 c2 8b bd 7c fb ba 3d 63 9c 00 3e
       -0.04527166 -0.06824294 0.09129998 0.12559657
0000a0 91 3b c7 ba a3 3f 41 3d d5 97 b9 bd cc 42 b1 3d
       -0.0015200247 0.04717983 -0.09062163 0.086553186
0000b0 76 d9 47 3e dc ae ec bc be 6a 92 bb 1d 6e 44 be
       0.19516549 -0.028891973 -0.004468291 -0.1918263
0000c0 6c b9 24 be 4e fb 87 bc 46 ec 51 bd ee 3d a4 3d
       -0.16086358 -0.016599324 -0.05125072 0.08019625
0000d0 b2 c9 32 be d2 3d cc 3c bf ec 66 be d7 d3 ac 3d
       -0.17459753 0.024931822 -0.22551249 0.08438843
0000e0 02 eb ab 3d be 1d 1a 3d 20 f4 b2 bc 8a b7 d1 3d
       0.083944336 0.03762602 -0.021844923 0.102400854
0000f0 91 1b 27 be 05 fd 6a 3d 3d 9e 18 be 9a 0c d5 bd
       -0.1631911 0.057370204 -0.14904113 -0.10402794
000100 0b 01 43 bc 5e f2 9e 3d bf c4 20 be f8 5c d0 bd
       -0.011902104 0.077610716 -0.15700053 -0.101739824
000110 d6 7d df bb fa 8c 96 3d 63 bb 3b 3e 90 ba 12 3e
       -0.0068204207 0.07351108 0.18333201 0.1432898
000120 11 d1 14 3d b7 0e f8 bc b9 cb 17 3e a4 d9 c5 3d
       0.036332194 -0.030280454 0.14823808 0.09660652
000130 9d 9b 0d 3e 66 65 03 be 74 1d 40 be 49 48 2c bc
       0.13828893 -0.12831649 -0.18761235 -0.010515281
000140 92 80 2d 3e dd a8 4b 3d 0b f6 fe bc 94 c5 4e 3d
       0.16943577 0.049721587 -0.031123182 0.050481394
000150 5d 43 a7 3d e7 23 fc bd b1 1c 68 3d cb 74 2a be
       0.081671454 -0.12311535 0.056667987 -0.16646115
000160 6d 39 f8 3b 03 9d bb 3d 87 b5 ab 3d ae ca ac bd
       0.007575205 0.09160807 0.08384233 -0.084370956
000170 c4 9d ac 3c 29 f8 12 3e 64 a2 32 bc 76 78 f5 bc
       0.021071322 0.14352478 -0.010902975 -0.029964667
000180 e1 a0 37 bd a5 38 a3 3d 91 d1 ab 3d 06 0c 49 bd
       -0.04483116 0.079697885 0.08389581 -0.049083732
000190 e3 73 b9 bd 66 10 25 be d0 91 45 3e ba 0c a2 3d
       -0.09055307 -0.16119537 0.19293904 0.07912584
0001a0 49 b3 48 3d 53 31 6e bd a6 0c 4f 3d c2 13 37 3c
       0.048999105 -0.058152508 0.050549172 0.011174144
0001b0 56 72 c1 3c e3 3c 12 3e e7 80 37 bd cd 3e 81 bd
       0.02361409 0.14281039 -0.044800665 -0.063108064
0001c0 d9 38 30 3d ee 32 8f 3d 83 70 1b be f5 f3 c9 3b
       0.043022964 0.06992136 -0.15179639 0.006163115
0001d0 c6 f3 17 be 57 a3 ff bd 22 75 26 be 40 78 e2 3d
       -0.14839086 -0.124823265 -0.1625562 0.11058092
0001e0 f7 5d 60 3d 7e a0 ee bc 7e 58 2b bd 7e 79 ef 3d
       0.05477711 -0.029129263 -0.04183244 0.11693095
0001f0 75 7f 25 3e 67 30 16 be 1d 88 45 be 88 27 08 be
       0.16161902 -0.14666902 -0.19290204 -0.1329633
000200 1f a0 24 3d a6 ea 22 3e 81 b8 db 3d 5f be 65 be
       0.040191766 0.15909824 0.10728551 -0.22435902
000210 b2 e7 a8 bd c2 af 20 3d e4 0b 90 bd 72 16 11 3d
       -0.082473174 0.039230116 -0.07033518 0.035421796
000220 46 ac ec bd da f8 87 3d 6d 20 3f 3e fb 43 78 bd
       -0.11556296 0.066392615 0.18664713 -0.060611706
000230 02 bd f6 bd 55 1e ff bd f1 37 91 bd c9 fd 89 3d
       -0.12047769 -0.12456957 -0.07090748 0.06737859
000240 c4 15 87 bc 53 75 f5 bd fc 29 60 be 5d 85 f6 3d
       -0.01648987 -0.119852684 -0.21891016 0.12037156
000250 ba 47 43 3d 78 9b 17 3c 48 2c 37 be 6c 51 4a 3d
       0.047675826 0.009253375 -0.17887986 0.049394056
000260 4c 56 91 bc c8 18 1c 3d 9c 26 f2 3d b6 72 36 bd
       -0.017741345 0.03810957 0.118237704 -0.04454299
000270 71 83 10 bc f4 4d 01 3e 4e 9e 46 3d 5b 5f 82 3a
       -0.008820401 0.12627393 0.048490815 0.0009946631
000280 e7 c4 91 3d a1 2d 19 be ff 9c 11 3e 89 c5 19 be
       0.07117634 -0.14958812 0.14220046 -0.1501676
000290 0e ae 98 3d d4 ea b6 3d 41 2a 25 3e 40 06 64 bd
       0.07455073 0.08931509 0.161294 -0.055670023
0002a0 f2 c6 ef bb 4f 99 22 3d fe ac 05 be d4 0c b1 3d
       -0.0073174173 0.039696988 -0.13054273 0.08645025
0002b0 c9 86 81 3c 2a 75 12 be 4f 23 77 3d 26 f2 21 bc
       0.01581134 -0.14302507 0.060336407 -0.009884393
0002c0 96 78 df 3d 44 02 19 3e 20 c1 a4 3d 26 16 13 3e
       0.10911672 0.1494227 0.08044648 0.14363918
0002d0 62 2a b8 3d 92 1b 5d bd c9 81 f0 bc 55 62 79 bd
       0.08992459 -0.05398137 -0.029358761 -0.060884792
0002e0 0d 49 79 3d c9 8a 10 be 8d a3 0d bd 0c 9e 8b 3d
       0.060860682 -0.14115442 -0.034579802 0.068172544
0002f0 ac 03 c9 3b 06 d7 97 bd 7d 1f 9e bc 24 73 0d be
       0.006134471 -0.07414059 -0.019302124 -0.13813454
000300 1e c5 8e 3d 5a 6c 77 3d d6 7a 14 bc e3 57 2d bd
       0.06971191 0.060406066 -0.0090624895 -0.042320143
000310 e8 9f 22 bb 74 d3 13 be 32 fd 55 bd 72 02 55 be
       -0.002481455 -0.14436132 -0.05224342 -0.20801714
000320 1c dd 62 3d f8 94 43 3e fc b7 0b bb 4f 03 af 3d
       0.055386648 0.19099796 -0.002131938 0.08545553
000330 31 f0 b4 3d c9 46 17 be 0d 47 e6 3d 39 fa a4 3c
       0.088348754 -0.14773096 0.112440206 0.020138847
000340 92 09 b7 bd 04 c0 a3 3c 64 23 24 be 71 80 ed bd
       -0.08937372 0.019989021 -0.16029125 -0.11596764
000350 2b 52 23 3e 13 c8 7b bd da 30 e3 bd 50 3c 03 bd
       0.15949313 -0.061470103 -0.11093302 -0.03203994
000360 d7 02 e6 bd ff c5 8f bd 89 e8 9a 3d 0b d3 8a 3d
       -0.112310104 -0.07020187 0.07563884 0.067785345
000370 69 2e db bd f7 39 24 3e 99 67 1e 3e 7b 56 41 be
       -0.107022114 0.16037737 0.15469207 -0.18880646
000380 8a 65 0b 3e e8 fe 54 3d a6 9a b4 3d f0 5a 22 be
       0.13612953 0.05200091 0.08818559 -0.15855002
000390 f3 f9 6e bd fb af 7c bd 5c 68 a7 3d c6 af ed 3d
       -0.05834384 -0.061691266 0.08174202 0.11605792
0003a0 1c 44 37 be 76 d9 8f bc c6 b3 1b be e4 b2 ee bd
       -0.17897075 -0.017559748 -0.15205297 -0.116552144
0003b0 83 8c 1e 3c 5a 98 03 bd 5e 54 8c 3b 9c 23 cf 3d
       0.009677055 -0.032127716 0.0042825183 0.10114214
0003c0 94 18 ee bd a6 76 81 bd ab 4f f0 3d 07 0d 0b bd
       -0.11625782 -0.063214585 0.117339455 -0.03394797
0003d0 5b 35 92 bd 62 a4 10 3d 6c 82 67 bd 8a e0 ba bd
       -0.07139083 0.035313018 -0.056520864 -0.09124859
0003e0 fd ea d8 3d a7 99 04 be 74 01 08 3e 9a d8 48 3e
       0.105916955 -0.12949239 0.13281804 0.19613877
0003f0 9b 87 78 bb 4c 1e ad bd 02 5d 9d 3d 49 96 a0 3d
       -0.0037922624 -0.08453044 0.076837555 0.078411646

lstm.bias_ih_l0 f4 [128]
000000 8e 7f 48 3e 0e 81 b2 3d 8d 7c 06 3c 7d 8e 1c 3e
       0.19579908 0.087160215 0.008208406 0.1528873
000010 50 60 af bd 4a 9e 01 3e c0 e6 16 3e 89 d9 f7 bd
       -0.08563292 0.12658039 0.14736462 -0.121020384
000020 00 2b fd 3d 1d ad ae bd 9e 47 cd 3d 2c 6e ee 3d
       0.12361717 -0.085291125 0.100234255 0.11642107
000030 04 35 0f bd a2 72 2c be 58 a1 36 3e 4b b8 ee 3d
       -0.03496267 -0.16840604 0.17834985 0.11656245
000040 57 13 af 3d 34 49 0d be 48 9f fb bd a1 98 b8 3d
       0.08548611 -0.13797456 -0.1228624 0.09013487
000050 3c 2a d5 bc b1 3a 4e 3e e2 8f 01 3d 81 d4 5d bd
       -0.026021115 0.20139576 0.031631358 -0.054157738
000060 d9 47 29 3d 0f 75 8a 3d a6 24 b0 3d 51 92 05 3e
       0.041328285 0.067606084 0.0860074 0.13044097
000070 ca 45 1c be 73 ff ad 3a 23 19 0a 3e e1 ac fd 3c
       -0.15260997 0.0013274982 0.13486151 0.030966224
000080 be 7b e2 3b fc 27 54 bd 3d 91 26 be 47 20 cf 3d
       0.006911724 -0.051795945 -0.16266342 0.10113578
000090 5b 0d 15 3d ce 91 32 3e 74 f5 83 bc f4 0d 36 3d
       0.03638969 0.17438433 -0.016108252 0.0444469
0000a0 2c c5 34 3d 09 bf cf 3d d2 a1 f0 3d 25 ae 18 be
       0.04413335 0.10143859 0.11749615 -0.14910181
0000b0 bb 35 25 3e b9 6c 39 bd f3 75 f4 bb ad 23 33 3e
       0.16133778 -0.0452697 -0.0074603497 0.17494078
0000c0 da 23 0e be 1b 26 46 3d cd 2d 00 be 19 36 0d be
       -0.13880864 0.048376184 -0.12517472 -0.13790168
0000d0 bc a3 77 3d 4f c0 0a be 56 04 f6 bd 9e a3 51 3e
       0.060458884 -0.13549922 -0.12012546 0.20472571
0000e0 2b 8e ed bd f3 63 a3 bd 70 93 14 3e 76 2e 4d 3e
       -0.11599382 -0.07978048 0.14509368 0.20037255
0000f0 72 c3 11 be 3b 6c b3 3d 37 39 f3 3d dd 2f be bd
       -0.14234713 0.08760878 0.11876147 -0.09286473
000100 19 58 19 3e f9 1b 00 3e 94 38 ca 3d dc 13 ad 3d
       0.14975013 0.1251067 0.09874073 0.084510535
000110 b2 98 10 bd 54 6e 05 be 46 19 6f 3b d0 bb 88 3d
       -0.03530187 -0.13030368 0.003648357 0.066764474
000120 f1 9c f8 bc b1 05 09 3e 4a 4c ec 3d 8f 0a ff 3c
       -0.030348273 0.13381077 0.115379885 0.031132964
000130 3a 87 99 3d 70 97 8f 3b cc 40 2b be c3 82 47 be
       0.074964955 0.0043820664 -0.16723937 -0.19483475
000140 ef 8a 17 3e 26 54 68 bd fd f1 77 3d 51 3f b0 3c
       0.14799093 -0.056720875 0.060533512 0.021514567
000150 5d 51 9f bc c1 df d4 3d 04 0d 3c bd 48 45 fd 3d
       -0.019447977 0.1039424 -0.04591085 0.1236673
000160 5b 78 1a be 7f f1 40 3e 4d d2 18 3e 84 2a 11 3e
       -0.15084974 0.18842123 0.14923973 0.14176375
000170 ea 11 59 3d a3 90 2f 3e b2 cf eb 3b 4e e1 2a 3c
       0.0529956 0.17145018 0.00719639 0.010429693
000180 73 b9 8d bc bc e5 d1 3c 54 f9 1f be 0c 3a fb 3d
       -0.017300343 0.025622241 -0.15622455 0.12266931
000190 59 be ff 3b ec a3 25 bd 54 90 95 3d dd 49 0a 3e
       0.0078046736 -0.04043953 0.07302919 0.13504739
0001a0 40 df 9b 3d 94 7c 0b 3e 55 bd 17 3e 56 a3 14 be
       0.07610941 0.13621742 0.14818318 -0.14515433
0001b0 5a d3 97 3d a0 03 9e bd 12 78 85 bd 78 64 9d 3d
       0.07413359 -0.07715535 -0.06517042 0.076851785
0001c0 35 f3 69 bd e9 f4 9f bc 01 67 15 bc 7d cf c5 3c
       -0.057116706 -0.019525962 -0.009118796 0.02414679
0001d0 a5 08 a5 bd 73 8b 8f bd a2 82 e9 bb 5c 58 d4 bc
       -0.080582894 -0.0700902 -0.0071261683 -0.02592104
0001e0 05 db d9 3c 48 49 17 3e d0 2b f0 3d 63 c2 99 bd
       0.026593694 0.14774048 0.117271066 -0.075077794
0001f0 7b 5e 41 3e 31 2c c5 3b 07 12 d7 bd 43 78 9a bd
       0.18883698 0.006017231 -0.10501485 -0.07542469

lstm.bias_hh_l0 f4 [128]
000000 34 a2 18 3e ca f4 a0 bc 70 b8 6e 3d 7e 9f bf 3d
       0.14905626 -0.019647975 0.058281362 0.093565926
000010 8c bd 65 3e 5c d2 cf bc 62 ca 96 bd c2 eb 7a bb
       0.22435588 -0.025368862 -0.0736282 -0.0038287495
000020 5f 03 3a bc 91 b7 f7 3d 1f 46 8e bd ff 86 02 bd
       -0.011353343 0.120955594 -0.06946968 -0.031867024
000030 a1 76 0b be 96 08 cd 3d 67 a3 6d 3d f8 72 03 3d
       -0.13619472 0.10011403 0.05801716 0.032092065
000040 99 50 59 bd e7 36 08 3c 54 5c 49 bd 17 90 fc 3c
       -0.05305538 0.008313871 -0.049160317 0.030830426
000050 cf fc 37 bc 42 c7 8f bd 23 ed f9 bc 96 e0 25 3d
       -0.011229708 -0.07020427 -0.030508583 0.040497385
000060 d8 48 70 bd 37 eb 0c 3e 6f 23 d4 3d 0e c4 12 3d
       -0.05866322 0.13761602 0.10358321 0.035831504
000070 6f c7 bd 3d e6 ac 33 3d 91 d1 27 be ef a2 6c bd
       0.092665546 0.04386606 -0.16388537 -0.057772573
000080 4c 16 39 3d 03 00 c5 3d b2 36 a2 3d 7e 10 b1 3d
       0.04518728 0.09619143 0.079205886 0.08645724
000090 57 f2 31 3d 4e 8d 31 be 90 4c f1 3d c5 22 35 3e
       0.043444004 -0.1733906 0.11782181 0.17689045
0000a0 0f a9 98 3c 5d 39 fb bd d3 40 d4 3d de 19 ab bd
       0.0186353 -0.122668006 0.10363927 -0.08354543
0000b0 08 e6 99 bc ab cc 67 3c 20 5f ed bd 1a 6b 88 bd
       -0.018786445 0.014147918 -0.11590409 -0.06661053
0000c0 10 2f e2 3d fe e0 33 3e d4 eb b2 bd 4f 51 a9 bd
       0.11044133 0.17566296 -0.08736387 -0.082674615
0000d0 35 53 a1 bd 23 e1 a2 3d de 15 27 3e bb 31 af 3d
       -0.078771986 0.07953098 0.16316935 0.08554407
0000e0 00 4b 25 3e 75 ef 48 3e 60 8d 01 3e 3b da 00 3e
       0.16141891 0.19622596 0.12651587 0.12583248
0000f0 34 dd 89 bd 80 23 9e 3c 7a ec 15 be 8c ab 72 bd
       -0.06731644 0.019304037 -0.1464099 -0.05924563
000100 7d 6b 32 3d dd 57 14 be 98 f4 c7 3d 92 f0 21 be
       0.04355954 -0.14486642 0.097634494 -0.15814427
000110 e7 be af bd bd 9a 8c 3d f4 46 1c 3e b2 0b 84 3d
       -0.085813336 0.068654515 0.15261441 0.06447543
000120 11 2e 08 3e 3d a2 58 3c 77 dc b2 bd 84 8e 0e be
       0.13298823 0.013222274 -0.087334566 -0.13921553
000130 1e 62 91 bc a0 ad 26 3e d5 d3 82 3d 9c a2 e9 3d
       -0.017746981 0.1627717 0.0638806 0.114079684
000140 97 22 84 3d 45 6b 4c be 23 67 d6 3d b4 b6 85 bd
       0.0645191 -0.19962795 0.104688905 -0.065289885
000150 68 cc 35 3d 93 9c b0 bd 01 27 10 3d 41 3c d7 3d
       0.04438439 -0.08623614 0.035193447 0.105095394
000160 27 95 f2 bd 4b 98 17 bd 34 47 9d bd ca 93 fc 3d
       -0.11844855 -0.037010472 -0.076795965 0.12332876
000170 62 c3 a0 3c 07 1e db bc c2 33 0c be 6e eb 88 bd
       0.019624416 -0.026747717 -0.13691619 -0.0668553
000180 41 27 4e 3c a2 67 cd 3d 88 0e be bc 6f f2 a7 3d
       0.012582601 0.10029532 -0.023200288 0.082005374
000190 5e 00 a0 bc 1a 06 fa 3d 53 22 00 bc 89 77 20 3e
       -0.019531425 0.12208195 -0.0078206835 0.15670599
0001a0 20 ad e6 3c 25 e6 cd ba 86 e5 2b 3e f5 83 d6 bd
       0.028158724 -0.0015708847 0.16786775 -0.104743876
0001b0 b7 2d 2c bd 7c 23 a6 3c ea 4d 25 3e 1c ff 9b 3b
       -0.042035785 0.020280592 0.16143003 0.004760636
0001c0 60 03 f5 3d ff f2 41 3e de 6f f1 3d 66 92 e4 3d
       0.11963534 0.18940352 0.11788915 0.11160736
0001d0 34 f2 98 bd 12 40 7e bd e0 6b 9b 3d d5 b2 95 bd
       -0.074680716 -0.06207282 0.07588935 -0.073095
0001e0 6f cf 70 3d cf ec 54 bd a0 ee aa 3d 70 b7 29 3e
       0.058791574 -0.05198365 0.08346295 0.16573882
0001f0 4a d5 a6 3d 44 39 85 bd 82 13 34 3e 96 ac 00 3d
       0.081461504 -0.06505063 0.17585567 0.03141459

lstm.weight_ih_l1 f4 [128, 32]
000000 d3 0f b8 3d f0 01 26 3e f8 31 19 be 54 3b a0 3d
       0.08987393 0.16211677 -0.14960468 0.07823816
000010 eb 6a ca bd 11 77 dc bd 27 2f bc bd 8a 23 ea 3d
       -0.09883674 -0.107648976 -0.09188681 0.1143256
000020 e0 47 08 bc 77 bb 4a 3e 09 f8 92 bd 6a dd 0a 3c
       -0.008317918 0.19798075 -0.07176215 0.008475641
000030 ee 66 ee 3d 72 70 18 be 37 5e 66 bd 0a 4e d6 3d
       0.11640726 -0.14886644 -0.056242194 0.104641035
000040 17 ee 71 3c 72 d7 d0 bd e8 f4 ae 3c d8 96 b6 bc
       0.014766238 -0.10197343 0.021357015 -0.022288725
000050 8c f9 1f 3e 7d 2b ea 3d 11 e2 9c bd 5a 63 23 3e
       0.15622538 0.11434076 -0.07660306 0.15955868
000060 e8 99 69 3d 52 ba 45 3e af c0 4a 3e 21 f7 79 3c
       0.057031542 0.19309357 0.19800065 0.015256674
000070 96 03 b2 bd 10 a4 b5 3a f9 a1 1e bc 89 74 a0 bb
       -0.0869209 0.0013858099 -0.009682172 -0.0048967046
000080 76 23 24 bd f6 a3 1f 3e a9 21 65 bd 26 bd b7 3d
       -0.04007288 0.1558989 -0.055940304 0.08971624
000090 1b 5e 02 3c d8 4a 4e be de 5f 64 bc 7f c9 0c 3e
       0.007957007 -0.20145738 -0.013938872 0.1374874
0000a0 4f ca 69 bd 88 22 13 be 81 e0 a0 3c 4a d0 25 be
       -0.057077702 -0.14368641 0.019638302 -0.16192737
0000b0 65 92 b0 3d 06 9f 37 bd 3d 7e 01 be 37 f7 cf 3d
       0.086216725 -0.04482939 -0.12645812 0.10154574
0000c0 5a 06 2b 3d 27 8a 88 3d 79 e4 d7 bd 61 86 16 be
       0.041754104 0.066669755 -0.105416246 -0.14699699
0000d0 47 8e 2d 3e fd 85 c1 3c 83 fc 18 3e ad 1c d0 bd
       0.16948806 0.02362346 0.14940076 -0.101617195
0000e0 f5 43 14 be 55 5a 0a 3d 3e 64 06 3e 0a f2 08 be
       -0.14479049 0.033777554 0.13124177 -0.1337358
0000f0 74 3a cd bd 7c 57 06 3e ee 23 3b 3c de 20 ea 3d
       -0.10020915 0.1311931 0.0114221405 0.1143205
000100 92 79 7d bd 61 da f7 3d 6a 10 0c be 86 ae 5b bc
       -0.061883517 0.12102199 -0.13678136 -0.013408309
000110 ec 61 b4 bd c7 5c bf ba 64 01 dc bd b1 58 24 be
       -0.088077396 -0.0014599793 -0.10742453 -0.16049458
000120 dc a3 6e 3b 56 13 8f 3d d2 c6 3d 3e eb cf c2 bd
       0.0036413586 0.0698611 0.18532875 -0.095123135
000130 65 95 2d 3e ac 9b 03 be 8e 7c 00 3e 53 9a 86 bd
       0.1695152 -0.12852353 0.12547514 -0.06572404
000140 d5 ae 98 3d ae a6 82 3d 8c a1 02 be 58 5b 8a 3d
       0.074552216 0.06379448 -0.12756938 0.06755704
000150 5c 08 80 3d e0 9f d3 3d 05 11 a1 3d c5 e6 0f be
       0.062515944 0.10333228 0.07864574 -0.14052875
000160 ff 99 5b 3d f8 3a 42 3d 66 f1 c9 bb 2f 95 41 3e
       0.05361366 0.04741952 -0.00616281 0.18904565
000170 00 c3 aa bc 1c 75 ac bd 49 45 b8 bd 07 2c 77 bc
       -0.020844936 -0.08420774 -0.0899759 -0.0150861805
000180 8f c1 ef bd 02 09 bc bd 8d 43 64 bd 78 d2 85 3d
       -0.1170684 -0.091814056 -0.055728484 0.06534284
000190 f2 51 e0 bd a4 de 29 be 67 6d 30 3e 0b 0a 36 be
       -0.1095313 -0.16588837 0.17229234 -0.17777269
0001a0 38 5a e3 bd a6 df 86 3d 19 d0 9f 3c 65 db 36 3e
       -0.11101192 0.06585626 0.019508408 0.1785713
0001b0 07 44 f2 3d a9 ee fb 3d 16 32 ee 3d 45 be c8 3d
       0.118293814 0.1230138 0.11630647 0.09801916
0001c0 57 eb a3 bd 81 de 01 be 04 c6 36 be 8c 9e 16 bd
       -0.08003872 -0.12682535 -0.17848974 -0.036772296
0001d0 6e df b7 3d 3a 66 e4 3c a6 56 26 3e e0 d0 0a 3e
       0.08978163 0.027880777 0.16243991 0.13556242
0001e0 6f e4 00 be a9 32 7d bd 53 f4 5f 3d 2b 75 95 bd
       -0.1258714 -0.06181589 0.054676365 -0.07297739
0001f0 75 6f 58 3d f1 a4 0a bd 85 36 87 bd 55 02 ff bd
       0.05284067 -0.033848707 -0.06602196 -0.12451617
000200 41 69 42 3d 52 00 1b bc e9 a8 1d be 9a 64 53 3d
       0.04746366 -0.009460526 -0.15396465 0.051609613
000210 b2 a0 ed bc d1 59 04 bb 68 e4 fa 3d 0b 82 02 3e
       -0.02900729 -0.0020195136 0.12250596 0.1274492
000220 d4 ee cc bc d5 01 4e 3d df 68 f6 ba 56 35 4b bd
       -0.025016226 0.050294716 -0.0018799565 -0.049611412
000230 e9 67 a5 3d 5e c2 4e 3a b6 5a a4 bd 74 42 09 3d
       0.0807646 0.00078872393 -0.08025114 0.03351064
000240 db 78 f3 3c 20 e8 11 bd 16 7b ac 3d 04 1f 43 bd
       0.029720714 -0.035621762 0.08421914 -0.047637
000250 e0 63 4f bd 7b 2e 27 be 13 0a d5 3d 83 c8 d9 bd
       -0.050632358 -0.16326325 0.10402312 -0.10633948
000260 20 c8 81 3d 97 5a 7b 3d e4 68 20 3c 8b 4d 4b bd
       0.06336999 0.06136569 0.009790633 -0.049634498
000270 e6 72 6a 3c e9 f8 a8 3d 94 bc 59 bd 08 9e 1a 3e
       0.0143096205 0.08250601 -0.053158358 0.15099347
000280 b9 67 82 3d 7e cf 38 3e 09 aa 24 3e da 7d 25 be
       0.0636744 0.18047902 0.16080488 -0.1616129
000290 c5 cd 7b 3d 96 55 85 3a 7c a7 03 be 37 13 0e be
       0.061475534 0.0010172601 -0.12856859 -0.13874517
0002a0 f1 ba 42 3d 9d ce 07 bd 2c cb 39 3e f9 21 cc 3d
       0.047541562 -0.033156026 0.1814391 0.09967417
0002b0 9b 78 e4 bd 6f 76 b2 3c c6 77 80 3c 1b 04 60 3c
       -0.11155816 0.02178499 0.015682112 0.013672854
0002c0 5c 42 17 be 0c 99 84 3c 96 8f d1 bd 1b c1 0d 3e
       -0.14771408 0.01618626 -0.10232465 0.13843195
0002d0 eb f8 9f 3d b1 8b 2f 3c 35 5e 08 3e e0 fb 24 bd
       0.07811149 0.010714457 0.13317187 -0.04027927
0002e0 06 e2 84 3d 6d 37 2d 3e 61 fb 01 bd 7c ee 02 3e
       0.06488423 0.16915675 -0.031733874 0.12786287
0002f0 b7 52 c8 3d fd 25 2a bc 13 82 c8 3b e2 9a 9e 3d
       0.097814016 -0.010385034 0.0061190217 0.07744385
000300 95 bd 07 be 67 fb d4 bc 84 20 47 bc e8 d9 03 be
       -0.13255914 -0.025998784 -0.012153748 -0.12876093
000310 ed ee 03 be 66 7d ce 3d 1d 98 c0 bd 2d d5 21 be
       -0.12884112 0.100825116 -0.09404013 -0.15803976
000320 b1 a3 93 3d b6 24 b9 bc 98 4e ca bc dc 8b 51 be
       0.07208956 -0.022600513 -0.02469568 -0.20463508
000330 ed f0 37 3d 00 3d 83 bd d8 82 c1 bc 4d fd 13 3e
       0.0449075 -0.06408119 -0.023621961 0.14452095
000340 8c d7 cd bd aa aa 0f bd 85 d1 b3 3d 10 ca de bd
       -0.10050878 -0.035074867 0.08780197 -0.10878384
000350 f4 c5 c0 bd e9 8b c0 3c a6 6f 40 bd fc bc da bc
       -0.094127566 0.023504214 -0.046981476 -0.026701443
000360 30 63 ec 3d 10 37 22 bd 8f 8c ab 3c 59 15 32 3e
       0.11542356 -0.039603293 0.020941047 0.17390956
000370 f8 54 19 3e 81 81 de 3d 22 e1 9f bc 72 e4 91 3d
       0.1497382 0.10864545 -0.019516531 0.071236506
000380 25 03 83 3c 23 ba 17 3d 65 25 da bd 89 64 18 bd
       0.01599271 0.03704275 -0.10651664 -0.037205253
000390 03 f8 17 bd e7 c2 de 3d 4c b3 38 be 1c 1e a4 3c
       -0.037101757 0.108770184 -0.18037146 0.020033889
0003a0 c5 db 17 be f1 fe 0c 3e 8c 71 d3 3c 67 0f 08 3e
       -0.14829929 0.13769127 0.02581098 0.13287126
0003b0 2e 16 89 3c db 78 b9 bb 57 46 4e 3c 70 9e dd bd
       0.016734209 -0.005660159 0.0125900125 -0.10821235
0003c0 0b 7b 0e be 05 49 ce bc 62 37 05 be 98 52 dd 3d
       -0.13914125 -0.025181303 -0.13009408 0.10806769
0003d0 43 e7 1d 3e 43 7c 17 3e c2 f7 8b bb 6e 4d d2 3c
       0.1542025 0.14793496 -0.0042714784 0.025671687
0003e0 45 b9 0f be 76 e6 27 3e 0d 2f d4 bd 64 65 09 be
       -0.14035518 0.16396508 -0.10360537 -0.13417584
0003f0 2d c3 60 bd 55 4b 2c 3e 7f ac a2 bc 00 2f f6 3d
       -0.054873634 0.16825612 -0.019857643 0.12020683

lstm.weight_hh_l1 f4 [128, 32]
000000 85 3a 4f 3e 42 56 0a be 46 46 1a 3e dd 96 d1 bd
       0.20237167 -0.13509467 0.1506587 -0.10233853
000010 df d4 5a 3d 05 45 12 bd e1 e0 52 bd 61 2d b6 bd
       0.053425666 -0.035710353 -0.051483992 -0.08895374
000020 de e3 e4 3d 60 af 2f 3e 17 9b 44 3d 7f b5 93 3d
       0.11176275 0.17156744 0.047999468 0.07212352
000030 d5 e4 52 be 04 46 91 3c b0 c9 ca bd b8 9b 40 3d
       -0.20595105 0.017733581 -0.0990175 0.047023505
000040 06 97 4d be ce 6d 3d be e3 4e 8a bd ab a0 ce ba
       -0.20077142 -0.18498918 -0.06753328 -0.0015764436
000050 0e 75 1c 3c 93 51 4e 3e eb 73 06 3d aa 6a a1 bd
       0.009549392 0.20148306 0.03282539 -0.07881673
000060 e8 3a 65 3e 8b f7 43 3e 29 14 29 bc ff a2 a4 3d
       0.22385752 0.19137399 -0.010319748 0.080389015
000070 a1 23 02 be 17 11 08 be 3d 01 1f 3e 04 05 98 bd
       -0.12708904 -0.1328777 0.15527816 -0.07422832
000080 e6 7c ab bd b3 8f 18 be 5c f4 1d 3e 1a a3 fd 3d
       -0.08373432 -0.14898567 0.15425247 0.12384625
000090 d0 c5 14 3e b4 7d 25 be fa 04 c4 3d 96 5a ac 3d
       0.14528584 -0.16161233 0.09571262 0.084157154
0000a0 f1 78 39 3e 10 53 08 3e a3 5f 02 3b 15 b6 1b bc
       0.18112542 0.13312936 0.001989343 -0.009503861
0000b0 49 54 b1 bd da 8a 86 3d f3 b3 87 3c 3e 10 b9 3d
       -0.08658654 0.065694526 0.016565299 0.09036301
0000c0 55 a9 60 3c 6c 47 01 3e b4 a2 ea bd 07 4c f4 3d
       0.013712247 0.12624902 -0.114568144 0.119285636
0000d0 27 92 b3 bd f9 c7 0f 3e 52 d5 e7 bc a5 f7 a8 bd
       -0.08768111 0.14041127 -0.028299961 -0.082503594
0000e0 dc df 05 bd 39 df 1b be 1d dd 02 3e 2f c6 ae bd
       -0.032684192 -0.15221871 0.1277966 -0.08533894
0000f0 04 9d 6e 3d b3 2b 37 3c 6a e2 23 3e 6e 25 f6 3c
       0.05825521 0.011179852 0.16004339 0.030047145
000100 61 e8 09 be 60 86 95 bd b6 04 59 3d d1 93 13 be
       -0.13467552 -0.073010206 0.05298301 -0.14411856
000110 0b b3 0b 3d de 3e ac 3d 34 e1 aa bb 1b 38 05 be
       0.034106296 0.084104285 -0.0052148346 -0.13009684
000120 8d 9f ea 3d df de 9e 3d 59 24 c8 3d 82 ca a8 3c
       0.11456213 0.07757353 0.09772558 0.020604376
000130 a3 84 26 3d d1 43 8c 3c 8d b3 04 be 7e f2 90 bd
       0.040653836 0.017122181 -0.12959118 -0.07077502
000140 09 2a 29 bd 87 7c 7f 3d 92 b0 3e be 92 ea 47 bd
       -0.041299853 0.062374618 -0.18622044 -0.048807688
000150 cf 1a d9 3b 88 43 78 3d c5 19 3f 3e e7 80 05 3e
       0.0066255103 0.060611278 0.18662174 0.13037454
000160 d9 a5 20 3d 57 e1 0d 3e 89 94 ad bd 13 e8 d6 bd
       0.039220665 0.13855492 -0.084755965 -0.104934834
000170 5e 53 8e bb 2d 43 de 3d 5c 68 1a be 01 cc 24 bd
       -0.0043434342 0.108526565 -0.15078872 -0.040233616
000180 9d cc ef bc bc 38 21 be 12 50 1e 3e a3 bb 97 bd
       -0.029272372 -0.15744299 0.15460232 -0.07408836
000190 95 d3 fc 3d 5b b9 27 3e 74 96 06 3e 34 8e 96 bd
       0.123450436 0.16379301 0.13143331 -0.07351342
0001a0 8a 3c c3 3c 8e 8a 1d be 26 7b a9 3d 54 b0 44 3d
       0.023832578 -0.15384886 0.08275442 0.048019722
0001b0 f2 0f 2f be cf c7 da 3d 5f 49 30 3e 3b 69 fc bc
       -0.17095926 0.10682642 0.17215489 -0.030811897
0001c0 f0 96 08 bd de d8 65 3d 05 84 e1 3b dc 56 ec bd
       -0.03334707 0.056115024 0.006882193 -0.115400046
0001d0 6b 91 f5 bd 2c 08 19 3e 54 35 07 be fa b1 24 bd
       -0.11990627 0.14944524 -0.13203937 -0.040208794
0001e0 c1 45 2e 3d b5 3b 0b bd fc 5e 0e be 6f 7c b5 3d
       0.04254699 -0.033992488 -0.13903421 0.088616244
0001f0 3c e9 25 3d e4 80 fc 3d 6f 05 89 3c fa cb 30 3e
       0.040505633 0.123292714 0.016726224 0.17265311
000200 89 28 bb bd 55 a1 9b 3d a5 88 02 3e 90 b2 24 bd
       -0.09138591 0.07599131 0.12747438 -0.040209353
000210 6c b9 31 3e 32 75 ba 3c 82 2d 0a 3e b9 bf d8 bd
       0.17355889 0.022760961 0.13493922 -0.10583443
000220 d5 46 78 3d 6a ae ed 3d 1d 27 6b 3d 88 fa cb 3c
       0.060614426 0.116055325 0.05741035 0.024899736
000230 a0 61 fb bc 60 66 04 3e bf 7f a5 bc a6 02 b7 bd
       -0.0306862 0.12929678 -0.020202516 -0.08936052
000240 e7 af a0 bc 5e 2e 0b 3e 8b 6b 33 3d 56 58 31 bc
       -0.019615127 0.13591906 0.043803733 -0.010824284
000250 7b cc 88 3d b0 b7 86 3d b9 1f 62 3d cb b7 93 bd
       0.066796266 0.06578004 0.055206034 -0.0721279
000260 19 d3 c6 3d af 32 17 be 19 77 34 3e cc d0 bd 3d
       0.097082324 -0.14765428 0.17623557 0.092683405
000270 58 72 bc bd 74 ce 24 be a2 67 9c 3d 59 6e c8 3d
       -0.09201497 -0.1609438 0.07636954 0.09786672
000280 e3 b3 99 3d c3 0d 26 3d f5 00 d2 3c 02 c3 6c bd
       0.07505014 0.040540468 0.025635222 -0.05780316
000290 fb 66 eb bc 5d 02 de 3d 65 ed 94 bd 04 b0 21 be
       -0.028735628 0.108402945 -0.07271842 -0.15789801
0002a0 ba b0 97 bd 56 ec 3b bc 19 3c b2 3b 91 c3 80 bd
       -0.07406755 -0.011469921 0.005439293 -0.06287301
0002b0 a9 fa 80 3b 86 e5 5f bd 9d a7 22 be ed 29 56 39
       0.003936131 -0.05466225 -0.15884252 0.00020424249
0002c0 92 91 bd 3d 9e 3f 3c 3d 8b 7a 12 be c5 d5 f5 3d
       0.09256281 0.045959108 -0.14304559 0.12003664
0002d0 74 6a e6 bd fe 82 cd 3b 54 c9 76 3d c6 fa 43 bd
       -0.11250773 0.006271719 0.060250595 -0.047846578
0002e0 65 31 b0 3d c1 3c 47 3e eb 04 12 3e 5f 2b ce bd
       0.08603171 0.1945677 0.14259689 -0.10066866
0002f0 85 ca e3 bd cd fa 04 bd 0b d6 d3 3d 99 a0 6e bd
       -0.11122612 -0.032465745 0.1034356 -0.058258627
000300 13 c4 1f 3e 14 3c 4b bd 28 09 02 be 43 73 a4 bc
       0.1560214 -0.04961784 -0.12698805 -0.020074492
000310 0c b7 2d 3d f3 0c 0d 3d f2 1f 85 3d cb e6 b9 3c
       0.042410895 0.034436177 0.06500234 0.022693058
000320 c2 4c f0 bd 7e df a8 bb 2a a4 47 bb e7 15 ad bd
       -0.117333904 -0.0051535955 -0.003046284 -0.08451443
000330 44 c6 36 be 67 39 3d 3e 67 d2 c5 ba 84 43 62 3e
       -0.1784907 0.18478929 -0.0015092612 0.22096068
000340 47 4d 32 3d dd c8 fe 3d ae 20 a1 3d ce 82 a5 bd
       0.04353073 0.124406554 0.07867561 -0.0808159
000350 87 4d 48 ba 2d a5 db 3d d6 86 23 3e a1 1c 8a bd
       -0.0007640947 0.10724864 0.15969405 -0.06743742
000360 ef dc 3d bc 00 5f d3 3c 36 08 04 3e f8 ce 90 3c
       -0.011588319 0.025802135 0.12893757 0.017676815
000370 26 fc 59 3d 55 0b 17 3e 92 f4 08 3e 48 dc eb bd
       0.053218983 0.14750417 0.13374546 -0.11516625
000380 ef 50 60 bd 05 f1 e2 3c 6d 6f 10 3c d8 21 08 be
       -0.054764684 0.027702818 0.0088156285 -0.1329416
000390 96 98 42 bd 16 58 04 be f8 49 e8 3d 07 a7 be bd
       -0.0475088 -0.12924227 0.113422334 -0.09309202
0003a0 bf 01 36 be 60 36 15 3b 3e cb 3f be 9e 08 b1 3d
       -0.17774104 0.0022768006 -0.18729874 0.08644222
0003b0 32 9d 13 be f2 4c 45 3c 57 f9 50 3d 9d 30 0c bd
       -0.14415434 0.012042271 0.05101904 -0.03422605
0003c0 7c e5 cb 3d a3 34 b5 bc 00 e8 1f 3e 3a d3 ff 3d
       0.0995588 -0.022119826 0.15615845 0.1249146
0003d0 5f fc 1c be 66 41 dc bc 5f f0 a9 3d 1b 8e a3 bc
       -0.15330647 -0.026886653 0.082978 -0.019965222
0003e0 9a 1a 9b 3d c2 53 47 bd ec a8 00 be 45 b1 10 3e
       0.07573433 -0.048663862 -0.12564439 0.14130123
0003f0 9c 39 b6 bd e7 2b d7 3d 7c c8 c0 3d b1 c4 11 3e
       -0.08897707 0.105064206 0.09413239 0.14235188

lstm.bias_ih_l1 f4 [128]
000000 bf 39 67 bd 87 78 96 3d de ea 0a 3e 99 13 5f bd
       -0.056451555 0.073472075 0.13566157 -0.05446205
000010 ed 5d cf bd 21 75 e9 3d 1c f0 b4 3d 46 af a4 bc
       -0.10125337 0.11399294 0.0883486 -0.020103108
000020 8f 95 40 3e 4d df 08 be 0f 39 42 3e 6d d3 ad bb
       0.18807052 -0.13366432 0.18967079 -0.005304745
000030 f5 94 0c 3e cc 33 ce bd c7 c6 3a 3e c3 7e c7 3d
       0.13728698 -0.10068473 0.1823989 0.09740975
000040 36 88 be 3b 77 e7 e1 bc 3c 4a ad bd c2 c7 43 3e
       0.0058145775 -0.027576191 -0.08461425 0.1911917
000050 8e 87 ed 3d 6c cd 28 3b 4a a1 1b 3e 21 73 06 3e
       0.11598121 0.0025757207 0.15198246 0.13129856
000060 7a 03 a5 3d 56 be 72 3e b1 5e 08 be 94 2f 27 3e
       0.08057304 0.2370542 -0.13317372 0.16326743
000070 04 7e b4 3d ca 8a 08 be de 73 b5 bd c2 de ca 3d
       0.08813098 -0.13334194 -0.088599905 0.09905769
000080 72 1b af 3d 3f 01 54 bc eb 41 60 3c c4 b3 11 be
       0.08550157 -0.01293975 0.013687591 -0.14228731
000090 54 1d 85 bd bc f1 3d 3d 91 4d 04 be 22 74 d4 bd
       -0.064997345 0.046373114 -0.12920214 -0.10373713
0000a0 56 3f 99 bd 05 d6 2b 3d 76 67 4a bd 65 ea 38 3e
       -0.074827835 0.04195215 -0.049415074 0.18058164
0000b0 50 8e 25 3d 4c 59 e5 3d cb 52 3a bd 9d f4 89 3d
       0.040418923 0.11198673 -0.045489114 0.067361094
0000c0 50 72 38 3e 35 cf e3 3d 3e 71 b6 3d 97 c2 0a bd
       0.18012357 0.11123506 0.08908318 -0.03387698
0000d0 a7 02 fb bd 1c 72 71 3d 08 d8 73 bd 08 a6 02 be
       -0.12256365 0.058946714 -0.059532195 -0.12758648
0000e0 e3 e0 37 3e 67 91 96 bc 9b 9e a1 bd 02 8b a3 3d
       0.17956881 -0.01837988 -0.0789158 0.07985498
0000f0 c1 6c 0f be 87 b3 6c 3d 2f cc 12 be e4 72 d8 3d
       -0.1400633 0.057788398 -0.14335702 0.10568789
000100 09 78 a3 3d e3 0b 18 be 6f 00 34 3e ce 0c d4 bc
       0.07981879 -0.14848284 0.1757829 -0.025885012
000110 32 fe ff 3d 1c e3 07 bb 53 ce 33 3e 1d 89 9f bd
       0.12499656 -0.0020734733 0.17559175 -0.07789824
000120 e4 a6 77 bd d8 9f ea bb 2d 04 1e 3e f2 25 e5 bd
       -0.060461894 -0.007160168 0.1543128 -0.11188878
000130 47 13 f3 bd bc af 82 3d b7 cf 01 bb 21 8a d1 bd
       -0.11868911 0.06381175 -0.0019807646 -0.10231424
000140 c6 68 16 3c 22 11 7f bd 99 e5 08 be 5d 2f d2 3c
       0.009180253 -0.0622722 -0.13368835 0.02565735
000150 d8 f4 b3 3d a0 67 0a bd 3c 3c 32 3e 2d fd c1 3c
       0.087869346 -0.03379023 0.1740579 0.023680294
000160 08 a0 68 bd c4 73 d0 bd 99 02 a5 bc 5f 89 e8 3d
       -0.056793243 -0.101783305 -0.02014284 0.113543265
000170 03 fd 08 3e bf 7b c1 bd bb cf 70 bd 9f 30 3a bd
       0.13377766 -0.09447431 -0.058791857 -0.045456525
000180 26 1f 03 3e bd 45 0e be 61 c3 13 be 26 6f b0 3d
       0.12804851 -0.1389379 -0.1443 0.0861495
000190 94 c3 0b 3e 3d 16 95 bd 87 f0 33 bd 09 1b 67 bd
       0.13648826 -0.07279632 -0.043930557 -0.056422267
0001a0 dd 6c 37 3e 5f 8a 55 3d d4 39 93 3d e1 49 1e 3e
       0.17912622 0.052133914 0.07188764 0.1545787
0001b0 55 c7 93 3d fc a6 23 bd a8 1a 0a ba 25 5c d9 3d
       0.07215754 -0.03995417 -0.00052682543 0.10613278
0001c0 7a 84 11 be db 4f 57 3e 70 a3 0d 3d 2c e9 1c bd
       -0.14210692 0.21026556 0.034579694 -0.038308308
0001d0 b6 94 6b 3e f6 a0 15 3e c3 b4 b0 3d 5e d5 c9 3c
       0.23005947 0.14612183 0.086282276 0.024637874
0001e0 22 fa dd bd c3 df d4 3d 74 ba 4e 3e 4b 6f 5a 3e
       -0.10838725 0.10394242 0.20188314 0.21331517
0001f0 6b 4e 4a 3e 5d 90 b1 3d 5b 24 29 bd d5 3b 34 bd
       0.19756477 0.08670113 -0.041294437 -0.044002373

lstm.bias_hh_l1 f4 [128]
000000 93 4f 82 bc e1 88 9a bd 50 39 37 3e 79 08 c3 bd
       -0.015907085 -0.07545639 0.17892957 -0.095231004
000010 24 22 00 be 53 b6 d7 3d 57 04 ec bd e4 12 b6 bd
       -0.12513024 0.105328225 -0.11524265 -0.08890322
000020 2e 2f 2c 3e df a5 14 be 09 6a 01 3d 82 fe 26 3e
       0.16814873 -0.145164 0.031595264 0.16308025
000030 b9 7b 97 bd df d7 05 3e 84 60 24 be d8 31 4b bd
       -0.07396645 0.1307063 -0.16052443 -0.04960808
000040 87 ee 24 3e 64 6a b1 bd f9 83 0e 3d df 1c 33 3d
       0.16106616 -0.086628705 0.034793828 0.043728705
000050 77 84 18 3e 97 0a 01 be 79 ad 68 3d 29 d4 09 be
       0.14894281 -0.12601696 0.05680606 -0.13459839
000060 10 4f 00 bc b0 98 17 3e 87 8e 1f bd 2d a1 80 3d
       -0.00783135 0.1480434 -0.038954284 0.06280742
000070 55 0c 05 3d 08 d0 d0 bd ff ab dd bd 74 55 a0 bd
       0.032482464 -0.10195929 -0.10823821 -0.07828799
000080 c4 34 73 3d fd 43 26 be e6 e4 ae 3d 6e 62 ed 3d
       0.059376493 -0.16236873 0.08539753 0.115910396
000090 76 c9 0d be b6 f6 bb 3d 3a e6 b4 bc 6e 5d e0 bd
       -0.13846382 0.09177916 -0.022082437 -0.1095532
0000a0 df 14 be bd 52 75 c7 bd 4a 54 99 bc 81 21 82 3c
       -0.092813246 -0.09739174 -0.01871695 0.015885117
0000b0 65 7e b4 3d c0 08 03 be c9 57 89 3a 79 23 ee 3d
       0.0881317 -0.12796307 0.0010478433 0.116278596
0000c0 7e c8 63 3d 97 0b d1 3b 5c cf 9e 3d ea 8a 87 bd
       0.055611126 0.0063795554 0.077543944 -0.06618293
0000d0 c8 d4 55 bd 57 eb 96 bd 83 b2 5e bd 6d ab 2c 3e
       -0.052204877 -0.07369106 -0.05436946 0.16862269
0000e0 cb bc c2 bb a5 d5 8b 3d 07 54 0b be c0 52 e2 bd
       -0.005942916 0.06827859 -0.13606273 -0.110509396
0000f0 ec f9 50 bd 75 e6 1f bd f0 f1 77 bd f9 3e a6 bd
       -0.051019594 -0.03903814 -0.060533464 -0.0811748
000100 d0 6a dc 3c 2e 43 c1 bd 43 1e 49 bd ff 54 bd 3d
       0.0269064 -0.09436642 -0.049101125 0.09244727
000110 a8 7f 12 3e 65 74 f1 bd 58 79 8e 3d 42 73 f8 bd
       0.1430651 -0.117897786 0.06956738 -0.12131359
000120 bb 57 09 3e 2e 13 bc 3d 0c 06 09 3e 9c b5 7f bd
       0.13412373 0.09183346 0.13381213 -0.062429056
000130 7a 24 11 be ad 80 15 3e 09 08 f7 3d e9 75 4a bb
       -0.14174071 0.14599867 0.120620795 -0.0030893034
000140 8f fe 08 be a7 eb b8 3c aa 85 d0 bd b8 15 09 3e
       -0.13378356 0.022573305 -0.101817444 0.13387191
000150 90 cf 22 3e 9a 83 8a bd 91 9d 32 3e 22 3a df bd
       0.15899491 -0.06763382 0.1744292 -0.1089976
000160 1e fa 25 3e 72 d3 cf 3d ee 7b 22 be 4c 09 47 bd
       0.16208693 0.10147752 -0.15867588 -0.04859285
000170 3e 5a 8f bb 98 c0 84 bc 89 6f 2a bd fc cf 6a 3c
       -0.0043747714 -0.016205117 -0.041610274 0.014331814
000180 11 87 dc bc d8 9a d8 bc b7 f5 16 3d 5f 7f 6d 3d
       -0.026919873 -0.026441023 0.036855426 0.0579828
000190 79 d4 03 be 4c 30 46 bd 59 2a db bd 69 dc 85 3c
       -0.1287402 -0.048385903 -0.107014365 0.016340451
0001a0 91 c4 c1 3d 56 3f ab 3d fb 0f 69 3d 63 22 38 3e
       0.0946132 0.0836169 0.056900006 0.17981867
0001b0 41 e2 00 be d2 11 88 3d 71 f6 8c bd 7a fe 5c 3e
       -0.12586309 0.06644024 -0.068829425 0.2158145
0001c0 a5 b8 20 be ad af fd bc 0c 11 cd bd 4d 24 ae bc
       -0.15695436 -0.030967558 -0.10013017 -0.021257544
0001d0 73 6c 88 bd 46 9f 88 bd b8 89 1d 3d b1 30 40 3e
       -0.0666131 -0.06671004 0.038461417 0.18768574
0001e0 5b 7d 9c bd 1a ff a7 bd 4f fc 31 3e ea 5b 91 3d
       -0.07641097 -0.08202954 0.17381404 0.07097609
0001f0 ff be 72 3d f9 12 ae 3d da 71 8a 3c ff 19 94 bd
       0.05926418 0.084997125 0.016899992 -0.07231521

lstm.weight_ih_l2 f4 [128, 32]
000000 9d 1f d7 3d 9c a6 b0 bd 10 b3 dd 3d e2 65 2d 3e
       0.10504077 -0.08625528 0.10825169 0.16933396
000010 57 c6 da 3d f2 89 a5 bd b1 2b b5 3d 8f 81 33 be
       0.106823616 -0.080829516 0.08846224 -0.17529891
000020 d8 cf a7 bd dd c1 e3 bd 8d b5 a3 3d 4d b5 db b9
       -0.0819394 -0.11120961 0.079936124 -0.00041906015
000030 bf 12 02 3e 38 02 f3 bd c4 35 ec 3d d8 48 d8 3d
       0.12702464 -0.118656576 0.115336925 0.10560769
000040 9a ac 57 be 8b 64 35 be 09 27 bc bd bb bf 10 be
       -0.21061936 -0.17714135 -0.09187133 -0.1413564
000050 51 c9 7e 3c 1f 49 51 3e 53 8d fa 3d a0 58 15 bc
       0.015550927 0.2043805 0.12233987 -0.009115368
000060 9f 8d d4 3d a7 ac 88 3b c5 45 03 3d 74 44 ec bd
       0.103785746 0.0041709724 0.03204896 -0.11536494
000070 f2 dd bb bd 7e ad 2d bb a5 cf 24 3e 2d e3 cd bc
       -0.09173192 -0.0026501114 0.16094835 -0.02513274
000080 4c 5a 36 bc cd 9d 5c 3d df bf 3b 3e d4 9b 08 be
       -0.011129927 0.053861428 0.18334912 -0.13340694
000090 9a 15 33 3d b2 d0 25 bd 17 45 be 3d f2 2b 91 3d
       0.043721773 -0.04048223 0.092905216 0.0708846
0000a0 c3 f9 15 bd 91 cd 7a 3d f4 d8 42 bc ca 8b 22 3e
       -0.036615144 0.0612312 -0.011892546 0.15873638
0000b0 c9 f0 9b bd b5 09 69 3d 09 a5 55 3d 90 0e d2 bd
       -0.076142855 0.056894023 0.052159343 -0.10256684
0000c0 00 96 ad 3d 64 24 ab bc 53 73 9e bd 8f fa 1b be
       0.08475876 -0.020891376 -0.0773684 -0.152323
0000d0 46 31 bd 3d 35 0e c0 bd 84 c4 de bc 90 5c b3 3d
       0.09237914 -0.0937771 -0.027193315 0.08757889
0000e0 9d b9 58 3e 66 56 18 be 0f 1a 34 3d 34 0f ee 3d
       0.21164556 -0.14876708 0.043970164 0.116239935
0000f0 0d e4 58 bd 59 a7 39 3d 63 6c 32 3e 2d 5c 00 be
       -0.05295186 0.04532561 0.17424159 -0.12535162
000100 f7 0d fa bd d7 a6 f8 3d 79 cd ad 3d 27 11 a6 3d
       -0.12209695 0.12141197 0.084864564 0.0810874
000110 52 80 91 3d ef 8a 08 be d3 05 45 3e 24 39 25 be
       0.07104553 -0.13334249 0.19240503 -0.16135079
000120 8a 22 9f bd f5 53 30 bd d0 25 57 bd 1a 8b ac 3c
       -0.0777026 -0.043048818 -0.052526295 0.021062423
000130 7c 28 21 be 0e d4 3c 3e 72 cd a5 3c 5f 52 88 bb
       -0.157381 0.18440267 0.020239566 -0.00416021
000140 87 4b b8 3d 26 45 6a bd ea 3b 42 be 6c c8 b2 bd
       0.08998781 -0.05719485 -0.18968168 -0.08729634
000150 8f c9 77 3c 86 aa 31 3e 5d 6d ef bd 7a 51 3c bd
       0.015123739 0.17350206 -0.11690781 -0.04597614
000160 32 d8 11 3e f9 5f 4d 3c 71 e1 8c bd 75 37 26 ba
       0.14242628 0.012535089 -0.06878937 -0.0006340661
000170 f2 61 48 be ab 39 2e be e5 93 53 bd 25 a7 72 3d
       -0.19568613 -0.17014186 -0.051654715 0.059241433
000180 c4 35 28 3d 52 1a 4b 3d ea 44 1d 3d c7 e4 ae bd
       0.0410669 0.049585648 0.0383958 -0.085397296
000190 2d 7c 05 bd 66 d4 b6 3d b2 d9 0a be e7 7a f6 bd
       -0.032589126 0.089272305 -0.13559607 -0.120351605
0001a0 64 50 dd bd 7b 6d b9 bb 15 e5 bf bd 67 c0 b6 3d
       -0.10806349 -0.005658803 -0.09369866 0.089234166
0001b0 68 da a4 3d d5 41 ce 3d 80 3d fa bd d7 5d 1d be
       0.0804947 0.1007115 -0.122187614 -0.15367828
0001c0 53 21 a7 bd 14 82 14 3e 36 04 99 bd 4c 05 e5 3d
       -0.08160653 0.14502746 -0.07471506 0.11182651
0001d0 a1 a8 a6 bd 39 b6 16 3e 38 5f 4c 3e 2c 20 67 3d
       -0.08137632 0.1471795 0.19958198 0.056427166
0001e0 6b f2 3f 3e 41 3a 8c bd 22 6e 3e 3e 25 df ca 3d
       0.18744819 -0.068470486 0.185967 0.09905843
0001f0 f0 ae f7 bd 47 27 86 bd 3d b8 22 3e 1a 05 b6 bd
       -0.120939136 -0.0655046 0.15890594 -0.08887692
000200 9a 88 25 3e af 1c 05 be 62 c1 4a 3e af 28 54 bd
       0.1616539 -0.12999223 0.19800332 -0.05179661
000210 cd 2d 36 bd 34 4e 4c bd f8 bc 00 be a6 8a 9b bd
       -0.044477273 -0.049879268 -0.12572086 -0.075948045
000220 6d 2a 4e 3c 36 43 ea bd 89 51 87 3d bc 1f 15 3e
       0.012583357 -0.11438601 0.066073485 0.14562887
000230 61 1d ed 3d fc 3f 40 3e 4f 34 c5 3d 82 c9 d9 3c
       0.11577869 0.18774408 0.09629118 0.026585344
000240 42 de 11 3b 6b 59 44 be 5b a0 82 bd ae b5 17 bd
       0.002225772 -0.19174735 -0.06378242 -0.037038498
000250 fa b8 d3 bd eb 55 58 3e 60 4a d2 3d a7 4e 53 be
       -0.10338016 0.21126525 0.10268092 -0.20635472
000260 9a f1 0a bc 5c 36 e7 3d 51 12 28 3d e9 cb 31 3d
       -0.008480454 0.11289665 0.041033093 0.043407355
000270 29 89 e6 bd 10 0a 24 be 8f 5a c9 bd fa 6d 13 3e
       -0.1125663 -0.16019464 -0.09831726 0.14397421
000280 ea 31 47 bb b5 0d 0b 3e 01 18 c6 bb 63 2a a3 3d
       -0.0030394741 0.13579448 -0.006045342 0.07967069
000290 3f bf cc 3d b3 d2 60 be 90 93 a2 bd 2f b1 ac bd
       0.09997415 -0.21955375 -0.079383016 -0.084322326
0002a0 72 de c8 3d 2e c5 0a 3c 77 67 44 be 6e 92 a2 3d
       0.09808053 0.008469863 -0.19180094 0.079380855
0002b0 5c b5 05 3d 22 02 8c bd 73 a6 af bd 82 b5 4f be
       0.03264366 -0.06836344 -0.085766695 -0.20284083
0002c0 3f a2 b0 3d df 36 ab bd 82 c1 df 3d 73 d3 06 be
       0.08624696 -0.08360075 0.109255806 -0.13166599
0002d0 26 e9 bf bd c5 76 31 bd 9c cd 27 bd 47 a1 7c 3c
       -0.093706414 -0.043326158 -0.04096757 0.015419311
0002e0 86 3a 90 3c 4f 7f 75 3c 40 c0 de 3d d7 f5 9a 3d
       0.017606031 0.014983966 0.108765125 0.075664215
0002f0 9d 4e ea 3c 41 0c e5 bc 3c 34 c7 bd 46 27 34 bb
       0.028601939 -0.027959945 -0.0972676 -0.002748923
000300 9c 29 62 39 62 72 38 3d 5c b9 87 3d 94 a0 63 3d
       0.0002156854 0.04503096 0.06627151 0.05557306
000310 0e ff b8 3d 19 94 b5 bd c1 ee 8d bc 5e 56 6b 3d
       0.09033023 -0.08866138 -0.01732576 0.057455413
000320 5d ad f4 3d ce 27 8f bc bd e3 7d bc c9 9d 99 bb
       0.11947129 -0.017475035 -0.015496192 -0.004687999
000330 83 86 a9 bd 14 22 c0 3c 44 94 e7 bd 17 1c f1 3b
       -0.08277609 0.02345375 -0.11307576 0.007358085
000340 a1 88 be 3d 37 ab 64 bd a1 6b 97 3d f8 6c 1c bc
       0.09303404 -0.055827346 0.073935755 -0.009547465
000350 45 92 94 3d 21 d2 fa 3d 95 82 59 3e 15 ae fd 3b
       0.07254461 0.1224711 0.2124122 0.0077416995
000360 86 95 0f bd 54 b8 19 be 9e 0c 63 bd 21 51 56 3c
       -0.035054706 -0.15011722 -0.055431955 0.013080866
000370 8c 0d b3 3d 7d fa 10 be 5c 26 c2 bc eb 1b 9d bd
       0.08742818 -0.14158054 -0.023699932 -0.076713406
000380 fa bb 69 bd 0f 45 a2 3d 53 5d 07 bd b0 64 86 bd
       -0.057064034 0.07923328 -0.033047985 -0.06562173
000390 1b cd 33 3e 44 4a db 3b 49 05 0c be 1f 2c 33 3d
       0.1755871 0.0066922028 -0.13673891 0.04374325
0003a0 60 2c a9 bc 2f f1 20 bd 19 02 a4 3d e5 57 ba 3d
       -0.020651042 -0.03929251 0.080082126 0.09098796
0003b0 96 95 ef bd c2 36 ef bd f3 f8 53 bd af fe 16 3d
       -0.11698453 -0.11680366 -0.05175109 0.03686398
0003c0 46 1f ce 3d d8 c1 82 bb 9a 86 20 bc 26 49 34 bd
       0.10064559 -0.003990393 -0.0097977165 -0.044015072
0003d0 b8 bf a8 bd 86 1f 20 3e 2a 33 0d bd ef 80 95 bd
       -0.082396924 0.15637025 -0.034472622 -0.07299983
0003e0 ff d6 b0 bd b0 7a a5 bd d9 cb ea bc 59 2e 08 be
       -0.08634757 -0.080800414 -0.028661655 -0.1329893
0003f0 01 5e a2 bd d9 de c8 3d 12 1b 61 bd 2c 36 17 3e
       -0.07928086 0.0980813 -0.054957457 0.14766759
