pv/checkpoints/학사과정-checkpoint-2023-08-10 23_53.pt (torch, 304610 bytes, 38 tensors)

lstm.weight_ih_l0 f4 [128, 17]
0.1947501 0.035134915 0.041395374 -0.096770145 -0.1295419 -0.115993716 -0.1467506 0.103617236
0.12167372 0.09027747 0.17604436 0.004474377 -0.08691435 -0.057004895 -0.18557547 0.17455836
-0.19693255 0.07953145 0.0027680255 0.05899122 0.06122465 0.036315892 -0.15562026 0.021551443
0.20052096 -0.123399794 0.17494117 0.14920574 0.12753092 0.07250375 0.04584792 -0.08858626
0.15248826 -0.091199026 -0.054397676 -0.002626146 -0.06517383 0.18358082 0.17009182 -0.12088046
0.05749771 0.11984707 0.005015726 0.030478245 0.21655607 0.15733093 0.06861022 -0.113120325
0.12292311 0.09850058 -0.11297386 -0.02843228 0.00407008 -0.05110746 -0.11594336 0.17504257
-0.084517166 0.22769168 -0.08248937 0.006766924 0.21690853 -0.00039847413 -0.018221648 0.18268558
0.11795305 0.028464673 0.06455253 -0.03414531 0.03144901 0.051995993 0.05050121 -0.051867377
0.10674811 -0.031866953 0.006105706 0.12798856 0.020744992 0.12159203 0.116285495 -0.11474822
0.06904463 0.1997791 0.0468286 -0.11790917 0.07450991 0.09098251 0.18668766 0.11659112
-0.042173658 -0.12963481 -0.00017800828 0.15974636 -0.08921096 -0.11697778 -0.007446479 -0.0705475
0.16347867 -0.14204563 -0.023939647 -0.16117494 0.07290439 -0.04073732 0.017819228 0.085381515
-0.037246373 -0.088891774 0.2134417 0.17706925 0.17021197 0.12645459 0.010560929 0.070675835
0.16647747 -0.14083248 -0.08246302 0.13095291 -0.14847872 -0.16919295 -0.0075407727 0.05456285
0.12831043 -0.102438 -0.15873873 -0.0053646215 0.08570385 0.08628487 -0.13997622 -0.04550715
0.06024274 -0.1510126 -0.15231621 0.060067195 -0.13748102 -0.053026095 0.058587212 -0.12410214
0.021954687 0.10272107 0.18461195 -0.059790093 0.04689671 0.07448214 -0.1579542 0.08299821
-0.0031730179 0.19691552 0.13335407 -0.07888651 -0.110310495 0.1334905 0.027597059 0.21278243
0.09901266 -0.17813663 -0.042252075 -0.0048814844 0.15601462 -0.06491723 -0.13972422 0.07429786
-0.035528477 -0.1329463 0.122521624 0.14847781 -0.124246046 0.019964105 -0.056041658 -0.107136056
-0.17147738 0.050322022 0.06536623 0.2135171 0.04953652 0.2128866 -0.037928298 0.023305269
-0.041586723 -0.056318335 0.00919055 0.13920505 -0.007856428 0.19076456 0.12006114 0.07828108
-0.08707325 -0.06961413 -0.015186009 0.08257511 0.0988743 0.043524187 0.11710488 0.15636428
-0.024468536 0.10689771 0.13660024 0.12795871 0.00938602 0.062287193 -0.08577695 0.07381248
-0.113238916 -0.11245951 -0.08256001 0.041547984 0.027356993 -0.017956771 0.08340255 0.065942906
-0.0048534763 0.010781323 0.17467438 -0.13706419 -0.06854395 0.20809257 -0.040688965 -0.09521738
-0.109894305 -0.09164497 0.06446004 -0.021952463 -0.16803594 0.0044305986 0.019359536 0.048342295
0.15964994 0.0005727658 0.1543416 0.1625588 0.045314953 -0.15592074 -0.0335292 0.0074137812
0.0075442623 0.022848876 -0.08902774 -0.12068734 -0.037456524 0.11789563 0.05733754 0.116499245
0.232479 0.043045953 -0.113393545 0.18678623 0.13838539 0.0802678 -0.11106782 0.02933791
0.084067464 0.061554074 0.009469074 0.07212799 0.031509254 -0.071827404 0.04006627 -0.08875018
00000000: 926c 473e a1e9 0f3d 328e 293d 6d2f c6bd
00000010: a2a6 04be 1d8e edbd ca45 16be 4635 d43d
00000020: 1230 f93d 65e3 b83d f944 343e cb9d 923b
00000030: 2700 b2bd f77d 69bd 7f07 3ebe 6dbf 323e
00000040: b0a8 49be 63e1 a23d c367 353b c7a0 713d
00000050: b3c6 7a3d f9bf 143d eb5a 1fbe a78c b03c
00000060: 5e55 4d3e 08b9 fcbd c723 333e 64c9 183e
00000070: 7797 023e d97c 943d 07cb 3b3d b76c b5bd
00000080: e225 1c3e 8ec6 babd 19d0 5ebd 6b1b 2cbb
00000090: db79 85bd 9cfc 3b3e 8d2c 2e3e 2d90 f7bd
000000a0: b882 6b3d 6172 f53d f65a a43b 83ad f93c
000000b0: e0c0 5d3e 5c1b 213e 8483 8c3d a1ab e7bd
000000c0: 1dbf fb3d acba c93d d75e e7bd d0ea e8bc
000000d0: 4e5e 853b 0e56 51bd b673 edbd 5c3e 333e
000000e0: 5617 adbd 0228 693e 30f0 a8bd 13bd dd3b
000000f0: 451d 5e3e 4bea d0b9 9145 95bc ee11 3b3e
00000100: 5e91 f13d bf2e e93c 1e34 843d f4db 0bbd
00000110: add0 003d c0f9 543d 5bda 4e3d e372 54bd
00000120: c19e da3d ec86 02bd 6012 c83b 6f0f 033e
00000130: 67f1 a93c 3e05 f93d 1727 ee3d 1d01 ebbd
00000140: 4567 8d3d e492 4c3e 59cf 3f3d 5d7a f1bd
00000150: a798 983d 0a55 ba3d 0d2b 3f3e 53c7 ee3d
00000160: 49be 2cbd fdbe 04be bca7 3ab9 8d94 233e
00000170: 3cb4 b6bd 0c92 efbd 9801 f4bb 357b 90bd
00000180: f466 273e 6974 11be 141d c4bc 0b0b 25be
00000190: e64e 953d 2ddc 26bd a1f9 913c 81dc ae3d
000001a0: a78f 18bd e40c b6bd 7690 5a3e a451 353e
000001b0: 0c4c 2e3e 507d 013e bf07 2d3c 7ebe 903d
000001c0: 1279 2a3e 6436 10be 5fe2 a8bd 8518 063e
000001d0: ce0a 18be eb40 2dbe 9618 f7bb 4c7d 5f3d
000001e0: cf63 033e 04cb d1bd 688c 22be b5c9 afbb
000001f0: 8085 af3d 1fb6 b03d ed55 0fbe b565 3abd
00000200: 17c1 763d 0ca3 1abe c8f8 1bbe 0509 763d
00000210: d3c7 0cbe e431 59bd 25f9 6f3d 4329 febd
00000220: 51da b33c 6d5f d23d ea0a 3d3e 75e6 74bd
00000230: c416 403d 188a 983d bfbe 21be f7fa a93d
00000240: 68f2 4fbb 39a4 493e f88d 083e 408f a1bd
00000250: 78ea e1bd bcb1 083e 3a13 e23c a3e3 593e
00000260: 26c7 ca3d 7369 36be 8310 2dbd dcf4 9fbb
00000270: 4cc2 1f3e 53f3 84bd de13 0fbe 7a29 983d
00000280: 4f86 11bd 1323 08be 9eec fa3d 910a 183e
00000290: b674 febd c38b a33c f08b 65bd 266a dbbd
000002a0: c497 2fbe 771e 4e3d bbde 853d 3aa4 5a3e
000002b0: cee6 4a3d f2fe 593e b45a 1bbd b1ea be3c
000002c0: d756 2abd 0eae 66bd f693 163c c58b 0e3e
000002d0: 3fb8 00bc c957 433e 9de2 f53d d551 a03d
000002e0: 7653 b2bd da91 8ebd bdce 78bc 241d a93d
000002f0: 9c7e ca3d 6b46 323d afd4 ef3d f51d 203e
00000300: 3d72 c8bc 30ed da3d efe0 0b3e 9c07 033e
00000310: d2c7 193c db20 7f3d d3ab afbd ff2a 973d
00000320: cee9 e7bd 2c51 e6bd 3915 a9bd 382e 2a3d
00000330: c61b e03c 141a 93bc f5ce aa3d 130d 873d
00000340: e909 9fbb 25a4 303c d7dd 323e 8e5a 0cbe
00000350: c560 8cbd 3816 553e 79a9 26bd 5401 c3bd
00000360: 4410 e1bd 5cb0 bbbd a003 843d a7d5 b3bc
00000370: 9d11 2cbe 8e2e 913b e497 9e3c 9202 463d
00000380: 467b 233e aa25 163a b90b 1e3e d075 263e
00000390: 2c9c 393d b0a9 1fbe ea55 09bd 4eef f23b
000003a0: dc35 f73b 912d bb3c 2d54 b6bd ed2a f7bd
000003b0: 036c 19bd 4473 f13d c5da 6a3d 2897 ee3d
000003c0: fa0e 6e3e f450 303d e03a e8bd e444 3f3e
000003d0: e6b4 0d3e 7263 a43d 8677 e3bd 0e56 f03c
000003e0: 902b ac3d 2020 7c3d 2d24 1b3c d7b7 933d
000003f0: d90f 013d 3f1a 93bd 871c 243d a8c2 b5bd

lstm.weight_hh_l0 f4 [128, 32]
-0.15420884 -0.055750154 0.11227661 0.062365815 -0.11732857 -0.14889145 0.055245057 0.016601406
-0.002762351 0.09768946 -0.047001056 -0.1270829 -0.09023036 -0.022751862 -0.14525253 0.22797629
0.0036281506 -0.111618094 0.17321794 0.038825024 -0.13046783 -0.022619834 0.10095807 0.09532263
0.08395529 0.11379864 -0.13898022 -0.03650424 0.11466931 0.06857772 -0.084663324 -0.078220226
-0.08456185 -0.17860879 0.14551166 0.06387751 0.08911252 0.021480283 0.1827101 -0.0664698
0.19206965 0.009628606 -0.07653276 -0.13311936 0.19399504 0.02979053 -0.04945472 0.03529263
-0.00046127994 -0.020570781 0.10353637 -0.050179683 0.007934098 -0.0930874 -0.15808 -0.09690338
0.018793577 -0.11150869 -0.12109581 0.030978568 -0.12650912 -0.018446973 0.059765436 0.17215626
0.11829883 -0.06362643 0.18843135 -0.14428142 -0.10097285 0.014504063 0.12691912 0.14562337
0.02836509 -0.10119501 -0.066571176 -0.029150516 0.15640886 0.08821886 -0.054438457 -0.01473211
0.050879087 -0.038124245 -0.081181414 -0.14299563 0.06369458 0.06202093 0.06595696 -0.09936353
-0.11853857 0.0707681 0.1784857 -0.05787548 0.12955092 0.1419761 -0.08965393 0.07976079
0.03822086 -0.16416174 0.12787871 -0.010809873 0.042807184 -0.094713025 -0.04741158 0.07546805
-0.015436604 -0.13259238 -0.0952753 0.0069130044 0.0035656483 0.044300165 -0.13531403 0.10903678
-0.11677733 0.20806691 0.16572675 0.12786965 -0.01222461 -0.1382485 -0.16386726 0.12918024
-0.11190897 -0.015056489 0.11053129 -0.06997932 0.059213143 0.063543856 -0.13796495 -0.08679737
0.09241245 -0.14179707 -0.1215172 0.042554095 0.008583343 -0.03347509 -0.08292368 -0.070903055
0.015999813 0.14777555 -0.06980715 -0.0946581 0.026633486 -0.118885964 -0.059185307 0.036221117
-0.07166136 0.13860591 0.14964668 0.02177141 -0.1775369 -0.09813237 -0.1803792 -0.1670743
-0.16814363 -0.1382846 -0.03497232 0.029874688 -0.14066796 0.06470588 0.09465735 0.106347054
-0.111544855 -0.13054329 0.14651054 -0.029803349 0.15296777 0.02649982 -0.09971388 0.15137853
0.17838334 -0.068105735 0.017965794 -0.19086373 0.17925377 -0.17328873 -0.14199841 0.09125378
0.14841507 -0.16382346 -0.051854525 0.10851372 -0.019474292 -0.13180377 -0.15671165 -0.09227759
-0.17298584 0.12155133 0.066701874 0.027229263 0.03096662 -0.095034674 0.06630054 -0.09594062
-0.043307323 0.12709899 0.15888977 -0.065914065 0.11342191 0.13776185 -0.11279077 -0.16735943
0.105380595 0.09155002 0.14950284 -0.04016919 -0.098537326 -0.16673063 -0.07245772 0.017154709
0.06743687 0.18763599 0.054034874 0.007910765 -0.031140665 0.036864404 0.020577358 -0.072189935
0.08777764 -0.024429113 0.014120953 -0.010255325 -0.03393641 0.10937576 -0.025466185 0.05302914
0.18126218 -0.07868614 0.09254256 0.07129249 0.13829394 -0.04523334 0.0053301253 0.010487303
0.17062342 0.09810488 0.07853207 -0.0619687 -0.10011796 0.111757785 -0.16433989 0.09826759
-0.11562397 0.13610627 -0.1062754 -0.18525031 -0.10622068 -0.10082889 0.14148197 0.08687063
-0.14549425 -0.13884853 -0.1301081 -0.11129084 -0.007921367 -0.0708606 -0.005495606 0.05581504
00000000: ece8 1dbe 465a 64bd 48f1 e53d 4c73 7f3d
00000010: f649 f0bd 0077 18be a448 623d acff 873c
00000020: 8f08 35bb 6911 c83d 2e84 40bd 0522 02be
00000030: b2ca b8bd 1d62 babc 14bd 14be 9e72 693e
00000040: 44c6 6d3b 0798 e4bd 0b60 313e fd06 1f3d
00000050: 5c99 05be 3b4d b9bc 1bc3 ce3d 8338 c33d
00000060: c0f0 ab3d 430f e93d d550 0ebe 7885 15bd
00000070: bed7 ea3d 7a72 8c3d f763 adbd ed31 a0bd
00000080: c32e adbd 39e5 36be 0201 153e 36d2 823d
00000090: a080 b63d 6bf7 af3c 5b18 3b3e 5221 88bd
000000a0: e8ad 443e 4dc1 1d3c 35bd 9cbd 7150 08be
000000b0: a3a6 463e 450b f43c 0891 4abd 018f 103d
000000c0: f2d7 f1b9 0e84 a8bc e00a d43d 3689 4dbd
000000d0: 05fe 013c 9ba4 bebd b9df 21be 4775 c6bd
000000e0: fdf4 993c ab5e e4bd 1401 f8bd c4c6 fd3c
000000f0: 9b8b 01be 1b1e 97bc 9acc 743d bb49 303e
00000100: a846 f23d 934e 82bd 26f4 403e 82be 13be
00000110: dbca cebd 73a2 6d3c 16f7 013e 4b1e 153e
00000120: e85d e83c 543f cfbd 7856 88bd 10cd eebc
00000130: a529 203e 17ac b43d dcfa 5ebd f35e 71bc
00000140: 9766 503d 2b28 1cbd 7142 a6bd 726d 12be
00000150: 4e72 823d a909 7e3d 7114 873d 1b7f cbbd
00000160: 5ac4 f2bd deee 903d f5c4 363e d70e 6dbd
00000170: ffa8 043e 2f62 113e 7b9c b7bd a059 a33d
00000180: 7a8d 1c3d 041a 28be a3f2 023e e51b 31bc
00000190: 9656 2f3d e7f8 c1bd a532 42bd fe8e 9a3d
000001a0: cfe9 7cbc 4cc6 07be b21f c3bd 7c86 e23b
000001b0: a7ad 693b 1774 353d c38f 0abe ad4e df3d
000001c0: f428 efbd 7e0f 553e 46b4 293e 43f0 023e
000001d0: bb49 48bc 0491 0dbe d2cc 27be d347 043e
000001e0: 8830 e5bd 7eaf 76bc 3b5e e23d 5151 8fbd
000001f0: 7b89 723d 4823 823d af46 0dbe d2c2 b1bd
00000200: bd42 bd3d 4033 11be 02de f8bd 344d 2e3d
00000210: 26a1 0c3c 2d1d 09bd e4d3 a9bd 9f35 91bd
00000220: 0a12 833c 7952 173e 0df7 8ebd 1bdc c1bd
00000230: 782e da3c 7c7a f3bd 4b6c 72bd 985c 143d
00000240: 31c3 92bd b5ee 0d3e fb3c 193e f559 b23c
00000250: 3ccc 35be a0f9 c8bd 53b5 38be 8615 2bbe
00000260: d82d 2cbe 7a9a 0dbe 233f 0fbd c3bb f43c
00000270: 430b 10be 8484 843d b6db c13d 7ccc d93d
00000280: a171 e4bd 24ad 05be dc06 163e 2726 f4bc
00000290: 95a3 1c3e 2716 d93c ca36 ccbd f902 1b3e
000002a0: 1faa 363e 057b 8bbd 002d 933c c871 43be
000002b0: 4d8e 373e 9a72 31be 0868 11be 43e3 ba3d
000002c0: 1ffa 173e 56c1 27be 6965 54bd 713c de3d
000002d0: 8d88 9fbc 91f7 06be 0579 20be 08fc bcbd
000002e0: 3323 31be e7ef f83d fe9a 883d e70f df3c
000002f0: b6ad fd3c 8aa1 c2bd 94c8 873d 847c c4bd
00000300: 0563 31bd 3d26 023e 00b4 223e f4fd 86bd
00000310: bf49 e83d 7111 0d3e d9fe e6bd 4560 2bbe
00000320: c8d1 d73d 947e bb3d 4617 193e 7388 24bd
00000330: f0cd c9bd 6fbb 2abe b764 94bd 0888 8c3c
00000340: 571c 8a3d a623 403e ac53 5d3d 279c 013c
00000350: b51a ffbc 21ff 163d d991 a83c 51d8 93bd
00000360: c3c4 b33d 901f c8bc 925b 673c f305 28bc
00000370: e800 0bbd 6600 e03d 769e d0bc 1535 593d
00000380: cb9c 393e 3326 a1bd f486 bd3d cc01 923d
00000390: ed9c 0d3e 9846 39bd 55a8 ae3b f0d2 2b3c
000003a0: e8b7 2e3e 36eb c83d 6cd5 a03d e4d2 7dbd
000003b0: a50a cdbd 44e1 e43d b748 28be 8540 c93d
000003c0: 43cc ecbd 715f 0b3e eba6 d9bd 42b2 3dbe
000003d0: 3a8a d9bd 617f cebd a6e0 103e 3be9 b13d
000003e0: 72fc 14be 4f2e 0ebe 0f3b 05be 74ec e3bd
000003f0: 9fc8 01bc 5d1f 91bd 7c14 b4bb 509e 643d

lstm.bias_ih_l0 f4 [128]
0.005211735 -0.10423029 0.011265661 0.18915303 -0.07994146 -0.051898845 -0.037367743 0.072966
-0.099139534 0.021627296 -0.015511515 -0.1175845 -0.039919302 0.026144817 0.07633954 0.10498944
-0.016981117 0.068002924 -0.12139889 0.101641364 0.04866577 -0.036952745 0.16373856 -0.052638136
0.06827053 -0.04885803 0.13491265 0.16737707 -0.13947284 -0.032113954 0.0048850714 0.104963444
-0.0012060729 -0.04245818 0.07119012 0.09320308 0.16816525 -0.028473899 0.0060720616 0.12740558
-0.0039916174 0.058152217 0.04713983 0.03266324 -0.13801941 -0.07464801 0.19922578 0.15726344
0.12638247 -0.008553922 -0.049380843 0.13440667 -0.022710763 -0.018176632 -0.1132024 0.14667994
-0.041617908 0.11944581 0.08596842 0.1991122 0.11638455 0.20673965 0.12701295 0.008905064
-0.1307134 -0.16523863 0.09301822 -0.012099717 -0.06888844 0.06424337 0.19012661 0.038861074
0.09097497 -0.055844355 -0.12599766 -0.028454063 -0.06671304 0.17571414 0.07055136 0.13320434
0.1627364 0.032687597 0.1326013 -0.03002282 -0.07417023 0.022841854 0.10653705 -0.13946912
-0.06180711 0.032950953 0.1701095 0.07711366 -0.1840339 -0.18650164 -0.06878256 -0.09718098
0.011209084 -0.107454315 0.1927247 0.13827264 -0.079614796 0.11429971 0.08239534 -0.043772437
0.09990401 0.043572318 0.035541393 0.06858562 0.039415933 -0.09118124 0.112016425 0.110972635
0.13840581 0.046824373 -0.07447365 -0.16542867 0.1125117 0.22732145 0.07515559 -0.06425165
-0.09776655 0.057520855 0.10149988 -0.0875599 -0.11459608 0.10925373 0.028435323 -0.02913373
00000000: 34c7 aa3b b176 d5bd 9b93 383c 55b1 413e
00000010: 59b8 a3bd e293 54bd eb0e 19bd 336f 953d
00000020: ab09 cbbd ba2b b13c 0224 7ebc 24d0 f0bd
00000030: 6c82 23bd a82d d63c e857 9c3d b404 d73d
00000040: fc1b 8bbc 1e45 8b3d fb9f f8bd 5929 d03d
00000050: c255 473d c35b 17bd 15ab 273e 169b 57bd
00000060: 6bd1 8b3d 5c1f 48bd 8b26 0a3e e564 2b3e
00000070: f8d1 0ebe ec89 03bd f312 a03b 13f7 d63d
00000080: 1715 9eba a1e8 2dbd 20cc 913d 42e1 be3d
00000090: 8333 2c3e 1842 e9bc 25f8 c63b 9c76 023e
000000a0: 1dcc 82bb 0531 6e3d b215 413d e4c9 053d
000000b0: f654 0dbe 0ee1 98bd d801 4c3e ab09 213e
000000c0: 686a 013e c025 0cbc 9143 4abd e7a1 093e
000000d0: ec0b babc 29e7 94bc a9d6 e7bd 4433 163e
000000e0: 8a77 2abd 01a0 f43d 3610 b03d 12e4 4b3e
000000f0: 065b ee3d 8fb3 533e af0f 023e 8ce6 113c
00000100: bcd9 05be 5134 29be 5680 be3d e43d 46bc
00000110: 6215 8dbd 0792 833d 8db0 423e ca2c 1f3d
00000120: 1651 ba3d 0dbd 64bd 8805 01be 7f18 e9bc
00000130: d9a0 88bd 68ee 333e 3b7d 903d b866 083e
00000140: 5fa4 263e 6ee3 053d a3c8 073e 6bf2 f5bc
00000150: 90e6 97bd d71e bb3c 1930 da3d fed0 0ebe
00000160: 7429 7dbd 94f7 063d 2f31 2e3e c4ed 9d3d
00000170: 6273 3cbe 49fa 3ebe dfdd 8cbd d206 c7bd
00000180: 4ea6 373c 0211 dcbd a059 453e 5897 0d3e
00000190: 150d a3bd f715 ea3d e3be a83d ba4a 33bd
000001a0: 799a cc3d e378 323d da93 113d 9e76 8c3d
000001b0: 9a72 213d 3bbd babd de68 e53d 9f45 e33d
000001c0: 41ba 0d3e eaca 3f3d a485 98bd 2266 29be
000001d0: 896c e63d f4c6 683e 2deb 993d 5e96 83bd
000001e0: d439 c8bd fd9a 6b3d 2bdf cf3d 9b52 b3bd
000001f0: 59b1 eabd 6bc0 df3d 32f1 e83c dca9 eebc

lstm.bias_hh_l0 f4 [128]
-0.02830361 -0.13220519 -0.15355879 0.13288942 0.07211097 0.15357605 0.1737057 -0.07711753
0.14139275 -0.14086968 0.029360747 -0.028603358 -0.09659374 0.045384858 -0.10901276 -0.029844277
-0.17987339 0.009794304 0.039157357 -0.024036732 -0.13165951 -0.053073842 -0.11528098 -0.017020646
-0.07960532 0.0635766 0.0333388 0.11469224 0.0497745 0.1891444 -0.130263 -0.12914309
-0.01554388 -0.03542783 -0.067315914 -0.022733869 0.10262705 -0.13484648 0.18096842 0.012759205
0.21565092 0.066624865 0.1969475 0.17851737 -0.015927881 0.11767293 0.063603796 -0.033977475
0.14674014 -0.11604493 0.114830926 0.05660808 0.17686209 -0.108830154 0.019350104 0.11111256
0.0614672 0.14992553 0.0008548835 -0.1223021 0.08667545 0.14815742 -0.13746493 -0.16319126
0.19246064 -0.05038587 0.03300035 0.15640399 -0.031956602 -0.11221754 0.069851786 0.10758805
-0.17775227 -0.028438563 -0.057013836 0.012233748 0.16232444 0.024006523 -0.009423297 0.14213672
0.17960013 0.009432732 0.1344461 0.0021966589 -0.09070934 -0.08283158 0.10042681 0.059875663
-0.027745195 -0.120651394 0.099687256 -0.11752517 -0.031243348 -0.10073742 -0.13601291 -0.050412517
-0.03253349 0.08493611 0.18113068 0.06534442 0.17746367 -0.13135353 0.13370323 0.13321757
0.17747661 0.091979556 0.1440079 -0.14240797 -0.039031025 0.1618255 0.018461205 -0.12741312
0.17144242 -0.13912478 0.18860798 0.042370137 0.12429108 -0.090073995 -0.051162302 0.004318625
-0.0036192208 -0.11227967 0.05100464 0.1453669 0.17080119 0.06816878 -0.02465271 -0.047120742
00000000: f9dc e7bc cc60 07be 843e 1dbe 2a14 083e
00000010: ebae 933d 0a43 1d3e e8df 313e ccef 9dbd
00000020: 43c9 103e 2440 10be f385 f03c 9751 eabc
00000030: f0d2 c5bd 79e5 393d 1542 dfbd fc7b f4bc
00000040: bb30 38be 4a78 203c 7763 203d aee8 c4bc
00000050: c0d1 06be f563 59bd 6f18 ecbd e26e 8bbc
00000060: 1d08 a3bd 7334 823d 448e 083d c4e3 ea3d
00000070: 59e0 4b3d 12af 413e aa63 05be 163e 04be
00000080: c2ab 7ebc c61c 11bd eddc 89bd 613c babc
00000090: 212e d23d 3215 0abe c94f 393e fc0b 513c
000000a0: 98d3 5c3e 9e72 883d 9bac 493e 42cd 363e
000000b0: 307b 82bc 81fe f03d b542 823d f72b 0bbd
000000c0: 0c43 163e f7a8 edbd 7a2c eb3d e0dd 673d
000000d0: 561b 353e 58e2 debd 1c84 9e3c fb8e e33d
000000e0: 08c5 7b3d 1486 193e 431a 603a 8679 fabd
000000f0: e682 b13d 94b6 173e 9bc3 0cbe 9c1b 27be
00000100: 6714 453e 6a61 4ebd 602b 073d 5e28 203e
00000110: ede4 02bd 4fd2 e5bd 740e 8f3d 2057 dc3d
00000120: b104 36be fdf7 e8bc 5787 69bd 0f70 483c
00000130: 6138 263e 54a9 c43c 2c64 1abc 4a8c 113e
00000140: 19e9 373e bf8b 1a3c 3dac 093e d2f5 0f3b
00000150: d2c5 b9bd 9aa3 a9bd 92ac cd3d 2f40 753d
00000160: e449 e3bc 1418 f7bd d528 cc3d 09b1 f0bd
00000170: 0df2 ffbc 6c4f cebd f846 0bbe 5b7d 4ebd
00000180: d641 05bd fcf2 ad3d 527a 393e 4cd3 853d
00000190: 09b9 353e 8a81 06be 80e9 083e 306a 083e
000001a0: 6ebc 353e c75f bc3d cf76 133e 65d3 11be
000001b0: ffde 1fbd 95b5 253e f43b 973c 9678 02be
000001c0: 9a8e 2f3e ba76 0ebe 7322 413e 4f8c 2d3d
000001d0: 528c fe3d b778 b8bd 908f 51bd 4183 8d3b
000001e0: 7330 6dbb e2f2 e5bd 3eea 503d 10db 143e
000001f0: 82e6 2e3e 139c 8b3d 7bf4 c9bc ae01 41bd

lstm.weight_ih_l1 f4 [128, 32]
-0.14985648 -0.026475012 0.094001986 0.09902851 0.153614 -0.12491084 0.037129335 -0.14849997
0.1073239 -0.14522578 0.13752072 -0.13309625 -0.10409712 -0.021352453 -0.14274175 0.16912492
-0.04478939 0.08493516 -0.06632823 0.0462816 -0.0026337916 -0.1013317 0.09607429 0.020088473
0.049598113 0.068639964 -0.12252608 0.071444914 -0.15544614 -0.054336604 0.13662496 -0.02202356
0.13097128 0.071694285 0.086394 0.17096482 -0.17348854 0.033480905 0.07021253 -0.124362186
0.033003107 0.17606811 0.10734737 0.058081586 0.0049220864 -0.044827867 0.0355285 0.094742544
-0.13339254 -0.14770876 0.15970026 -0.106549524 0.12065511 0.0379659 0.030110124 -0.1425809
0.02865778 0.039995134 0.12005116 -0.20478351 0.095619515 -0.03832221 0.09727056 0.16782284
-0.11499237 -0.061613806 0.03376069 0.017455822 -0.16239536 0.11624311 0.14406106 -0.1336045
0.16015661 0.05767515 0.0042625736 -0.06867834 -0.03463965 0.083842814 -0.110377155 0.02115634
-0.14410643 0.078459494 0.13351215 0.078245625 -0.06326714 0.12173677 -0.132568 0.11242067
0.11321528 0.04617161 -0.11221723 0.105567 0.13800591 0.014590839 -0.1009384 0.13947123
0.17045258 -0.14360972 0.17313164 -0.14190304 0.056399297 -0.023398498 0.15828717 0.13126577
0.073178925 -0.06568954 0.10899586 -0.04210418 -0.009791696 0.06118942 0.02915205 -0.07682215
-0.012677732 0.06998207 0.008968712 -0.1316272 -0.13684104 0.10207543 0.09674185 -0.07214214
-0.05306495 0.1492897 0.12940323 -0.122286916 -0.15224575 0.07055236 0.107954085 0.12760994
0.14412938 -0.0071212826 -0.15088911 0.13387814 0.1550299 -0.19756827 0.07644884 0.021223547
-0.13307348 0.0066401004 0.14473122 -0.14126603 0.1995571 -0.03031902 0.1329807 0.18582274
0.11344358 -0.08705816 -0.049010757 -0.032018125 0.011280167 0.14080346 0.14794958 0.053587258
-0.048494298 0.0030534146 0.0361395 0.10132697 -0.08453007 0.100246705 -0.080997564 -0.047396157
0.09362563 -0.025556834 -0.064090565 -0.11313661 -0.1308009 -0.19015536 -0.050710488 -0.08861053
0.041873556 0.06773531 0.19117442 -0.1247786 -0.050990596 0.06529326 0.1433716 0.17485036
-0.00886671 -0.08573696 0.03494233 -0.026315315 0.0806413 -0.041070078 -0.20704174 0.058247276
-0.033303775 -0.028471136 -0.031659752 0.08123964 -0.15718716 -0.03859903 0.1586444 0.10529856
-0.034616716 -0.111012615 -0.15299435 0.14856093 0.04859182 -0.008469518 -0.13649747 -0.018891724
0.09534892 0.12534077 -0.10368933 -0.026071034 -0.06503903 0.0026460271 0.11356544 0.025143376
-0.14011934 -0.003948775 -0.07064612 -0.17123592 0.005289452 -0.1567067 0.12620759 0.13198276
-0.11123988 0.14494705 -0.13534753 0.022539655 0.10189174 -0.0018811912 -0.11764834 -0.0109786065
0.06575108 0.04577749 0.17958277 0.15616456 -0.08707282 0.08072513 -0.13934456 0.1344237
-0.11589696 -0.01390007 0.10169973 0.020264009 -0.009512958 0.05521529 0.0903593 0.08207439
-0.17958206 -0.055937875 0.05142921 -0.18277244 -0.17698626 0.06494018 -0.12146932 -0.1075521
-0.1348784 -0.14051299 -0.013050224 -0.2192414 0.13955991 0.064324714 -0.22878195 -0.0088338135
00000000: fa73 19be 20e2 d8bc 1d84 c03d 76cf ca3d
00000010: fd4c 1d3e 41d1 ffbd ee14 183d 6010 18be
00000020: a2cc db3d 11b6 14be 3bd2 0c3e 624a 08be
00000030: df30 d5bd 57eb aebc e52a 12be 152f 2d3e
00000040: 1475 37bd 7cf2 ad3d 18d7 87bd c691 3d3d
00000050: b19b 2cbb ff86 cfbd 99c2 c43d 9590 a43c
00000060: 6427 4b3d 1c93 8c3d f4ee fabd b651 923d
00000070: 462d 1fbe 0f90 5ebd 6ae7 0b3e c16a b4bc
00000080: 561d 063e 74d4 923d 56ef b03d 6711 2f3e
00000090: fba6 31be 4623 093d 96cb 8f3d 9ab1 febd
000000a0: 442e 073d 334b 343e f0d8 db3d f5e6 6d3d
000000b0: 7449 a13b 6d9d 37bd 5586 113d 6108 c23d
000000c0: 0e98 08be f740 17be 7788 233e a336 dabd
000000d0: 071a f73d 2282 1b3d 82a9 f63c ba00 12be
000000e0: b8c3 ea3c f0d1 233d 62dd f53d c5b2 51be
000000f0: 2ad4 c33d c0f7 1cbd ca35 c73d c0d9 2b3e
00000100: 1f81 ebbd c25e 7cbd a648 0a3d 83ff 8e3c
00000110: f84a 26be de10 ee3d be84 133e 9ecf 08be
00000120: 1800 243e c73c 6c3d 0fad 8b3b 3ba7 8cbd
00000130: 4ee2 0dbd c8b5 ab3d 6b0d e2bd 1050 ad3c
00000140: a390 13be 5faf a03d 69b7 083e 3e3f a03d
00000150: 3492 81bd 2151 f93d e8bf 07be cf3c e63d
00000160: 6add e73d 711e 3d3d 26d2 e5bd 8333 d83d
00000170: 6c51 0d3e 6a0e 6f3c cbb8 cebd 8cd1 0e3e
00000180: 1f8b 2e3e 6d0e 13be 6c49 313e 084f 11be
00000190: f302 673d 35ae bfbc 0816 223e 896a 063e
000001a0: d5de 953d 3d88 86bd 3939 df3d 6f75 2cbd
000001b0: 5a6d 20bc c2a1 7a3d 48d0 ee3c ee54 9dbd
000001c0: 43b6 4fbc c252 8f3d 81f1 123c 48c9 06be
000001d0: 0f20 0cbe ec0c d13d 9720 c63d 42bf 93bd
000001e0: a25a 59bd 66df 183e 4882 043e 9071 fabd
000001f0: 4fe6 1bbe c17d 903d 0817 dd3d 2eac 023e
00000200: a796 133e a659 e9bb ad82 1abe 5a17 093e
00000210: 28c0 1e3e 564f 4abe 3691 9c3d 01dd ad3c
00000220: 6a44 08be 3395 d93b 6c34 143e 0ba8 10be
00000230: b258 4c3e 985f f8bc 182c 083e 5148 3e3e
00000240: 1c55 e83d 8c4b b2bd 81bf 48bd 7025 03bd
00000250: 73d0 383c c82e 103e 1880 173e 507e 5b3d
00000260: f5a1 46bd cc1b 483b 0307 143d 8484 cf3d
00000270: 1a1e adbd 254e cd3d 0de2 a5bd 7922 42bd
00000280: cbbe bf3d 915c d1bc ea41 83bd 2bb4 e7bd
00000290: acf0 05be 16b8 42be cdb5 4fbd 7079 b5bd
000002a0: 9b83 2b3d cfb8 8a3d 3ac3 433e ec8b ffbd
000002b0: 84db 50bd 79b8 853d 01d0 123e f90b 333e
000002c0: ad45 11bc dc96 afbd b01f 0f3d 3793 d7bc
000002d0: 4427 a53d 1939 28bd c002 54be b294 6e3d
000002e0: 8a69 08bd 4d3c e9bc a8ad 01bd f860 a63d
000002f0: acf5 20be 041a 1ebd ad73 223e c5a6 d73d
00000300: 42ca 0dbd 955a e3bd 8daa 1cbe 5b20 183e
00000310: 3708 473d bcc3 0abc fec5 0bbe d1c2 9abc
00000320: 4b46 c33d 5559 003e 125b d4bd ec92 d5bc
00000330: 2f33 85bd f868 2d3b ff94 e83d 7bf9 cd3c
00000340: 727b 0fbe ba64 81bb eaae 90bd 7858 2fbe
00000350: 2453 ad3b b977 20be 903c 013e 7d26 073e
00000360: bcd1 e3bd 006d 143e 8b98 0abe 15a5 b83c
00000370: 9eac d03d 4d92 f6ba 9df1 f0bd 9ddf 33bc
00000380: 81a8 863d 2d81 3b3d 8ce4 373e 9ae9 1f3e
00000390: 3c53 b2bd 3853 a53d 57b0 0ebe 5ea6 093e
000003a0: 635b edbd 1fbd 63bc f347 d03d b500 a63c
000003b0: 3ddc 1bbc 6e29 623d 4c0e b93d 9e16 a83d
000003c0: 5ce4 37be 1d1f 65bd 6fa7 523d b328 3bbe
000003d0: e33b 35be 5bff 843d e8c4 f8bd 4744 dcbd
000003e0: 901d 0abe a3e2 0fbe 9bd0 55bc d180 60be
000003f0: cbe8 0e3e adbc 833d d145 6abe b3bb 10bc

lstm.weight_hh_l1 f4 [128, 32]
-0.1650895 0.11196427 0.04553038 -0.15392032 -0.005346852 -0.14238903 0.067700855 0.12211635
0.087055415 0.010860455 -0.036842108 0.11317162 -0.043727454 0.037853267 0.028293397 0.15257013
0.014125384 -0.14705683 0.056048013 -0.087370254 0.11900444 0.05897088 0.17804845 0.0036034482
0.10240336 0.030506575 -0.15497541 -0.020492774 -0.04489376 -0.1724116 -0.073933534 -0.12895367
0.060309406 -0.05453857 -0.1183891 0.083972424 -0.11786216 -0.14503296 -0.015524499 0.18530968
0.030815413 0.0028764517 0.12130377 -0.17599842 -0.11194806 0.099357866 0.17871876 0.07055573
-0.023502659 0.08889149 0.101148345 -0.1287449 0.0681508 0.0061193816 -0.12531671 -0.02257322
0.020471103 -0.10344432 0.05513269 -0.14248917 -0.06537161 0.14550996 0.021924982 0.07324493
-0.061731596 -0.03134497 -0.019472249 -0.098576844 0.0963332 0.10890238 -0.09602068 -0.11053541
0.17723049 -0.14945757 0.11532524 0.033980962 -0.13983126 0.064332426 0.043551743 0.098015025
-0.10508727 0.095855445 -0.16937888 -0.15069939 -0.086819746 -0.11513572 0.11935868 -0.033280674
-0.0012717934 0.022626804 -0.056092236 -0.008224839 0.1756545 -0.059881926 0.19948567 -0.01328275
-0.049412195 0.17757775 0.012284541 -0.09123293 0.15586182 0.0122387 -0.008053945 -0.10375701
0.058729324 0.08175293 0.125563 0.062538825 -0.12557535 -0.063836046 -0.0489486 0.18299063
0.043916553 -0.05934919 0.14461751 -0.08105118 -0.14998011 -0.12674145 0.07171439 0.12548216
0.03849814 0.1524449 -0.10131868 0.089338616 0.045118745 0.08631964 -0.07931829 0.19029276
-0.049696162 -0.09518982 0.09415639 -0.092983566 -0.15597124 -0.06256909 0.04185353 0.021101508
-0.034491424 0.07123438 -0.096815616 -0.055893473 0.112228476 0.01084801 -0.09013283 0.17202309
-0.048970584 0.1169243 -0.18547942 -0.048119932 -0.019288246 -0.12582374 0.08747647 0.048041474
0.002746234 -0.0138955 -0.19510104 -0.04049436 0.15797749 -0.09117449 0.04257561 0.009757766
-0.0042926506 -0.002038082 0.12584925 0.10260588 -0.1361752 -0.15201545 0.120187975 0.16561443
0.08546133 0.123558044 0.1291357 -0.0960681 0.0363464 -0.12242592 0.13189735 0.14549796
0.14448518 0.0808003 0.12428308 -0.14223975 -0.12030053 0.011200334 -0.023687689 -0.076286964
0.16724916 -0.14546299 -0.035797283 0.0858103 0.18764228 0.12003518 -0.0028599023 0.092061006
0.12059122 0.0665326 0.114069164 -0.19339907 -0.16894372 -0.13732003 0.030842744 -0.09780037
0.14381847 0.10323396 0.058450464 0.07272449 0.1609324 -0.0956848 -0.10620466 0.14955026
0.115807526 -0.05353849 -0.172932 -0.003368142 -0.045165133 0.029334018 0.105084 -0.17258482
0.04461078 -0.14199 0.0319323 0.1686898 0.06945033 -0.13594826 0.15845609 0.09684964
-0.060436983 0.11559026 0.085257165 -0.031952273 0.05288636 0.09871047 0.10091634 -0.099047825
-0.13154496 -0.18787676 -0.15283208 -0.08993629 -0.0264757 0.017778177 0.085940376 0.059883
-0.02295563 0.07958513 -0.1906049 0.14596762 -0.1153474 0.13223308 -0.1410951 -0.04000418
-0.005801853 -0.05114739 -0.19738519 -0.09324761 0.16250093 -0.039767385 -0.0264228 -0.090377815
00000000: 390d 29be 864d e53d 107e 3a3d 4a9d 1dbe
00000010: a534 afbb 6ece 11be bfa6 8a3d 2318 fa3d
00000020: 1c4a b23d 0df0 313c c0e7 16bd 86c6 e73d
00000030: 8f1b 33bd 070c 1b3d 8ec7 e73c 583b 1c3e
00000040: 286e 673c 1196 16be 9a92 653d 2def b2bd
00000050: 9ab8 f33d 738b 713d 5552 363e d427 6c3b
00000060: dab8 d13d ede8 f93c e0b1 1ebe 76e0 a7bc
00000070: 85e2 37bd ab8c 30be 776a 97bd 6e0c 04be
00000080: ff06 773d d663 5fbd fc75 f2bd bcf9 ab3d
00000090: b761 f1bd 8583 14be 785a 7ebc d2c1 3d3e
000000a0: 9b70 fc3c da82 3c3b 1c6e f83d ee38 34be
000000b0: 0645 e5bd 237c cb3d 0d02 373e 867f 903d
000000c0: a688 c0bc be0c b63d dd26 cf3d b4d5 03be
000000d0: a692 8b3d 1885 c83b 0653 00be 79eb b8bc
000000e0: 04b3 a73c 9eda d3bd d1d2 613d aee8 11be
000000f0: 8de1 85bd 9000 153e 059c b33c 7001 963d
00000100: 45da 7cbd 9563 00bd 4484 9fbc a8e2 c9bd
00000110: 574a c53d 3608 df3d 7ea6 c4bd 6460 e2bd
00000120: e97b 353e 680b 19be a42f ec3d 9f2f 0b3d
00000130: ed2f 0fbe b8c0 833d 5063 323d 1abc c83d
00000140: ff37 d7bd dc4f c43d a871 2dbe f150 1abe
00000150: 8dce b1bd 47cc ebbd 5372 f43d 5151 08bd
00000160: 4eb2 a6ba d95b b93c f9c0 65bd 7ac1 06bc
00000170: c6de 333e c046 75bd f945 4c3e e49f 59bc
00000180: 7164 4abd f1d6 353e 1945 493c 55d8 babd
00000190: 3e9a 1f3e d484 483c b2f4 03bc 8e7e d4bd
000001a0: 298e 703d 156e a73d 9693 003e 5b14 803d
000001b0: d396 00be 79bc 82bd 547e 48bd e561 3b3e
000001c0: d8e1 333d 2318 73bd 9d16 143e 29fe a5bd
000001d0: 6394 19be 83c8 01be fede 923d 657e 003e
000001e0: 3ab0 1d3d 841a 1c3e 2b80 cfbd 2af7 b63d
000001f0: 6fce 383d 5ac8 b03d a171 a2bd 1bdc 423e
00000200: 348e 4bbd e1f2 c2bd 11d5 c03d 2b6e bebd
00000210: edb6 1fbe 3924 80bd 9b6e 2b3d 12dd ac3c
00000220: e146 0dbd 55e3 913d 4447 c6bd 8ef0 64bd
00000230: 0bd8 e53d dabb 313c 9097 b8bd d226 303e
00000240: 6195 48bd 0276 ef3d 51ee 3dbe 6819 45bd
00000250: 6202 9ebc f0d7 00be dd26 b33d 23c7 443d
00000260: 29fa 333b f4a9 63bc 91c8 47be 6add 25bd
00000270: dac4 213e b1b9 babd c363 2e3d 09df 1f3c
00000280: 5da9 8cbb 5891 05bb a0de 003e 0823 d23d
00000290: 8371 0bbe f0a9 1bbe 1d25 f63d d496 293e
000002a0: 5a06 af3d 000c fd3d 263c 043e 5abf c4bd
000002b0: f6df 143d 71ba fabd 1910 073e 6bfd 143e
000002c0: ecf3 133e a17a a53d 2188 fe3d 4ca7 11be
000002d0: 2060 f6bd 9b81 373c af0c c2bc 573c 9cbd
000002e0: 5d43 2b3e 40f4 14be 2ca0 12bd 50bd af3d
000002f0: 4c25 403e 01d5 f53d 336d 3bbb 7b8a bc3d
00000300: 88f8 f63d 3e42 883d 189d e93d 680a 46be
00000310: 95ff 2cbe 9f9d 0cbe eca9 fc3c 8f4b c8bd
00000320: 2645 133e 546c d33d c169 6f3d 94f0 943d
00000330: 77cb 243e 64f6 c3bd d481 d9bd b423 193e
00000340: 7f2c ed3d 2d4b 5bbd 1615 31be 0cbc 5cbb
00000350: 13ff 38bd e54d f03c 4836 d73d 13ba 30be
00000360: cbb9 363d d465 11be 72cb 023d 05bd 2c3e
00000370: fa3b 8e3d 0536 0bbe 5042 223e 1b59 c63d
00000380: c58c 77bd 96ba ec3d 4f9b ae3d 63e0 02bd
00000390: 5e9f 583d b728 ca3d 3aad ce3d 96d9 cabd
000003a0: b9b3 06be c462 40be 0380 1cbe 8530 b8bd
000003b0: 91e3 d8bc 8aa3 913c 8201 b03d e047 753d
000003c0: 720d bcbc 87fd a23d ee2d 43be 8978 153e
000003d0: 423b ecbd 1c68 073e 3c7b 10be 6cdb 23bd
000003e0: 781d bebb ed7f 51bd 581f 4abe 9af8 bebd
000003f0: a566 263e 20e3 22bd a174 d8bc 0118 b9bd

lstm.bias_ih_l1 f4 [128]
-0.15731412 0.16980289 0.06589741 0.10890711 0.05254595 -0.035607986 0.029344173 -0.088736095
0.0282182 -0.10724291 0.15416613 -0.043067884 -0.0010638963 0.1358067 0.108545095 0.030781921
-0.025447695 0.0065180534 -0.047866367 -0.077163614 -0.12590504 0.011202526 0.07515911 -0.15219773
-0.019165015 0.034980472 0.20155239 -0.12604564 -0.0035665175 0.15984796 -0.07998685 0.15153444
-0.11999563 -0.04842104 -0.01674815 -0.027467703 0.12607276 0.041897457 0.06857415 -0.071957216
0.122840084 -0.04587888 -0.017162146 -0.13481025 -0.10650854 0.17638758 0.05107126 -0.079519846
-0.07511958 -0.046498835 -0.083063304 0.14885356 -0.13997848 -0.07779248 -0.14372201 -0.029173587
-0.11892261 0.048884366 0.05413747 0.200751 0.12374717 0.0671231 -0.009862733 0.019018594
0.03423256 -0.14087498 -0.16804083 0.018656548 0.14515433 0.16425095 -0.16435575 0.15810402
-0.07429934 -0.08398543 -0.17150933 -0.116623364 0.06436258 -0.09481569 0.13928172 0.14900033
-0.17673497 0.12782487 -0.13162433 -0.11343813 -0.15478851 0.10273419 0.11946233 -0.19109626
0.11087344 -0.056215636 -0.15065226 0.07908094 0.16256356 0.022539902 0.042141143 -0.04389617
0.10811698 -0.065688044 0.078380585 -0.09039291 -0.13431145 0.037164025 0.039131675 0.17132439
-0.11429251 -0.09070123 0.043704845 0.049627293 -0.026291626 0.12813397 0.14400147 -0.09115935
-0.05078584 0.11665648 -0.013352581 0.18603335 0.020519013 0.06312194 0.021480452 -0.15072474
0.081110224 -0.026518155 0.19627786 0.19678974 -0.13180299 -0.1464388 0.09133037 0.18593168
00000000: f416 21be cfe0 2d3e 39f5 863d b10a df3d
00000010: 6c3a 573d aed9 11bd 3163 f03c 45bb b5bd
00000020: db29 e73c 2ca2 dbbd badd 1d3e f367 30bd
00000030: 7072 8bba e910 0b3e e44c de3d 5e2a fc3c
00000040: af77 d0bc 6595 d53b 860f 44bd f507 9ebd
00000050: 40ed 00be cd8a 373c 05ed 993d b9d9 1bbe
00000060: f3ff 9cbc af47 0f3d c063 4e3e 1c12 01be
00000070: 3cbc 69bb 2faf 233e 25d0 a3bd d82b 1b3e
00000080: 45c0 f5bd 2455 46bd 6b33 89bc f303 e1bc
00000090: 3819 013e ab9c 2b3d 9b70 8c3d 4e5e 93bd
000000a0: 9593 fb3d 7eeb 3bbd a197 8cbc b30b 0abe
000000b0: 2621 dabd f29e 343e 1930 513d 4ddb a2bd
000000c0: 4bd8 99bd 9075 3ebd 181d aabd 116d 183e
000000d0: 8556 0fbe aa51 9fbd dd2b 13be 72fd eebc
000000e0: b38d f3bd f93a 483d 40bf 5d3d ac91 4d3e
000000f0: 286f fd3d d677 893d 4d97 21bc e2cc 9b3c
00000100: 7137 0c3d 8841 10be e512 2cbe 9ed5 983c
00000110: 56a3 143e 6731 283e e04c 28be 05e6 213e
00000120: 412a 98bd 8e00 acbd 24a0 2fbe 3bd8 eebd
00000130: 87d0 833d ba2e c2bd de9f 0e3e 8b93 183e
00000140: 03fa 34be 86e4 023e 87c8 06be 4052 e8bd
00000150: e180 1ebe 4e66 d23d aba8 f43d bdae 43be
00000160: 9d11 e33d 5e42 66bd 9644 1abe 30f5 a13d
00000170: 1077 263e 9aa5 b83c 319c 2c3d 78cc 33bd
00000180: 6f6c dd3d 7487 86bd 0086 a03d eb1f b9bd
00000190: f188 09be 4e39 183d 8948 203d a96f 2f3e
000001a0: 3112 eabd 91c1 b9bd da03 333d fd45 4b3d
000001b0: 8961 d7bc 8d35 033e 1f75 133e c1b1 babd
000001c0: d004 50bd 98e9 ee3d c9c4 5abc 877f 3e3e
000001d0: 7d17 a83c 1346 813d c6f7 af3c 9657 1abe
000001e0: 1e1d a63d 9a3c d9bc 10fd 483e 4083 493e
000001f0: 5df7 06be 0ef4 15be 6b0b bb3d e064 3e3e

lstm.bias_hh_l1 f4 [128]
0.12728992 -0.07778984 -0.0029627443 -0.13433628 -0.11738357 0.18434744 -0.097373955 -0.1293427
0.13976316 0.13476552 -0.020055193 0.10273512 0.18846685 0.12623431 0.08533721 0.10572505
-0.061602347 0.033227485 0.04638237 -0.12047324 -0.07899868 0.034018643 0.15235402 -0.17710556
-0.1026797 -0.11303932 -0.04568917 0.20120722 0.15366803 0.034081943 0.13065019 -0.08664326
0.061534304 0.13508606 -0.10565713 0.09748088 0.1050478 0.17076142 0.029106561 -0.12869738
-0.03080366 0.09414328 -0.026429774 0.035970654 0.06275065 -0.036734514 -0.12507921 -0.08316024
0.13338676 0.03958648 -0.1612236 -0.1359905 -0.041878473 -0.11895052 -0.130922 0.09163594
0.12800571 0.06580024 0.035249837 -0.05549075 0.16738169 0.11315145 0.0070553604 0.09903734
0.043115962 0.036933314 0.07007312 -0.16484684 0.0013954752 -0.16815333 -0.05077895 -0.086122364
0.062086336 -0.041463774 -0.052211307 0.1023007 -0.12017214 0.14532499 0.00093552464 0.1301626
0.075002275 -0.074183896 -0.11297903 0.18978514 -0.04938526 -0.16575624 0.15878232 -0.003512754
-0.16007717 0.09077014 0.09726172 -0.139342 -0.08061193 -0.14249875 -0.043701936 -0.005190359
-6.516276e-05 -0.099838756 0.084710196 -0.00921561 0.066289656 0.0767983 -0.11898207 0.15683009
0.14854673 -0.11254184 0.022848623 0.16838731 0.12085993 0.17845663 -0.014527635 -0.06978787
0.19816789 0.05246039 -0.10511705 -0.010534636 0.11333204 0.025618462 0.004254802 -0.0185656
0.037373938 -0.14523716 -0.12802903 0.16480249 0.18605454 -0.10318639 0.109299846 0.10593873
00000000: 4a58 023e 4850 9fbd 9a2a 42bb 738f 09be
00000010: cc66 f0bd 93c5 3c3e ff6b c7bd 6a72 04be
00000020: 131e 0f3e f9ff 093e ca4a a4bc ca66 d23d
00000030: 74fd 403e 9143 013e 46c5 ae3d 6086 d83d
00000040: be52 7cbd 8b19 083d 71fb 3d3d adba f6bd
00000050: 0fca a1bd 2257 0b3d b102 1c3e 295b 35be
00000060: bc49 d2bd 2981 e7bd 9124 3bbd 4409 4e3e
00000070: 275b 1d3e 8299 0b3d 2ac9 053e 0672 b1bd
00000080: 650b 7c3d 0054 0a3e c462 d8bd 0ea4 c73d
00000090: 4d23 d73d 15dc 2e3e e270 ee3c 3fc9 03be
000000a0: f557 fcbc 31ce c03d 4183 d8bc f755 133d
000000b0: 6a83 803d ee76 16bd c414 00be ea4f aabd
000000c0: 8a96 083e 6f25 223d cd17 25be 1841 0bbe
000000d0: c388 2bbd 559c f3bd 6b10 06be a0ab bb3d
000000e0: ee13 033e 47c2 863d 2262 103d 454a 63bd
000000f0: 1b66 2b3e f3bb e73d a730 e73b 17d4 ca3d
00000100: 5d9a 303d 6347 173d 7f82 8f3d 9ccd 28be
00000110: 61e8 b63a 6330 2cbe 97fd 4fbd ec60 b0bd
00000120: 3e4e 7e3d ebd5 29bd 86db 55bd 0883 d13d
00000130: d01c f6bd 13d0 143e ff3d 753a 5849 053e
00000140: cb9a 993d baed 97bd 8d61 e7bd 0957 423e
00000150: 3348 4abd 01bc 29be d597 223e 3c36 66bb
00000160: 45eb 23be b2e5 b93d 2731 c73d abaf 0ebe
00000170: de17 a5bd 31eb 11be cd00 33bd e313 aabb
00000180: fea7 88b8 4378 ccbd 8a7c ad3d 12fd 16bc
00000190: dfc2 873d 6d48 9d3d dfac f3bd 1198 203e
000001a0: a21c 183e 567c e6bd 092d bb3c b96d 2c3e
000001b0: 6985 f73d 56bd 363e 5105 6ebc f1ec 8ebd
000001c0: 86ec 4a3e b5e0 563d 9c47 d7bd 7799 2cbc
000001d0: a11a e83d cfdd d13c de6b 8b3b e316 98bc
000001e0: 6a15 193d 0db9 14be 0b1a 03be fcc1 283e
000001f0: 1585 3e3e 6353 d3bd 99d8 df3d 68f6 d83d

lstm.weight_ih_l2 f4 [128, 32]
-0.017019773 -0.15728691 0.045801528 0.024234848 0.14378059 0.07124995 0.18531543 0.0028625901
-0.03738996 0.010280943 0.10872257 0.17511097 -0.044791117 -0.08980128 0.16137557 -0.0970629
-0.015342954 0.0162943 -0.19324887 -0.07385155 -0.159229 -0.008954069 0.034539826 -0.085658334
0.017870734 -0.015301433 0.14931768 0.07730178 0.18147855 -0.094955236 0.108709246 0.18322274
-0.11745469 -0.12697348 0.1426297 0.048137724 -0.06089076 0.05064462 0.18421996 0.059976637
0.104133025 -0.0085713435 0.122547545 -0.13579004 -0.07814268 0.08079275 0.17521799 0.14538017
-0.07317488 -0.08577734 -0.02261868 0.10804244 -0.09098094 -0.11960396 -0.15392159 0.11868727
-0.03184764 0.13772398 -0.1079413 -0.07736093 0.011964394 -0.013247582 -0.05853014 0.035197575
0.04568351 -0.009236822 0.1272663 0.13925825 -0.06372204 0.13027102 0.08226594 -0.06310491
0.05762533 0.08150516 -0.12134615 0.05084689 -0.050677635 0.0026130313 -0.06588112 0.16336332
-0.108165435 0.042252257 -0.19164747 -0.068083346 -0.19524556 -0.144993 -0.033839017 0.125418
-0.07690726 -0.16400352 -0.15804614 -0.09593036 -0.07345938 0.009293367 -0.07481285 -0.0847866
-0.14572547 -0.13429284 -0.039506976 -0.030319612 0.0048567415 -0.05824071 0.20543961 -0.13635798
-0.087702066 -0.101547815 0.012911032 0.019494131 -0.0818353 0.03970445 0.16644447 -0.011785252
0.040742673 -0.067464136 -0.11912366 0.032171372 0.12663311 -0.1139045 0.078550026 -0.0133425845
0.03149275 -0.093912736 0.10829395 -0.12526757 0.17071752 -0.0317695 -0.037428383 -0.042566538
0.19443642 -0.1828574 -0.014969207 0.07592937 0.0854329 -0.13741383 -0.05534554 0.1453333
0.06915519 -0.07662681 -0.1925578 0.08889823 -0.10766909 -0.06834665 -0.038653314 0.13562316
-0.15125453 0.01760092 0.0020157848 -0.03288472 -0.07585089 0.022638293 -0.122715905 -0.15171245
-0.019906854 -0.060865182 0.049636737 -0.057309758 0.042159 -0.116586275 -0.16291417 0.058637816
0.060441673 0.13099699 -0.015130431 -0.19098577 0.09783942 0.10248151 -0.041906267 0.09857467
0.08645817 0.1372569 -0.15508787 -0.014538857 0.13191648 0.0034094132 -0.12635684 -0.0980414
0.121741764 -0.1307766 0.15201457 0.14346552 -0.007676427 -0.18568307 0.06788643 0.039712988
-0.1653652 -0.13567527 0.028674332 0.16130102 -0.051086355 0.1255148 -0.11707373 -0.06915934
0.1305311 -0.046052977 0.078497276 0.05227518 -0.011969838 -0.17558967 -0.05636439 0.06245245
-0.0031819316 0.076840706 0.12959854 0.13065669 -0.10548607 0.14669429 0.123700686 0.10493149
0.11016538 0.04613781 -0.0161029 -0.14310119 -0.20064081 -0.14355221 0.012950342 0.1329846
-0.18389782 0.1296867 -0.18530588 0.016004149 0.114405565 0.0035132163 0.10865254 -0.082203545
0.08778627 0.1302359 0.16338448 -0.088099144 0.13269378 0.007822696 -0.13122998 -0.06751724
-0.116195925 -0.17662701 0.08038573 0.19835688 0.103814304 -0.15758277 -0.10719157 0.19390348
0.059020054 -0.1114318 -0.016832752 0.16582905 0.060141716 -0.18343481 -0.054219157 -0.09235605
-0.07679517 -0.1434339 0.15277131 -0.015658513 0.14394388 -0.12895031 -0.012039445 0.062255863
00000000: 0d6d 8bbc d20f 21be 629a 3b3d 2988 c63c
00000010: 383b 133e 7eeb 913d 54c3 3d3e 4b9a 3b3b
00000020: 3726 19bd 6671 283c f0a9 de3d 4a50 333e
00000030: e476 37bd bce9 b7bd a33f 253e eac8 c6bd
00000040: 0361 7bbc a07b 853c 08e3 45be 7b3f 97bd
00000050: ed0c 23be 16b4 12bc a279 0d3d a36d afbd
00000060: a565 923c ddb2 7abc bce6 183e 6550 9e3d
00000070: 83d5 393e e477 c2bd f4a2 de3d be9e 3b3e
00000080: 168c f0bd 5605 02be 850d 123e 102c 453d
00000090: 9768 79bd bc70 4f3d 28a4 3c3e 10aa 753d
000000a0: b243 d53d d26e 0cbc 35fa fa3d 8b0c 0bbe
000000b0: 4509 a0bd ab76 a53d 586c 333e 8ade 143e
000000c0: b6dc 95bd 08ac afbd cf4a b9bc 5b45 dd3d
000000d0: 3754 babd ecf2 f4bd 9f9d 1dbe 5012 f33d
000000e0: ac72 02bd 8407 0d3e 5410 ddbd 686f 9ebd
000000f0: 4e06 443c 630c 59bc 4dbd 6fbd 552b 103d
00000100: a21e 3b3d 0a56 17bc 1952 023e b799 0e3e
00000110: b380 82bd c465 053e 0c7b a83d 263d 81bd
00000120: 8a08 6c3d 2dec a63d 5584 f8bd d444 503d
00000130: 5a93 4fbd 643f 2b3b aeec 86bd b748 273e
00000140: d785 ddbd b410 2d3d 3c3f 44be 486f 8bbd
00000150: 74ee 47be 0c79 14be c89a 0abd 946d 003e
00000160: 8e81 9dbd 8af0 27be d9d6 21be 2377 c4bd
00000170: df71 96bd 3543 183c 7b37 99bd 99a4 adbd
00000180: 0f39 15be 1084 09be 11d2 21bd d660 f8bc
00000190: 4d25 9f3b d08d 6ebd c35e 523e 6da1 0bbe
000001a0: 249d b3bd 4df8 cfbd cb88 533c 28b2 9f3c
000001b0: 4499 a7bd 22a1 223d 6b70 2a3e ee16 41bc
000001c0: cae1 263d a32a 8abd 1bf7 f3bd 21c6 033d
000001d0: 1cac 013e c346 e9bd d6de a03d db9a 5abc
000001e0: 8bfe 003d 5255 c0bd 38c9 dd3d 2446 00be
000001f0: 93d0 2e3e bc20 02bd 814e 19bd 405a 2ebd
00000200: 571a 473e f83e 3bbe 6841 75bc dc80 9b3d
00000210: 72f7 ae3d 36b6 0cbe 01b2 62bd 41d2 143e
00000220: 3ca1 8d3d 84ee 9cbd df2d 45be 4610 b63d
00000230: 9d81 dcbd 54f9 8bbd f052 1ebd cce0 0a3e
00000240: 78e2 1abe ce2f 903c 421b 043b 21b2 06bd
00000250: b657 9bbd f173 b93c 7a52 fbbd 825a 1bbe
00000260: b313 a3bc c54d 79bd e44f 4b3d a3bd 6abd
00000270: eaae 2c3d c9c4 eebd f9d2 26be 352e 703d
00000280: b091 773d 1324 063e a1e5 77bc c691 43be
00000290: 0960 c83d d3e1 d13d e8a5 2bbd 84e1 c93d
000002a0: fb10 b13d 138d 0c3e 5bcf 1ebe 6334 6ebc
000002b0: 1d15 073e 7670 5f3b b063 01be eec9 c8bd
000002c0: bf53 f93d 4dea 05be b5a9 1b3e a0e8 123e
000002d0: 898a fbbb b423 3ebe 0a08 8b3d 16aa 223d
000002e0: 7f55 29be 75ee 0abe 6fe6 ea3c 182c 253e
000002f0: ed3f 51bd f486 003e 5ac4 efbd 69a3 8dbd
00000300: f2a9 053e 0ca2 3cbd 2ec3 a03d 801e 563d
00000310: 241d 44bc c7cd 33be 59de 66bd 24ce 7f3d
00000320: f487 50bb a95e 9d3d 7bb5 043e deca 053e
00000330: 1509 d8bd 0737 163e c956 fd3d 52e6 d63d
00000340: 639e e13d 00fb 3c3d 3bea 83bc 1e89 12be
00000350: c974 4dbe 5aff 12be ac2d 543c 1d2d 083e
00000360: b64f 3cbe 97cc 043e d3c0 3dbe 221b 833c
00000370: 774d ea3d fd3d 663b 3985 de3d 555a a8bd
00000380: 4ac9 b33d 8f5c 053e 434e 273e 536d b4bd
00000390: e1e0 073e c42a 003c 2761 06be 7b46 8abd
000003a0: 21f8 edbd b6dd 34be 46a1 a43d 111e 4b3e
000003b0: 989c d43d 615d 21be 4187 dbbd a28e 463e
000003c0: 03bf 713d 5b36 e4bd d7e4 89bc 17cf 293e
000003d0: 2957 763d 56d6 3bbe e814 5ebd 2b25 bdbd
000003e0: c946 9dbd 56e0 12be 1570 1c3e 4846 80bc
000003f0: 0666 133e 8d0b 04be 1841 45bc 0100 7f3d

lstm.weight_hh_l2 f4 [128, 32]
0.034751043 0.16334087 0.16789587 0.1133109 -0.12768328 -0.17156112 -0.0041036536 0.13295029
0.10890003 -0.12956224 -0.005316654 0.14722297 0.15637796 0.10946098 0.16622715 -0.023033433
0.16555691 0.10070892 0.14267768 0.10173511 -0.061537743 -0.12626612 -0.07405831 0.04192876
0.121518336 0.0038263395 -0.07962848 0.0046237167 0.11730937 -0.15086283 -0.1619659 -0.104902044
0.0018051916 -0.0051472145 0.097930916 0.09661176 0.060339898 0.09465457 -0.052520856 -0.1051438
0.09794298 0.07173405 0.17054617 -0.03397534 -0.014067986 0.0305277 -0.08349997 -0.1586181
-0.092623435 -0.123737104 -0.12319574 0.020651734 -0.09091753 -0.011309278 0.042142954 -0.14667474
0.06045208 0.03926999 -0.1680904 0.18888569 -0.105053216 0.13247393 0.04785404 0.072475396
0.11107029 -0.004157775 0.023680607 -0.18042012 0.14907527 0.1504602 0.13108669 0.07211533
0.13044994 -0.18751079 0.06973534 -0.073529966 0.05197282 0.12721603 -0.08750723 0.08967145
0.021251129 0.022868311 -0.1514884 0.16300541 0.0490488 -0.11826961 0.14642935 0.0015584928
0.0014060452 -0.08726375 -0.09233677 -0.12983222 -0.03899399 -0.13571921 -0.08516582 -0.053906787
0.0541766 0.07953725 -0.14249581 0.10230383 -0.130294 -0.10419598 -0.0009195264 0.15854731
-0.15079924 -0.031032346 0.00025838192 -0.08545826 -0.15151203 -0.09447664 0.177369 -0.0088565145
-0.07918163 -0.02701074 0.025323039 0.13795404 0.006196252 -0.04435951 0.10626123 0.06613509
-0.19130264 -0.004547556 -0.074506015 0.01319256 0.08971401 0.015326557 0.05710571 0.1070354
0.030627282 -0.052669026 -0.063558646 -0.027323462 -0.03781989 -0.1445717 -0.107029915 -0.103109695
0.014518621 0.06994891 -0.10413719 0.052816514 -0.09738717 -0.16313317 -0.12960981 -0.07596421
-0.038304385 0.060938038 -0.12822764 0.0835125 0.0067421813 -0.1307169 -0.06082996 0.038299903
-0.17790067 -0.017218726 -0.18575804 0.0650501 0.16614288 0.12136619 0.15594628 -0.14323756
0.109584056 0.07036071 -0.024235925 -0.06545258 -0.049875837 -0.1667766 0.17334817 0.18145981
-0.18343881 0.13004269 0.023497762 -0.08030511 0.06391338 0.088229105 0.17568631 0.074378565
0.18736193 -0.10734 -0.06477032 -0.12995511 0.024314767 -0.116110496 0.16497222 0.08149223
-0.0025107109 -0.051522586 0.016134089 0.039894093 0.09752397 -0.05906481 -0.023769703 0.1011503
0.1242798 0.06502951 0.121895075 -0.18799756 -0.11753207 -0.083625816 0.020318663 -0.062701724
0.13318703 0.088231094 -0.06928268 0.15289934 0.03713496 -0.10192158 -0.16431618 0.15470238
-0.09003227 -0.018053293 -0.12318105 -0.14832039 0.01496294 0.14011222 0.13434681 -0.038249984
0.16091341 0.010967213 -0.01673657 -0.17382519 -0.059323106 0.044966698 -0.14966537 0.07329722
-0.0034024387 0.07971564 -0.06594709 0.0752438 -0.09418352 0.10839712 0.04984061 0.022890028
0.13473749 0.14470083 0.0635046 -0.0014914005 0.16141827 -0.1288914 0.11153806 0.025093004
-0.032485776 -0.13401932 0.17587239 0.16457815 0.063901655 0.11568322 -0.06817313 0.0032704475
-0.10022181 -0.18046989 0.13189748 0.12864289 0.063509256 0.08316688 0.12264448 -0.09505681
00000000: 1c57 0e3d d442 273e e5ec 2b3e 8c0f e83d
00000010: 68bf 02be b8ad 2fbe f177 86bb 1f24 083e
00000020: fb06 df3d f7ab 04be 5437 aebb 9ec1 163e
00000030: 8b21 203e 142d e03d 7337 2a3e 9cb0 bcbc
00000040: c087 293e 7a40 ce3d 191a 123e 7f5a d03d
00000050: 000f 7cbd e84b 01be e2ab 97bd 7ebd 2b3d
00000060: 9bde f83d 53c3 7a3b 4214 a3bd 8c82 973b
00000070: e53f f03d c97b 1abe 64da 25be e2d6 d6bd
00000080: 2e9c ec3a f7a9 a8bb 0190 c83d 63dc c53d
00000090: f826 773d 41da c13d 1c20 57bd a255 d7bd
000000a0: 5496 c83d 4de9 923d a8a3 2e3e ba29 0bbd
000000b0: 697d 66bc 3a15 fa3c 0802 abbd c96c 22be
000000c0: 5bb1 bdbd e169 fdbd 0c4e fcbd d32d a93c
000000d0: f832 babd 8d4a 39bc 179e 2c3d e731 16be
000000e0: 9a9c 773d 92d9 203d e41f 2cbe 406b 413e
000000f0: 2426 d7bd 3fa7 073e 9902 443d fb6d 943d
00000100: d278 e33d f23d 88bb d5fd c13c 0dc0 38be
00000110: 30a7 183e 3d12 1a3e 973b 063e 34b1 933d
00000120: ab94 053e d402 40be 67d1 8e3d e196 96bd
00000130: 74e1 543d eb44 023e fe36 b3bd aaa5 b73d
00000140: d916 ae3c 5356 bb3c c61f 1bbe e4ea 263e
00000150: 65e7 483d 5637 f2bd 93f1 153e 5746 cc3a
00000160: 0c4b b83a 56b7 b2bd 0f1b bdbd bdf2 04be
00000170: 29b8 1fbd faf9 0abe 6b6b aebd 5dcd 5cbd
00000180: 48e8 5d3d 6de4 a23d 6cea 11be ac84 d13d
00000190: ca6b 05be b464 d5bd 5f0c 71ba 3a5a 223e
000001a0: 1e6b 1abe 8c37 febc 6f77 8739 bd04 afbd
000001b0: f825 1bbe f87c c1bd 38a0 353e ea1a 11bc
000001c0: fa29 a2bd a145 ddbc 4372 cf3c d343 0d3e
000001d0: ee09 cb3b 51b2 35bd 7d9f d93d d671 873d
000001e0: d7e4 43be aa03 95bb 9c96 98bd 9b25 583c
000001f0: fbbb b73d 3d1c 7b3c ade7 693d 6035 db3d
00000200: 11e6 fa3c 7abb 57bd 092b 82bd 74d5 dfbc
00000210: 07e9 1abd 9b0a 14be 8032 dbbd 2d2b d3bd
00000220: 83df 6d3c 6041 8f3d e145 d5bd 2156 583d
00000230: ed72 c7bd 620c 27be 6fb8 04be 2093 9bbd
00000240: 0fe5 1cbd 2a9a 793d 1b4e 03be 9a08 ab3d
00000250: 84ed dc3b a7da 05be d628 79bd 5ce0 1c3d
00000260: 982b 36be 490e 8dbc 5b37 3ebe fd38 853d
00000270: 5c21 2a3e d68e f83d 62b0 1f3e deac 12be
00000280: 9b6d e03d 4719 903d 6b8a c6bc 010c 86bd
00000290: 9b4a 4cbd 7cc7 2abe 2f82 313e 9ad0 393e
000002a0: 62d7 3bbe e929 053e 617e c03c 0177 a4bd
000002b0: 05e5 823d 76b1 b43d 1de7 333e ca53 983d
000002c0: cedb 3f3e 13d5 dbbd 4da6 84bd f412 05be
000002d0: c32f c73c 57cb edbd 7aee 283e 66e5 a63d
000002e0: bd8a 24bb 5909 53bd a32b 843c fd67 233d
000002f0: a6ba c73d f1ed 71bd aeb8 c2bc e327 cf3d
00000300: 6886 fe3d 312e 853d 20a4 f93d 6f82 40be
00000310: a7b4 f0bd 0344 abbd 5373 a63c c369 80bd
00000320: 2e62 083e 81b2 b43d 14e4 8dbd a591 1c3e
00000330: d41a 183d 43bc d0bd 8042 28be 4d6a 1e3e
00000340: d762 b8bd 80e4 93bc 5946 fcbd 4de1 17be
00000350: 1e27 753c 9479 0f3e 3692 093e 04ac 1cbd
00000360: 7cc6 243e d3af 333c 221b 89bc 3bff 31be
00000370: c9fc 72bd 002f 383d e141 19be da1c 963d
00000380: 73fb 5ebb f441 a33d 450f 87bd 6c19 9a3d
00000390: 4ae3 c0bd 4fff dd3d ab25 4c3d de83 bb3c
000003a0: a0f8 093e 742c 143e b30e 823d 197b c3ba
000003b0: d54a 253e 1bfc 03be 116e e43d d88f cd3c
000003c0: ce0f 05bd 5c3c 09be e417 343e 2d87 283e
000003d0: dfde 823d 53eb ec3d 5b9e 8bbd 0155 563b
000003e0: 1841 cdbd 19cd 38be 2210 073e f6ba 033e
000003f0: 2411 823d 6653 aa3d 072d fb3d 25ad c2bd
