pv/checkpoints/학생회관-checkpoint-2023-08-11 00_02.pt (torch, 304625 bytes, 38 tensors)

lstm.weight_ih_l0 f4 [128, 17]
0	0xba5a7659	-0.0008333675
1	0xbc1a32dd	-0.009411541
2	0xbda2d643	-0.079510234
3	0x3e0b1cbb	0.13585179
4	0xbda5e8da	-0.081010535
5	0xbd012dda	-0.031537868
6	0xbe035dee	-0.128288
7	0xbdb5e82c	-0.08882174
8	0x3d99f525	0.07517461
9	0x3d95237f	0.07282161
10	0x3e21b4e3	0.15791659
11	0x3da6ac9d	0.08138392
12	0x3c9a0bcc	0.018804453
13	0xbd8e6c48	-0.06954247
14	0xbbccc0de	-0.0062485775
15	0xbdb5da35	-0.0887951
16	0x3d49ca33	0.049265098
17	0xbdb5557a	-0.08854194
18	0xbc69bf3a	-0.014266783
19	0x3e1fbcef	0.15599416
20	0xbdb5393c	-0.08848807
21	0xbdc6fd50	-0.09716284
22	0xbd9137e2	-0.07090737
23	0x3de6eeca	0.11276014
24	0xbd4b1f30	-0.04959029
25	0xbe294ce7	-0.16533242
26	0x3e5d153d	0.21590133
27	0xbc8f396a	-0.017483432
28	0xbd621b4c	-0.055201814
29	0x3e0d48ca	0.13797298
30	0x3d1f78e2	0.038933642
31	0x3b0f9313	0.0021907731
32	0xbc777dee	-0.015105708
33	0xbdb574d4	-0.08860174
34	0x3de9a659	0.114086814
35	0x3da4a629	0.08039505
36	0xbbb76db5	-0.005597795
37	0xbdcd240b	-0.1001664
38	0xbd33eb5c	-0.043925628
39	0xbe2e69c2	-0.17032531
40	0x3dcd6890	0.10029709
41	0x3dd156ec	0.10221657
42	0x3d4d9934	0.050194934
43	0x3e336768	0.17519915
44	0x3dd1c030	0.10241735
45	0xbd840215	-0.064457096
46	0xbd139336	-0.036029063
47	0xbdc6ade7	-0.09701138
48	0x3dba28f6	0.09089844
49	0x3df2f535	0.11863176
50	0xbdd9e4ae	-0.1063932
51	0x3e21c5ee	0.1579816
52	0xbd9814f3	-0.07425871
53	0xbbaadaae	-0.005214057
54	0xbddabf26	-0.1068099
55	0x3e362c4b	0.17790334
56	0x3ddc3efe	0.10754202
57	0x3c9ba0f3	0.018997645
58	0xbd9e52a7	-0.077306084
59	0xbd4aa103	-0.04946996
60	0x3dbe076f	0.092787616
61	0xbdf3cd8b	-0.119044386
62	0x3e30eef1	0.17278649
63	0xbd36eaa1	-0.044657353
64	0x3aa06cfb	0.001223951
65	0x3ccc8a92	0.02496842
66	0xbdde9424	-0.10868099
67	0x3e0d0e46	0.13774976
68	0x3d5d8e63	0.05409087
69	0xbc4701ff	-0.012146472
70	0xbd9d8860	-0.07692027
71	0x3d2794d7	0.04091343
72	0xbc0bdcf3	-0.008536565
73	0x3e082608	0.13295758
74	0xbdb0f7f2	-0.08641042
75	0xbd6cb836	-0.057792865
76	0x3e01d6bd	0.12679572
77	0x3dd781bf	0.10522794
78	0xbde38237	-0.11108821
79	0x3e09aba0	0.13444376
80	0xbddebbb1	-0.10875643
81	0x3cc8e43c	0.024522893
82	0xbd1ead6a	-0.0387396
83	0xbdc0344f	-0.09384977
84	0x3d503daf	0.050840076
85	0x3e46ed09	0.19426359
86	0x3bf578ab	0.0074911914
87	0x3c9e9c32	0.01936159
88	0xb947729e	-0.00019020817
89	0x3e085613	0.13314085
90	0x3e297e9d	0.16552205
91	0xbd9e5608	-0.07731253
92	0x3dd2d925	0.10295323
93	0x3d3b13c1	0.045673136
94	0x3da9add6	0.0828511
95	0xbddcd843	-0.10783436
96	0xbdf3ef21	-0.119108446
97	0xbe1f3699	-0.15548171
98	0xbdff9096	-0.124787495
99	0xbe525e17	-0.20543705
100	0xbdd13963	-0.10216024
101	0x3d09f043	0.033676397
102	0x3d13729e	0.03599798
103	0xbd85d73b	-0.065351926
104	0xbe1774b2	-0.1479061
105	0xbe040f48	-0.12896454
106	0xbd3456cc	-0.04402809
107	0x3de092f9	0.10965533
108	0xbddede31	-0.108822234
109	0xbbc9fed2	-0.00616441
110	0xbdd40d6a	-0.10354121
111	0xbd1d47c1	-0.038398508
112	0x3d7252ae	0.05916088
113	0xbd0a5642	-0.033773668
114	0x3e41a799	0.1891159
115	0x3e0db670	0.13839126
116	0x3cefff6f	0.029296605
117	0x3e27ce37	0.16387258
118	0x3d7e429a	0.062075235
119	0x3cc7ef33	0.024406051
120	0x3e48dfc4	0.1961661
121	0xbd51d564	-0.051228896
122	0x3e4168b0	0.18887591
123	0x3e256430	0.161515
124	0xbe2c0626	-0.1679922
125	0xbe221237	-0.15827261
126	0x3e08c092	0.1335471
127	0xbc5443da	-0.01295563
128	0x3db399c6	0.08769564
129	0x3bec3888	0.0072088875
130	0x3e24b49f	0.16084526
131	0xbdde728c	-0.10861692
132	0xbd246e18	-0.040144056
133	0xbe040361	-0.12891914
134	0xbd8ea0ac	-0.069642395
135	0x3e285a84	0.16440779
136	0x3be4d06e	0.0069828546
137	0x3e41689e	0.18887565
138	0x3b0c59d7	0.0021415853
139	0xbd1a9f15	-0.03774937
140	0xbd9b3f58	-0.07580441
141	0x3e428431	0.1899574
142	0x3e5a0ad2	0.2129319
143	0xbe0ee21c	-0.13953441
144	0x3d32e22c	0.043672726
145	0xbd229cac	-0.039700195
146	0x3d92ea75	0.071736254
147	0x3e2a4eea	0.16631666
148	0xbd840f92	-0.06448282
149	0xbc440242	-0.011963429
150	0x3df2e17b	0.11859413
151	0x3e172c14	0.14762908
152	0x3d820467	0.06348496
153	0x3e372c20	0.17887926
154	0xbbeaff59	-0.007171553
155	0x3db3e22b	0.087833725
156	0x3e4c54c1	0.19954206
157	0x3dd49c34	0.10381356
158	0x3e0e2460	0.13881063
159	0x3e1df7c6	0.1542655
160	0xbd141b94	-0.036159113
161	0xbe165870	-0.14682174
162	0x3ce880bc	0.028381698
163	0xbce07353	-0.02739874
164	0xbd531914	-0.05153759
165	0xbd2aa966	-0.041665457
166	0xbcd59817	-0.026073499
167	0x3d3c6926	0.045998715
168	0xbe3fd3b8	-0.18733108
169	0xbd9ad3e4	-0.07559946
170	0x3c9b2a43	0.01894105
171	0x3d1bf660	0.03807676
172	0x3db42ae7	0.087972455
173	0x3d205e9f	0.039152738
174	0x3c918090	0.017761499
175	0xbd4250ed	-0.047440458
176	0xbd7a6069	-0.0611271
177	0xbd68cb65	-0.056834597
178	0xbdddfed6	-0.10839622
179	0x3db46d7d	0.08809946
180	0x3d04a77b	0.032386284
181	0x3e2f1890	0.17099214
182	0x3e37ec09	0.17961134
183	0xbdd1ceed	-0.10244546
184	0x3b59b01d	0.0033216544
185	0x3e2cfb92	0.16892841
186	0x3e056317	0.13026081
187	0x3dade4eb	0.08490928
188	0x3e35fe71	0.17772843
189	0xbd633ac7	-0.055475976
190	0xbd39af44	-0.045333162
191	0x3e35dcf4	0.17760068
192	0xbcb573aa	-0.02214988
193	0x3da9024a	0.0825239
194	0xbc954ae0	-0.01822418
195	0x3e578914	0.21048385
196	0x3d8d0059	0.06884832
197	0x3e234fc9	0.15948404
198	0x3e0432fd	0.12910075
199	0x3da9a461	0.08283306
200	0x3e014cb7	0.1262692
201	0xbc5b8a8c	-0.013399731
202	0xbc7feac7	-0.01561994
203	0x3cf4bbc1	0.029874684
204	0xbdaffada	-0.08592768
205	0xbe057bb0	-0.13035464
206	0xbda54bea	-0.0807112
207	0xbe06b0b2	-0.13153341
208	0xbe07478f	-0.13210891
209	0xbe197013	-0.14984159
210	0x3e43a5f1	0.1910627
211	0xbdc1f021	-0.09469629
212	0xbbf7ca18	-0.0075619332
213	0xbdad16bf	-0.08451604
214	0x3c1c1a55	0.009527762
215	0xbe130b61	-0.1435981
216	0xbdb846e7	-0.089978985
217	0x3e209808	0.15682995
218	0xbe0ec49f	-0.13942192
219	0xbd47d8ab	-0.048790615
220	0xbdb9dfc7	-0.09075885
221	0x3e22a741	0.15884115
222	0x3d63f81d	0.05565654
223	0xbdfca17b	-0.123354875
224	0x3dbe6edf	0.09298491
225	0x3dd73964	0.10508993
226	0xbdb93012	-0.09042372
227	0x3e10107f	0.14068793
228	0xbe075c38	-0.13218772
229	0x3d35ae5f	0.044355746
230	0xbe23ff91	-0.1601546
231	0x3dceb558	0.10093182
232	0x3c8c381a	0.017116595
233	0xbdf3648a	-0.11884411
234	0xbdffbc3f	-0.12487077
235	0x3d3d53ae	0.04622238
236	0xbdd3595f	-0.103197806
237	0xbddfd599	-0.109294124
238	0xbd71c628	-0.059026867
239	0x3d1b02c1	0.037844423
240	0xbc479e27	-0.012183703
241	0x3e239191	0.15973498
242	0x3d2ae0c6	0.041718267
243	0x3dedd31a	0.1161253
244	0x3e3a57b5	0.1819752
245	0x3d4596f3	0.04823966
246	0xbe030b8d	-0.12797375
247	0x3cf3fda2	0.029784027
248	0x3d9664a7	0.07343417
249	0x3cfd3367	0.0309083
250	0x3e0af0f8	0.13568485
251	0x3ddb6397	0.10712355
252	0xbd1280b7	-0.035767283
253	0x3e30494b	0.17215459
254	0xbdbec41a	-0.09314747
255	0x3df2498e	0.11830436

lstm.weight_hh_l0 f4 [128, 32]
0	0x3c4d0a60	0.012514681
1	0xbe127880	-0.1430378
2	0x3c8567c1	0.016284825
3	0x3e17ca75	0.14823325
4	0x3e0f129e	0.13971946
5	0x3d9322f7	0.071844034
6	0xbe3b0d41	-0.18266775
7	0xbd119b17	-0.035548296
8	0xb9724676	-0.00023105167
9	0x3da937f4	0.08262625
10	0xbd49eb76	-0.04929682
11	0xbc852745	-0.016254077
12	0x3d412d1e	0.047162168
13	0xbdb57b99	-0.08861465
14	0x3e368079	0.17822446
15	0x3da0918c	0.07840261
16	0xbe19df86	-0.15026674
17	0xbe3c2524	-0.18373543
18	0x3e1bc0f4	0.15210325
19	0x3dff2fd9	0.12460298
20	0xbbcbc89b	-0.0062189824
21	0x3d220fba	0.03956578
22	0xbdfab22a	-0.12241013
23	0xbe02ff90	-0.12792802
24	0xbd8097f0	-0.0627898
25	0xbdae897d	-0.085223176
26	0x3e445e5b	0.19176619
27	0x3cfd272c	0.030902468
28	0x3d85e988	0.06538683
29	0xbe32a473	-0.17445545
30	0xbddec44d	-0.10877285
31	0x3bcef6b9	0.0063160327
32	0x3d3906a4	0.04517235
33	0x3d8522b9	0.065007634
34	0xbda5c5a8	-0.080943406
35	0x3d25561f	0.040365335
36	0xbdeabbff	-0.11461639
37	0x3da189ec	0.07887635
38	0xbe14bd97	-0.14525448
39	0xbd96e959	-0.07368726
40	0x3dde4f0f	0.10854923
41	0xbd374285	-0.044741172
42	0xbe11c24c	-0.14234275
43	0x3d6e9955	0.058251698
44	0xbc94b1c1	-0.018151166
45	0x3d18a0a0	0.03726256
46	0xbdeb9ebe	-0.11504887
47	0x3d9071a7	0.070529275
48	0x3de6c73d	0.112684704
49	0x3d92bf42	0.07165386
50	0xbd972802	-0.07380678
51	0xbca7acc6	-0.020468127
52	0x3e0bc19b	0.13648073
53	0x3dfb86d6	0.12281577
54	0x3e2466a1	0.16054775
55	0x3e3099e9	0.17246212
56	0x3da93d60	0.082636595
57	0x3e1236f3	0.14278774
58	0xbe107375	-0.14106543
59	0xbe087b2c	-0.13328236
60	0xbe052f0e	-0.13006231
61	0xbd9aa375	-0.07550708
62	0x3c0d944f	0.008641317
63	0x3e5335ee	0.20626041
64	0x3a4422d1	0.00074819947
65	0x3d2db23b	0.042406302
66	0x3dd3b5bd	0.10337398
67	0x3d20f8f8	0.039299935
68	0x3e13808e	0.14404508
69	0xbe2c1bdb	-0.16807501
70	0xbdac306b	-0.084076725
71	0xbcc41dbb	-0.023939958
72	0x3ba4275b	0.0050095743
73	0xbe20c41b	-0.15699808
74	0xbdb65855	-0.08903567
75	0xbe14c19c	-0.14526981
76	0x3dd7eb1b	0.1054289
77	0xbdbae65b	-0.09125968
78	0xbad04b48	-0.0015891576
79	0xbbefcac3	-0.0073178723
80	0xbdabdef0	-0.08392131
81	0xbd1bc444	-0.03802897
82	0xbcf767bc	-0.030200832
83	0x3cfeb13c	0.031090371
84	0xbcbae01c	-0.022811942
85	0x3dc51a6b	0.096241795
86	0xbcb185ef	-0.02167031
87	0x3e1834a4	0.14863831
88	0xbe121acf	-0.14268039
89	0xbde03b44	-0.10948804
90	0x3d95538a	0.072913244
91	0xbe1c7092	-0.15277317
92	0x3e1274e4	0.14302403
93	0x3dd2dade	0.10295652
94	0xbe103a8b	-0.14084832
95	0xbe0cceb0	-0.1375072
96	0xbe430419	-0.19044532
97	0x3ddf6294	0.10907474
98	0xbe1c9b5b	-0.15293638
99	0x3e49a400	0.19691467
100	0x3dca234a	0.09870012
101	0x3e169d40	0.14708424
102	0xbe4ca097	-0.19983135
103	0xbda434c0	-0.08017874
104	0x3cc23905	0.02370883
105	0x3d0810fe	0.03321933
106	0xbd910b87	-0.07082277
107	0x3d3b95b1	0.045797054
108	0x3df0f9f9	0.117664285
109	0x3e1525ff	0.14565276
110	0x3ce7cf64	0.028297134
111	0x3d2a7a6b	0.041620653
112	0x3d88bd8b	0.066767775
113	0xbe2542f4	-0.16138822
114	0x3d34b0a3	0.044113766
115	0x3dd4baa4	0.103871614
116	0x3c4407ab	0.011964719
117	0xbc9454b3	-0.018106794
118	0xbe40d4cf	-0.1883118
119	0xbd8d2052	-0.0689093
120	0xbda37948	-0.07982117
121	0xbd3b5618	-0.045736402
122	0xbde06683	-0.109570526
123	0xbcb04973	-0.021519398
124	0xbdd8d6a1	-0.10587812
125	0xbd75416f	-0.059876855
126	0x3c54ecca	0.012995908
127	0xbe204f77	-0.15655313
128	0x3d6f0e75	0.058363397
129	0xbe24bcc8	-0.1608764
130	0xbc4d1028	-0.012516059
131	0xbdb7d970	-0.0897702
132	0x3e20c70d	0.15700932
133	0xbda69617	-0.08134096
134	0xbdc4c8c4	-0.096086055
135	0x3e0b962e	0.13631508
136	0x3d50f1f8	0.05101201
137	0x3d037d18	0.03210172
138	0xbe3bc5a3	-0.18337111
139	0x3e3885b7	0.18019758
140	0x3d4d2b47	0.0500901
141	0x3dd28e83	0.10281088
142	0x3e09de1c	0.13463634
143	0xbe09f9e8	-0.13474238
144	0x3d2cc4cb	0.042179864
145	0xbd736ced	-0.05943005
146	0xbddf68a4	-0.109086305
147	0xbd0bde64	-0.034147635
148	0xbccdb266	-0.025109481
149	0xbd50b5c1	-0.050954584
150	0x3e099693	0.13436346
151	0x3d1dee86	0.03855755
152	0x3d840a34	0.064472586
153	0xbd521743	-0.051291715
154	0x3e1e8334	0.15479738
155	0xbe08947b	-0.13337891
156	0xbe21d330	-0.15803218
157	0x3da2561e	0.07926582
158	0x3c890bae	0.016729202
159	0x3e2676db	0.16256277
160	0x3e33fb3b	0.17576306
161	0xbd625c10	-0.05526358
162	0x3d972f2c	0.07382044
163	0xbc61ec73	-0.013789284
164	0xbdadb3dd	-0.08481572
165	0x3dcf0084	0.1010752
166	0x3d86096f	0.06544768
167	0x3dd45e44	0.10369542
168	0xbddb7787	-0.107161574
169	0x3dcb4ee2	0.09927155
170	0x3b9dc59c	0.0048148166
171	0x3cddd2d0	0.027078062
172	0xbe2d251a	-0.16908684
173	0x3df8b0d4	0.12143102
174	0x3d990a95	0.074727215
175	0xbd934155	-0.071901955
176	0x3dd44124	0.10363987
177	0xbcb42dff	-0.021994589
178	0xbe1f2d2b	-0.15544574
179	0xbe069a0b	-0.131447
180	0xbcedadc5	-0.029013524
181	0xbded183b	-0.11576887
182	0x3e0ea5cb	0.13930432
183	0x3d547712	0.051871367
184	0xbe34bae5	-0.1764942
185	0xbdcee90d	-0.10103045
186	0xbdeb701f	-0.11495995
187	0xbd4450b1	-0.047928516
188	0xbe2cb042	-0.16864112
189	0x3d5085c7	0.05090883
190	0x3d8cebca	0.06880911
191	0x3b997af7	0.004683848
192	0xbd839b37	-0.06426089
193	0x3cdd6770	0.027026862
194	0x3e132ad0	0.143718
195	0x3d9a4b21	0.07533861
196	0x3d1b2434	0.037876323
197	0xbd4ae6f0	-0.049536645
198	0x3cc4ffb0	0.024047703
199	0xbd30f215	-0.043199617
200	0x3c691279	0.014225596
201	0x3e2f3c82	0.17112926
202	0x3d5f2b9c	0.05448495
203	0xbe0576b7	-0.13033567
204	0x3d483ae0	0.048884273
205	0x3e170d39	0.14751138
206	0xbd948323	-0.07251575
207	0x3cc6ae8f	0.024253158
208	0xbdba1ca1	-0.09087492
209	0x3e055da0	0.13023996
210	0xbdab5a18	-0.083667934
211	0x3de8c46b	0.11365589
212	0xbe354260	-0.17701101
213	0x3e3e5c97	0.18590008
214	0xbe266c72	-0.16252306
215	0x3d5a79a2	0.053338654
216	0x3e27a270	0.16370559
217	0xbe075c5b	-0.13218825
218	0xbd10bb91	-0.035335127
219	0x3d2dfe03	0.042478573
220	0xbd733c93	-0.05938394
221	0x3c832083	0.016006714
222	0x3dbdd94b	0.09269961
223	0x3d8c6490	0.06855118
224	0xbda295ea	-0.0793875
225	0x3d414647	0.047186162
226	0x3df5f5ba	0.12009759
227	0xbe3a462d	-0.18190832
228	0x3da37469	0.07981188
229	0xbda8d363	-0.08243444
230	0x3dff0912	0.12452902
231	0xbd0efabe	-0.034907095
232	0xbd898188	-0.06714159
233	0x3d7ef12e	0.062241726
234	0x3d929463	0.07157209
235	0xbdc60eae	-0.09670769
236	0x3d138dc1	0.03602386
237	0x3d552ef6	0.05204674
238	0x3debef14	0.1152021
239	0x3d1d2ab8	0.038370818
240	0xbd7172b9	-0.0589473
241	0xbdb362de	-0.08759092
242	0xbe099e38	-0.13439262
243	0xbe069563	-0.13142924
244	0x3e40dde5	0.18834646
245	0x3bca5015	0.0061740973
246	0x3e16efc0	0.14739895
247	0x3cb41fef	0.021987883
248	0xbd9a76d6	-0.075421974
249	0xbc87ee72	-0.016593192
250	0x3e1ae6dc	0.15127128
251	0xbb7f58c2	-0.0038962816
252	0x3c435c0b	0.0119238
253	0xbd1b2b02	-0.037882812
254	0xbd77e5bb	-0.060521822
255	0xbde7d630	-0.1132015

lstm.bias_ih_l0 f4 [128]
0	0x3b7654f2	0.0037587252
1	0xbb82370f	-0.0039738487
2	0x3dfc584a	0.12321527
3	0x3e034b81	0.12821771
4	0xbcb9302d	-0.02260598
5	0x3d20a6f9	0.039221738
6	0x3df7e576	0.12104313
7	0x3e3233c3	0.17402558
8	0x3d82cfa4	0.063872606
9	0x3e45d100	0.19318008
10	0x3e253f8e	0.16137525
11	0xbdb0ff8f	-0.08642494
12	0x3d8e83c9	0.0695873
13	0x3d3892b6	0.04506179
14	0x3e47d586	0.19515046
15	0x3df5a909	0.119951315
16	0xbe171aee	-0.14756367
17	0xbe00ba50	-0.12571073
18	0x3dc7857c	0.09742257
19	0x3d846db2	0.06466235
20	0xbce4e9ee	-0.027943578
21	0x3dde8a88	0.108662665
22	0xbd55ecf3	-0.052227926
23	0x3e359b95	0.17735131
24	0xbe0ecaca	-0.13944545
25	0xbe1c04ed	-0.15236254
26	0xbd87aa96	-0.066243336
27	0x3db6ecc6	0.0893188
28	0x3de7da8a	0.1132098
29	0x3dd924b4	0.10602704
30	0xbd9ff89f	-0.078110926
31	0x3d944df7	0.07241433
32	0xbc04ad1b	-0.008097912
33	0x3dcfbbe9	0.10143263
34	0xbda72451	-0.08161224
35	0xbc6e12e1	-0.014530868
36	0x3ccd0f22	0.02503163
37	0x3a15071a	0.0005684957
38	0xbde494d2	-0.11161198
39	0xbd9d1963	-0.07670858
40	0xbd7ea636	-0.06217023
41	0x3e41fab8	0.18943298
42	0xbe20047d	-0.15626712
43	0x3e406bd9	0.1879114
44	0x3e47039c	0.1943497
45	0xbd99e46e	-0.07514273
46	0x3d82e1c5	0.06390718
47	0xbc84cad8	-0.016210005
48	0xbe2749e2	-0.16336778
49	0x3e03f9a9	0.12888207
50	0xbe1cafab	-0.15301387
51	0x3d799777	0.060935464
52	0x3daf877e	0.08570765
53	0x3def89bf	0.11696195
54	0x3c497c64	0.012297723
55	0x3dd58764	0.10426214
56	0x3e3b135a	0.18269101
57	0x3e0032e0	0.12519407
58	0x3e50955b	0.20369475
59	0x3de81435	0.11331979
60	0x3ce8c337	0.028413398
61	0xbe03dcf0	-0.1287725
62	0x3e4a8516	0.19777331
63	0xbbd282d5	-0.006424288
64	0xbd6f59ce	-0.058435254
65	0xbd8ae94e	-0.067827806
66	0xbe270b8d	-0.16313
67	0xbe065d44	-0.13121516
68	0x3e0ee506	0.13954553
69	0x3de56478	0.112008035
70	0xbd91e5e3	-0.071239255
71	0x3e3c6d25	0.1840101
72	0xbdb76a03	-0.08955767
73	0x3e168a24	0.14701134
74	0xbd75c30e	-0.06000047
75	0xbe2e2261	-0.17005302
76	0x3e140daa	0.14458337
77	0x3e21a1b9	0.15784349
78	0x3dc63404	0.0967789
79	0x3dfc4450	0.12317717
80	0x3d60aa42	0.05484987
81	0xbd8153f5	-0.06314842
82	0xbe190a7d	-0.14945407
83	0xbc38c386	-0.011277085
84	0xbe1ffaf1	-0.1562307
85	0x3ddf46d7	0.109021835
86	0xbdda1847	-0.10649162
87	0x3dd38789	0.10328586
88	0x3da299aa	0.07939465
89	0x3d377ae0	0.044794917
90	0x3bd038a2	0.0063544074
91	0x3dc86d33	0.09786453
92	0x3d87bbe8	0.06627637
93	0x3d6f58b4	0.058434203
94	0x3c8e5b53	0.017377531
95	0xbe2cbf3b	-0.16869824
96	0x3e2cfc18	0.16893041
97	0x3d28a22c	0.041170284
98	0x3dc4aa84	0.09602836
99	0x3e1d1c09	0.15342726
100	0x3dc6c2df	0.097051375
101	0x3e3a483c	0.18191618
102	0x3e153166	0.14569625
103	0x3c353aca	0.01106138
104	0x3e2c166b	0.16805427
105	0x3dfab3ca	0.12241323
106	0x3e5342eb	0.20630996
107	0xbc389948	-0.011267014
108	0x3c7570a7	0.014980472
109	0xbe25d5e7	-0.16194879
110	0x3e63ead7	0.22257553
111	0x3e2d316d	0.16913386
112	0xbe198158	-0.14990747
113	0x3dc91fc3	0.09820511
114	0xbe2db7c8	-0.16964638
115	0x3e1378b2	0.1440151
116	0xbc387a08	-0.011259563
117	0x3e48935a	0.1958746
118	0x3cf4f430	0.029901594
119	0xbdce07d5	-0.100600876
120	0x3ded98d8	0.11601418
121	0xbd17549e	-0.03694593
122	0xbd0c34c2	-0.03423
123	0x3cbaa932	0.022785757
124	0x3d193b6f	0.037410196
125	0x3de6f3c3	0.112769626
126	0xbdac1413	-0.08402266
127	0x3e683bc5	0.2267905

lstm.bias_hh_l0 f4 [128]
0	0xbc49d8ab	-0.012319724
1	0xbd6bff40	-0.057616472
2	0xbe1a5f9b	-0.15075533
3	0xbe0fd03f	-0.14044283
4	0x3c2391b6	0.009983471
5	0x3c663668	0.014051057
6	0x3d53800f	0.051635798
7	0xbe01a206	-0.12659463
8	0x3df9100e	0.12161265
9	0x3d09b8d4	0.03362353
10	0xbcabc4c0	-0.020967841
11	0x3e74dac9	0.23911585
12	0xbe126d67	-0.14299546
13	0xbd3c54e2	-0.045979388
14	0x3e460aad	0.1934001
15	0x3dbe1417	0.092811756
16	0x3e036fd8	0.12835634
17	0xbc5766d1	-0.013147072
18	0xbe0bea1d	-0.13663526
19	0x3e13af6f	0.14422391
20	0x3c5315e4	0.012883637
21	0x3e4d48db	0.20047323
22	0x3de7a37d	0.1131048
23	0x3e0c1afb	0.13682167
24	0x3e374607	0.17897807
25	0xbba06814	-0.0048952196
26	0x3da703b1	0.08155001
27	0xbd089d3c	-0.033353075
28	0x3aee4e97	0.0018181381
29	0xbde08021	-0.10961939
30	0x3e55738f	0.20844863
31	0x3e2e4f39	0.17022409
32	0x3e45878d	0.1928999
33	0x3e284cb5	0.16435511
34	0x3b3051ca	0.0026904219
35	0xbd28fa94	-0.041254595
36	0xbd7003e0	-0.058597445
37	0x3e24d0c9	0.1609527
38	0xbe047a53	-0.12937288
39	0xbe157633	-0.1459587
40	0x3e315c77	0.17320429
41	0xbc5a92c3	-0.013340655
42	0xbdcd9fc6	-0.1004024
43	0xbd02c84d	-0.031929303
44	0xbe03fbd1	-0.12889029
45	0x3e4021aa	0.18762842
46	0xbd4511de	-0.048112743
47	0x3e27feef	0.16405843
48	0x3b6c6fb7	0.003607733
49	0xbd9cb5cd	-0.07651863
50	0x3d90830e	0.07056247
51	0xbc2609c5	-0.010134165
52	0xbe046502	-0.12929156
53	0x3dc7a734	0.09748688
54	0xbdb4afbb	-0.088225804
55	0xbe006dc0	-0.12541866
56	0xbdd84133	-0.10559311
57	0xbe229618	-0.15877569
58	0xbda20f89	-0.07913119
59	0x3d688ef3	0.056776952
60	0x3e01c617	0.12673222
61	0x3da772dd	0.08176205
62	0x3e1272ee	0.14301655
63	0x3c4e0fa0	0.0125769675
64	0x3c643f1e	0.013931064
65	0xbdc66d3b	-0.09688803
66	0xbde9173f	-0.11381387
67	0xbd4a1608	-0.049337417
68	0x3cf10049	0.029419081
69	0x3d45b31b	0.04826651
70	0xbd4755d5	-0.04866584
71	0x3c3a368e	0.011365546
72	0xbd87a3f8	-0.066230714
73	0x3e11f38f	0.14253066
74	0x3e22c0cc	0.15893859
75	0x3e277e7b	0.16356842
76	0xbdf94045	-0.121704616
77	0x3e312072	0.17297533
78	0xbe060d82	-0.1309109
79	0xbddbcb8d	-0.107321836
80	0xbd6cc7f7	-0.05780789
81	0x3daaa719	0.083326526
82	0xbdeddfca	-0.1161495
83	0xbdf67387	-0.12033754
84	0x3d434aff	0.047678944
85	0x3e004782	0.12527278
86	0x3d936f30	0.07198942
87	0x3e1ccb28	0.15311873
88	0x3d9a3305	0.075292625
89	0xbe00c882	-0.12576488
90	0x3e111780	0.14169121
91	0xbe074a3c	-0.13211912
92	0x3e2d5433	0.1692665
93	0xbc97c485	-0.018526325
94	0x3cdac505	0.026705274
95	0x3dcff624	0.101543695
96	0x3e3fb095	0.18719704
97	0x3dca665b	0.09882804
98	0xbaeb5622	-0.0017954747
99	0xbda0700f	-0.078338735
100	0x3e28efd6	0.1649774
101	0x3d48a95b	0.048989635
102	0xbcf4112a	-0.02979334
103	0x3e2de5c2	0.16982177
104	0xbe0261bd	-0.12732597
105	0xbd8b1cd3	-0.06792607
106	0x3e2503ab	0.1611468
107	0xbd8b438a	-0.067999914
108	0x3deb329f	0.114842646
109	0x3e339367	0.17536698
110	0x3e388821	0.18020679
111	0x3e37f0a9	0.17962898
112	0xbd27f0f4	-0.041001275
113	0xbe1443ad	-0.14478941
114	0xbdaa92c0	-0.083287716
115	0x3e145218	0.14484441
116	0x3e1f25bf	0.15541743
117	0xbd6b3b61	-0.057429675
118	0x3df18fbd	0.11794994
119	0x3d3230a5	0.043503422
120	0xbd4fe099	-0.050751302
121	0xbdc2f4ba	-0.09519334
122	0x3d3b5222	0.045732625
123	0xbd35824f	-0.044313725
124	0xbe2107ed	-0.1572568
125	0x3d1933f9	0.03740308
126	0x3e0851d0	0.13312459
127	0x3e34d3c6	0.1765891

lstm.weight_ih_l1 f4 [128, 32]
0	0xbdf6d5d5	-0.12052504
1	0x3deff2d5	0.117162384
2	0x3d9b856d	0.07593808
3	0x3d5b2b1a	0.0535079
4	0xbe28244d	-0.16420098
5	0xbe215c42	-0.1575785
6	0x3dea8516	0.114511654
7	0x3e04d47e	0.12971684
8	0x3de9afda	0.11410494
9	0xbdbeefde	-0.09323095
10	0xbd586721	-0.052832726
11	0xbc82d763	-0.015971845
12	0x3d802276	0.06256573
13	0xbdd75af6	-0.10515396
14	0xbe211bf6	-0.15733323
15	0x3db66cfe	0.08907507
16	0x3de87c8e	0.11351882
17	0x3dc673c3	0.096900485
18	0xbd488bd9	-0.048961494
19	0x3a1b4148	0.00059225084
20	0x3dc683db	0.09693118
21	0x3d9670e6	0.073457524
22	0x3e03872e	0.12844536
23	0x3c74891f	0.01492527
24	0x3e1fbde6	0.15599784
25	0xbe26a7ca	-0.16274944
26	0x3defaf6b	0.1170338
27	0x3bf6cc69	0.007531692
28	0xbe1e81e7	-0.15479241
29	0xbc28d36b	-0.010304312
30	0xbdd9b940	-0.10631037
31	0x3d5ec90a	0.054390945
32	0xbe16118f	-0.14655136
33	0xbd810f9e	-0.06301807
34	0x3da27c56	0.079338714
35	0xbd094c2e	-0.033519916
36	0x3e0e9f98	0.13928068
37	0x3e08cd1f	0.13359497
38	0xbde4983f	-0.11161851
39	0xbd47ef3d	-0.04881214
40	0x3e345e98	0.1761421
41	0x3ddebe91	0.108761914
42	0xbe548331	-0.2075317
43	0x3ddf409e	0.109009966
44	0xbd15626f	-0.036470827
45	0x3d82a14b	0.063784204
46	0xbdca29f4	-0.09871283
47	0xbe1c7ad6	-0.15281233
48	0xbe0ccf67	-0.13750993
49	0xbd454302	-0.048159607
50	0xbe07ecc2	-0.1327391
51	0xbd941567	-0.07230645
52	0xbaf29522	-0.001850758
53	0xbdccc9a6	-0.09999399
54	0x3b5f8b58	0.0034110155
55	0xbdbf4e91	-0.09341157
56	0x3e42dbac	0.1902911
57	0x3ddff945	0.10936216
58	0xbd800883	-0.062516235
59	0x3e515d0b	0.2044565
60	0xbd9be423	-0.07611873
61	0xbdd169bc	-0.10225245
62	0xbd6e8558	-0.058232635
63	0xbd8fb7d0	-0.07017481
64	0x3d3077e2	0.04308308
65	0x3dc085e6	0.09400539
66	0x3ddb4684	0.10706809
67	0xbe2333cc	-0.15937728
68	0x3ddaf2ba	0.10690828
69	0xbb19089f	-0.0023351086
70	0x3d42a055	0.047516186
71	0xbde1f4b4	-0.110330015
72	0x3df2b5a8	0.118510544
73	0x3e2ab12a	0.16669145
74	0xbd6a24bd	-0.057163943
75	0x3d286cd7	0.041119423
76	0x3e210d0a	0.1572763
77	0xbded2d1f	-0.11580872
78	0x3d9f8cba	0.07790513
79	0x3d1a5666	0.037680052
80	0xbc4ae9fd	-0.012384889
81	0x3da5aec9	0.08089978
82	0x3e1125d5	0.14174588
83	0x3d679b9d	0.05654489
84	0xbdb56ec5	-0.08859018
85	0xbc8d8aa3	-0.017278021
86	0xbc80167f	-0.015635727
87	0xbdf99fb9	-0.12188668
88	0x3d4b5b80	0.049647808
89	0xbdf80007	-0.1210938
90	0xbe18f6df	-0.14937924
91	0x3c54def2	0.012992607
92	0x3d4dbb2e	0.050227337
93	0xbdc32ca4	-0.09529999
94	0x3d986256	0.07440631
95	0x3dac44d5	0.08411566
96	0x3e13b66b	0.14425056
97	0xbe03c68a	-0.12868705
98	0x3dd7f71a	0.10545178
99	0xbc94ad22	-0.018148962
100	0xbd288f14	-0.041152075
101	0x3e3f11db	0.18659155
102	0xbd363254	-0.04448159
103	0x3db47e11	0.08813108
104	0x3d71a518	0.058995336
105	0xbdbba167	-0.091616444
106	0xbe40566a	-0.18782964
107	0x3d802b1d	0.06258223
108	0xbd6ee3a5	-0.058322567
109	0x3e4207a5	0.18948229
110	0x3d9fdc35	0.07805673
111	0x3d19ade4	0.03751935
112	0xbe04c8ec	-0.1296727
113	0x3dca9280	0.09891224
114	0xbd880cfa	-0.066431
115	0x3cc92c67	0.024557305
116	0x3dc76a14	0.0973703
117	0x3dc72c3c	0.09725234
118	0x3dd039eb	0.10167297
119	0xbdfa87ce	-0.12232934
120	0x3e05d9b5	0.1307133
121	0xbd8e8b00	-0.06960106
122	0x3b0006f9	0.0019535406
123	0xbd029159	-0.031876896
124	0xbdc077ce	-0.09397851
125	0xbe19f7f2	-0.1503599
126	0x3e262623	0.16225486
127	0x3dcf41fa	0.10120006
128	0xbe1e1084	-0.15435988
129	0xbd851d3e	-0.06499718
130	0xbdf27661	-0.11838985
131	0x3c96a389	0.018388527
132	0x3e08ca90	0.13358521
133	0x3e505e9f	0.20348595
134	0x3dc5a162	0.09649922
135	0x3e4869e7	0.19571649
136	0x3e427f91	0.18993975
137	0x3bd5cca2	0.0065246383
138	0xbcd35d4e	-0.025801327
139	0xbd26016a	-0.040528692
140	0x3cbd29d1	0.023091229
141	0x3d105ea0	0.03524649
142	0xbd27a7cf	-0.04093152
143	0x3c3e73b5	0.011624266
144	0xbde13c42	-0.109978214
145	0x3e06e0cc	0.1317169
146	0xbc1a83c8	-0.009430833
147	0xbe432650	-0.19057584
148	0x3d98d65c	0.07462761
149	0x3e002079	0.12512387
150	0xbd3cb725	-0.046073098
151	0x3d60ae0e	0.05485349
152	0x3d86090e	0.06544696
153	0xbdfdeeb2	-0.12399043
154	0xbc4ad4ab	-0.012379806
155	0x3de8f08d	0.113740064
156	0x3e06cd65	0.1316429
157	0x3d77a91d	0.060464013
158	0x3dc950f7	0.09829896
159	0xbe29937e	-0.1656017
160	0x3e1a36ea	0.1506001
161	0xbbfcd9ea	-0.007716407
162	0xbe33f8ad	-0.17575331
163	0x3e10122d	0.14069434
164	0x3dd78b8b	0.105246626
165	0x3e5555f5	0.20833571
166	0xbda42554	-0.08014932
167	0x3cf4ec48	0.029897824
168	0xbe033915	-0.12814744
169	0x3e3e70af	0.18597673
170	0xbe5ed146	-0.21759519
171	0x3e39a574	0.18129522
172	0xbd4d05e7	-0.050054457
173	0x3e0e0ede	0.13872859
174	0x3dee0bc7	0.1162334
175	0x3b7e9ac5	0.0038849574
176	0x3c51a656	0.012796005
177	0xbdae05c8	-0.084971964
178	0xbe3d62fe	-0.18494794
179	0x3e19157a	0.14949599
180	0xbd4cddf1	-0.050016347
181	0x3e1fedae	0.15618011
182	0x3aa2511c	0.0012383792
183	0x3cddb3b0	0.02706322
184	0x3e4ff4e2	0.20308259
185	0xbe01c831	-0.12674023
186	0xbc940a6e	-0.01807138
187	0x3c01efdf	0.007930725
188	0xbe240b00	-0.16019821
189	0xbe2d6fee	-0.16937229
190	0xbd790e8a	-0.06080488
191	0x3d34514a	0.044022836
192	0xbe103f43	-0.14086632
193	0x3dc7be4a	0.09753092
194	0xbe1c5282	-0.15265849
195	0x3cc805cb	0.024416825
196	0x3e1d50e4	0.15362889
197	0x3db5ad05	0.088708915
198	0x3dfeff8c	0.124510854
199	0x3e4dbf11	0.20092417
200	0x3e01811d	0.12646909
201	0x3e271d21	0.16319706
202	0xbe33167f	-0.1748905
203	0xbd073eb7	-0.033018794
204	0xbd68ad43	-0.05680586
205	0xbcf21017	-0.029548688
206	0xbdb021b4	-0.08600178
207	0xbcb0e296	-0.02159242
208	0x3de6683e	0.11250351
209	0x3dca75dc	0.09885761
210	0x3dee3b1f	0.1163237
211	0x3db40871	0.087906726
212	0x3dcb215e	0.09918474
213	0x3dcc21aa	0.099673584
214	0x3ce4dafc	0.027936451
215	0x3c9185be	0.017763969
216	0x3d65b9c2	0.056085356
217	0x3df4581a	0.119308665
218	0x3df4b6e8	0.11948949
219	0x3cd52289	0.026017444
220	0xbdd8a3aa	-0.105780914
221	0x3daab172	0.08334626
222	0xbc3c7b66	-0.01150403
223	0xbcdeb0f1	-0.027183982
224	0xbda0941c	-0.078407496
225	0x3c0d78a7	0.008634723
226	0xbd6f4d17	-0.058423128
227	0x3d487ccc	0.04894714
228	0xbe0c067e	-0.13674352
229	0xbe029530	-0.12752223
230	0xbc3587f6	-0.011079779
231	0x3deb3ad4	0.1148583
232	0xbcb3e10a	-0.021957893
233	0x3e0fd25d	0.14045091
234	0xbe2c818a	-0.1684629
235	0x3d9fe855	0.07807986
236	0xbda10b4e	-0.07863484
237	0xbe0db2d1	-0.13837744
238	0xbe00a832	-0.12564161
239	0x3decd0ef	0.115632884
240	0xbe4c9a5b	-0.19980757
241	0xbd2e4adf	-0.04255187
242	0xbded61c4	-0.11590913
243	0xbe29162c	-0.16512364
244	0x3e37ca97	0.17948376
245	0x3d984eb5	0.07436887
246	0x3e0a8f47	0.13531218
247	0x3e380275	0.17969687
248	0x3e5af2bb	0.21381657
249	0x3d1287b8	0.035773963
250	0xbc954013	-0.01821903
251	0x3da002b7	0.07813018
252	0xbe1832bf	-0.14863108
253	0xbe07112c	-0.13190144
254	0x3d0c5b1f	0.034266587
255	0xbac3f0aa	-0.0014949043

lstm.weight_hh_l1 f4 [128, 32]
0	0x3d0df2c0	0.034655333
1	0x3d625e8c	0.05526595
2	0xbcf4c712	-0.02988008
3	0x3d86aebb	0.06576296
4	0x3d9dd4fd	0.0770664
5	0xbdcc4099	-0.099732585
6	0x3e05229a	0.1300148
7	0x3de93025	0.11386136
8	0xbe13c812	-0.1443179
9	0x3d39410e	0.045228057
10	0x3dd8fb86	0.10594849
11	0x3c2b5ece	0.010459615
12	0xbe113371	-0.1417978
13	0x3d2f9f3c	0.042876467
14	0xbd1e0bfb	-0.038585644
15	0xbbc4effb	-0.006010053
16	0xbd7a347a	-0.0610852
17	0xbcd07459	-0.025446104
18	0x3d830197	0.063967876
19	0x3d5a8fdb	0.053359848
20	0xbbdba778	-0.0067033134
21	0xbdb43989	-0.088000365
22	0x3e1eb235	0.15497668
23	0x3e08a262	0.13343194
24	0xbe354a09	-0.17704023
25	0x3d52e4b8	0.051487654
26	0x3ca64935	0.02029858
27	0x3e19704e	0.14984247
28	0x3d94d036	0.072662756
29	0xbded1a56	-0.11577289
30	0x3d2dc1e5	0.04242124
31	0xbe2a53a4	-0.16633469
32	0x3d7ae4c7	0.061253335
33	0x3dc742f5	0.09729568
34	0xbe050b72	-0.12992647
35	0xbd01b11a	-0.031663038
36	0x3d3a787c	0.04552506
37	0xbdd92e5f	-0.10604548
38	0xbde8dce0	-0.113702536
39	0x3e349ffe	0.17639157
40	0xbd81085e	-0.06300424
41	0xbd6a215a	-0.057160713
42	0x3d7f9b0d	0.062403727
43	0xbe2e8c24	-0.17045647
44	0xbe0fede9	-0.140556
45	0x3e297443	0.16548257
46	0x3e151ef8	0.14562595
47	0x3b08c473	0.0020869046
48	0x3d7ca5e4	0.061681643
49	0x3e44b117	0.1920818
50	0xbe0fb984	-0.14035612
51	0x3c965f32	0.01835594
52	0x3dd73d56	0.10509746
53	0xbdfc237f	-0.12311458
54	0x3d50db25	0.050990243
55	0x3d673ebc	0.056456313
56	0xbdc24cc1	-0.09487296
57	0x3e23c1c3	0.15991883
58	0xbe3edd1f	-0.18639039
59	0xbc8e150c	-0.01734402
60	0x3dd5ce1f	0.10439705
61	0x3cd34857	0.02579133
62	0x3e19a03f	0.15002535
63	0x3d0a1a1e	0.033716314
64	0xbd953707	-0.07285886
65	0x3e067452	0.1313031
66	0xbc5cacb6	-0.013468912
67	0xbd997b83	-0.07494261
68	0xbd8b695d	-0.06807206
69	0x3d636720	0.05551827
70	0x3e20a3a3	0.15687422
71	0xbc61433f	-0.013748943
72	0x3c899a3c	0.016797177
73	0x3df5e9f0	0.12007511
74	0xbd9bcf52	-0.076079026
75	0x3df77506	0.12082867
76	0xbe386a1a	-0.18009225
77	0x3dbb8f27	0.091581635
78	0xbdce6503	-0.1007786
79	0x3d60cc39	0.054882262
80	0x3d9db3ee	0.077003345
81	0x3e230273	0.15918903
82	0x3d980ec5	0.07424692
83	0x3dc541b2	0.09631671
84	0xbe48371f	-0.19552277
85	0xbda06391	-0.07831491
86	0x3d335a91	0.043787543
87	0x3df616cc	0.12016067
88	0x3e349716	0.1763576
89	0xbd7fe6ff	-0.062476154
90	0x3d9d9140	0.0769372
91	0x3c014d14	0.007891912
92	0xbda2b744	-0.079451114
93	0x3d1429b0	0.03617257
94	0xbdea5dcf	-0.11443674
95	0xbd55c1ea	-0.052186884
96	0x3e21590a	0.15756622
97	0xbd86bb23	-0.06578662
98	0x3da42ddd	0.0801656
99	0x3e26c84d	0.16287346
100	0x3e096135	0.13415988
101	0xbc4899eb	-0.012243728
102	0xbddd9c00	-0.1082077
103	0xbc415759	-0.01180061
104	0x3d53f72c	0.051749393
105	0x3d614b5a	0.0550035
106	0xbd0af48c	-0.033924624
107	0x3e060d1c	0.13090938
108	0xbe4b1327	-0.19831525
109	0x3e0ebbd2	0.13938835
110	0x3d90e56a	0.07075007
111	0xbd344dfb	-0.04401968
112	0xbd999081	-0.07498265
113	0xbd61d9b8	-0.055139273
114	0xbdaa1048	-0.08303887
115	0x3e3048de	0.17215297
116	0xbb7e70ec	-0.003882463
117	0xbe082344	-0.13294703
118	0x3de14e5b	0.11001273
119	0xbe024567	-0.12721787
120	0x3e5be8c3	0.2147551
121	0x3e032d87	0.12810336
122	0x3dee2bbc	0.116294354
123	0x3e1c998f	0.15292953
124	0x3d55f78e	0.05223804
125	0x3bb4dbde	0.0055193743
126	0xbd482fd6	-0.048873745
127	0x3d739d57	0.059476223
128	0xbdc512bb	-0.09622713
129	0x3d56c7b0	0.05243653
130	0x3dade773	0.08491411
131	0xbe36021a	-0.17774239
132	0x3e108684	0.14113814
133	0xbdaea0a3	-0.08526733
134	0xbe1e15f1	-0.15438057
135	0xbd997899	-0.07493705
136	0xbd4068ee	-0.04697507
137	0xbe3b8328	-0.18311751
138	0xbe0642c7	-0.13111411
139	0x3d1faf71	0.038985673
140	0xbdc329bb	-0.09529444
141	0x3da56182	0.08075239
142	0x3c0821af	0.008308812
143	0xbdaed03a	-0.0853581
144	0x3d7b0096	0.061279856
145	0xbddac954	-0.106829315
146	0xbd962b09	-0.07332427
147	0x3dd2033f	0.102545254
148	0xbe10efd8	-0.14153993
149	0xbd9e1fab	-0.07720884
150	0x3d064f8c	0.032790706
151	0xbdc97eb8	-0.09838623
152	0x3dd2f0d4	0.102998406
153	0xbce3d0af	-0.027809469
154	0xbe109bf7	-0.14121996
155	0x3d9f3474	0.077736765
156	0xbc54909e	-0.012973933
157	0x3cd5077e	0.02600455
158	0x3d9e6143	0.07733395
159	0xbc40f68e	-0.011777533
160	0x3e07a5bb	0.13246815
161	0x3e1d2173	0.15344791
162	0x3d61f5e1	0.05516613
163	0xbe0c52ee	-0.1370351
164	0xbdb478cc	-0.08812103
165	0x3d75964a	0.05995778
166	0xbd97f1c7	-0.07419162
167	0xbdeeb6a2	-0.11655928
168	0x3df0bb68	0.11754495
169	0x3c0d9f39	0.008643919
170	0x3e2d6ca8	0.1693598
171	0x3df197a9	0.11796505
172	0xbe38bcf9	-0.18040837
173	0xbd32a48d	-0.04361396
174	0x3d2e836b	0.0426058
175	0xbdaf046a	-0.08545764
176	0x3e285215	0.16437562
177	0xbe25a9e5	-0.16178091
178	0x3ded8317	0.11597269
179	0x3d03497b	0.0320525
180	0xbe3a445e	-0.18190143
181	0x3dbe3f52	0.09289421
182	0xba03b74d	-0.00050245674
183	0xbcea6dfc	-0.028616898
184	0x3e3f2cbf	0.18669413
185	0x3c4bc513	0.012437123
186	0x3dc9ef8d	0.09860144
187	0xbc2f07c7	-0.010683007
188	0xbe43191d	-0.19052549
189	0xbdb103f1	-0.0864333
190	0x3da1ac15	0.0789415
191	0x3e44d780	0.19222832
192	0x3db3ec4a	0.08785303
193	0xbddbe7a7	-0.107375436
194	0x3d36b705	0.044608135
195	0xbd4798ab	-0.04872958
196	0xbd9f5c9d	-0.077813365
197	0xbcedf2ab	-0.029046377
198	0xbccc7f6b	-0.024963101
199	0x3d908ee5	0.07058505
200	0x3ae9a7d5	0.0017826507
201	0x3dc34da1	0.09536291
202	0x3e0e1370	0.13874602
203	0x3dc3074b	0.095228754
204	0xbe50d15b	-0.20392363
205	0xbd572272	-0.052523084
206	0xbdfb8343	-0.122808956
207	0xbd58e041	-0.05294824
208	0x3d0a3576	0.03374239
209	0x3be9025f	0.0071108784
210	0xbe51c803	-0.20486455
211	0x3dd4a347	0.10382705
212	0xbdc2b125	-0.09506444
213	0x3e12ee71	0.1434877
214	0x3e0e712d	0.1391036
215	0x3d5c8d7a	0.05384586
216	0xbdea2875	-0.11433498
217	0x3d5d3ca1	0.0540129
218	0xbdacef6a	-0.08444102
219	0x3d616d84	0.055036083
220	0x3dfc898a	0.12330921
221	0xb9247157	-0.00015682481
222	0x3c1339a2	0.008985909
223	0x3da3636e	0.07977949
224	0x3da6cb83	0.081442855
225	0xbcebb51a	-0.02877288
226	0x3df1c616	0.1180536
227	0x3d167d7b	0.03674076
228	0x3dce4714	0.10072151
229	0xbe0be463	-0.13661341
230	0xbd82c7c4	-0.063857585
231	0xbdb26fac	-0.08712706
232	0x3d494cd5	0.04914554
233	0x3df3e5af	0.11909043
234	0x3d8d66ee	0.06904398
235	0xbcf85a6d	-0.030316556
236	0xbdeee8be	-0.11665486
237	0x3d22b3c6	0.039722227
238	0xbde66458	-0.11249608
239	0x3ce4bf77	0.027923329
240	0xbe0345a7	-0.12819539
241	0x3e316e84	0.17327315
242	0xbd992fa4	-0.0747979
243	0xbdfaf8b0	-0.122544646
244	0xbd031433	-0.032001685
245	0xbd97d65c	-0.07413933
246	0x3e2bf5a9	0.1679293
247	0xbe0beef6	-0.13665375
248	0xbe0effc3	-0.13964753
249	0xbd49fcea	-0.049313463
250	0x3e17b6a4	0.14815766
251	0xbe04ddf7	-0.12975298
252	0x3df22d8f	0.11825096
253	0xbe00977b	-0.12557785
254	0x3dd44687	0.103650145
255	0xbc207816	-0.009794256

lstm.bias_ih_l1 f4 [128]
0	0xbd6f109c	-0.05836545
1	0xbd1c5d79	-0.03817508
2	0xbe25d074	-0.161928
3	0xbcd634b5	-0.02614818
4	0x3e247490	0.1606009
5	0xbe07a4f6	-0.13246521
6	0x3e47aa3f	0.19498537
7	0xbde449b1	-0.11146868
8	0xbdece78c	-0.115676016
9	0x3c5585a2	0.013032349
10	0xbb387edf	-0.0028151793
11	0xbddc0aa0	-0.10744214
12	0x3d538ecf	0.051649865
13	0xbca7ec08	-0.02049829
14	0x3e5432d5	0.20722516
15	0xbe1b81bd	-0.1518621
16	0x3d172fea	0.03691093
17	0xbdae57a6	-0.08512811
18	0x3ddc98ba	0.10771318
19	0xbcb325f7	-0.021868689
20	0x3e47e0f7	0.19519411
21	0x3daf37cd	0.08555565
22	0x3e197b0b	0.14988343
23	0xbd63f0dc	-0.055649623
24	0xbe106223	-0.14099936
25	0x3d3c4b44	0.045970216
26	0xbc7c2b68	-0.015391208
27	0xbccd53ca	-0.025064368
28	0x3df9512c	0.121736854
29	0xbd8ae503	-0.06781962
30	0x3cee9df1	0.029128047
31	0x3e3495e7	0.17635308
32	0xbdfe40c1	-0.124146946
33	0x3df87299	0.12131233
34	0xbe0c68bf	-0.13711832
35	0x3d6c75b5	0.05772944
36	0x3d7da4bb	0.061924677
37	0x3dd3b577	0.10337346
38	0x3ca7b5d1	0.020472439
39	0x3e3024b5	0.17201503
40	0xbcd6f9ca	-0.026242156
41	0x3cc8e849	0.024524825
42	0x3e288b16	0.16459307
43	0xbd92a4e5	-0.071603574
44	0xbccbb4d2	-0.024866495
45	0x3e43e5e3	0.19130664
46	0x3e207344	0.1566897
47	0xbdc6b70d	-0.09702883
48	0x3db73334	0.08945313
49	0xbdaaf8d0	-0.083482385
50	0x3dbcf26b	0.09225925
51	0xbd87e8d4	-0.06636205
52	0xbce74690	-0.028231889
53	0x3e114028	0.1418463
54	0xbdc9c7b0	-0.098525405
55	0x3e519793	0.20467977
56	0xbe13205a	-0.1436781
57	0xbde0da30	-0.10979116
58	0xbd778ead	-0.0604388
59	0x3e337a14	0.17527038
60	0x3adac049	0.0016689386
61	0x3dbae63c	0.09125945
62	0x3d772715	0.060340006
63	0xbe06332d	-0.1310546
64	0x3de4a1fd	0.11163709
65	0x3e14a809	0.14517225
66	0xbe1aa26b	-0.1510102
67	0xbddee570	-0.108836055
68	0xbc4dfaeb	-0.012572031
69	0xbd2213c7	-0.039569642
70	0xbe240707	-0.16018306
71	0x3e404e29	0.18779816
72	0xbc3cd053	-0.011524278
73	0xbdd7e20a	-0.105411604
74	0xbd8cb4c7	-0.06870418
75	0xbd6680e2	-0.056275256
76	0xbe0f02f2	-0.13965967
77	0x3df8a647	0.1214109
78	0x3e06bf91	0.13159014
79	0xbe1b6523	-0.151753
80	0x3d963b19	0.07335491
81	0xbd0dd03a	-0.03462241
82	0x3d5022ca	0.050814427
83	0xbda4c834	-0.08045998
84	0xbe04b96d	-0.1296136
85	0x3d7ac314	0.061221197
86	0xbdc1931c	-0.09451887
87	0x3e16d125	0.1472822
88	0x3d83b05b	0.064301215
89	0xbd9fe483	-0.07807257
90	0x3dd4d039	0.10391278
91	0xbc866377	-0.01640485
92	0xbe393af4	-0.18088895
93	0xbe274a70	-0.1633699
94	0x3cdde82f	0.027088253
95	0x3dab1619	0.08353824
96	0xbdcc7f1e	-0.09985183
97	0x3e3ac9e9	0.18241085
98	0x3e3197fb	0.17343132
99	0xbdc2a8ce	-0.09504853
100	0x3db01d67	0.08599358
101	0xbc1a91b9	-0.009434157
102	0x3dd883e1	0.10572029
103	0x3ddfc3dc	0.10926029
104	0xbd8409f4	-0.06447211
105	0x3e371c10	0.17881799
106	0x3c7ad934	0.015310574
107	0xbda53af8	-0.08067888
108	0x3dc24977	0.094866686
109	0xbe18450c	-0.1487009
110	0x3e07eae5	0.13273199
111	0x3e001d2b	0.12511127
112	0xbde67fc2	-0.112548366
113	0x3ca20103	0.019775873
114	0x3dcca40f	0.09992229
115	0x3d79b496	0.060963236
116	0xbdbdc13d	-0.09265373
117	0xbd3e0b0e	-0.04639726
118	0xbd0873b3	-0.033313464
119	0xbd88f5f4	-0.06687537
120	0x3de4541e	0.111488566
121	0xbbb14963	-0.0054103597
122	0x3d19e2a3	0.037569653
123	0xbe141e32	-0.14464644
124	0x3ca8e82f	0.020618526
125	0xbe20664b	-0.15664022
126	0xbc738258	-0.014862619
127	0xbb0f1b56	-0.0021836362

lstm.bias_hh_l1 f4 [128]
0	0xbe097e62	-0.13427117
1	0x3be768d0	0.007062055
2	0xbdf5557f	-0.11979198
3	0x3dc8230f	0.09772312
4	0x3df508c5	0.11964563
5	0xbcce572c	-0.025188051
6	0xbd8ca7f3	-0.06867971
7	0xbdf97c96	-0.12181966
8	0x3dcb98cf	0.09941255
9	0xbe134572	-0.1438196
10	0x3be2aa17	0.006917249
11	0x3da00251	0.07812942
12	0xbdd42dd9	-0.10360307
13	0x3bae2d0d	0.005315429
14	0x3db6ac67	0.08919602
15	0x3c36a0dc	0.01114675
16	0x3debf484	0.11521247
17	0xbd9e1cc7	-0.077203326
18	0x3d07f49f	0.033192273
19	0x3e149c96	0.14512858
20	0xbd9b8e0e	-0.07595454
21	0xbd55e741	-0.052222494
22	0x3e2a442d	0.1662757
23	0x3e3c91ca	0.18414989
24	0xbc96b18d	-0.01839521
25	0x3e4faa43	0.20279793
26	0x3c6b3921	0.014356882
27	0xbdbc0a5d	-0.09181664
28	0x3d9727fe	0.07380675
29	0xbda6921e	-0.081333384
30	0x3e0fc6b5	0.14040644
31	0x3d132e39	0.035932753
32	0xbe1b8df9	-0.15190877
33	0x3c65c9a1	0.014025123
34	0x3db01981	0.085986145
35	0x3df9e0ef	0.12201106
36	0x3d946cda	0.07247324
37	0x3d3b65f3	0.045751523
38	0x3e2c6df8	0.16838825
39	0xbbc1e81f	-0.0059175636
40	0x3cc27ed2	0.023742113
41	0x3df20be3	0.118186735
42	0xbb356ec3	-0.0027684427
43	0x3cc6d5c9	0.024271863
44	0xbc91a207	-0.017777456
45	0x3d8068a6	0.0626996
46	0x3e014f9f	0.1262803
47	0x3e1753e0	0.1477809
48	0x3d7e9ddd	0.06216227
49	0xbc92b283	-0.017907387
50	0xbd842719	-0.0645277
51	0xbdb38875	-0.087662615
52	0x3c5b65a6	0.013390934
53	0xbdfaadb5	-0.12240163
54	0x3e29df3c	0.16589063
55	0x3e3f7967	0.18698655
56	0xbc86c7bf	-0.016452668
57	0x3d392533	0.04520149
58	0x3df81b25	0.121145524
59	0x3c56d0ac	0.013111275
60	0x3c13938e	0.009007348
61	0x3d75b00f	0.059982356
62	0x3dd9863a	0.10621305
63	0x3d9040d1	0.07043613
64	0xbbed8191	-0.0072481115
65	0x3df0d03f	0.1175847
66	0xbe165a4e	-0.14682886
67	0x3d3b7e3b	0.04577468
68	0xbcb23795	-0.02175502
69	0x3db7e067	0.08978348
70	0x3d5db0ab	0.05412356
71	0x3e3f9f6c	0.18713158
72	0xbe000d9d	-0.12505193
73	0xbe2f17e8	-0.17098963
74	0x3d34739f	0.044055577
75	0xbc9ed8ac	-0.019390427
76	0xbdfeadb7	-0.12435477
77	0x3e28c224	0.16480309
78	0x3c490876	0.012270084
79	0x3d465f3d	0.04843067
80	0xbe12b4aa	-0.1432673
81	0x3e2927b6	0.16519055
82	0x3dbd8b16	0.09255044
83	0x3e1cbe1b	0.15306894
84	0xbe108d80	-0.14116478
85	0x3d07750f	0.03307062
86	0xbe483705	-0.19552238
87	0xbe0a1cb0	-0.13487506
88	0x3ddb4300	0.107061386
89	0x3dba976a	0.09110911
90	0xbded9c2c	-0.11602053
91	0x3dc0f50e	0.094217405
92	0x3cf90d03	0.030401712
93	0x3db1787a	0.08665557
94	0x3e158f55	0.14605458
95	0x3daeb5d3	0.08530774
96	0xbda04b5a	-0.07826872
97	0xbdb85694	-0.090008885
98	0xbb4f2151	-0.0031605551
99	0x3d997886	0.07493691
100	0x3e4808d9	0.19534625
101	0xbe15245d	-0.14564653
102	0x3de89e36	0.11358301
103	0x3e2d0580	0.1689663
104	0xbdc0757f	-0.093974106
105	0x3d50bafa	0.050959565
106	0x3d8c5a1d	0.06853125
107	0x3cb114d6	0.02161638
108	0x3cbc2ee7	0.022971584
109	0xbe0fa214	-0.14026672
110	0x3e538f4c	0.20660132
111	0xbd9f67f1	-0.07783497
112	0x3cef39de	0.029202398
113	0xbe015d68	-0.12633288
114	0x3ddb4644	0.107067615
115	0x3e155f5c	0.14587158
116	0x3b4711bc	0.003037556
117	0x3da3149c	0.07962915
118	0x3e3b17c0	0.18270779
119	0xbdc63c09	-0.096794195
120	0x3dd5e4dd	0.10444043
121	0xbe016ca9	-0.12639107
122	0x3e2568ee	0.16153309
123	0xbe05757c	-0.13033098
124	0xbd0741ca	-0.033021726
125	0x3d5d1122	0.053971417
126	0x3e354157	0.17700706
127	0x3e345f5f	0.17614506

lstm.weight_ih_l2 f4 [128, 32]
0	0xbdeda2ef	-0.11603343
1	0x3dfb95e4	0.12284449
2	0x3e059cd8	0.13048112
3	0x39aa5c0e	0.00032493513
4	0x3c857462	0.016290847
5	0xbd5937ea	-0.05303184
6	0x3e12a5c5	0.14321049
7	0x3e0851df	0.13312481
8	0x3def2777	0.11677449
9	0x3d6400b9	0.05566475
10	0xbe45fbee	-0.19334385
11	0x3dba05cb	0.09083136
12	0xbcdbea78	-0.026845202
13	0xbca21e4a	-0.019789834
14	0xbd712755	-0.0588754
15	0x3df808af	0.12111031
16	0x3e0d2a12	0.1378558
17	0xbdeaf75b	-0.114729606
18	0x3ddf7c74	0.109124094
19	0xbc63c366	-0.013901567
20	0xbd94e55e	-0.07270311
21	0x3db029e9	0.08601744
22	0x3d2c0620	0.04199803
23	0x3e483070	0.19549727
24	0x3e040ea1	0.12896205
25	0xbdba10bd	-0.09085224
26	0x3df800af	0.121095054
27	0x3e45ebcd	0.19328232
28	0xbd36b7a2	-0.04460872
29	0x3cdad873	0.02671454
30	0x3e5c2f8b	0.21502511
31	0xbcd1b209	-0.02559759
32	0xbcddb96c	-0.027065955
33	0xbd43504e	-0.047684006
34	0xbcbccb0f	-0.023046045
35	0xbe057a77	-0.13034998
36	0x3e02924e	0.12751123
37	0xbe18201a	-0.14855996
38	0xbde8a120	-0.11358857
39	0x3e023128	0.12714064
40	0x3dc50da9	0.09621746
41	0xbdcd22bc	-0.10016391
42	0x3c00444e	0.007828785
43	0xbe4a2068	-0.19738925
44	0xbc3681a2	-0.011139305
45	0x3e36b8ce	0.17843935
46	0x3d872020	0.06597924
47	0x3cf9868c	0.030459665
48	0xbcdb4e06	-0.026770603
49	0xbd244e40	-0.040113688
50	0xbcb8651f	-0.022509156
51	0xbdcae1f3	-0.09906378
52	0xbcfa17ec	-0.030528985
53	0xbcc55b91	-0.024091514
54	0xbcf6fbdf	-0.030149398
55	0x3e128df7	0.14311968
56	0xbb3e6d01	-0.002905667
57	0xbd8635b7	-0.06553214
58	0xbe0c3039	-0.1369027
59	0x3d5e9091	0.054337088
60	0x3db4780b	0.08811959
61	0x3e1620e0	0.14660978
62	0xbd870c10	-0.065940976
63	0x3e010b3b	0.1260194
64	0x3db8a614	0.09016052
65	0x3db516a7	0.08842211
66	0x3dfc971b	0.123335086
67	0xbdbb3c8e	-0.09142409
68	0x3db99b5c	0.090628356
69	0xbd2666d7	-0.04062542
70	0x3e3f299c	0.18668216
71	0x3dea9864	0.114548475
72	0xbc6d08c6	-0.014467424
73	0xbe2604a7	-0.16212712
74	0x3de95594	0.11393276
75	0x3baf09d7	0.005341749
76	0xbcb224db	-0.02174609
77	0xbd17eb56	-0.03708967
78	0x3e3f6aae	0.18693039
79	0xbe3eebb6	-0.18644604
80	0xbdcb6779	-0.09931845
81	0x3da5a113	0.08087363
82	0xbe2e6e78	-0.17034328
83	0x3db64b3a	0.08901067
84	0xbdcf9cb3	-0.1013731
85	0x3c4669a7	0.01211015
86	0xbc94c172	-0.018158648
87	0x3b7cde50	0.0038584657
88	0x3d6cbb3e	0.057795756
89	0x3e4276c2	0.18990615
90	0x3d654aad	0.05597942
91	0x3d830566	0.06397514
92	0x3e18a36f	0.14906095
93	0xbd3aa888	-0.04557088
94	0x3d9eb039	0.077484556
95	0xbdc4dfba	-0.09612985
96	0x3df0fe0e	0.11767207
97	0x3e51b4eb	0.20479171
98	0xbe2398cf	-0.1597626
99	0x3bcfbeec	0.0063398983
100	0xbcd9471f	-0.026523171
101	0xbe35d3eb	-0.17756622
102	0xbd730b3b	-0.059336882
103	0x3df7be0c	0.120967954
104	0xbdce0dcf	-0.100612275
105	0xbd18d353	-0.03731091
106	0x3de84db0	0.11342943
107	0xbdd6084c	-0.10450801
108	0xbc6d1b61	-0.01447186
109	0x3da5782e	0.08079563
110	0x3e0a24c3	0.13490586
111	0xbd9bf34a	-0.07614763
112	0x3b9cdbbc	0.0047869366
113	0x3e3ca660	0.18422842
114	0x3dfce0f1	0.12347592
115	0x3d19be8b	0.03753523
116	0xbcc7d936	-0.024395566
117	0x3e1b1010	0.15142846
118	0xbd879c7e	-0.066216454
119	0xbda0bc2b	-0.0784839
120	0x3cac747e	0.021051642
121	0xbb3c7a6f	-0.00287595
122	0xbcd171cd	-0.02556696
123	0xbd3a088d	-0.04541831
124	0xbe294723	-0.16531043
125	0x3cd68c52	0.026189957
126	0x3db5185a	0.08842535
127	0xbdb971f1	-0.09054936
128	0xbe072637	-0.13198172
129	0xbd5ca483	-0.053867828
130	0xbe2f00a5	-0.1709009
131	0xbb1a7192	-0.0023566228
132	0xbe4ccd76	-0.20000252
133	0x3d7c82a2	0.06164802
134	0xbe062e1a	-0.13103524
135	0xbda1bf93	-0.07897868
136	0x3dba8508	0.09107405
137	0xbe09430d	-0.13404484
138	0x3dea5deb	0.11443695
139	0x3daf9ea3	0.085751794
140	0xbdad9d46	-0.08477263
141	0x3d43a9a8	0.04776922
142	0xbdf42d61	-0.11922718
143	0xbbeae7c5	-0.0071687424
144	0xbd32959f	-0.04359972
145	0xbd803aed	-0.06261239
146	0x3d8972ac	0.06711325
147	0x3df513b6	0.1196665
148	0xbd10d44a	-0.035358705
149	0x3db9fcd0	0.09081423
150	0xbb0e5d8e	-0.0021723243
151	0x3e15b378	0.14619243
152	0x3e2c28f7	0.16812502
153	0x3e01c4e6	0.12672767
154	0x3dbf972e	0.09355007
155	0x3e358cd6	0.17729506
156	0x3dac2b30	0.08406675
157	0x3e061c4d	0.13096733
158	0x3dea54a7	0.114419274
159	0x3ca445e7	0.020052863
160	0x3de7b926	0.11314611
161	0x3c0d60ca	0.008629033
162	0x3ddcb13f	0.107759945
163	0x3e17d51c	0.14827389
164	0xbe473212	-0.19452694
165	0xbdd5a7da	-0.10432406
166	0xbcbfad63	-0.023398107
167	0x3d514414	0.051090315
168	0x3e29f3f7	0.16596971
169	0xbe3c04f2	-0.18361261
170	0xbd939d91	-0.07207788
171	0xbe23fbd0	-0.16014028
172	0xbda5600c	-0.0807496
173	0x3d882403	0.06647494
174	0x3d0d71e2	0.034532435
175	0x3e09929c	0.13434833
176	0x3e136f7f	0.14398001
177	0x3d5e5ff2	0.05429072
178	0x3dcc9802	0.09989931
179	0xbd7f7732	-0.062369533
180	0xbd494c89	-0.049145255
181	0x3defbc57	0.11705845
182	0x3e352f73	0.17693882
183	0xbd507243	-0.05089022
184	0x3e401234	0.18756944
185	0xbcf5e030	-0.030014127
186	0xbe1110f2	-0.1416662
187	0xbd9f31c2	-0.077731624
188	0xbd4020a1	-0.046906117
189	0x3dd77aca	0.10521467
190	0x3e582357	0.21107231
191	0xbd940ae4	-0.0722864
192	0xbd02c106	-0.031922363
193	0xbce4c0db	-0.027923992
194	0xbe1a9c51	-0.15098692
195	0xbdeb19dd	-0.114795424
196	0xbdd97805	-0.10618595
197	0x3dfa8abe	0.12233494
198	0x3e41e078	0.18933284
199	0xbd5f9838	-0.054588526
200	0x3d5c99cd	0.053857613
201	0xbe43e008	-0.1912843
202	0xbd8fa7c5	-0.070144214
203	0xbdffe810	-0.12495434
204	0xbe2b3451	-0.16719176
205	0xbcacf1c8	-0.021111384
206	0xbc85ccb2	-0.016332958
207	0xbbfa3fa7	-0.0076369825
208	0x3e448221	0.19190265
209	0x3cb8613b	0.0225073
210	0xbe625d41	-0.22105886
211	0xbd0a97dc	-0.03383623
212	0xbe0a5842	-0.1351023
213	0x3cdc223d	0.026871795
214	0xbdde79af	-0.10863053
215	0x3e350f05	0.17681511
216	0xbdbb2fbe	-0.091399655
217	0x3c9fdd07	0.019514574
218	0xbe1f40de	-0.15552089
219	0xbd86eec9	-0.065885134
220	0x3dbde21d	0.09271643
221	0xbe1c8d00	-0.15288162
222	0x3e6efe71	0.23339249
223	0x3e5bced3	0.21465616
224	0x3d2a6148	0.04159668
225	0x3e3fc686	0.18728074
226	0xbd9e354b	-0.077250086
227	0xbd052f67	-0.03251591
228	0xbe0d9ccb	-0.13829343
229	0x3d9fffdf	0.078124754
230	0x3c74b060	0.014934629
231	0x3daed494	0.0853664
232	0xbdab67ab	-0.083693825
233	0x3dfa5de8	0.122249424
234	0x3ca8c3e7	0.020601226
235	0x3c8bc0c3	0.01705969
236	0xbe41bfb9	-0.18920793
237	0xbc819d9d	-0.015822226
238	0x3e5260dc	0.20544761
239	0xbe5f30b5	-0.21795924
240	0x3dc9431a	0.09827252
241	0x3dcbbe78	0.099484384
242	0xbdc98b09	-0.09840972
243	0x3d73a3c0	0.059482336
244	0x3c874421	0.016511979
245	0xbde2fe4d	-0.1108366
246	0xbb9fe012	-0.004879006
247	0x3d662310	0.056185782
248	0x3e54bcd9	0.20775165
249	0xbdf38335	-0.1189026
250	0x3da81d96	0.08208768
251	0x3e5ef721	0.2177396
252	0xbe4b5669	-0.19857182
253	0x3b5a065a	0.0033267946
254	0xbcd5d345	-0.026101718
255	0xbcb16a2a	-0.021657068
